…
test_initialization: false
I0414 19:52:06.039377  7928 solver.cpp:70] Creating training net from net file: /home/pierre/hgRepos/models/caffeSegNet/train_segnet-pascal/train_val.prototxt
I0414 19:52:06.042397  7928 net.cpp:42] Initializing net from parameters: 
name: "VGG_ILSVRC_16_layer"
state {
  phase: TRAIN
}
layer {
  name: "data"
  type: "DenseImageData"
  top: "data"
  top: "label"
  dense_image_data_param {
    source: "/home/shared/datasets/VOCdevkit/VOC2012/ImageSets/Segmentation/train_img_lab_500.txt"
    batch_size: 2
    shuffle: true
  }
}
layer {
  name: "conv1_1"
  type: "Convolution"
  bottom: "data"
  top: "conv1_1"
  param {
    lr_mult: 1
    decay_mult: 1
  }
  param {
    lr_mult: 2
    decay_mult: 0
  }
  convolution_param {
    num_output: 64
    pad: 1
    kernel_size: 3
    weight_filler {
      type: "xavier"
    }
    bias_filler {
      type: "constant"
      value: 0
    }
  }
}
layer {
  name: "conv1_1_bn"
  type: "BN"
  bottom: "conv1_1"
  top: "conv1_1"
  param {
    lr_mult: 1
    decay_mult: 1
  }
  param {
    lr_mult: 1
    decay_mult: 0
  }
  bn_param {
    scale_filler {
      type: "constant"
      value: 1
    }
    shift_filler {
      type: "constant"
      value: 0
    }
  }
}
layer {
  name: "relu1_1"
  type: "ReLU"
  bottom: "conv1_1"
  top: "conv1_1"
}
layer {
  name: "conv1_2"
  type: "Convolution"
  bottom: "conv1_1"
  top: "conv1_2"
  param {
    lr_mult: 1
    decay_mult: 1
  }
  param {
    lr_mult: 2
    decay_mult: 0
  }
  convolution_param {
    num_output: 64
    pad: 1
    kernel_size: 3
    weight_filler {
      type: "xavier"
    }
    bias_filler {
      type: "constant"
      value: 0
    }
  }
}
layer {
  name: "conv1_2_bn"
  type: "BN"
  bottom: "conv1_2"
  top: "conv1_2"
  param {
    lr_mult: 1
    decay_mult: 1
  }
  param {
    lr_mult: 1
    decay_mult: 0
  }
  bn_param {
    scale_filler {
      type: "constant"
      value: 1
    }
    shift_filler {
      type: "constant"
      value: 0
    }
  }
}
layer {
  name: "relu1_2"
  type: "ReLU"
  bottom: "conv1_2"
  top: "conv1_2"
}
layer {
  name: "pool1_drop"
  type: "Dropout"
  bottom: "conv1_2"
  top: "conv1_2"
  dropout_param {
    dropout_ratio: 0.5
  }
}
layer {
  name: "pool1"
  type: "Pooling"
  bottom: "conv1_2"
  top: "pool1"
  top: "pool1_mask"
  pooling_param {
    pool: MAX
    kernel_size: 2
    stride: 2
  }
}
layer {
  name: "conv2_1"
  type: "Convolution"
  bottom: "pool1"
  top: "conv2_1"
  param {
    lr_mult: 1
    decay_mult: 1
  }
  param {
    lr_mult: 2
    decay_mult: 0
  }
  convolution_param {
    num_output: 128
    pad: 1
    kernel_size: 3
    weight_filler {
      type: "xavier"
    }
    bias_filler {
      type: "constant"
      value: 0
    }
  }
}
layer {
  name: "conv2_1_bn"
  type: "BN"
  bottom: "conv2_1"
  top: "conv2_1"
  param {
    lr_mult: 1
    decay_mult: 1
  }
  param {
    lr_mult: 1
    decay_mult: 0
  }
  bn_param {
    scale_filler {
      type: "constant"
      value: 1
    }
    shift_filler {
      type: "constant"
      value: 0
    }
  }
}
layer {
  name: "relu2_1"
  type: "ReLU"
  bottom: "conv2_1"
  top: "conv2_1"
}
layer {
  name: "conv2_2"
  type: "Convolution"
  bottom: "conv2_1"
  top: "conv2_2"
  param {
    lr_mult: 1
    decay_mult: 1
  }
  param {
    lr_mult: 2
    decay_mult: 0
  }
  convolution_param {
    num_output: 128
    pad: 1
    kernel_size: 3
    weight_filler {
      type: "xavier"
    }
    bias_filler {
      type: "constant"
      value: 0
    }
  }
}
layer {
  name: "conv2_2_bn"
  type: "BN"
  bottom: "conv2_2"
  top: "conv2_2"
  param {
    lr_mult: 1
    decay_mult: 1
  }
  param {
    lr_mult: 1
    decay_mult: 0
  }
  bn_param {
    scale_filler {
      type: "constant"
      value: 1
    }
    shift_filler {
      type: "constant"
      value: 0
    }
  }
}
layer {
  name: "relu2_2"
  type: "ReLU"
  bottom: "conv2_2"
  top: "conv2_2"
}
layer {
  name: "pool2_drop"
  type: "Dropout"
  bottom: "conv2_2"
  top: "conv2_2"
  dropout_param {
    dropout_ratio: 0.5
  }
}
layer {
  name: "pool2"
  type: "Pooling"
  bottom: "conv2_2"
  top: "pool2"
  top: "pool2_mask"
  pooling_param {
    pool: MAX
    kernel_size: 2
    stride: 2
  }
}
layer {
  name: "conv3_1"
  type: "Convolution"
  bottom: "pool2"
  top: "conv3_1"
  param {
    lr_mult: 1
    decay_mult: 1
  }
  param {
    lr_mult: 2
    decay_mult: 0
  }
  convolution_param {
    num_output: 256
    pad: 1
    kernel_size: 3
    weight_filler {
      type: "xavier"
    }
    bias_filler {
      type: "constant"
      value: 0
    }
  }
}
layer {
  name: "conv3_1_bn"
  type: "BN"
  bottom: "conv3_1"
  top: "conv3_1"
  param {
    lr_mult: 1
    decay_mult: 1
  }
  param {
    lr_mult: 1
    decay_mult: 0
  }
  bn_param {
    scale_filler {
      type: "constant"
      value: 1
    }
    shift_filler {
      type: "constant"
      value: 0
    }
  }
}
layer {
  name: "relu3_1"
  type: "ReLU"
  bottom: "conv3_1"
  top: "conv3_1"
}
layer {
  name: "conv3_2"
  type: "Convolution"
  bottom: "conv3_1"
  top: "conv3_2"
  param {
    lr_mult: 1
    decay_mult: 1
  }
  param {
    lr_mult: 2
    decay_mult: 0
  }
  convolution_param {
    num_output: 256
    pad: 1
    kernel_size: 3
    weight_filler {
      type: "xavier"
    }
    bias_filler {
      type: "constant"
      value: 0
    }
  }
}
layer {
  name: "conv3_2_bn"
  type: "BN"
  bottom: "conv3_2"
  top: "conv3_2"
  param {
    lr_mult: 1
    decay_mult: 1
  }
  param {
    lr_mult: 1
    decay_mult: 0
  }
  bn_param {
    scale_filler {
      type: "constant"
      value: 1
    }
    shift_filler {
      type: "constant"
      value: 0
    }
  }
}
layer {
  name: "relu3_2"
  type: "ReLU"
  bottom: "conv3_2"
  top: "conv3_2"
}
layer {
  name: "conv3_3"
  type: "Convolution"
  bottom: "conv3_2"
  top: "conv3_3"
  param {
    lr_mult: 1
    decay_mult: 1
  }
  param {
    lr_mult: 2
    decay_mult: 0
  }
  convolution_param {
    num_output: 256
    pad: 1
    kernel_size: 3
    weight_filler {
      type: "xavier"
    }
    bias_filler {
      type: "constant"
      value: 0
    }
  }
}
layer {
  name: "conv3_3_bn"
  type: "BN"
  bottom: "conv3_3"
  top: "conv3_3"
  param {
    lr_mult: 1
    decay_mult: 1
  }
  param {
    lr_mult: 1
    decay_mult: 0
  }
  bn_param {
    scale_filler {
      type: "constant"
      value: 1
    }
    shift_filler {
      type: "constant"
      value: 0
    }
  }
}
layer {
  name: "relu3_3"
  type: "ReLU"
  bottom: "conv3_3"
  top: "conv3_3"
}
layer {
  name: "pool3_drop"
  type: "Dropout"
  bottom: "conv3_3"
  top: "conv3_3"
  dropout_param {
    dropout_ratio: 0.5
  }
}
layer {
  name: "pool3"
  type: "Pooling"
  bottom: "conv3_3"
  top: "pool3"
  top: "pool3_mask"
  pooling_param {
    pool: MAX
    kernel_size: 2
    stride: 2
  }
}
layer {
  name: "conv4_1"
  type: "Convolution"
  bottom: "pool3"
  top: "conv4_1"
  param {
    lr_mult: 1
    decay_mult: 1
  }
  param {
    lr_mult: 2
    decay_mult: 0
  }
  convolution_param {
    num_output: 512
    pad: 1
    kernel_size: 3
    weight_filler {
      type: "xavier"
    }
    bias_filler {
      type: "constant"
      value: 0
    }
  }
}
layer {
  name: "conv4_1_bn"
  type: "BN"
  bottom: "conv4_1"
  top: "conv4_1"
  param {
    lr_mult: 1
    decay_mult: 1
  }
  param {
    lr_mult: 1
    decay_mult: 0
  }
  bn_param {
    scale_filler {
      type: "constant"
      value: 1
    }
    shift_filler {
      type: "constant"
      value: 0
    }
  }
}
layer {
  name: "relu4_1"
  type: "ReLU"
  bottom: "conv4_1"
  top: "conv4_1"
}
layer {
  name: "conv4_2"
  type: "Convolution"
  bottom: "conv4_1"
  top: "conv4_2"
  param {
    lr_mult: 1
    decay_mult: 1
  }
  param {
    lr_mult: 2
    decay_mult: 0
  }
  convolution_param {
    num_output: 512
    pad: 1
    kernel_size: 3
    weight_filler {
      type: "xavier"
    }
    bias_filler {
      type: "constant"
      value: 0
    }
  }
}
layer {
  name: "conv4_2_bn"
  type: "BN"
  bottom: "conv4_2"
  top: "conv4_2"
  param {
    lr_mult: 1
    decay_mult: 1
  }
  param {
    lr_mult: 1
    decay_mult: 0
  }
  bn_param {
    scale_filler {
      type: "constant"
      value: 1
    }
    shift_filler {
      type: "constant"
      value: 0
    }
  }
}
layer {
  name: "relu4_2"
  type: "ReLU"
  bottom: "conv4_2"
  top: "conv4_2"
}
layer {
  name: "conv4_3"
  type: "Convolution"
  bottom: "conv4_2"
  top: "conv4_3"
  param {
    lr_mult: 1
    decay_mult: 1
  }
  param {
    lr_mult: 2
    decay_mult: 0
  }
  convolution_param {
    num_output: 512
    pad: 1
    kernel_size: 3
    weight_filler {
      type: "xavier"
    }
    bias_filler {
      type: "constant"
      value: 0
    }
  }
}
layer {
  name: "conv4_3_bn"
  type: "BN"
  bottom: "conv4_3"
  top: "conv4_3"
  param {
    lr_mult: 1
    decay_mult: 1
  }
  param {
    lr_mult: 1
    decay_mult: 0
  }
  bn_param {
    scale_filler {
      type: "constant"
      value: 1
    }
    shift_filler {
      type: "constant"
      value: 0
    }
  }
}
layer {
  name: "relu4_3"
  type: "ReLU"
  bottom: "conv4_3"
  top: "conv4_3"
}
layer {
  name: "pool4_drop"
  type: "Dropout"
  bottom: "conv4_3"
  top: "conv4_3"
  dropout_param {
    dropout_ratio: 0.5
  }
}
layer {
  name: "pool4"
  type: "Pooling"
  bottom: "conv4_3"
  top: "pool4"
  top: "pool4_mask"
  pooling_param {
    pool: MAX
    kernel_size: 2
    stride: 2
  }
}
layer {
  name: "conv5_1"
  type: "Convolution"
  bottom: "pool4"
  top: "conv5_1"
  param {
    lr_mult: 1
    decay_mult: 1
  }
  param {
    lr_mult: 2
    decay_mult: 0
  }
  convolution_param {
    num_output: 512
    pad: 1
    kernel_size: 3
    weight_filler {
      type: "xavier"
    }
    bias_filler {
      type: "constant"
      value: 0
    }
  }
}
layer {
  name: "conv5_1_bn"
  type: "BN"
  bottom: "conv5_1"
  top: "conv5_1"
  param {
    lr_mult: 1
    decay_mult: 1
  }
  param {
    lr_mult: 1
    decay_mult: 0
  }
  bn_param {
    scale_filler {
      type: "constant"
      value: 1
    }
    shift_filler {
      type: "constant"
      value: 0
    }
  }
}
layer {
  name: "relu5_1"
  type: "ReLU"
  bottom: "conv5_1"
  top: "conv5_1"
}
layer {
  name: "conv5_2"
  type: "Convolution"
  bottom: "conv5_1"
  top: "conv5_2"
  param {
    lr_mult: 1
    decay_mult: 1
  }
  param {
    lr_mult: 2
    decay_mult: 0
  }
  convolution_param {
    num_output: 512
    pad: 1
    kernel_size: 3
    weight_filler {
      type: "xavier"
    }
    bias_filler {
      type: "constant"
      value: 0
    }
  }
}
layer {
  name: "conv5_2_bn"
  type: "BN"
  bottom: "conv5_2"
  top: "conv5_2"
  param {
    lr_mult: 1
    decay_mult: 1
  }
  param {
    lr_mult: 1
    decay_mult: 0
  }
  bn_param {
    scale_filler {
      type: "constant"
      value: 1
    }
    shift_filler {
      type: "constant"
      value: 0
    }
  }
}
layer {
  name: "relu5_2"
  type: "ReLU"
  bottom: "conv5_2"
  top: "conv5_2"
}
layer {
  name: "conv5_3"
  type: "Convolution"
  bottom: "conv5_2"
  top: "conv5_3"
  param {
    lr_mult: 1
    decay_mult: 1
  }
  param {
    lr_mult: 2
    decay_mult: 0
  }
  convolution_param {
    num_output: 512
    pad: 1
    kernel_size: 3
    weight_filler {
      type: "xavier"
    }
    bias_filler {
      type: "constant"
      value: 0
    }
  }
}
layer {
  name: "conv5_3_bn"
  type: "BN"
  bottom: "conv5_3"
  top: "conv5_3"
  param {
    lr_mult: 1
    decay_mult: 1
  }
  param {
    lr_mult: 1
    decay_mult: 0
  }
  bn_param {
    scale_filler {
      type: "constant"
      value: 1
    }
    shift_filler {
      type: "constant"
      value: 0
    }
  }
}
layer {
  name: "relu5_3"
  type: "ReLU"
  bottom: "conv5_3"
  top: "conv5_3"
}
layer {
  name: "pool5_drop"
  type: "Dropout"
  bottom: "conv5_3"
  top: "conv5_3"
  dropout_param {
    dropout_ratio: 0.5
  }
}
layer {
  name: "pool5"
  type: "Pooling"
  bottom: "conv5_3"
  top: "pool5"
  top: "pool5_mask"
  pooling_param {
    pool: MAX
    kernel_size: 2
    stride: 2
  }
}
layer {
  name: "upsample5_drop"
  type: "Dropout"
  bottom: "pool5"
  top: "pool5"
  dropout_param {
    dropout_ratio: 0.5
  }
}
layer {
  name: "upsample5"
  type: "Upsample"
  bottom: "pool5"
  bottom: "pool5_mask"
  top: "pool5_D"
  upsample_param {
    scale: 2
    upsample_h: 32
    upsample_w: 32
  }
}
layer {
  name: "conv5_3_D"
  type: "Convolution"
  bottom: "pool5_D"
  top: "conv5_3_D"
  param {
    lr_mult: 1
    decay_mult: 1
  }
  param {
    lr_mult: 2
    decay_mult: 0
  }
  convolution_param {
    num_output: 512
    pad: 1
    kernel_size: 3
    weight_filler {
      type: "xavier"
    }
    bias_filler {
      type: "constant"
      value: 0
    }
  }
}
layer {
  name: "conv5_3_D_bn"
  type: "BN"
  bottom: "conv5_3_D"
  top: "conv5_3_D"
  param {
    lr_mult: 1
    decay_mult: 1
  }
  param {
    lr_mult: 1
    decay_mult: 0
  }
  bn_param {
    scale_filler {
      type: "constant"
      value: 1
    }
    shift_filler {
      type: "constant"
      value: 0
    }
  }
}
layer {
  name: "relu5_3_D"
  type: "ReLU"
  bottom: "conv5_3_D"
  top: "conv5_3_D"
}
layer {
  name: "conv5_2_D"
  type: "Convolution"
  bottom: "conv5_3_D"
  top: "conv5_2_D"
  param {
    lr_mult: 1
    decay_mult: 1
  }
  param {
    lr_mult: 2
    decay_mult: 0
  }
  convolution_param {
    num_output: 512
    pad: 1
    kernel_size: 3
    weight_filler {
      type: "xavier"
    }
    bias_filler {
      type: "constant"
      value: 0
    }
  }
}
layer {
  name: "conv5_2_D_bn"
  type: "BN"
  bottom: "conv5_2_D"
  top: "conv5_2_D"
  param {
    lr_mult: 1
    decay_mult: 1
  }
  param {
    lr_mult: 1
    decay_mult: 0
  }
  bn_param {
    scale_filler {
      type: "constant"
      value: 1
    }
    shift_filler {
      type: "constant"
      value: 0
    }
  }
}
layer {
  name: "relu5_2_D"
  type: "ReLU"
  bottom: "conv5_2_D"
  top: "conv5_2_D"
}
layer {
  name: "conv5_1_D"
  type: "Convolution"
  bottom: "conv5_2_D"
  top: "conv5_1_D"
  param {
    lr_mult: 1
    decay_mult: 1
  }
  param {
    lr_mult: 2
    decay_mult: 0
  }
  convolution_param {
    num_output: 512
    pad: 1
    kernel_size: 3
    weight_filler {
      type: "xavier"
    }
    bias_filler {
      type: "constant"
      value: 0
    }
  }
}
layer {
  name: "conv5_1_D_bn"
  type: "BN"
  bottom: "conv5_1_D"
  top: "conv5_1_D"
  param {
    lr_mult: 1
    decay_mult: 1
  }
  param {
    lr_mult: 1
    decay_mult: 0
  }
  bn_param {
    scale_filler {
      type: "constant"
      value: 1
    }
    shift_filler {
      type: "constant"
      value: 0
    }
  }
}
layer {
  name: "relu5_1_D"
  type: "ReLU"
  bottom: "conv5_1_D"
  top: "conv5_1_D"
}
layer {
  name: "upsample4_drop"
  type: "Dropout"
  bottom: "conv5_1_D"
  top: "conv5_1_D"
  dropout_param {
    dropout_ratio: 0.5
  }
}
layer {
  name: "upsample4"
  type: "Upsample"
  bottom: "conv5_1_D"
  bottom: "pool4_mask"
  top: "pool4_D"
  upsample_param {
    scale: 2
    upsample_h: 63
    upsample_w: 63
  }
}
layer {
  name: "conv4_3_D"
  type: "Convolution"
  bottom: "pool4_D"
  top: "conv4_3_D"
  param {
    lr_mult: 1
    decay_mult: 1
  }
  param {
    lr_mult: 2
    decay_mult: 0
  }
  convolution_param {
    num_output: 512
    pad: 1
    kernel_size: 3
    weight_filler {
      type: "xavier"
    }
    bias_filler {
      type: "constant"
      value: 0
    }
  }
}
layer {
  name: "conv4_3_D_bn"
  type: "BN"
  bottom: "conv4_3_D"
  top: "conv4_3_D"
  param {
    lr_mult: 1
    decay_mult: 1
  }
  param {
    lr_mult: 1
    decay_mult: 0
  }
  bn_param {
    scale_filler {
      type: "constant"
      value: 1
    }
    shift_filler {
      type: "constant"
      value: 0
    }
  }
}
layer {
  name: "relu4_3_D"
  type: "ReLU"
  bottom: "conv4_3_D"
  top: "conv4_3_D"
}
layer {
  name: "conv4_2_D"
  type: "Convolution"
  bottom: "conv4_3_D"
  top: "conv4_2_D"
  param {
    lr_mult: 1
    decay_mult: 1
  }
  param {
    lr_mult: 2
    decay_mult: 0
  }
  convolution_param {
    num_output: 512
    pad: 1
    kernel_size: 3
    weight_filler {
      type: "xavier"
    }
    bias_filler {
      type: "constant"
      value: 0
    }
  }
}
layer {
  name: "conv4_2_D_bn"
  type: "BN"
  bottom: "conv4_2_D"
  top: "conv4_2_D"
  param {
    lr_mult: 1
    decay_mult: 1
  }
  param {
    lr_mult: 1
    decay_mult: 0
  }
  bn_param {
    scale_filler {
      type: "constant"
      value: 1
    }
    shift_filler {
      type: "constant"
      value: 0
    }
  }
}
layer {
  name: "relu4_2_D"
  type: "ReLU"
  bottom: "conv4_2_D"
  top: "conv4_2_D"
}
layer {
  name: "conv4_1_D"
  type: "Convolution"
  bottom: "conv4_2_D"
  top: "conv4_1_D"
  param {
    lr_mult: 1
    decay_mult: 1
  }
  param {
    lr_mult: 2
    decay_mult: 0
  }
  convolution_param {
    num_output: 256
    pad: 1
    kernel_size: 3
    weight_filler {
      type: "xavier"
    }
    bias_filler {
      type: "constant"
      value: 0
    }
  }
}
layer {
  name: "conv4_1_D_bn"
  type: "BN"
  bottom: "conv4_1_D"
  top: "conv4_1_D"
  param {
    lr_mult: 1
    decay_mult: 1
  }
  param {
    lr_mult: 1
    decay_mult: 0
  }
  bn_param {
    scale_filler {
      type: "constant"
      value: 1
    }
    shift_filler {
      type: "constant"
      value: 0
    }
  }
}
layer {
  name: "relu4_1_D"
  type: "ReLU"
  bottom: "conv4_1_D"
  top: "conv4_1_D"
}
layer {
  name: "upsample3_drop"
  type: "Dropout"
  bottom: "conv4_1_D"
  top: "conv4_1_D"
  dropout_param {
    dropout_ratio: 0.5
  }
}
layer {
  name: "upsample3"
  type: "Upsample"
  bottom: "conv4_1_D"
  bottom: "pool3_mask"
  top: "pool3_D"
  upsample_param {
    scale: 2
    upsample_h: 125
    upsample_w: 125
  }
}
layer {
  name: "conv3_3_D"
  type: "Convolution"
  bottom: "pool3_D"
  top: "conv3_3_D"
  param {
    lr_mult: 1
    decay_mult: 1
  }
  param {
    lr_mult: 2
    decay_mult: 0
  }
  convolution_param {
    num_output: 256
    pad: 1
    kernel_size: 3
    weight_filler {
      type: "xavier"
    }
    bias_filler {
      type: "constant"
      value: 0
    }
  }
}
layer {
  name: "conv3_3_D_bn"
  type: "BN"
  bottom: "conv3_3_D"
  top: "conv3_3_D"
  param {
    lr_mult: 1
    decay_mult: 1
  }
  param {
    lr_mult: 1
    decay_mult: 0
  }
  bn_param {
    scale_filler {
      type: "constant"
      value: 1
    }
    shift_filler {
      type: "constant"
      value: 0
    }
  }
}
layer {
  name: "relu3_3_D"
  type: "ReLU"
  bottom: "conv3_3_D"
  top: "conv3_3_D"
}
layer {
  name: "conv3_2_D"
  type: "Convolution"
  bottom: "conv3_3_D"
  top: "conv3_2_D"
  param {
    lr_mult: 1
    decay_mult: 1
  }
  param {
    lr_mult: 2
    decay_mult: 0
  }
  convolution_param {
    num_output: 256
    pad: 1
    kernel_size: 3
    weight_filler {
      type: "xavier"
    }
    bias_filler {
      type: "constant"
      value: 0
    }
  }
}
layer {
  name: "conv3_2_D_bn"
  type: "BN"
  bottom: "conv3_2_D"
  top: "conv3_2_D"
  param {
    lr_mult: 1
    decay_mult: 1
  }
  param {
    lr_mult: 1
    decay_mult: 0
  }
  bn_param {
    scale_filler {
      type: "constant"
      value: 1
    }
    shift_filler {
      type: "constant"
      value: 0
    }
  }
}
layer {
  name: "relu3_2_D"
  type: "ReLU"
  bottom: "conv3_2_D"
  top: "conv3_2_D"
}
layer {
  name: "conv3_1_D"
  type: "Convolution"
  bottom: "conv3_2_D"
  top: "conv3_1_D"
  param {
    lr_mult: 1
    decay_mult: 1
  }
  param {
    lr_mult: 2
    decay_mult: 0
  }
  convolution_param {
    num_output: 128
    pad: 1
    kernel_size: 3
    weight_filler {
      type: "xavier"
    }
    bias_filler {
      type: "constant"
      value: 0
    }
  }
}
layer {
  name: "conv3_1_D_bn"
  type: "BN"
  bottom: "conv3_1_D"
  top: "conv3_1_D"
  param {
    lr_mult: 1
    decay_mult: 1
  }
  param {
    lr_mult: 1
    decay_mult: 0
  }
  bn_param {
    scale_filler {
      type: "constant"
      value: 1
    }
    shift_filler {
      type: "constant"
      value: 0
    }
  }
}
layer {
  name: "relu3_1_D"
  type: "ReLU"
  bottom: "conv3_1_D"
  top: "conv3_1_D"
}
layer {
  name: "upsample2_drop"
  type: "Dropout"
  bottom: "conv3_1_D"
  top: "conv3_1_D"
  dropout_param {
    dropout_ratio: 0.5
  }
}
layer {
  name: "upsample2"
  type: "Upsample"
  bottom: "conv3_1_D"
  bottom: "pool2_mask"
  top: "pool2_D"
  upsample_param {
    scale: 2
  }
}
layer {
  name: "conv2_2_D"
  type: "Convolution"
  bottom: "pool2_D"
  top: "conv2_2_D"
  param {
    lr_mult: 1
    decay_mult: 1
  }
  param {
    lr_mult: 2
    decay_mult: 0
  }
  convolution_param {
    num_output: 128
    pad: 1
    kernel_size: 3
    weight_filler {
      type: "xavier"
    }
    bias_filler {
      type: "constant"
      value: 0
    }
  }
}
layer {
  name: "conv2_2_D_bn"
  type: "BN"
  bottom: "conv2_2_D"
  top: "conv2_2_D"
  param {
    lr_mult: 1
    decay_mult: 1
  }
  param {
    lr_mult: 1
    decay_mult: 0
  }
  bn_param {
    scale_filler {
      type: "constant"
      value: 1
    }
    shift_filler {
      type: "constant"
      value: 0
    }
  }
}
layer {
  name: "relu2_2_D"
  type: "ReLU"
  bottom: "conv2_2_D"
  top: "conv2_2_D"
}
layer {
  name: "conv2_1_D"
  type: "Convolution"
  bottom: "conv2_2_D"
  top: "conv2_1_D"
  param {
    lr_mult: 1
    decay_mult: 1
  }
  param {
    lr_mult: 2
    decay_mult: 0
  }
  convolution_param {
    num_output: 64
    pad: 1
    kernel_size: 3
    weight_filler {
      type: "xavier"
    }
    bias_filler {
      type: "constant"
      value: 0
    }
  }
}
layer {
  name: "conv2_1_D_bn"
  type: "BN"
  bottom: "conv2_1_D"
  top: "conv2_1_D"
  param {
    lr_mult: 1
    decay_mult: 1
  }
  param {
    lr_mult: 1
    decay_mult: 0
  }
  bn_param {
    scale_filler {
      type: "constant"
      value: 1
    }
    shift_filler {
      type: "constant"
      value: 0
    }
  }
}
layer {
  name: "relu2_1_D"
  type: "ReLU"
  bottom: "conv2_1_D"
  top: "conv2_1_D"
}
layer {
  name: "upsample1_drop"
  type: "Dropout"
  bottom: "conv2_1_D"
  top: "conv2_1_D"
  dropout_param {
    dropout_ratio: 0.5
  }
}
layer {
  name: "upsample1"
  type: "Upsample"
  bottom: "conv2_1_D"
  bottom: "pool1_mask"
  top: "pool1_D"
  upsample_param {
    scale: 2
  }
}
layer {
  name: "conv1_2_D"
  type: "Convolution"
  bottom: "pool1_D"
  top: "conv1_2_D"
  param {
    lr_mult: 1
    decay_mult: 1
  }
  param {
    lr_mult: 2
    decay_mult: 0
  }
  convolution_param {
    num_output: 64
    pad: 1
    kernel_size: 3
    weight_filler {
      type: "xavier"
    }
    bias_filler {
      type: "constant"
      value: 0
    }
  }
}
layer {
  name: "conv1_2_D_bn"
  type: "BN"
  bottom: "conv1_2_D"
  top: "conv1_2_D"
  param {
    lr_mult: 1
    decay_mult: 1
  }
  param {
    lr_mult: 1
    decay_mult: 0
  }
  bn_param {
    scale_filler {
      type: "constant"
      value: 1
    }
    shift_filler {
      type: "constant"
      value: 0
    }
  }
}
layer {
  name: "relu1_2_D"
  type: "ReLU"
  bottom: "conv1_2_D"
  top: "conv1_2_D"
}
layer {
  name: "conv1_1_D"
  type: "Convolution"
  bottom: "conv1_2_D"
  top: "conv1_1_D"
  param {
    lr_mult: 1
    decay_mult: 1
  }
  param {
    lr_mult: 2
    decay_mult: 0
  }
  convolution_param {
    num_output: 21
    pad: 1
    kernel_size: 3
    weight_filler {
      type: "xavier"
    }
    bias_filler {
      type: "constant"
      value: 0
    }
  }
}
layer {
  name: "loss"
  type: "SoftmaxWithLoss"
  bottom: "conv1_1_D"
  bottom: "label"
  top: "loss"
  loss_param {
    weight_by_label_freqs: true
    class_weighting: 0.2719
    class_weighting: 1.583
    class_weighting: 3.012
    class_weighting: 1.6572
    class_weighting: 1.7892
    class_weighting: 1.7815
    class_weighting: 0.5962
    class_weighting: 1.2053
    class_weighting: 0.674
    class_weighting: 1.8299
    class_weighting: 0.9166
    class_weighting: 0.8532
    class_weighting: 0.8935
    class_weighting: 0.9973
    class_weighting: 0.9742
    class_weighting: 1.1778
    class_weighting: 1.9162
    class_weighting: 1
    class_weighting: 0.8758
    class_weighting: 0.7225
    class_weighting: 1.3287
  }
  softmax_param {
    engine: CAFFE
  }
}
layer {
  name: "accuracy"
  type: "Accuracy"
  bottom: "conv1_1_D"
  bottom: "label"
  top: "accuracy"
  top: "per_class_accuracy"
}
I0414 19:52:06.042796  7928 layer_factory.hpp:74] Creating layer data
I0414 19:52:06.042822  7928 net.cpp:90] Creating Layer data
I0414 19:52:06.042830  7928 net.cpp:368] data -> data
I0414 19:52:06.042851  7928 net.cpp:368] data -> label
I0414 19:52:06.042862  7928 net.cpp:120] Setting up data
I0414 19:52:06.042875  7928 dense_image_data_layer.cpp:36] Opening file /home/shared/datasets/VOCdevkit/VOC2012/ImageSets/Segmentation/train_img_lab_500.txt
I0414 19:52:06.045418  7928 dense_image_data_layer.cpp:46] Shuffling data
I0414 19:52:06.046020  7928 dense_image_data_layer.cpp:51] A total of 2913 examples.
I0414 19:52:06.133316  7928 dense_image_data_layer.cpp:97] output data size: 2,3,500,500
I0414 19:52:06.136142  7928 net.cpp:127] Top shape: 2 3 500 500 (1500000)
I0414 19:52:06.136175  7928 net.cpp:127] Top shape: 2 1 500 500 (500000)
I0414 19:52:06.136191  7928 layer_factory.hpp:74] Creating layer label_data_1_split
I0414 19:52:06.136214  7928 net.cpp:90] Creating Layer label_data_1_split
I0414 19:52:06.136234  7928 net.cpp:410] label_data_1_split <- label
I0414 19:52:06.136252  7928 net.cpp:368] label_data_1_split -> label_data_1_split_0
I0414 19:52:06.136268  7928 net.cpp:368] label_data_1_split -> label_data_1_split_1
I0414 19:52:06.136276  7928 net.cpp:120] Setting up label_data_1_split
I0414 19:52:06.136289  7928 net.cpp:127] Top shape: 2 1 500 500 (500000)
I0414 19:52:06.136296  7928 net.cpp:127] Top shape: 2 1 500 500 (500000)
I0414 19:52:06.136301  7928 layer_factory.hpp:74] Creating layer conv1_1
I0414 19:52:06.136313  7928 net.cpp:90] Creating Layer conv1_1
I0414 19:52:06.136318  7928 net.cpp:410] conv1_1 <- data
I0414 19:52:06.136327  7928 net.cpp:368] conv1_1 -> conv1_1
I0414 19:52:06.136343  7928 net.cpp:120] Setting up conv1_1
I0414 19:52:06.994815  7928 net.cpp:127] Top shape: 2 64 500 500 (32000000)
I0414 19:52:06.994899  7928 layer_factory.hpp:74] Creating layer conv1_1_bn
I0414 19:52:06.994936  7928 net.cpp:90] Creating Layer conv1_1_bn
I0414 19:52:06.994949  7928 net.cpp:410] conv1_1_bn <- conv1_1
I0414 19:52:06.994966  7928 net.cpp:357] conv1_1_bn -> conv1_1 (in-place)
I0414 19:52:06.994982  7928 net.cpp:120] Setting up conv1_1_bn
I0414 19:52:06.995852  7928 net.cpp:127] Top shape: 2 64 500 500 (32000000)
I0414 19:52:06.995869  7928 layer_factory.hpp:74] Creating layer relu1_1
I0414 19:52:06.995890  7928 net.cpp:90] Creating Layer relu1_1
I0414 19:52:06.995896  7928 net.cpp:410] relu1_1 <- conv1_1
I0414 19:52:06.995903  7928 net.cpp:357] relu1_1 -> conv1_1 (in-place)
I0414 19:52:06.995910  7928 net.cpp:120] Setting up relu1_1
I0414 19:52:06.996255  7928 net.cpp:127] Top shape: 2 64 500 500 (32000000)
I0414 19:52:06.996268  7928 layer_factory.hpp:74] Creating layer conv1_2
I0414 19:52:06.996290  7928 net.cpp:90] Creating Layer conv1_2
I0414 19:52:06.996296  7928 net.cpp:410] conv1_2 <- conv1_1
I0414 19:52:06.996309  7928 net.cpp:368] conv1_2 -> conv1_2
I0414 19:52:06.996320  7928 net.cpp:120] Setting up conv1_2
I0414 19:52:06.999944  7928 net.cpp:127] Top shape: 2 64 500 500 (32000000)
I0414 19:52:06.999976  7928 layer_factory.hpp:74] Creating layer conv1_2_bn
I0414 19:52:06.999987  7928 net.cpp:90] Creating Layer conv1_2_bn
I0414 19:52:06.999994  7928 net.cpp:410] conv1_2_bn <- conv1_2
I0414 19:52:07.000000  7928 net.cpp:357] conv1_2_bn -> conv1_2 (in-place)
I0414 19:52:07.000010  7928 net.cpp:120] Setting up conv1_2_bn
I0414 19:52:07.000883  7928 net.cpp:127] Top shape: 2 64 500 500 (32000000)
I0414 19:52:07.000901  7928 layer_factory.hpp:74] Creating layer relu1_2
I0414 19:52:07.000910  7928 net.cpp:90] Creating Layer relu1_2
I0414 19:52:07.000918  7928 net.cpp:410] relu1_2 <- conv1_2
I0414 19:52:07.000924  7928 net.cpp:357] relu1_2 -> conv1_2 (in-place)
I0414 19:52:07.000931  7928 net.cpp:120] Setting up relu1_2
I0414 19:52:07.001994  7928 net.cpp:127] Top shape: 2 64 500 500 (32000000)
I0414 19:52:07.002007  7928 layer_factory.hpp:74] Creating layer pool1_drop
I0414 19:52:07.002037  7928 net.cpp:90] Creating Layer pool1_drop
I0414 19:52:07.002068  7928 net.cpp:410] pool1_drop <- conv1_2
I0414 19:52:07.002076  7928 net.cpp:357] pool1_drop -> conv1_2 (in-place)
I0414 19:52:07.002087  7928 net.cpp:120] Setting up pool1_drop
I0414 19:52:07.002099  7928 net.cpp:127] Top shape: 2 64 500 500 (32000000)
I0414 19:52:07.002104  7928 layer_factory.hpp:74] Creating layer pool1
I0414 19:52:07.002110  7928 layer_factory.cpp:55] CUDNN does not support padding or multiple tops. Using Caffe's own pooling layer.
I0414 19:52:07.002118  7928 net.cpp:90] Creating Layer pool1
I0414 19:52:07.002123  7928 net.cpp:410] pool1 <- conv1_2
I0414 19:52:07.002130  7928 net.cpp:368] pool1 -> pool1
I0414 19:52:07.002138  7928 net.cpp:368] pool1 -> pool1_mask
I0414 19:52:07.002146  7928 net.cpp:120] Setting up pool1
I0414 19:52:07.002180  7928 net.cpp:127] Top shape: 2 64 250 250 (8000000)
I0414 19:52:07.002190  7928 net.cpp:127] Top shape: 2 64 250 250 (8000000)
I0414 19:52:07.002197  7928 layer_factory.hpp:74] Creating layer conv2_1
I0414 19:52:07.002219  7928 net.cpp:90] Creating Layer conv2_1
I0414 19:52:07.002225  7928 net.cpp:410] conv2_1 <- pool1
I0414 19:52:07.002233  7928 net.cpp:368] conv2_1 -> conv2_1
I0414 19:52:07.002243  7928 net.cpp:120] Setting up conv2_1
I0414 19:52:07.004319  7928 net.cpp:127] Top shape: 2 128 250 250 (16000000)
I0414 19:52:07.004343  7928 layer_factory.hpp:74] Creating layer conv2_1_bn
I0414 19:52:07.004362  7928 net.cpp:90] Creating Layer conv2_1_bn
I0414 19:52:07.004369  7928 net.cpp:410] conv2_1_bn <- conv2_1
I0414 19:52:07.004377  7928 net.cpp:357] conv2_1_bn -> conv2_1 (in-place)
I0414 19:52:07.004386  7928 net.cpp:120] Setting up conv2_1_bn
I0414 19:52:07.004629  7928 net.cpp:127] Top shape: 2 128 250 250 (16000000)
I0414 19:52:07.004644  7928 layer_factory.hpp:74] Creating layer relu2_1
I0414 19:52:07.004653  7928 net.cpp:90] Creating Layer relu2_1
I0414 19:52:07.004662  7928 net.cpp:410] relu2_1 <- conv2_1
I0414 19:52:07.004669  7928 net.cpp:357] relu2_1 -> conv2_1 (in-place)
I0414 19:52:07.004676  7928 net.cpp:120] Setting up relu2_1
I0414 19:52:07.004873  7928 net.cpp:127] Top shape: 2 128 250 250 (16000000)
I0414 19:52:07.004885  7928 layer_factory.hpp:74] Creating layer conv2_2
I0414 19:52:07.004894  7928 net.cpp:90] Creating Layer conv2_2
I0414 19:52:07.004899  7928 net.cpp:410] conv2_2 <- conv2_1
I0414 19:52:07.004912  7928 net.cpp:368] conv2_2 -> conv2_2
I0414 19:52:07.004921  7928 net.cpp:120] Setting up conv2_2
I0414 19:52:07.008263  7928 net.cpp:127] Top shape: 2 128 250 250 (16000000)
I0414 19:52:07.008287  7928 layer_factory.hpp:74] Creating layer conv2_2_bn
I0414 19:52:07.008306  7928 net.cpp:90] Creating Layer conv2_2_bn
I0414 19:52:07.008312  7928 net.cpp:410] conv2_2_bn <- conv2_2
I0414 19:52:07.008321  7928 net.cpp:357] conv2_2_bn -> conv2_2 (in-place)
I0414 19:52:07.008329  7928 net.cpp:120] Setting up conv2_2_bn
I0414 19:52:07.008574  7928 net.cpp:127] Top shape: 2 128 250 250 (16000000)
I0414 19:52:07.008589  7928 layer_factory.hpp:74] Creating layer relu2_2
I0414 19:52:07.008600  7928 net.cpp:90] Creating Layer relu2_2
I0414 19:52:07.008605  7928 net.cpp:410] relu2_2 <- conv2_2
I0414 19:52:07.008611  7928 net.cpp:357] relu2_2 -> conv2_2 (in-place)
I0414 19:52:07.008618  7928 net.cpp:120] Setting up relu2_2
I0414 19:52:07.009470  7928 net.cpp:127] Top shape: 2 128 250 250 (16000000)
I0414 19:52:07.009484  7928 layer_factory.hpp:74] Creating layer pool2_drop
I0414 19:52:07.009495  7928 net.cpp:90] Creating Layer pool2_drop
I0414 19:52:07.009502  7928 net.cpp:410] pool2_drop <- conv2_2
I0414 19:52:07.009511  7928 net.cpp:357] pool2_drop -> conv2_2 (in-place)
I0414 19:52:07.009518  7928 net.cpp:120] Setting up pool2_drop
I0414 19:52:07.009526  7928 net.cpp:127] Top shape: 2 128 250 250 (16000000)
I0414 19:52:07.009531  7928 layer_factory.hpp:74] Creating layer pool2
I0414 19:52:07.009546  7928 layer_factory.cpp:55] CUDNN does not support padding or multiple tops. Using Caffe's own pooling layer.
I0414 19:52:07.009553  7928 net.cpp:90] Creating Layer pool2
I0414 19:52:07.009558  7928 net.cpp:410] pool2 <- conv2_2
I0414 19:52:07.009579  7928 net.cpp:368] pool2 -> pool2
I0414 19:52:07.009588  7928 net.cpp:368] pool2 -> pool2_mask
I0414 19:52:07.009595  7928 net.cpp:120] Setting up pool2
I0414 19:52:07.009604  7928 net.cpp:127] Top shape: 2 128 125 125 (4000000)
I0414 19:52:07.009610  7928 net.cpp:127] Top shape: 2 128 125 125 (4000000)
I0414 19:52:07.009623  7928 layer_factory.hpp:74] Creating layer conv3_1
I0414 19:52:07.009640  7928 net.cpp:90] Creating Layer conv3_1
I0414 19:52:07.009649  7928 net.cpp:410] conv3_1 <- pool2
I0414 19:52:07.009657  7928 net.cpp:368] conv3_1 -> conv3_1
I0414 19:52:07.009666  7928 net.cpp:120] Setting up conv3_1
I0414 19:52:07.014530  7928 net.cpp:127] Top shape: 2 256 125 125 (8000000)
I0414 19:52:07.014554  7928 layer_factory.hpp:74] Creating layer conv3_1_bn
I0414 19:52:07.014569  7928 net.cpp:90] Creating Layer conv3_1_bn
I0414 19:52:07.014574  7928 net.cpp:410] conv3_1_bn <- conv3_1
I0414 19:52:07.014582  7928 net.cpp:357] conv3_1_bn -> conv3_1 (in-place)
I0414 19:52:07.014591  7928 net.cpp:120] Setting up conv3_1_bn
I0414 19:52:07.014663  7928 net.cpp:127] Top shape: 2 256 125 125 (8000000)
I0414 19:52:07.014678  7928 layer_factory.hpp:74] Creating layer relu3_1
I0414 19:52:07.014694  7928 net.cpp:90] Creating Layer relu3_1
I0414 19:52:07.014704  7928 net.cpp:410] relu3_1 <- conv3_1
I0414 19:52:07.014711  7928 net.cpp:357] relu3_1 -> conv3_1 (in-place)
I0414 19:52:07.014717  7928 net.cpp:120] Setting up relu3_1
I0414 19:52:07.015826  7928 net.cpp:127] Top shape: 2 256 125 125 (8000000)
I0414 19:52:07.015839  7928 layer_factory.hpp:74] Creating layer conv3_2
I0414 19:52:07.015852  7928 net.cpp:90] Creating Layer conv3_2
I0414 19:52:07.015859  7928 net.cpp:410] conv3_2 <- conv3_1
I0414 19:52:07.015867  7928 net.cpp:368] conv3_2 -> conv3_2
I0414 19:52:07.015877  7928 net.cpp:120] Setting up conv3_2
I0414 19:52:07.030045  7928 net.cpp:127] Top shape: 2 256 125 125 (8000000)
I0414 19:52:07.030084  7928 layer_factory.hpp:74] Creating layer conv3_2_bn
I0414 19:52:07.030097  7928 net.cpp:90] Creating Layer conv3_2_bn
I0414 19:52:07.030103  7928 net.cpp:410] conv3_2_bn <- conv3_2
I0414 19:52:07.030112  7928 net.cpp:357] conv3_2_bn -> conv3_2 (in-place)
I0414 19:52:07.030120  7928 net.cpp:120] Setting up conv3_2_bn
I0414 19:52:07.030195  7928 net.cpp:127] Top shape: 2 256 125 125 (8000000)
I0414 19:52:07.030210  7928 layer_factory.hpp:74] Creating layer relu3_2
I0414 19:52:07.030225  7928 net.cpp:90] Creating Layer relu3_2
I0414 19:52:07.030233  7928 net.cpp:410] relu3_2 <- conv3_2
I0414 19:52:07.030243  7928 net.cpp:357] relu3_2 -> conv3_2 (in-place)
I0414 19:52:07.030251  7928 net.cpp:120] Setting up relu3_2
I0414 19:52:07.031833  7928 net.cpp:127] Top shape: 2 256 125 125 (8000000)
I0414 19:52:07.031847  7928 layer_factory.hpp:74] Creating layer conv3_3
I0414 19:52:07.031862  7928 net.cpp:90] Creating Layer conv3_3
I0414 19:52:07.031868  7928 net.cpp:410] conv3_3 <- conv3_2
I0414 19:52:07.031877  7928 net.cpp:368] conv3_3 -> conv3_3
I0414 19:52:07.031886  7928 net.cpp:120] Setting up conv3_3
I0414 19:52:07.038833  7928 net.cpp:127] Top shape: 2 256 125 125 (8000000)
I0414 19:52:07.038856  7928 layer_factory.hpp:74] Creating layer conv3_3_bn
I0414 19:52:07.038882  7928 net.cpp:90] Creating Layer conv3_3_bn
I0414 19:52:07.038887  7928 net.cpp:410] conv3_3_bn <- conv3_3
I0414 19:52:07.038897  7928 net.cpp:357] conv3_3_bn -> conv3_3 (in-place)
I0414 19:52:07.038905  7928 net.cpp:120] Setting up conv3_3_bn
I0414 19:52:07.038976  7928 net.cpp:127] Top shape: 2 256 125 125 (8000000)
I0414 19:52:07.038991  7928 layer_factory.hpp:74] Creating layer relu3_3
I0414 19:52:07.039007  7928 net.cpp:90] Creating Layer relu3_3
I0414 19:52:07.039016  7928 net.cpp:410] relu3_3 <- conv3_3
I0414 19:52:07.039023  7928 net.cpp:357] relu3_3 -> conv3_3 (in-place)
I0414 19:52:07.039033  7928 net.cpp:120] Setting up relu3_3
I0414 19:52:07.040123  7928 net.cpp:127] Top shape: 2 256 125 125 (8000000)
I0414 19:52:07.040138  7928 layer_factory.hpp:74] Creating layer pool3_drop
I0414 19:52:07.040150  7928 net.cpp:90] Creating Layer pool3_drop
I0414 19:52:07.040177  7928 net.cpp:410] pool3_drop <- conv3_3
I0414 19:52:07.040189  7928 net.cpp:357] pool3_drop -> conv3_3 (in-place)
I0414 19:52:07.040196  7928 net.cpp:120] Setting up pool3_drop
I0414 19:52:07.040205  7928 net.cpp:127] Top shape: 2 256 125 125 (8000000)
I0414 19:52:07.040210  7928 layer_factory.hpp:74] Creating layer pool3
I0414 19:52:07.040216  7928 layer_factory.cpp:55] CUDNN does not support padding or multiple tops. Using Caffe's own pooling layer.
I0414 19:52:07.040222  7928 net.cpp:90] Creating Layer pool3
I0414 19:52:07.040226  7928 net.cpp:410] pool3 <- conv3_3
I0414 19:52:07.040232  7928 net.cpp:368] pool3 -> pool3
I0414 19:52:07.040241  7928 net.cpp:368] pool3 -> pool3_mask
I0414 19:52:07.040251  7928 net.cpp:120] Setting up pool3
I0414 19:52:07.040259  7928 net.cpp:127] Top shape: 2 256 63 63 (2032128)
I0414 19:52:07.040268  7928 net.cpp:127] Top shape: 2 256 63 63 (2032128)
I0414 19:52:07.040280  7928 layer_factory.hpp:74] Creating layer conv4_1
I0414 19:52:07.040300  7928 net.cpp:90] Creating Layer conv4_1
I0414 19:52:07.040309  7928 net.cpp:410] conv4_1 <- pool3
I0414 19:52:07.040316  7928 net.cpp:368] conv4_1 -> conv4_1
I0414 19:52:07.040326  7928 net.cpp:120] Setting up conv4_1
I0414 19:52:07.057298  7928 net.cpp:127] Top shape: 2 512 63 63 (4064256)
I0414 19:52:07.057353  7928 layer_factory.hpp:74] Creating layer conv4_1_bn
I0414 19:52:07.057368  7928 net.cpp:90] Creating Layer conv4_1_bn
I0414 19:52:07.057374  7928 net.cpp:410] conv4_1_bn <- conv4_1
I0414 19:52:07.057385  7928 net.cpp:357] conv4_1_bn -> conv4_1 (in-place)
I0414 19:52:07.057397  7928 net.cpp:120] Setting up conv4_1_bn
I0414 19:52:07.057430  7928 net.cpp:127] Top shape: 2 512 63 63 (4064256)
I0414 19:52:07.057443  7928 layer_factory.hpp:74] Creating layer relu4_1
I0414 19:52:07.057451  7928 net.cpp:90] Creating Layer relu4_1
I0414 19:52:07.057461  7928 net.cpp:410] relu4_1 <- conv4_1
I0414 19:52:07.057466  7928 net.cpp:357] relu4_1 -> conv4_1 (in-place)
I0414 19:52:07.057473  7928 net.cpp:120] Setting up relu4_1
I0414 19:52:07.057943  7928 net.cpp:127] Top shape: 2 512 63 63 (4064256)
I0414 19:52:07.057956  7928 layer_factory.hpp:74] Creating layer conv4_2
I0414 19:52:07.057979  7928 net.cpp:90] Creating Layer conv4_2
I0414 19:52:07.057986  7928 net.cpp:410] conv4_2 <- conv4_1
I0414 19:52:07.057993  7928 net.cpp:368] conv4_2 -> conv4_2
I0414 19:52:07.058002  7928 net.cpp:120] Setting up conv4_2
I0414 19:52:07.166440  7928 net.cpp:127] Top shape: 2 512 63 63 (4064256)
I0414 19:52:07.166517  7928 layer_factory.hpp:74] Creating layer conv4_2_bn
I0414 19:52:07.166548  7928 net.cpp:90] Creating Layer conv4_2_bn
I0414 19:52:07.166555  7928 net.cpp:410] conv4_2_bn <- conv4_2
I0414 19:52:07.166566  7928 net.cpp:357] conv4_2_bn -> conv4_2 (in-place)
I0414 19:52:07.166579  7928 net.cpp:120] Setting up conv4_2_bn
I0414 19:52:07.166612  7928 net.cpp:127] Top shape: 2 512 63 63 (4064256)
I0414 19:52:07.166625  7928 layer_factory.hpp:74] Creating layer relu4_2
I0414 19:52:07.166635  7928 net.cpp:90] Creating Layer relu4_2
I0414 19:52:07.166640  7928 net.cpp:410] relu4_2 <- conv4_2
I0414 19:52:07.166646  7928 net.cpp:357] relu4_2 -> conv4_2 (in-place)
I0414 19:52:07.166652  7928 net.cpp:120] Setting up relu4_2
I0414 19:52:07.167590  7928 net.cpp:127] Top shape: 2 512 63 63 (4064256)
I0414 19:52:07.167603  7928 layer_factory.hpp:74] Creating layer conv4_3
I0414 19:52:07.167623  7928 net.cpp:90] Creating Layer conv4_3
I0414 19:52:07.167629  7928 net.cpp:410] conv4_3 <- conv4_2
I0414 19:52:07.167636  7928 net.cpp:368] conv4_3 -> conv4_3
I0414 19:52:07.167647  7928 net.cpp:120] Setting up conv4_3
I0414 19:52:07.280431  7928 net.cpp:127] Top shape: 2 512 63 63 (4064256)
I0414 19:52:07.280478  7928 layer_factory.hpp:74] Creating layer conv4_3_bn
I0414 19:52:07.280513  7928 net.cpp:90] Creating Layer conv4_3_bn
I0414 19:52:07.280521  7928 net.cpp:410] conv4_3_bn <- conv4_3
I0414 19:52:07.280532  7928 net.cpp:357] conv4_3_bn -> conv4_3 (in-place)
I0414 19:52:07.280544  7928 net.cpp:120] Setting up conv4_3_bn
I0414 19:52:07.280606  7928 net.cpp:127] Top shape: 2 512 63 63 (4064256)
I0414 19:52:07.280623  7928 layer_factory.hpp:74] Creating layer relu4_3
I0414 19:52:07.280632  7928 net.cpp:90] Creating Layer relu4_3
I0414 19:52:07.280637  7928 net.cpp:410] relu4_3 <- conv4_3
I0414 19:52:07.280643  7928 net.cpp:357] relu4_3 -> conv4_3 (in-place)
I0414 19:52:07.280650  7928 net.cpp:120] Setting up relu4_3
I0414 19:52:07.282660  7928 net.cpp:127] Top shape: 2 512 63 63 (4064256)
I0414 19:52:07.282672  7928 layer_factory.hpp:74] Creating layer pool4_drop
I0414 19:52:07.282680  7928 net.cpp:90] Creating Layer pool4_drop
I0414 19:52:07.282688  7928 net.cpp:410] pool4_drop <- conv4_3
I0414 19:52:07.282696  7928 net.cpp:357] pool4_drop -> conv4_3 (in-place)
I0414 19:52:07.282702  7928 net.cpp:120] Setting up pool4_drop
I0414 19:52:07.282711  7928 net.cpp:127] Top shape: 2 512 63 63 (4064256)
I0414 19:52:07.282716  7928 layer_factory.hpp:74] Creating layer pool4
I0414 19:52:07.282721  7928 layer_factory.cpp:55] CUDNN does not support padding or multiple tops. Using Caffe's own pooling layer.
I0414 19:52:07.282729  7928 net.cpp:90] Creating Layer pool4
I0414 19:52:07.282734  7928 net.cpp:410] pool4 <- conv4_3
I0414 19:52:07.282742  7928 net.cpp:368] pool4 -> pool4
I0414 19:52:07.282752  7928 net.cpp:368] pool4 -> pool4_mask
I0414 19:52:07.282758  7928 net.cpp:120] Setting up pool4
I0414 19:52:07.282768  7928 net.cpp:127] Top shape: 2 512 32 32 (1048576)
I0414 19:52:07.282773  7928 net.cpp:127] Top shape: 2 512 32 32 (1048576)
I0414 19:52:07.282778  7928 layer_factory.hpp:74] Creating layer conv5_1
I0414 19:52:07.282793  7928 net.cpp:90] Creating Layer conv5_1
I0414 19:52:07.282799  7928 net.cpp:410] conv5_1 <- pool4
I0414 19:52:07.282807  7928 net.cpp:368] conv5_1 -> conv5_1
I0414 19:52:07.282824  7928 net.cpp:120] Setting up conv5_1
I0414 19:52:07.332406  7928 net.cpp:127] Top shape: 2 512 32 32 (1048576)
I0414 19:52:07.332473  7928 layer_factory.hpp:74] Creating layer conv5_1_bn
I0414 19:52:07.332492  7928 net.cpp:90] Creating Layer conv5_1_bn
I0414 19:52:07.332500  7928 net.cpp:410] conv5_1_bn <- conv5_1
I0414 19:52:07.332510  7928 net.cpp:357] conv5_1_bn -> conv5_1 (in-place)
I0414 19:52:07.332522  7928 net.cpp:120] Setting up conv5_1_bn
I0414 19:52:07.332546  7928 net.cpp:127] Top shape: 2 512 32 32 (1048576)
I0414 19:52:07.332564  7928 layer_factory.hpp:74] Creating layer relu5_1
I0414 19:52:07.332576  7928 net.cpp:90] Creating Layer relu5_1
I0414 19:52:07.332581  7928 net.cpp:410] relu5_1 <- conv5_1
I0414 19:52:07.332587  7928 net.cpp:357] relu5_1 -> conv5_1 (in-place)
I0414 19:52:07.332593  7928 net.cpp:120] Setting up relu5_1
I0414 19:52:07.334681  7928 net.cpp:127] Top shape: 2 512 32 32 (1048576)
I0414 19:52:07.334693  7928 layer_factory.hpp:74] Creating layer conv5_2
I0414 19:52:07.334713  7928 net.cpp:90] Creating Layer conv5_2
I0414 19:52:07.334719  7928 net.cpp:410] conv5_2 <- conv5_1
I0414 19:52:07.334733  7928 net.cpp:368] conv5_2 -> conv5_2
I0414 19:52:07.334743  7928 net.cpp:120] Setting up conv5_2
I0414 19:52:07.420910  7928 net.cpp:127] Top shape: 2 512 32 32 (1048576)
I0414 19:52:07.420944  7928 layer_factory.hpp:74] Creating layer conv5_2_bn
I0414 19:52:07.420961  7928 net.cpp:90] Creating Layer conv5_2_bn
I0414 19:52:07.420969  7928 net.cpp:410] conv5_2_bn <- conv5_2
I0414 19:52:07.420981  7928 net.cpp:357] conv5_2_bn -> conv5_2 (in-place)
I0414 19:52:07.420994  7928 net.cpp:120] Setting up conv5_2_bn
I0414 19:52:07.421025  7928 net.cpp:127] Top shape: 2 512 32 32 (1048576)
I0414 19:52:07.421038  7928 layer_factory.hpp:74] Creating layer relu5_2
I0414 19:52:07.421047  7928 net.cpp:90] Creating Layer relu5_2
I0414 19:52:07.421051  7928 net.cpp:410] relu5_2 <- conv5_2
I0414 19:52:07.421057  7928 net.cpp:357] relu5_2 -> conv5_2 (in-place)
I0414 19:52:07.421064  7928 net.cpp:120] Setting up relu5_2
I0414 19:52:07.423200  7928 net.cpp:127] Top shape: 2 512 32 32 (1048576)
I0414 19:52:07.423213  7928 layer_factory.hpp:74] Creating layer conv5_3
I0414 19:52:07.423226  7928 net.cpp:90] Creating Layer conv5_3
I0414 19:52:07.423231  7928 net.cpp:410] conv5_3 <- conv5_2
I0414 19:52:07.423265  7928 net.cpp:368] conv5_3 -> conv5_3
I0414 19:52:07.423276  7928 net.cpp:120] Setting up conv5_3
I0414 19:52:07.568639  7928 net.cpp:127] Top shape: 2 512 32 32 (1048576)
I0414 19:52:07.568678  7928 layer_factory.hpp:74] Creating layer conv5_3_bn
I0414 19:52:07.568701  7928 net.cpp:90] Creating Layer conv5_3_bn
I0414 19:52:07.568708  7928 net.cpp:410] conv5_3_bn <- conv5_3
I0414 19:52:07.568717  7928 net.cpp:357] conv5_3_bn -> conv5_3 (in-place)
I0414 19:52:07.568729  7928 net.cpp:120] Setting up conv5_3_bn
I0414 19:52:07.568753  7928 net.cpp:127] Top shape: 2 512 32 32 (1048576)
I0414 19:52:07.568770  7928 layer_factory.hpp:74] Creating layer relu5_3
I0414 19:52:07.568786  7928 net.cpp:90] Creating Layer relu5_3
I0414 19:52:07.568797  7928 net.cpp:410] relu5_3 <- conv5_3
I0414 19:52:07.568810  7928 net.cpp:357] relu5_3 -> conv5_3 (in-place)
I0414 19:52:07.568819  7928 net.cpp:120] Setting up relu5_3
I0414 19:52:07.570914  7928 net.cpp:127] Top shape: 2 512 32 32 (1048576)
I0414 19:52:07.570930  7928 layer_factory.hpp:74] Creating layer pool5_drop
I0414 19:52:07.570945  7928 net.cpp:90] Creating Layer pool5_drop
I0414 19:52:07.570950  7928 net.cpp:410] pool5_drop <- conv5_3
I0414 19:52:07.570956  7928 net.cpp:357] pool5_drop -> conv5_3 (in-place)
I0414 19:52:07.570963  7928 net.cpp:120] Setting up pool5_drop
I0414 19:52:07.570972  7928 net.cpp:127] Top shape: 2 512 32 32 (1048576)
I0414 19:52:07.570977  7928 layer_factory.hpp:74] Creating layer pool5
I0414 19:52:07.570983  7928 layer_factory.cpp:55] CUDNN does not support padding or multiple tops. Using Caffe's own pooling layer.
I0414 19:52:07.570989  7928 net.cpp:90] Creating Layer pool5
I0414 19:52:07.570998  7928 net.cpp:410] pool5 <- conv5_3
I0414 19:52:07.571008  7928 net.cpp:368] pool5 -> pool5
I0414 19:52:07.571017  7928 net.cpp:368] pool5 -> pool5_mask
I0414 19:52:07.571025  7928 net.cpp:120] Setting up pool5
I0414 19:52:07.571035  7928 net.cpp:127] Top shape: 2 512 16 16 (262144)
I0414 19:52:07.571041  7928 net.cpp:127] Top shape: 2 512 16 16 (262144)
I0414 19:52:07.571045  7928 layer_factory.hpp:74] Creating layer upsample5_drop
I0414 19:52:07.571053  7928 net.cpp:90] Creating Layer upsample5_drop
I0414 19:52:07.571061  7928 net.cpp:410] upsample5_drop <- pool5
I0414 19:52:07.571074  7928 net.cpp:357] upsample5_drop -> pool5 (in-place)
I0414 19:52:07.571087  7928 net.cpp:120] Setting up upsample5_drop
I0414 19:52:07.571105  7928 net.cpp:127] Top shape: 2 512 16 16 (262144)
I0414 19:52:07.571112  7928 layer_factory.hpp:74] Creating layer upsample5
I0414 19:52:07.571121  7928 net.cpp:90] Creating Layer upsample5
I0414 19:52:07.571126  7928 net.cpp:410] upsample5 <- pool5
I0414 19:52:07.571132  7928 net.cpp:410] upsample5 <- pool5_mask
I0414 19:52:07.571138  7928 net.cpp:368] upsample5 -> pool5_D
I0414 19:52:07.571151  7928 net.cpp:120] Setting up upsample5
I0414 19:52:07.571161  7928 net.cpp:127] Top shape: 2 512 32 32 (1048576)
I0414 19:52:07.571167  7928 layer_factory.hpp:74] Creating layer conv5_3_D
I0414 19:52:07.571182  7928 net.cpp:90] Creating Layer conv5_3_D
I0414 19:52:07.571189  7928 net.cpp:410] conv5_3_D <- pool5_D
I0414 19:52:07.571208  7928 net.cpp:368] conv5_3_D -> conv5_3_D
I0414 19:52:07.571225  7928 net.cpp:120] Setting up conv5_3_D
I0414 19:52:07.613124  7928 net.cpp:127] Top shape: 2 512 32 32 (1048576)
I0414 19:52:07.613165  7928 layer_factory.hpp:74] Creating layer conv5_3_D_bn
I0414 19:52:07.613188  7928 net.cpp:90] Creating Layer conv5_3_D_bn
I0414 19:52:07.613196  7928 net.cpp:410] conv5_3_D_bn <- conv5_3_D
I0414 19:52:07.613209  7928 net.cpp:357] conv5_3_D_bn -> conv5_3_D (in-place)
I0414 19:52:07.613221  7928 net.cpp:120] Setting up conv5_3_D_bn
I0414 19:52:07.613245  7928 net.cpp:127] Top shape: 2 512 32 32 (1048576)
I0414 19:52:07.613260  7928 layer_factory.hpp:74] Creating layer relu5_3_D
I0414 19:52:07.613277  7928 net.cpp:90] Creating Layer relu5_3_D
I0414 19:52:07.613291  7928 net.cpp:410] relu5_3_D <- conv5_3_D
I0414 19:52:07.613302  7928 net.cpp:357] relu5_3_D -> conv5_3_D (in-place)
I0414 19:52:07.613329  7928 net.cpp:120] Setting up relu5_3_D
I0414 19:52:07.640990  7928 net.cpp:127] Top shape: 2 512 32 32 (1048576)
I0414 19:52:07.641003  7928 layer_factory.hpp:74] Creating layer conv5_2_D
I0414 19:52:07.641022  7928 net.cpp:90] Creating Layer conv5_2_D
I0414 19:52:07.641028  7928 net.cpp:410] conv5_2_D <- conv5_3_D
I0414 19:52:07.641037  7928 net.cpp:368] conv5_2_D -> conv5_2_D
I0414 19:52:07.641048  7928 net.cpp:120] Setting up conv5_2_D
I0414 19:52:07.703481  7928 net.cpp:127] Top shape: 2 512 32 32 (1048576)
I0414 19:52:07.703531  7928 layer_factory.hpp:74] Creating layer conv5_2_D_bn
I0414 19:52:07.703548  7928 net.cpp:90] Creating Layer conv5_2_D_bn
I0414 19:52:07.703557  7928 net.cpp:410] conv5_2_D_bn <- conv5_2_D
I0414 19:52:07.703568  7928 net.cpp:357] conv5_2_D_bn -> conv5_2_D (in-place)
I0414 19:52:07.703580  7928 net.cpp:120] Setting up conv5_2_D_bn
I0414 19:52:07.703603  7928 net.cpp:127] Top shape: 2 512 32 32 (1048576)
I0414 19:52:07.703619  7928 layer_factory.hpp:74] Creating layer relu5_2_D
I0414 19:52:07.703635  7928 net.cpp:90] Creating Layer relu5_2_D
I0414 19:52:07.703647  7928 net.cpp:410] relu5_2_D <- conv5_2_D
I0414 19:52:07.703660  7928 net.cpp:357] relu5_2_D -> conv5_2_D (in-place)
I0414 19:52:07.703668  7928 net.cpp:120] Setting up relu5_2_D
I0414 19:52:07.705750  7928 net.cpp:127] Top shape: 2 512 32 32 (1048576)
I0414 19:52:07.705762  7928 layer_factory.hpp:74] Creating layer conv5_1_D
I0414 19:52:07.705775  7928 net.cpp:90] Creating Layer conv5_1_D
I0414 19:52:07.705782  7928 net.cpp:410] conv5_1_D <- conv5_2_D
I0414 19:52:07.705792  7928 net.cpp:368] conv5_1_D -> conv5_1_D
I0414 19:52:07.705802  7928 net.cpp:120] Setting up conv5_1_D
I0414 19:52:07.750668  7928 net.cpp:127] Top shape: 2 512 32 32 (1048576)
I0414 19:52:07.750715  7928 layer_factory.hpp:74] Creating layer conv5_1_D_bn
I0414 19:52:07.750733  7928 net.cpp:90] Creating Layer conv5_1_D_bn
I0414 19:52:07.750742  7928 net.cpp:410] conv5_1_D_bn <- conv5_1_D
I0414 19:52:07.750753  7928 net.cpp:357] conv5_1_D_bn -> conv5_1_D (in-place)
I0414 19:52:07.750766  7928 net.cpp:120] Setting up conv5_1_D_bn
I0414 19:52:07.750797  7928 net.cpp:127] Top shape: 2 512 32 32 (1048576)
I0414 19:52:07.750808  7928 layer_factory.hpp:74] Creating layer relu5_1_D
I0414 19:52:07.750821  7928 net.cpp:90] Creating Layer relu5_1_D
I0414 19:52:07.750831  7928 net.cpp:410] relu5_1_D <- conv5_1_D
I0414 19:52:07.750847  7928 net.cpp:357] relu5_1_D -> conv5_1_D (in-place)
I0414 19:52:07.750864  7928 net.cpp:120] Setting up relu5_1_D
I0414 19:52:07.753211  7928 net.cpp:127] Top shape: 2 512 32 32 (1048576)
I0414 19:52:07.753226  7928 layer_factory.hpp:74] Creating layer upsample4_drop
I0414 19:52:07.753239  7928 net.cpp:90] Creating Layer upsample4_drop
I0414 19:52:07.753245  7928 net.cpp:410] upsample4_drop <- conv5_1_D
I0414 19:52:07.753253  7928 net.cpp:357] upsample4_drop -> conv5_1_D (in-place)
I0414 19:52:07.753262  7928 net.cpp:120] Setting up upsample4_drop
I0414 19:52:07.753270  7928 net.cpp:127] Top shape: 2 512 32 32 (1048576)
I0414 19:52:07.753275  7928 layer_factory.hpp:74] Creating layer upsample4
I0414 19:52:07.753283  7928 net.cpp:90] Creating Layer upsample4
I0414 19:52:07.753288  7928 net.cpp:410] upsample4 <- conv5_1_D
I0414 19:52:07.753299  7928 net.cpp:410] upsample4 <- pool4_mask
I0414 19:52:07.753306  7928 net.cpp:368] upsample4 -> pool4_D
I0414 19:52:07.753314  7928 net.cpp:120] Setting up upsample4
I0414 19:52:07.753324  7928 net.cpp:127] Top shape: 2 512 63 63 (4064256)
I0414 19:52:07.753329  7928 layer_factory.hpp:74] Creating layer conv4_3_D
I0414 19:52:07.753353  7928 net.cpp:90] Creating Layer conv4_3_D
I0414 19:52:07.753360  7928 net.cpp:410] conv4_3_D <- pool4_D
I0414 19:52:07.753368  7928 net.cpp:368] conv4_3_D -> conv4_3_D
I0414 19:52:07.753383  7928 net.cpp:120] Setting up conv4_3_D
I0414 19:52:07.820307  7928 net.cpp:127] Top shape: 2 512 63 63 (4064256)
I0414 19:52:07.820379  7928 layer_factory.hpp:74] Creating layer conv4_3_D_bn
I0414 19:52:07.820411  7928 net.cpp:90] Creating Layer conv4_3_D_bn
I0414 19:52:07.820443  7928 net.cpp:410] conv4_3_D_bn <- conv4_3_D
I0414 19:52:07.820456  7928 net.cpp:357] conv4_3_D_bn -> conv4_3_D (in-place)
I0414 19:52:07.820468  7928 net.cpp:120] Setting up conv4_3_D_bn
I0414 19:52:07.820502  7928 net.cpp:127] Top shape: 2 512 63 63 (4064256)
I0414 19:52:07.820515  7928 layer_factory.hpp:74] Creating layer relu4_3_D
I0414 19:52:07.820529  7928 net.cpp:90] Creating Layer relu4_3_D
I0414 19:52:07.820539  7928 net.cpp:410] relu4_3_D <- conv4_3_D
I0414 19:52:07.820554  7928 net.cpp:357] relu4_3_D -> conv4_3_D (in-place)
I0414 19:52:07.820566  7928 net.cpp:120] Setting up relu4_3_D
I0414 19:52:07.822590  7928 net.cpp:127] Top shape: 2 512 63 63 (4064256)
I0414 19:52:07.822602  7928 layer_factory.hpp:74] Creating layer conv4_2_D
I0414 19:52:07.822618  7928 net.cpp:90] Creating Layer conv4_2_D
I0414 19:52:07.822624  7928 net.cpp:410] conv4_2_D <- conv4_3_D
I0414 19:52:07.822633  7928 net.cpp:368] conv4_2_D -> conv4_2_D
I0414 19:52:07.822643  7928 net.cpp:120] Setting up conv4_2_D
I0414 19:52:07.867697  7928 net.cpp:127] Top shape: 2 512 63 63 (4064256)
I0414 19:52:07.867758  7928 layer_factory.hpp:74] Creating layer conv4_2_D_bn
I0414 19:52:07.867781  7928 net.cpp:90] Creating Layer conv4_2_D_bn
I0414 19:52:07.867791  7928 net.cpp:410] conv4_2_D_bn <- conv4_2_D
I0414 19:52:07.867804  7928 net.cpp:357] conv4_2_D_bn -> conv4_2_D (in-place)
I0414 19:52:07.867815  7928 net.cpp:120] Setting up conv4_2_D_bn
I0414 19:52:07.867851  7928 net.cpp:127] Top shape: 2 512 63 63 (4064256)
I0414 19:52:07.867862  7928 layer_factory.hpp:74] Creating layer relu4_2_D
I0414 19:52:07.867871  7928 net.cpp:90] Creating Layer relu4_2_D
I0414 19:52:07.867874  7928 net.cpp:410] relu4_2_D <- conv4_2_D
I0414 19:52:07.867882  7928 net.cpp:357] relu4_2_D -> conv4_2_D (in-place)
I0414 19:52:07.867892  7928 net.cpp:120] Setting up relu4_2_D
I0414 19:52:07.869997  7928 net.cpp:127] Top shape: 2 512 63 63 (4064256)
I0414 19:52:07.870010  7928 layer_factory.hpp:74] Creating layer conv4_1_D
I0414 19:52:07.870023  7928 net.cpp:90] Creating Layer conv4_1_D
I0414 19:52:07.870031  7928 net.cpp:410] conv4_1_D <- conv4_2_D
I0414 19:52:07.870040  7928 net.cpp:368] conv4_1_D -> conv4_1_D
I0414 19:52:07.870050  7928 net.cpp:120] Setting up conv4_1_D
I0414 19:52:07.892843  7928 net.cpp:127] Top shape: 2 256 63 63 (2032128)
I0414 19:52:07.892873  7928 layer_factory.hpp:74] Creating layer conv4_1_D_bn
I0414 19:52:07.892901  7928 net.cpp:90] Creating Layer conv4_1_D_bn
I0414 19:52:07.892910  7928 net.cpp:410] conv4_1_D_bn <- conv4_1_D
I0414 19:52:07.892918  7928 net.cpp:357] conv4_1_D_bn -> conv4_1_D (in-place)
I0414 19:52:07.892928  7928 net.cpp:120] Setting up conv4_1_D_bn
I0414 19:52:07.892962  7928 net.cpp:127] Top shape: 2 256 63 63 (2032128)
I0414 19:52:07.892983  7928 layer_factory.hpp:74] Creating layer relu4_1_D
I0414 19:52:07.892993  7928 net.cpp:90] Creating Layer relu4_1_D
I0414 19:52:07.892998  7928 net.cpp:410] relu4_1_D <- conv4_1_D
I0414 19:52:07.893004  7928 net.cpp:357] relu4_1_D -> conv4_1_D (in-place)
I0414 19:52:07.893013  7928 net.cpp:120] Setting up relu4_1_D
I0414 19:52:07.895151  7928 net.cpp:127] Top shape: 2 256 63 63 (2032128)
I0414 19:52:07.895164  7928 layer_factory.hpp:74] Creating layer upsample3_drop
I0414 19:52:07.895177  7928 net.cpp:90] Creating Layer upsample3_drop
I0414 19:52:07.895184  7928 net.cpp:410] upsample3_drop <- conv4_1_D
I0414 19:52:07.895191  7928 net.cpp:357] upsample3_drop -> conv4_1_D (in-place)
I0414 19:52:07.895198  7928 net.cpp:120] Setting up upsample3_drop
I0414 19:52:07.895207  7928 net.cpp:127] Top shape: 2 256 63 63 (2032128)
I0414 19:52:07.895212  7928 layer_factory.hpp:74] Creating layer upsample3
I0414 19:52:07.895226  7928 net.cpp:90] Creating Layer upsample3
I0414 19:52:07.895231  7928 net.cpp:410] upsample3 <- conv4_1_D
I0414 19:52:07.895237  7928 net.cpp:410] upsample3 <- pool3_mask
I0414 19:52:07.895244  7928 net.cpp:368] upsample3 -> pool3_D
I0414 19:52:07.895252  7928 net.cpp:120] Setting up upsample3
I0414 19:52:07.895262  7928 net.cpp:127] Top shape: 2 256 125 125 (8000000)
I0414 19:52:07.895293  7928 layer_factory.hpp:74] Creating layer conv3_3_D
I0414 19:52:07.895310  7928 net.cpp:90] Creating Layer conv3_3_D
I0414 19:52:07.895318  7928 net.cpp:410] conv3_3_D <- pool3_D
I0414 19:52:07.895328  7928 net.cpp:368] conv3_3_D -> conv3_3_D
I0414 19:52:07.895336  7928 net.cpp:120] Setting up conv3_3_D
I0414 19:52:07.905680  7928 net.cpp:127] Top shape: 2 256 125 125 (8000000)
I0414 19:52:07.905715  7928 layer_factory.hpp:74] Creating layer conv3_3_D_bn
I0414 19:52:07.905732  7928 net.cpp:90] Creating Layer conv3_3_D_bn
I0414 19:52:07.905740  7928 net.cpp:410] conv3_3_D_bn <- conv3_3_D
I0414 19:52:07.905747  7928 net.cpp:357] conv3_3_D_bn -> conv3_3_D (in-place)
I0414 19:52:07.905756  7928 net.cpp:120] Setting up conv3_3_D_bn
I0414 19:52:07.905830  7928 net.cpp:127] Top shape: 2 256 125 125 (8000000)
I0414 19:52:07.905849  7928 layer_factory.hpp:74] Creating layer relu3_3_D
I0414 19:52:07.905864  7928 net.cpp:90] Creating Layer relu3_3_D
I0414 19:52:07.905869  7928 net.cpp:410] relu3_3_D <- conv3_3_D
I0414 19:52:07.905876  7928 net.cpp:357] relu3_3_D -> conv3_3_D (in-place)
I0414 19:52:07.905882  7928 net.cpp:120] Setting up relu3_3_D
I0414 19:52:07.909252  7928 net.cpp:127] Top shape: 2 256 125 125 (8000000)
I0414 19:52:07.909265  7928 layer_factory.hpp:74] Creating layer conv3_2_D
I0414 19:52:07.909274  7928 net.cpp:90] Creating Layer conv3_2_D
I0414 19:52:07.909282  7928 net.cpp:410] conv3_2_D <- conv3_3_D
I0414 19:52:07.909291  7928 net.cpp:368] conv3_2_D -> conv3_2_D
I0414 19:52:07.909301  7928 net.cpp:120] Setting up conv3_2_D
I0414 19:52:07.918992  7928 net.cpp:127] Top shape: 2 256 125 125 (8000000)
I0414 19:52:07.919013  7928 layer_factory.hpp:74] Creating layer conv3_2_D_bn
I0414 19:52:07.919028  7928 net.cpp:90] Creating Layer conv3_2_D_bn
I0414 19:52:07.919034  7928 net.cpp:410] conv3_2_D_bn <- conv3_2_D
I0414 19:52:07.919040  7928 net.cpp:357] conv3_2_D_bn -> conv3_2_D (in-place)
I0414 19:52:07.919049  7928 net.cpp:120] Setting up conv3_2_D_bn
I0414 19:52:07.919122  7928 net.cpp:127] Top shape: 2 256 125 125 (8000000)
I0414 19:52:07.919144  7928 layer_factory.hpp:74] Creating layer relu3_2_D
I0414 19:52:07.919165  7928 net.cpp:90] Creating Layer relu3_2_D
I0414 19:52:07.919170  7928 net.cpp:410] relu3_2_D <- conv3_2_D
I0414 19:52:07.919179  7928 net.cpp:357] relu3_2_D -> conv3_2_D (in-place)
I0414 19:52:07.919186  7928 net.cpp:120] Setting up relu3_2_D
I0414 19:52:07.927007  7928 net.cpp:127] Top shape: 2 256 125 125 (8000000)
I0414 19:52:07.927021  7928 layer_factory.hpp:74] Creating layer conv3_1_D
I0414 19:52:07.927031  7928 net.cpp:90] Creating Layer conv3_1_D
I0414 19:52:07.927038  7928 net.cpp:410] conv3_1_D <- conv3_2_D
I0414 19:52:07.927048  7928 net.cpp:368] conv3_1_D -> conv3_1_D
I0414 19:52:07.927057  7928 net.cpp:120] Setting up conv3_1_D
I0414 19:52:07.941510  7928 net.cpp:127] Top shape: 2 128 125 125 (4000000)
I0414 19:52:07.941529  7928 layer_factory.hpp:74] Creating layer conv3_1_D_bn
I0414 19:52:07.941541  7928 net.cpp:90] Creating Layer conv3_1_D_bn
I0414 19:52:07.941547  7928 net.cpp:410] conv3_1_D_bn <- conv3_1_D
I0414 19:52:07.941556  7928 net.cpp:357] conv3_1_D_bn -> conv3_1_D (in-place)
I0414 19:52:07.941565  7928 net.cpp:120] Setting up conv3_1_D_bn
I0414 19:52:07.941637  7928 net.cpp:127] Top shape: 2 128 125 125 (4000000)
I0414 19:52:07.941651  7928 layer_factory.hpp:74] Creating layer relu3_1_D
I0414 19:52:07.941668  7928 net.cpp:90] Creating Layer relu3_1_D
I0414 19:52:07.941673  7928 net.cpp:410] relu3_1_D <- conv3_1_D
I0414 19:52:07.941679  7928 net.cpp:357] relu3_1_D -> conv3_1_D (in-place)
I0414 19:52:07.941684  7928 net.cpp:120] Setting up relu3_1_D
I0414 19:52:07.943717  7928 net.cpp:127] Top shape: 2 128 125 125 (4000000)
I0414 19:52:07.943737  7928 layer_factory.hpp:74] Creating layer upsample2_drop
I0414 19:52:07.943750  7928 net.cpp:90] Creating Layer upsample2_drop
I0414 19:52:07.943755  7928 net.cpp:410] upsample2_drop <- conv3_1_D
I0414 19:52:07.943761  7928 net.cpp:357] upsample2_drop -> conv3_1_D (in-place)
I0414 19:52:07.943789  7928 net.cpp:120] Setting up upsample2_drop
I0414 19:52:07.943799  7928 net.cpp:127] Top shape: 2 128 125 125 (4000000)
I0414 19:52:07.943804  7928 layer_factory.hpp:74] Creating layer upsample2
I0414 19:52:07.943811  7928 net.cpp:90] Creating Layer upsample2
I0414 19:52:07.943815  7928 net.cpp:410] upsample2 <- conv3_1_D
I0414 19:52:07.943821  7928 net.cpp:410] upsample2 <- pool2_mask
I0414 19:52:07.943830  7928 net.cpp:368] upsample2 -> pool2_D
I0414 19:52:07.943838  7928 net.cpp:120] Setting up upsample2
I0414 19:52:07.943843  7928 upsample_layer.cpp:31] Params 'pad_out_{}_' are deprecated. Please declare upsample height and width useing the upsample_h, upsample_w parameters.
I0414 19:52:07.943851  7928 net.cpp:127] Top shape: 2 128 250 250 (16000000)
I0414 19:52:07.943856  7928 layer_factory.hpp:74] Creating layer conv2_2_D
I0414 19:52:07.943874  7928 net.cpp:90] Creating Layer conv2_2_D
I0414 19:52:07.943887  7928 net.cpp:410] conv2_2_D <- pool2_D
I0414 19:52:07.943895  7928 net.cpp:368] conv2_2_D -> conv2_2_D
I0414 19:52:07.943904  7928 net.cpp:120] Setting up conv2_2_D
I0414 19:52:07.951100  7928 net.cpp:127] Top shape: 2 128 250 250 (16000000)
I0414 19:52:07.951118  7928 layer_factory.hpp:74] Creating layer conv2_2_D_bn
I0414 19:52:07.951133  7928 net.cpp:90] Creating Layer conv2_2_D_bn
I0414 19:52:07.951138  7928 net.cpp:410] conv2_2_D_bn <- conv2_2_D
I0414 19:52:07.951148  7928 net.cpp:357] conv2_2_D_bn -> conv2_2_D (in-place)
I0414 19:52:07.951155  7928 net.cpp:120] Setting up conv2_2_D_bn
I0414 19:52:07.951398  7928 net.cpp:127] Top shape: 2 128 250 250 (16000000)
I0414 19:52:07.951419  7928 layer_factory.hpp:74] Creating layer relu2_2_D
I0414 19:52:07.951431  7928 net.cpp:90] Creating Layer relu2_2_D
I0414 19:52:07.951436  7928 net.cpp:410] relu2_2_D <- conv2_2_D
I0414 19:52:07.951444  7928 net.cpp:357] relu2_2_D -> conv2_2_D (in-place)
I0414 19:52:07.951452  7928 net.cpp:120] Setting up relu2_2_D
I0414 19:52:07.953213  7928 net.cpp:127] Top shape: 2 128 250 250 (16000000)
I0414 19:52:07.953227  7928 layer_factory.hpp:74] Creating layer conv2_1_D
I0414 19:52:07.953245  7928 net.cpp:90] Creating Layer conv2_1_D
I0414 19:52:07.953251  7928 net.cpp:410] conv2_1_D <- conv2_2_D
I0414 19:52:07.953261  7928 net.cpp:368] conv2_1_D -> conv2_1_D
I0414 19:52:07.953270  7928 net.cpp:120] Setting up conv2_1_D
I0414 19:52:07.972872  7928 net.cpp:127] Top shape: 2 64 250 250 (8000000)
I0414 19:52:07.972889  7928 layer_factory.hpp:74] Creating layer conv2_1_D_bn
I0414 19:52:07.972906  7928 net.cpp:90] Creating Layer conv2_1_D_bn
I0414 19:52:07.972913  7928 net.cpp:410] conv2_1_D_bn <- conv2_1_D
I0414 19:52:07.972921  7928 net.cpp:357] conv2_1_D_bn -> conv2_1_D (in-place)
I0414 19:52:07.972929  7928 net.cpp:120] Setting up conv2_1_D_bn
I0414 19:52:07.973172  7928 net.cpp:127] Top shape: 2 64 250 250 (8000000)
I0414 19:52:07.973187  7928 layer_factory.hpp:74] Creating layer relu2_1_D
I0414 19:52:07.973193  7928 net.cpp:90] Creating Layer relu2_1_D
I0414 19:52:07.973202  7928 net.cpp:410] relu2_1_D <- conv2_1_D
I0414 19:52:07.973211  7928 net.cpp:357] relu2_1_D -> conv2_1_D (in-place)
I0414 19:52:07.973217  7928 net.cpp:120] Setting up relu2_1_D
I0414 19:52:07.975358  7928 net.cpp:127] Top shape: 2 64 250 250 (8000000)
I0414 19:52:07.975376  7928 layer_factory.hpp:74] Creating layer upsample1_drop
I0414 19:52:07.975389  7928 net.cpp:90] Creating Layer upsample1_drop
I0414 19:52:07.975394  7928 net.cpp:410] upsample1_drop <- conv2_1_D
I0414 19:52:07.975401  7928 net.cpp:357] upsample1_drop -> conv2_1_D (in-place)
I0414 19:52:07.975409  7928 net.cpp:120] Setting up upsample1_drop
I0414 19:52:07.975417  7928 net.cpp:127] Top shape: 2 64 250 250 (8000000)
I0414 19:52:07.975421  7928 layer_factory.hpp:74] Creating layer upsample1
I0414 19:52:07.975433  7928 net.cpp:90] Creating Layer upsample1
I0414 19:52:07.975438  7928 net.cpp:410] upsample1 <- conv2_1_D
I0414 19:52:07.975443  7928 net.cpp:410] upsample1 <- pool1_mask
I0414 19:52:07.975452  7928 net.cpp:368] upsample1 -> pool1_D
I0414 19:52:07.975460  7928 net.cpp:120] Setting up upsample1
I0414 19:52:07.975481  7928 upsample_layer.cpp:31] Params 'pad_out_{}_' are deprecated. Please declare upsample height and width useing the upsample_h, upsample_w parameters.
I0414 19:52:07.975491  7928 net.cpp:127] Top shape: 2 64 500 500 (32000000)
I0414 19:52:07.975495  7928 layer_factory.hpp:74] Creating layer conv1_2_D
I0414 19:52:07.975502  7928 net.cpp:90] Creating Layer conv1_2_D
I0414 19:52:07.975507  7928 net.cpp:410] conv1_2_D <- pool1_D
I0414 19:52:07.975523  7928 net.cpp:368] conv1_2_D -> conv1_2_D
I0414 19:52:07.975536  7928 net.cpp:120] Setting up conv1_2_D
I0414 19:52:07.982803  7928 net.cpp:127] Top shape: 2 64 500 500 (32000000)
I0414 19:52:07.982822  7928 layer_factory.hpp:74] Creating layer conv1_2_D_bn
I0414 19:52:07.982837  7928 net.cpp:90] Creating Layer conv1_2_D_bn
I0414 19:52:07.982843  7928 net.cpp:410] conv1_2_D_bn <- conv1_2_D
I0414 19:52:07.982851  7928 net.cpp:357] conv1_2_D_bn -> conv1_2_D (in-place)
I0414 19:52:07.982858  7928 net.cpp:120] Setting up conv1_2_D_bn
I0414 19:52:07.983752  7928 net.cpp:127] Top shape: 2 64 500 500 (32000000)
I0414 19:52:07.983770  7928 layer_factory.hpp:74] Creating layer relu1_2_D
I0414 19:52:07.983794  7928 net.cpp:90] Creating Layer relu1_2_D
I0414 19:52:07.983800  7928 net.cpp:410] relu1_2_D <- conv1_2_D
I0414 19:52:07.983808  7928 net.cpp:357] relu1_2_D -> conv1_2_D (in-place)
I0414 19:52:07.983816  7928 net.cpp:120] Setting up relu1_2_D
I0414 19:52:07.984762  7928 net.cpp:127] Top shape: 2 64 500 500 (32000000)
I0414 19:52:07.984776  7928 layer_factory.hpp:74] Creating layer conv1_1_D
I0414 19:52:07.984789  7928 net.cpp:90] Creating Layer conv1_1_D
I0414 19:52:07.984796  7928 net.cpp:410] conv1_1_D <- conv1_2_D
I0414 19:52:07.984802  7928 net.cpp:368] conv1_1_D -> conv1_1_D
I0414 19:52:07.984810  7928 net.cpp:120] Setting up conv1_1_D
I0414 19:52:07.992583  7928 net.cpp:127] Top shape: 2 21 500 500 (10500000)
I0414 19:52:07.992600  7928 layer_factory.hpp:74] Creating layer conv1_1_D_conv1_1_D_0_split
I0414 19:52:07.992614  7928 net.cpp:90] Creating Layer conv1_1_D_conv1_1_D_0_split
I0414 19:52:07.992620  7928 net.cpp:410] conv1_1_D_conv1_1_D_0_split <- conv1_1_D
I0414 19:52:07.992627  7928 net.cpp:368] conv1_1_D_conv1_1_D_0_split -> conv1_1_D_conv1_1_D_0_split_0
I0414 19:52:07.992636  7928 net.cpp:368] conv1_1_D_conv1_1_D_0_split -> conv1_1_D_conv1_1_D_0_split_1
I0414 19:52:07.992642  7928 net.cpp:120] Setting up conv1_1_D_conv1_1_D_0_split
I0414 19:52:07.992653  7928 net.cpp:127] Top shape: 2 21 500 500 (10500000)
I0414 19:52:07.992660  7928 net.cpp:127] Top shape: 2 21 500 500 (10500000)
I0414 19:52:07.992665  7928 layer_factory.hpp:74] Creating layer loss
I0414 19:52:07.992672  7928 net.cpp:90] Creating Layer loss
I0414 19:52:07.992677  7928 net.cpp:410] loss <- conv1_1_D_conv1_1_D_0_split_0
I0414 19:52:07.992682  7928 net.cpp:410] loss <- label_data_1_split_0
I0414 19:52:07.992689  7928 net.cpp:368] loss -> loss
I0414 19:52:07.992703  7928 net.cpp:120] Setting up loss
I0414 19:52:07.992719  7928 layer_factory.hpp:74] Creating layer loss
I0414 19:52:08.107131  7928 net.cpp:127] Top shape: (1)
I0414 19:52:08.107177  7928 net.cpp:129]     with loss weight 1
I0414 19:52:08.107213  7928 layer_factory.hpp:74] Creating layer accuracy
I0414 19:52:08.107254  7928 net.cpp:90] Creating Layer accuracy
I0414 19:52:08.107261  7928 net.cpp:410] accuracy <- conv1_1_D_conv1_1_D_0_split_1
I0414 19:52:08.107271  7928 net.cpp:410] accuracy <- label_data_1_split_1
I0414 19:52:08.107280  7928 net.cpp:368] accuracy -> accuracy
I0414 19:52:08.107290  7928 net.cpp:368] accuracy -> per_class_accuracy
I0414 19:52:08.107296  7928 net.cpp:120] Setting up accuracy
I0414 19:52:08.107303  7928 accuracy_layer.cpp:24] Per-class accuracies currently only work on TRAIN phase only.
I0414 19:52:08.107311  7928 net.cpp:127] Top shape: (1)
I0414 19:52:08.107317  7928 net.cpp:127] Top shape: 21 1 1 1 (21)
I0414 19:52:08.107322  7928 net.cpp:194] accuracy does not need backward computation.
I0414 19:52:08.107327  7928 net.cpp:192] loss needs backward computation.
I0414 19:52:08.107362  7928 net.cpp:192] conv1_1_D_conv1_1_D_0_split needs backward computation.
I0414 19:52:08.107368  7928 net.cpp:192] conv1_1_D needs backward computation.
I0414 19:52:08.107373  7928 net.cpp:192] relu1_2_D needs backward computation.
…
