…
layer {
  name: "data"
  type: "Data"
  top: "data"
  include {
    phase: TRAIN
  }
  transform_param {
    mean_value: 104.00699
    mean_value: 116.66877
    mean_value: 122.67892
  }
  data_param {
    source: "/home/shared/datasets/VOCdevkit/VOC2012/LMDB_224_pierre_2/train_lmdb"
    batch_size: 2
    backend: LMDB
  }
}
layer {
  name: "label"
  type: "Data"
  top: "label"
  include {
    phase: TRAIN
  }
  data_param {
    source: "/home/shared/datasets/VOCdevkit/VOC2012/LMDB_224_pierre_2/train_gt_lmdb"
    batch_size: 2
    backend: LMDB
  }
}
layer {
  name: "conv1_1"
  type: "Convolution"
  bottom: "data"
  top: "conv1_1"
  param {
    lr_mult: 1
    decay_mult: 1
  }
  param {
    lr_mult: 2
    decay_mult: 0
  }
  convolution_param {
    num_output: 64
    pad: 1
    kernel_size: 3
    weight_filler {
      type: "msra"
    }
    bias_filler {
      type: "constant"
    }
  }
}
layer {
  name: "conv1_1_bn"
  type: "BN"
  bottom: "conv1_1"
  top: "conv1_1"
  param {
    lr_mult: 1
    decay_mult: 1
  }
  param {
    lr_mult: 1
    decay_mult: 0
  }
  bn_param {
    scale_filler {
      type: "constant"
      value: 1
    }
    shift_filler {
      type: "constant"
      value: 0.001
    }
  }
}
layer {
  name: "relu1_1"
  type: "ReLU"
  bottom: "conv1_1"
  top: "conv1_1"
}
layer {
  name: "conv1_2"
  type: "Convolution"
  bottom: "conv1_1"
  top: "conv1_2"
  param {
    lr_mult: 1
    decay_mult: 1
  }
  param {
    lr_mult: 2
    decay_mult: 0
  }
  convolution_param {
    num_output: 64
    pad: 1
    kernel_size: 3
    weight_filler {
      type: "msra"
    }
    bias_filler {
      type: "constant"
    }
  }
}
layer {
  name: "conv1_2_bn"
  type: "BN"
  bottom: "conv1_2"
  top: "conv1_2"
  param {
    lr_mult: 1
    decay_mult: 1
  }
  param {
    lr_mult: 1
    decay_mult: 0
  }
  bn_param {
    scale_filler {
      type: "constant"
      value: 1
    }
    shift_filler {
      type: "constant"
      value: 0.001
    }
  }
}
layer {
  name: "relu1_2"
  type: "ReLU"
  bottom: "conv1_2"
  top: "conv1_2"
}
layer {
  name: "pool1"
  type: "Pooling"
  bottom: "conv1_2"
  top: "pool1"
  top: "pool1_mask"
  pooling_param {
    pool: MAX
    kernel_size: 2
    stride: 2
  }
}
layer {
  name: "conv2_1"
  type: "Convolution"
  bottom: "pool1"
  top: "conv2_1"
  param {
    lr_mult: 1
    decay_mult: 1
  }
  param {
    lr_mult: 2
    decay_mult: 0
  }
  convolution_param {
    num_output: 128
    pad: 1
    kernel_size: 3
    weight_filler {
      type: "msra"
    }
    bias_filler {
      type: "constant"
    }
  }
}
layer {
  name: "conv2_1_bn"
  type: "BN"
  bottom: "conv2_1"
  top: "conv2_1"
  param {
    lr_mult: 1
    decay_mult: 1
  }
  param {
    lr_mult: 1
    decay_mult: 0
  }
  bn_param {
    scale_filler {
      type: "constant"
      value: 1
    }
    shift_filler {
      type: "constant"
      value: 0.001
    }
  }
}
layer {
  name: "relu2_1"
  type: "ReLU"
  bottom: "conv2_1"
  top: "conv2_1"
}
layer {
  name: "conv2_2"
  type: "Convolution"
  bottom: "conv2_1"
  top: "conv2_2"
  param {
    lr_mult: 1
    decay_mult: 1
  }
  param {
    lr_mult: 2
    decay_mult: 0
  }
  convolution_param {
    num_output: 128
    pad: 1
    kernel_size: 3
    weight_filler {
      type: "msra"
    }
    bias_filler {
      type: "constant"
    }
  }
}
layer {
  name: "conv2_2_bn"
  type: "BN"
  bottom: "conv2_2"
  top: "conv2_2"
  param {
    lr_mult: 1
    decay_mult: 1
  }
  param {
    lr_mult: 1
    decay_mult: 0
  }
  bn_param {
    scale_filler {
      type: "constant"
      value: 1
    }
    shift_filler {
      type: "constant"
      value: 0.001
    }
  }
}
layer {
  name: "relu2_2"
  type: "ReLU"
  bottom: "conv2_2"
  top: "conv2_2"
}
layer {
  name: "pool2"
  type: "Pooling"
  bottom: "conv2_2"
  top: "pool2"
  top: "pool2_mask"
  pooling_param {
    pool: MAX
    kernel_size: 2
    stride: 2
  }
}
layer {
  name: "conv3_1"
  type: "Convolution"
  bottom: "pool2"
  top: "conv3_1"
  param {
    lr_mult: 1
    decay_mult: 1
  }
  param {
    lr_mult: 2
    decay_mult: 0
  }
  convolution_param {
    num_output: 256
    pad: 1
    kernel_size: 3
    weight_filler {
      type: "msra"
    }
    bias_filler {
      type: "constant"
    }
  }
}
layer {
  name: "conv3_1_bn"
  type: "BN"
  bottom: "conv3_1"
  top: "conv3_1"
  param {
    lr_mult: 1
    decay_mult: 1
  }
  param {
    lr_mult: 1
    decay_mult: 0
  }
  bn_param {
    scale_filler {
      type: "constant"
      value: 1
    }
    shift_filler {
      type: "constant"
      value: 0.001
    }
  }
}
layer {
  name: "relu3_1"
  type: "ReLU"
  bottom: "conv3_1"
  top: "conv3_1"
}
layer {
  name: "conv3_2"
  type: "Convolution"
  bottom: "conv3_1"
  top: "conv3_2"
  param {
    lr_mult: 1
    decay_mult: 1
  }
  param {
    lr_mult: 2
    decay_mult: 0
  }
  convolution_param {
    num_output: 256
    pad: 1
    kernel_size: 3
    weight_filler {
      type: "msra"
    }
    bias_filler {
      type: "constant"
    }
  }
}
layer {
  name: "conv3_2_bn"
  type: "BN"
  bottom: "conv3_2"
  top: "conv3_2"
  param {
    lr_mult: 1
    decay_mult: 1
  }
  param {
    lr_mult: 1
    decay_mult: 0
  }
  bn_param {
    scale_filler {
      type: "constant"
      value: 1
    }
    shift_filler {
      type: "constant"
      value: 0.001
    }
  }
}
layer {
  name: "relu3_2"
  type: "ReLU"
  bottom: "conv3_2"
  top: "conv3_2"
}
layer {
  name: "conv3_3"
  type: "Convolution"
  bottom: "conv3_2"
  top: "conv3_3"
  param {
    lr_mult: 1
    decay_mult: 1
  }
  param {
    lr_mult: 2
    decay_mult: 0
  }
  convolution_param {
    num_output: 256
    pad: 1
    kernel_size: 3
    weight_filler {
      type: "msra"
    }
    bias_filler {
      type: "constant"
    }
  }
}
layer {
  name: "conv3_3_bn"
  type: "BN"
  bottom: "conv3_3"
  top: "conv3_3"
  param {
    lr_mult: 1
    decay_mult: 1
  }
  param {
    lr_mult: 1
    decay_mult: 0
  }
  bn_param {
    scale_filler {
      type: "constant"
      value: 1
    }
    shift_filler {
      type: "constant"
      value: 0.001
    }
  }
}
layer {
  name: "relu3_3"
  type: "ReLU"
  bottom: "conv3_3"
  top: "conv3_3"
}
layer {
  name: "pool3"
  type: "Pooling"
  bottom: "conv3_3"
  top: "pool3"
  top: "pool3_mask"
  pooling_param {
    pool: MAX
    kernel_size: 2
    stride: 2
  }
}
layer {
  name: "conv4_1"
  type: "Convolution"
  bottom: "pool3"
  top: "conv4_1"
  param {
    lr_mult: 1
    decay_mult: 1
  }
  param {
    lr_mult: 2
    decay_mult: 0
  }
  convolution_param {
    num_output: 512
    pad: 1
    kernel_size: 3
    weight_filler {
      type: "msra"
    }
    bias_filler {
      type: "constant"
    }
  }
}
layer {
  name: "conv4_1_bn"
  type: "BN"
  bottom: "conv4_1"
  top: "conv4_1"
  param {
    lr_mult: 1
    decay_mult: 1
  }
  param {
    lr_mult: 1
    decay_mult: 0
  }
  bn_param {
    scale_filler {
      type: "constant"
      value: 1
    }
    shift_filler {
      type: "constant"
      value: 0.001
    }
  }
}
layer {
  name: "relu4_1"
  type: "ReLU"
  bottom: "conv4_1"
  top: "conv4_1"
}
layer {
  name: "conv4_2"
  type: "Convolution"
  bottom: "conv4_1"
  top: "conv4_2"
  param {
    lr_mult: 1
    decay_mult: 1
  }
  param {
    lr_mult: 2
    decay_mult: 0
  }
  convolution_param {
    num_output: 512
    pad: 1
    kernel_size: 3
    weight_filler {
      type: "msra"
    }
    bias_filler {
      type: "constant"
    }
  }
}
layer {
  name: "conv4_2_bn"
  type: "BN"
  bottom: "conv4_2"
  top: "conv4_2"
  param {
    lr_mult: 1
    decay_mult: 1
  }
  param {
    lr_mult: 1
    decay_mult: 0
  }
  bn_param {
    scale_filler {
      type: "constant"
      value: 1
    }
    shift_filler {
      type: "constant"
      value: 0.001
    }
  }
}
layer {
  name: "relu4_2"
  type: "ReLU"
  bottom: "conv4_2"
  top: "conv4_2"
}
layer {
  name: "conv4_3"
  type: "Convolution"
  bottom: "conv4_2"
  top: "conv4_3"
  param {
    lr_mult: 1
    decay_mult: 1
  }
  param {
    lr_mult: 2
    decay_mult: 0
  }
  convolution_param {
    num_output: 512
    pad: 1
    kernel_size: 3
    weight_filler {
      type: "msra"
    }
    bias_filler {
      type: "constant"
    }
  }
}
layer {
  name: "conv4_3_bn"
  type: "BN"
  bottom: "conv4_3"
  top: "conv4_3"
  param {
    lr_mult: 1
    decay_mult: 1
  }
  param {
    lr_mult: 1
    decay_mult: 0
  }
  bn_param {
    scale_filler {
      type: "constant"
      value: 1
    }
    shift_filler {
      type: "constant"
      value: 0.001
    }
  }
}
layer {
  name: "relu4_3"
  type: "ReLU"
  bottom: "conv4_3"
  top: "conv4_3"
}
layer {
  name: "pool4"
  type: "Pooling"
  bottom: "conv4_3"
  top: "pool4"
  top: "pool4_mask"
  pooling_param {
    pool: MAX
    kernel_size: 2
    stride: 2
  }
}
layer {
  name: "conv5_1"
  type: "Convolution"
  bottom: "pool4"
  top: "conv5_1"
  param {
    lr_mult: 1
    decay_mult: 1
  }
  param {
    lr_mult: 2
    decay_mult: 0
  }
  convolution_param {
    num_output: 512
    pad: 1
    kernel_size: 3
    weight_filler {
      type: "msra"
    }
    bias_filler {
      type: "constant"
    }
  }
}
layer {
  name: "conv5_1_bn"
  type: "BN"
  bottom: "conv5_1"
  top: "conv5_1"
  param {
    lr_mult: 1
    decay_mult: 1
  }
  param {
    lr_mult: 1
    decay_mult: 0
  }
  bn_param {
    scale_filler {
      type: "constant"
      value: 1
    }
    shift_filler {
      type: "constant"
      value: 0.001
    }
  }
}
layer {
  name: "relu5_1"
  type: "ReLU"
  bottom: "conv5_1"
  top: "conv5_1"
}
layer {
  name: "conv5_2"
  type: "Convolution"
  bottom: "conv5_1"
  top: "conv5_2"
  param {
    lr_mult: 1
    decay_mult: 1
  }
  param {
    lr_mult: 2
    decay_mult: 0
  }
  convolution_param {
    num_output: 512
    pad: 1
    kernel_size: 3
    weight_filler {
      type: "msra"
    }
    bias_filler {
      type: "constant"
    }
  }
}
layer {
  name: "conv5_2_bn"
  type: "BN"
  bottom: "conv5_2"
  top: "conv5_2"
  param {
    lr_mult: 1
    decay_mult: 1
  }
  param {
    lr_mult: 1
    decay_mult: 0
  }
  bn_param {
    scale_filler {
      type: "constant"
      value: 1
    }
    shift_filler {
      type: "constant"
      value: 0.001
    }
  }
}
layer {
  name: "relu5_2"
  type: "ReLU"
  bottom: "conv5_2"
  top: "conv5_2"
}
layer {
  name: "conv5_3"
  type: "Convolution"
  bottom: "conv5_2"
  top: "conv5_3"
  param {
    lr_mult: 1
    decay_mult: 1
  }
  param {
    lr_mult: 2
    decay_mult: 0
  }
  convolution_param {
    num_output: 512
    pad: 1
    kernel_size: 3
    weight_filler {
      type: "msra"
    }
    bias_filler {
      type: "constant"
    }
  }
}
layer {
  name: "conv5_3_bn"
  type: "BN"
  bottom: "conv5_3"
  top: "conv5_3"
  param {
    lr_mult: 1
    decay_mult: 1
  }
  param {
    lr_mult: 1
    decay_mult: 0
  }
  bn_param {
    scale_filler {
      type: "constant"
      value: 1
    }
    shift_filler {
      type: "constant"
      value: 0.001
    }
  }
}
layer {
  name: "relu5_3"
  type: "ReLU"
  bottom: "conv5_3"
  top: "conv5_3"
}
layer {
  name: "pool5"
  type: "Pooling"
  bottom: "conv5_3"
  top: "pool5"
  top: "pool5_mask"
  pooling_param {
    pool: MAX
    kernel_size: 2
    stride: 2
  }
}
layer {
  name: "upsample5"
  type: "Upsample"
  bottom: "pool5"
  bottom: "pool5_mask"
  top: "pool5_D"
  upsample_param {
    scale: 2
  }
}
layer {
  name: "conv5_3_D"
  type: "Convolution"
  bottom: "pool5_D"
  top: "conv5_3_D"
  param {
    lr_mult: 1
    decay_mult: 1
  }
  param {
    lr_mult: 2
    decay_mult: 0
  }
  convolution_param {
    num_output: 512
    pad: 1
    kernel_size: 3
    weight_filler {
      type: "msra"
    }
    bias_filler {
      type: "constant"
    }
  }
}
layer {
  name: "conv5_3_D_bn"
  type: "BN"
  bottom: "conv5_3_D"
  top: "conv5_3_D"
  param {
    lr_mult: 1
    decay_mult: 1
  }
  param {
    lr_mult: 1
    decay_mult: 0
  }
  bn_param {
    scale_filler {
      type: "constant"
      value: 1
    }
    shift_filler {
      type: "constant"
      value: 0.001
    }
  }
}
layer {
  name: "relu5_3_D"
  type: "ReLU"
  bottom: "conv5_3_D"
  top: "conv5_3_D"
}
layer {
  name: "conv5_2_D"
  type: "Convolution"
  bottom: "conv5_3_D"
  top: "conv5_2_D"
  param {
    lr_mult: 1
    decay_mult: 1
  }
  param {
    lr_mult: 2
    decay_mult: 0
  }
  convolution_param {
    num_output: 512
    pad: 1
    kernel_size: 3
    weight_filler {
      type: "msra"
    }
    bias_filler {
      type: "constant"
    }
  }
}
layer {
  name: "conv5_2_D_bn"
  type: "BN"
  bottom: "conv5_2_D"
  top: "conv5_2_D"
  param {
    lr_mult: 1
    decay_mult: 1
  }
  param {
    lr_mult: 1
    decay_mult: 0
  }
  bn_param {
    scale_filler {
      type: "constant"
      value: 1
    }
    shift_filler {
      type: "constant"
      value: 0.001
    }
  }
}
layer {
  name: "relu5_2_D"
  type: "ReLU"
  bottom: "conv5_2_D"
  top: "conv5_2_D"
}
layer {
  name: "conv5_1_D"
  type: "Convolution"
  bottom: "conv5_2_D"
  top: "conv5_1_D"
  param {
    lr_mult: 1
    decay_mult: 1
  }
  param {
    lr_mult: 2
    decay_mult: 0
  }
  convolution_param {
    num_output: 512
    pad: 1
    kernel_size: 3
    weight_filler {
      type: "msra"
    }
    bias_filler {
      type: "constant"
    }
  }
}
layer {
  name: "conv5_1_D_bn"
  type: "BN"
  bottom: "conv5_1_D"
  top: "conv5_1_D"
  param {
    lr_mult: 1
    decay_mult: 1
  }
  param {
    lr_mult: 1
    decay_mult: 0
  }
  bn_param {
    scale_filler {
      type: "constant"
      value: 1
    }
    shift_filler {
      type: "constant"
      value: 0.001
    }
  }
}
layer {
  name: "relu5_1_D"
  type: "ReLU"
  bottom: "conv5_1_D"
  top: "conv5_1_D"
}
layer {
  name: "upsample4"
  type: "Upsample"
  bottom: "conv5_1_D"
  bottom: "pool4_mask"
  top: "pool4_D"
  upsample_param {
    scale: 2
  }
}
layer {
  name: "conv4_3_D"
  type: "Convolution"
  bottom: "pool4_D"
  top: "conv4_3_D"
  param {
    lr_mult: 1
    decay_mult: 1
  }
  param {
    lr_mult: 2
    decay_mult: 0
  }
  convolution_param {
    num_output: 512
    pad: 1
    kernel_size: 3
    weight_filler {
      type: "msra"
    }
    bias_filler {
      type: "constant"
    }
  }
}
layer {
  name: "conv4_3_D_bn"
  type: "BN"
  bottom: "conv4_3_D"
  top: "conv4_3_D"
  param {
    lr_mult: 1
    decay_mult: 1
  }
  param {
    lr_mult: 1
    decay_mult: 0
  }
  bn_param {
    scale_filler {
      type: "constant"
      value: 1
    }
    shift_filler {
      type: "constant"
      value: 0.001
    }
  }
}
layer {
  name: "relu4_3_D"
  type: "ReLU"
  bottom: "conv4_3_D"
  top: "conv4_3_D"
}
layer {
  name: "conv4_2_D"
  type: "Convolution"
  bottom: "conv4_3_D"
  top: "conv4_2_D"
  param {
    lr_mult: 1
    decay_mult: 1
  }
  param {
    lr_mult: 2
    decay_mult: 0
  }
  convolution_param {
    num_output: 512
    pad: 1
    kernel_size: 3
    weight_filler {
      type: "msra"
    }
    bias_filler {
      type: "constant"
    }
  }
}
layer {
  name: "conv4_2_D_bn"
  type: "BN"
  bottom: "conv4_2_D"
  top: "conv4_2_D"
  param {
    lr_mult: 1
    decay_mult: 1
  }
  param {
    lr_mult: 1
    decay_mult: 0
  }
  bn_param {
    scale_filler {
      type: "constant"
      value: 1
    }
    shift_filler {
      type: "constant"
      value: 0.001
    }
  }
}
layer {
  name: "relu4_2_D"
  type: "ReLU"
  bottom: "conv4_2_D"
  top: "conv4_2_D"
}
layer {
  name: "conv4_1_D"
  type: "Convolution"
  bottom: "conv4_2_D"
  top: "conv4_1_D"
  param {
    lr_mult: 1
    decay_mult: 1
  }
  param {
    lr_mult: 2
    decay_mult: 0
  }
  convolution_param {
    num_output: 256
    pad: 1
    kernel_size: 3
    weight_filler {
      type: "msra"
    }
    bias_filler {
      type: "constant"
    }
  }
}
layer {
  name: "conv4_1_D_bn"
  type: "BN"
  bottom: "conv4_1_D"
  top: "conv4_1_D"
  param {
    lr_mult: 1
    decay_mult: 1
  }
  param {
    lr_mult: 1
    decay_mult: 0
  }
  bn_param {
    scale_filler {
      type: "constant"
      value: 1
    }
    shift_filler {
      type: "constant"
      value: 0.001
    }
  }
}
layer {
  name: "relu4_1_D"
  type: "ReLU"
  bottom: "conv4_1_D"
  top: "conv4_1_D"
}
layer {
  name: "upsample3"
  type: "Upsample"
  bottom: "conv4_1_D"
  bottom: "pool3_mask"
  top: "pool3_D"
  upsample_param {
    scale: 2
  }
}
layer {
  name: "conv3_3_D"
  type: "Convolution"
  bottom: "pool3_D"
  top: "conv3_3_D"
  param {
    lr_mult: 1
    decay_mult: 1
  }
  param {
    lr_mult: 2
    decay_mult: 0
  }
  convolution_param {
    num_output: 256
    pad: 1
    kernel_size: 3
    weight_filler {
      type: "msra"
    }
    bias_filler {
      type: "constant"
    }
  }
}
layer {
  name: "conv3_3_D_bn"
  type: "BN"
  bottom: "conv3_3_D"
  top: "conv3_3_D"
  param {
    lr_mult: 1
    decay_mult: 1
  }
  param {
    lr_mult: 1
    decay_mult: 0
  }
  bn_param {
    scale_filler {
      type: "constant"
      value: 1
    }
    shift_filler {
      type: "constant"
      value: 0.001
    }
  }
}
layer {
  name: "relu3_3_D"
  type: "ReLU"
  bottom: "conv3_3_D"
  top: "conv3_3_D"
}
layer {
  name: "conv3_2_D"
  type: "Convolution"
  bottom: "conv3_3_D"
  top: "conv3_2_D"
  param {
    lr_mult: 1
    decay_mult: 1
  }
  param {
    lr_mult: 2
    decay_mult: 0
  }
  convolution_param {
    num_output: 256
    pad: 1
    kernel_size: 3
    weight_filler {
      type: "msra"
    }
    bias_filler {
      type: "constant"
    }
  }
}
layer {
  name: "conv3_2_D_bn"
  type: "BN"
  bottom: "conv3_2_D"
  top: "conv3_2_D"
  param {
    lr_mult: 1
    decay_mult: 1
  }
  param {
    lr_mult: 1
    decay_mult: 0
  }
  bn_param {
    scale_filler {
      type: "constant"
      value: 1
    }
    shift_filler {
      type: "constant"
      value: 0.001
    }
  }
}
layer {
  name: "relu3_2_D"
  type: "ReLU"
  bottom: "conv3_2_D"
  top: "conv3_2_D"
}
layer {
  name: "conv3_1_D"
  type: "Convolution"
  bottom: "conv3_2_D"
  top: "conv3_1_D"
  param {
    lr_mult: 1
    decay_mult: 1
  }
  param {
    lr_mult: 2
    decay_mult: 0
  }
  convolution_param {
    num_output: 128
    pad: 1
    kernel_size: 3
    weight_filler {
      type: "msra"
    }
    bias_filler {
      type: "constant"
    }
  }
}
layer {
  name: "conv3_1_D_bn"
  type: "BN"
  bottom: "conv3_1_D"
  top: "conv3_1_D"
  param {
    lr_mult: 1
    decay_mult: 1
  }
  param {
    lr_mult: 1
    decay_mult: 0
  }
  bn_param {
    scale_filler {
      type: "constant"
      value: 1
    }
    shift_filler {
      type: "constant"
      value: 0.001
    }
  }
}
layer {
  name: "relu3_1_D"
  type: "ReLU"
  bottom: "conv3_1_D"
  top: "conv3_1_D"
}
layer {
  name: "upsample2"
  type: "Upsample"
  bottom: "conv3_1_D"
  bottom: "pool2_mask"
  top: "pool2_D"
  upsample_param {
    scale: 2
  }
}
layer {
  name: "conv2_2_D"
  type: "Convolution"
  bottom: "pool2_D"
  top: "conv2_2_D"
  param {
    lr_mult: 1
    decay_mult: 1
  }
  param {
    lr_mult: 2
    decay_mult: 0
  }
  convolution_param {
    num_output: 128
    pad: 1
    kernel_size: 3
    weight_filler {
      type: "msra"
    }
    bias_filler {
      type: "constant"
    }
  }
}
layer {
  name: "conv2_2_D_bn"
  type: "BN"
  bottom: "conv2_2_D"
  top: "conv2_2_D"
  param {
    lr_mult: 1
    decay_mult: 1
  }
  param {
    lr_mult: 1
    decay_mult: 0
  }
  bn_param {
    scale_filler {
      type: "constant"
      value: 1
    }
    shift_filler {
      type: "constant"
      value: 0.001
    }
  }
}
layer {
  name: "relu2_2_D"
  type: "ReLU"
  bottom: "conv2_2_D"
  top: "conv2_2_D"
}
layer {
  name: "conv2_1_D"
  type: "Convolution"
  bottom: "conv2_2_D"
  top: "conv2_1_D"
  param {
    lr_mult: 1
    decay_mult: 1
  }
  param {
    lr_mult: 2
    decay_mult: 0
  }
  convolution_param {
    num_output: 64
    pad: 1
    kernel_size: 3
    weight_filler {
      type: "msra"
    }
    bias_filler {
      type: "constant"
    }
  }
}
layer {
  name: "conv2_1_D_bn"
  type: "BN"
  bottom: "conv2_1_D"
  top: "conv2_1_D"
  param {
    lr_mult: 1
    decay_mult: 1
  }
  param {
    lr_mult: 1
    decay_mult: 0
  }
  bn_param {
    scale_filler {
      type: "constant"
      value: 1
    }
    shift_filler {
      type: "constant"
      value: 0.001
    }
  }
}
layer {
  name: "relu2_1_D"
  type: "ReLU"
  bottom: "conv2_1_D"
  top: "conv2_1_D"
}
layer {
  name: "upsample1"
  type: "Upsample"
  bottom: "conv2_1_D"
  bottom: "pool1_mask"
  top: "pool1_D"
  upsample_param {
    scale: 2
  }
}
layer {
  name: "conv1_2_D"
  type: "Convolution"
  bottom: "pool1_D"
  top: "conv1_2_D"
  param {
    lr_mult: 1
    decay_mult: 1
  }
  param {
    lr_mult: 2
    decay_mult: 0
  }
  convolution_param {
    num_output: 64
    pad: 1
    kernel_size: 3
    weight_filler {
      type: "msra"
    }
    bias_filler {
      type: "constant"
    }
  }
}
layer {
  name: "conv1_2_D_bn"
  type: "BN"
  bottom: "conv1_2_D"
  top: "conv1_2_D"
  param {
    lr_mult: 1
    decay_mult: 1
  }
  param {
    lr_mult: 1
    decay_mult: 0
  }
  bn_param {
    scale_filler {
      type: "constant"
      value: 1
    }
    shift_filler {
      type: "constant"
      value: 0.001
    }
  }
}
layer {
  name: "relu1_2_D"
  type: "ReLU"
  bottom: "conv1_2_D"
  top: "conv1_2_D"
}
layer {
  name: "conv1_1_D"
  type: "Convolution"
  bottom: "conv1_2_D"
  top: "conv1_1_D"
  param {
    lr_mult: 1
    decay_mult: 1
  }
  param {
    lr_mult: 2
    decay_mult: 0
  }
  convolution_param {
    num_output: 21
    pad: 1
    kernel_size: 3
    weight_filler {
      type: "msra"
    }
    bias_filler {
      type: "constant"
    }
  }
}
layer {
  name: "loss"
  type: "SoftmaxWithLoss"
  bottom: "conv1_1_D"
  bottom: "label"
  top: "loss"
  loss_param {
    ignore_label: 255
    weight_by_label_freqs: true
    class_weighting: 0.2719
    class_weighting: 1.583
    class_weighting: 3.012
    class_weighting: 1.6572
    class_weighting: 1.7892
    class_weighting: 1.7815
    class_weighting: 0.5962
    class_weighting: 1.2053
    class_weighting: 0.674
    class_weighting: 1.8299
    class_weighting: 0.9166
    class_weighting: 0.8532
    class_weighting: 0.8935
    class_weighting: 0.9973
    class_weighting: 0.9742
    class_weighting: 1.1778
    class_weighting: 1.9162
    class_weighting: 1
    class_weighting: 0.8758
    class_weighting: 0.7225
    class_weighting: 1.3287
  }
  softmax_param {
    engine: CAFFE
  }
}
layer {
  name: "accuracy"
  type: "Accuracy"
  bottom: "conv1_1_D"
  bottom: "label"
  top: "accuracy"
  top: "per_class_accuracy"
}
I0417 23:33:45.255956  5985 layer_factory.hpp:74] Creating layer data
I0417 23:33:45.255978  5985 net.cpp:90] Creating Layer data
I0417 23:33:45.255985  5985 net.cpp:368] data -> data
I0417 23:33:45.256009  5985 net.cpp:120] Setting up data
I0417 23:33:45.256091  5985 db.cpp:34] Opened lmdb /home/shared/datasets/VOCdevkit/VOC2012/LMDB_224_pierre_2/train_lmdb
I0417 23:33:45.256261  5985 data_layer.cpp:52] output data size: 2,3,224,224
I0417 23:33:45.256891  5985 net.cpp:127] Top shape: 2 3 224 224 (301056)
I0417 23:33:45.256901  5985 layer_factory.hpp:74] Creating layer label
I0417 23:33:45.256909  5985 net.cpp:90] Creating Layer label
I0417 23:33:45.256914  5985 net.cpp:368] label -> label
I0417 23:33:45.256924  5985 net.cpp:120] Setting up label
I0417 23:33:45.256994  5985 db.cpp:34] Opened lmdb /home/shared/datasets/VOCdevkit/VOC2012/LMDB_224_pierre_2/train_gt_lmdb
I0417 23:33:45.257061  5985 data_layer.cpp:52] output data size: 2,1,224,224
I0417 23:33:45.257467  5985 net.cpp:127] Top shape: 2 1 224 224 (100352)
I0417 23:33:45.257475  5985 layer_factory.hpp:74] Creating layer label_label_0_split
I0417 23:33:45.257499  5985 net.cpp:90] Creating Layer label_label_0_split
I0417 23:33:45.257506  5985 net.cpp:410] label_label_0_split <- label
I0417 23:33:45.257518  5985 net.cpp:368] label_label_0_split -> label_label_0_split_0
I0417 23:33:45.257524  5985 net.cpp:368] label_label_0_split -> label_label_0_split_1
I0417 23:33:45.257530  5985 net.cpp:120] Setting up label_label_0_split
I0417 23:33:45.257550  5985 net.cpp:127] Top shape: 2 1 224 224 (100352)
I0417 23:33:45.257555  5985 net.cpp:127] Top shape: 2 1 224 224 (100352)
I0417 23:33:45.257560  5985 layer_factory.hpp:74] Creating layer conv1_1
I0417 23:33:45.257571  5985 net.cpp:90] Creating Layer conv1_1
I0417 23:33:45.257575  5985 net.cpp:410] conv1_1 <- data
I0417 23:33:45.257580  5985 net.cpp:368] conv1_1 -> conv1_1
I0417 23:33:45.257591  5985 net.cpp:120] Setting up conv1_1
I0417 23:33:45.258211  5985 net.cpp:127] Top shape: 2 64 224 224 (6422528)
I0417 23:33:45.258227  5985 layer_factory.hpp:74] Creating layer conv1_1_bn
I0417 23:33:45.258240  5985 net.cpp:90] Creating Layer conv1_1_bn
I0417 23:33:45.258246  5985 net.cpp:410] conv1_1_bn <- conv1_1
I0417 23:33:45.258252  5985 net.cpp:357] conv1_1_bn -> conv1_1 (in-place)
I0417 23:33:45.258260  5985 net.cpp:120] Setting up conv1_1_bn
I0417 23:33:45.258484  5985 net.cpp:127] Top shape: 2 64 224 224 (6422528)
I0417 23:33:45.258496  5985 layer_factory.hpp:74] Creating layer relu1_1
I0417 23:33:45.258503  5985 net.cpp:90] Creating Layer relu1_1
I0417 23:33:45.258507  5985 net.cpp:410] relu1_1 <- conv1_1
I0417 23:33:45.258515  5985 net.cpp:357] relu1_1 -> conv1_1 (in-place)
I0417 23:33:45.258520  5985 net.cpp:120] Setting up relu1_1
I0417 23:33:45.258525  5985 net.cpp:127] Top shape: 2 64 224 224 (6422528)
I0417 23:33:45.258529  5985 layer_factory.hpp:74] Creating layer conv1_2
I0417 23:33:45.258535  5985 net.cpp:90] Creating Layer conv1_2
I0417 23:33:45.258538  5985 net.cpp:410] conv1_2 <- conv1_1
I0417 23:33:45.258544  5985 net.cpp:368] conv1_2 -> conv1_2
I0417 23:33:45.258551  5985 net.cpp:120] Setting up conv1_2
I0417 23:33:45.260020  5985 net.cpp:127] Top shape: 2 64 224 224 (6422528)
I0417 23:33:45.260032  5985 layer_factory.hpp:74] Creating layer conv1_2_bn
I0417 23:33:45.260040  5985 net.cpp:90] Creating Layer conv1_2_bn
I0417 23:33:45.260042  5985 net.cpp:410] conv1_2_bn <- conv1_2
I0417 23:33:45.260049  5985 net.cpp:357] conv1_2_bn -> conv1_2 (in-place)
I0417 23:33:45.260056  5985 net.cpp:120] Setting up conv1_2_bn
I0417 23:33:45.260337  5985 net.cpp:127] Top shape: 2 64 224 224 (6422528)
I0417 23:33:45.260347  5985 layer_factory.hpp:74] Creating layer relu1_2
I0417 23:33:45.260354  5985 net.cpp:90] Creating Layer relu1_2
I0417 23:33:45.260359  5985 net.cpp:410] relu1_2 <- conv1_2
I0417 23:33:45.260365  5985 net.cpp:357] relu1_2 -> conv1_2 (in-place)
I0417 23:33:45.260370  5985 net.cpp:120] Setting up relu1_2
I0417 23:33:45.260375  5985 net.cpp:127] Top shape: 2 64 224 224 (6422528)
I0417 23:33:45.260378  5985 layer_factory.hpp:74] Creating layer pool1
I0417 23:33:45.260383  5985 net.cpp:90] Creating Layer pool1
I0417 23:33:45.260387  5985 net.cpp:410] pool1 <- conv1_2
I0417 23:33:45.260392  5985 net.cpp:368] pool1 -> pool1
I0417 23:33:45.260401  5985 net.cpp:368] pool1 -> pool1_mask
I0417 23:33:45.260407  5985 net.cpp:120] Setting up pool1
I0417 23:33:45.260419  5985 net.cpp:127] Top shape: 2 64 112 112 (1605632)
I0417 23:33:45.260424  5985 net.cpp:127] Top shape: 2 64 112 112 (1605632)
I0417 23:33:45.260427  5985 layer_factory.hpp:74] Creating layer conv2_1
I0417 23:33:45.260433  5985 net.cpp:90] Creating Layer conv2_1
I0417 23:33:45.260437  5985 net.cpp:410] conv2_1 <- pool1
I0417 23:33:45.260443  5985 net.cpp:368] conv2_1 -> conv2_1
I0417 23:33:45.260452  5985 net.cpp:120] Setting up conv2_1
I0417 23:33:45.263272  5985 net.cpp:127] Top shape: 2 128 112 112 (3211264)
I0417 23:33:45.263286  5985 layer_factory.hpp:74] Creating layer conv2_1_bn
I0417 23:33:45.263296  5985 net.cpp:90] Creating Layer conv2_1_bn
I0417 23:33:45.263300  5985 net.cpp:410] conv2_1_bn <- conv2_1
I0417 23:33:45.263308  5985 net.cpp:357] conv2_1_bn -> conv2_1 (in-place)
I0417 23:33:45.263325  5985 net.cpp:120] Setting up conv2_1_bn
I0417 23:33:45.263383  5985 net.cpp:127] Top shape: 2 128 112 112 (3211264)
I0417 23:33:45.263391  5985 layer_factory.hpp:74] Creating layer relu2_1
I0417 23:33:45.263396  5985 net.cpp:90] Creating Layer relu2_1
I0417 23:33:45.263399  5985 net.cpp:410] relu2_1 <- conv2_1
I0417 23:33:45.263406  5985 net.cpp:357] relu2_1 -> conv2_1 (in-place)
I0417 23:33:45.263411  5985 net.cpp:120] Setting up relu2_1
I0417 23:33:45.263414  5985 net.cpp:127] Top shape: 2 128 112 112 (3211264)
I0417 23:33:45.263418  5985 layer_factory.hpp:74] Creating layer conv2_2
I0417 23:33:45.263423  5985 net.cpp:90] Creating Layer conv2_2
I0417 23:33:45.263427  5985 net.cpp:410] conv2_2 <- conv2_1
I0417 23:33:45.263433  5985 net.cpp:368] conv2_2 -> conv2_2
I0417 23:33:45.263439  5985 net.cpp:120] Setting up conv2_2
I0417 23:33:45.268636  5985 net.cpp:127] Top shape: 2 128 112 112 (3211264)
I0417 23:33:45.268653  5985 layer_factory.hpp:74] Creating layer conv2_2_bn
I0417 23:33:45.268662  5985 net.cpp:90] Creating Layer conv2_2_bn
I0417 23:33:45.268666  5985 net.cpp:410] conv2_2_bn <- conv2_2
I0417 23:33:45.268671  5985 net.cpp:357] conv2_2_bn -> conv2_2 (in-place)
I0417 23:33:45.268677  5985 net.cpp:120] Setting up conv2_2_bn
I0417 23:33:45.268730  5985 net.cpp:127] Top shape: 2 128 112 112 (3211264)
I0417 23:33:45.268738  5985 layer_factory.hpp:74] Creating layer relu2_2
I0417 23:33:45.268748  5985 net.cpp:90] Creating Layer relu2_2
I0417 23:33:45.268751  5985 net.cpp:410] relu2_2 <- conv2_2
I0417 23:33:45.268755  5985 net.cpp:357] relu2_2 -> conv2_2 (in-place)
I0417 23:33:45.268759  5985 net.cpp:120] Setting up relu2_2
I0417 23:33:45.268764  5985 net.cpp:127] Top shape: 2 128 112 112 (3211264)
I0417 23:33:45.268767  5985 layer_factory.hpp:74] Creating layer pool2
I0417 23:33:45.268776  5985 net.cpp:90] Creating Layer pool2
I0417 23:33:45.268779  5985 net.cpp:410] pool2 <- conv2_2
I0417 23:33:45.268784  5985 net.cpp:368] pool2 -> pool2
I0417 23:33:45.268790  5985 net.cpp:368] pool2 -> pool2_mask
I0417 23:33:45.268795  5985 net.cpp:120] Setting up pool2
I0417 23:33:45.268801  5985 net.cpp:127] Top shape: 2 128 56 56 (802816)
I0417 23:33:45.268805  5985 net.cpp:127] Top shape: 2 128 56 56 (802816)
I0417 23:33:45.268808  5985 layer_factory.hpp:74] Creating layer conv3_1
I0417 23:33:45.268815  5985 net.cpp:90] Creating Layer conv3_1
I0417 23:33:45.268818  5985 net.cpp:410] conv3_1 <- pool2
I0417 23:33:45.268833  5985 net.cpp:368] conv3_1 -> conv3_1
I0417 23:33:45.268839  5985 net.cpp:120] Setting up conv3_1
I0417 23:33:45.279060  5985 net.cpp:127] Top shape: 2 256 56 56 (1605632)
I0417 23:33:45.279078  5985 layer_factory.hpp:74] Creating layer conv3_1_bn
I0417 23:33:45.279088  5985 net.cpp:90] Creating Layer conv3_1_bn
I0417 23:33:45.279093  5985 net.cpp:410] conv3_1_bn <- conv3_1
I0417 23:33:45.279098  5985 net.cpp:357] conv3_1_bn -> conv3_1 (in-place)
I0417 23:33:45.279103  5985 net.cpp:120] Setting up conv3_1_bn
I0417 23:33:45.279125  5985 net.cpp:127] Top shape: 2 256 56 56 (1605632)
I0417 23:33:45.279131  5985 layer_factory.hpp:74] Creating layer relu3_1
I0417 23:33:45.279137  5985 net.cpp:90] Creating Layer relu3_1
I0417 23:33:45.279140  5985 net.cpp:410] relu3_1 <- conv3_1
I0417 23:33:45.279145  5985 net.cpp:357] relu3_1 -> conv3_1 (in-place)
I0417 23:33:45.279150  5985 net.cpp:120] Setting up relu3_1
I0417 23:33:45.279153  5985 net.cpp:127] Top shape: 2 256 56 56 (1605632)
I0417 23:33:45.279156  5985 layer_factory.hpp:74] Creating layer conv3_2
I0417 23:33:45.279163  5985 net.cpp:90] Creating Layer conv3_2
I0417 23:33:45.279166  5985 net.cpp:410] conv3_2 <- conv3_1
I0417 23:33:45.279171  5985 net.cpp:368] conv3_2 -> conv3_2
I0417 23:33:45.279176  5985 net.cpp:120] Setting up conv3_2
I0417 23:33:45.298606  5985 net.cpp:127] Top shape: 2 256 56 56 (1605632)
I0417 23:33:45.298619  5985 layer_factory.hpp:74] Creating layer conv3_2_bn
I0417 23:33:45.298627  5985 net.cpp:90] Creating Layer conv3_2_bn
I0417 23:33:45.298631  5985 net.cpp:410] conv3_2_bn <- conv3_2
I0417 23:33:45.298646  5985 net.cpp:357] conv3_2_bn -> conv3_2 (in-place)
I0417 23:33:45.298653  5985 net.cpp:120] Setting up conv3_2_bn
I0417 23:33:45.298673  5985 net.cpp:127] Top shape: 2 256 56 56 (1605632)
I0417 23:33:45.298681  5985 layer_factory.hpp:74] Creating layer relu3_2
I0417 23:33:45.298686  5985 net.cpp:90] Creating Layer relu3_2
I0417 23:33:45.298688  5985 net.cpp:410] relu3_2 <- conv3_2
I0417 23:33:45.298692  5985 net.cpp:357] relu3_2 -> conv3_2 (in-place)
I0417 23:33:45.298696  5985 net.cpp:120] Setting up relu3_2
I0417 23:33:45.298701  5985 net.cpp:127] Top shape: 2 256 56 56 (1605632)
I0417 23:33:45.298703  5985 layer_factory.hpp:74] Creating layer conv3_3
I0417 23:33:45.298710  5985 net.cpp:90] Creating Layer conv3_3
I0417 23:33:45.298713  5985 net.cpp:410] conv3_3 <- conv3_2
I0417 23:33:45.298717  5985 net.cpp:368] conv3_3 -> conv3_3
I0417 23:33:45.298722  5985 net.cpp:120] Setting up conv3_3
I0417 23:33:45.316988  5985 net.cpp:127] Top shape: 2 256 56 56 (1605632)
I0417 23:33:45.317001  5985 layer_factory.hpp:74] Creating layer conv3_3_bn
I0417 23:33:45.317008  5985 net.cpp:90] Creating Layer conv3_3_bn
I0417 23:33:45.317010  5985 net.cpp:410] conv3_3_bn <- conv3_3
I0417 23:33:45.317016  5985 net.cpp:357] conv3_3_bn -> conv3_3 (in-place)
I0417 23:33:45.317021  5985 net.cpp:120] Setting up conv3_3_bn
I0417 23:33:45.317039  5985 net.cpp:127] Top shape: 2 256 56 56 (1605632)
I0417 23:33:45.317044  5985 layer_factory.hpp:74] Creating layer relu3_3
I0417 23:33:45.317049  5985 net.cpp:90] Creating Layer relu3_3
I0417 23:33:45.317051  5985 net.cpp:410] relu3_3 <- conv3_3
I0417 23:33:45.317055  5985 net.cpp:357] relu3_3 -> conv3_3 (in-place)
I0417 23:33:45.317059  5985 net.cpp:120] Setting up relu3_3
I0417 23:33:45.317062  5985 net.cpp:127] Top shape: 2 256 56 56 (1605632)
I0417 23:33:45.317065  5985 layer_factory.hpp:74] Creating layer pool3
I0417 23:33:45.317070  5985 net.cpp:90] Creating Layer pool3
I0417 23:33:45.317072  5985 net.cpp:410] pool3 <- conv3_3
I0417 23:33:45.317076  5985 net.cpp:368] pool3 -> pool3
I0417 23:33:45.317081  5985 net.cpp:368] pool3 -> pool3_mask
I0417 23:33:45.317087  5985 net.cpp:120] Setting up pool3
I0417 23:33:45.317092  5985 net.cpp:127] Top shape: 2 256 28 28 (401408)
I0417 23:33:45.317097  5985 net.cpp:127] Top shape: 2 256 28 28 (401408)
I0417 23:33:45.317101  5985 layer_factory.hpp:74] Creating layer conv4_1
I0417 23:33:45.317106  5985 net.cpp:90] Creating Layer conv4_1
I0417 23:33:45.317109  5985 net.cpp:410] conv4_1 <- pool3
I0417 23:33:45.317116  5985 net.cpp:368] conv4_1 -> conv4_1
I0417 23:33:45.317121  5985 net.cpp:120] Setting up conv4_1
I0417 23:33:45.352095  5985 net.cpp:127] Top shape: 2 512 28 28 (802816)
I0417 23:33:45.352108  5985 layer_factory.hpp:74] Creating layer conv4_1_bn
I0417 23:33:45.352115  5985 net.cpp:90] Creating Layer conv4_1_bn
I0417 23:33:45.352118  5985 net.cpp:410] conv4_1_bn <- conv4_1
I0417 23:33:45.352123  5985 net.cpp:357] conv4_1_bn -> conv4_1 (in-place)
I0417 23:33:45.352128  5985 net.cpp:120] Setting up conv4_1_bn
I0417 23:33:45.352143  5985 net.cpp:127] Top shape: 2 512 28 28 (802816)
I0417 23:33:45.352149  5985 layer_factory.hpp:74] Creating layer relu4_1
I0417 23:33:45.352152  5985 net.cpp:90] Creating Layer relu4_1
I0417 23:33:45.352155  5985 net.cpp:410] relu4_1 <- conv4_1
I0417 23:33:45.352159  5985 net.cpp:357] relu4_1 -> conv4_1 (in-place)
I0417 23:33:45.352164  5985 net.cpp:120] Setting up relu4_1
I0417 23:33:45.352167  5985 net.cpp:127] Top shape: 2 512 28 28 (802816)
I0417 23:33:45.352170  5985 layer_factory.hpp:74] Creating layer conv4_2
I0417 23:33:45.352175  5985 net.cpp:90] Creating Layer conv4_2
I0417 23:33:45.352179  5985 net.cpp:410] conv4_2 <- conv4_1
I0417 23:33:45.352182  5985 net.cpp:368] conv4_2 -> conv4_2
I0417 23:33:45.352187  5985 net.cpp:120] Setting up conv4_2
I0417 23:33:45.422265  5985 net.cpp:127] Top shape: 2 512 28 28 (802816)
I0417 23:33:45.422281  5985 layer_factory.hpp:74] Creating layer conv4_2_bn
I0417 23:33:45.422288  5985 net.cpp:90] Creating Layer conv4_2_bn
I0417 23:33:45.422291  5985 net.cpp:410] conv4_2_bn <- conv4_2
I0417 23:33:45.422310  5985 net.cpp:357] conv4_2_bn -> conv4_2 (in-place)
I0417 23:33:45.422317  5985 net.cpp:120] Setting up conv4_2_bn
I0417 23:33:45.422330  5985 net.cpp:127] Top shape: 2 512 28 28 (802816)
I0417 23:33:45.422338  5985 layer_factory.hpp:74] Creating layer relu4_2
I0417 23:33:45.422344  5985 net.cpp:90] Creating Layer relu4_2
I0417 23:33:45.422348  5985 net.cpp:410] relu4_2 <- conv4_2
I0417 23:33:45.422351  5985 net.cpp:357] relu4_2 -> conv4_2 (in-place)
I0417 23:33:45.422354  5985 net.cpp:120] Setting up relu4_2
I0417 23:33:45.422359  5985 net.cpp:127] Top shape: 2 512 28 28 (802816)
I0417 23:33:45.422361  5985 layer_factory.hpp:74] Creating layer conv4_3
I0417 23:33:45.422368  5985 net.cpp:90] Creating Layer conv4_3
I0417 23:33:45.422370  5985 net.cpp:410] conv4_3 <- conv4_2
I0417 23:33:45.422375  5985 net.cpp:368] conv4_3 -> conv4_3
I0417 23:33:45.422380  5985 net.cpp:120] Setting up conv4_3
I0417 23:33:45.492357  5985 net.cpp:127] Top shape: 2 512 28 28 (802816)
I0417 23:33:45.492372  5985 layer_factory.hpp:74] Creating layer conv4_3_bn
I0417 23:33:45.492379  5985 net.cpp:90] Creating Layer conv4_3_bn
I0417 23:33:45.492383  5985 net.cpp:410] conv4_3_bn <- conv4_3
I0417 23:33:45.492389  5985 net.cpp:357] conv4_3_bn -> conv4_3 (in-place)
I0417 23:33:45.492394  5985 net.cpp:120] Setting up conv4_3_bn
I0417 23:33:45.492408  5985 net.cpp:127] Top shape: 2 512 28 28 (802816)
I0417 23:33:45.492413  5985 layer_factory.hpp:74] Creating layer relu4_3
I0417 23:33:45.492419  5985 net.cpp:90] Creating Layer relu4_3
I0417 23:33:45.492421  5985 net.cpp:410] relu4_3 <- conv4_3
I0417 23:33:45.492424  5985 net.cpp:357] relu4_3 -> conv4_3 (in-place)
I0417 23:33:45.492429  5985 net.cpp:120] Setting up relu4_3
I0417 23:33:45.492432  5985 net.cpp:127] Top shape: 2 512 28 28 (802816)
I0417 23:33:45.492435  5985 layer_factory.hpp:74] Creating layer pool4
I0417 23:33:45.492440  5985 net.cpp:90] Creating Layer pool4
I0417 23:33:45.492444  5985 net.cpp:410] pool4 <- conv4_3
I0417 23:33:45.492447  5985 net.cpp:368] pool4 -> pool4
I0417 23:33:45.492455  5985 net.cpp:368] pool4 -> pool4_mask
I0417 23:33:45.492460  5985 net.cpp:120] Setting up pool4
I0417 23:33:45.492465  5985 net.cpp:127] Top shape: 2 512 14 14 (200704)
I0417 23:33:45.492467  5985 net.cpp:127] Top shape: 2 512 14 14 (200704)
I0417 23:33:45.492470  5985 layer_factory.hpp:74] Creating layer conv5_1
I0417 23:33:45.492476  5985 net.cpp:90] Creating Layer conv5_1
I0417 23:33:45.492480  5985 net.cpp:410] conv5_1 <- pool4
I0417 23:33:45.492483  5985 net.cpp:368] conv5_1 -> conv5_1
I0417 23:33:45.492487  5985 net.cpp:120] Setting up conv5_1
I0417 23:33:45.562760  5985 net.cpp:127] Top shape: 2 512 14 14 (200704)
I0417 23:33:45.562775  5985 layer_factory.hpp:74] Creating layer conv5_1_bn
I0417 23:33:45.562783  5985 net.cpp:90] Creating Layer conv5_1_bn
I0417 23:33:45.562788  5985 net.cpp:410] conv5_1_bn <- conv5_1
I0417 23:33:45.562793  5985 net.cpp:357] conv5_1_bn -> conv5_1 (in-place)
I0417 23:33:45.562798  5985 net.cpp:120] Setting up conv5_1_bn
I0417 23:33:45.562811  5985 net.cpp:127] Top shape: 2 512 14 14 (200704)
I0417 23:33:45.562816  5985 layer_factory.hpp:74] Creating layer relu5_1
I0417 23:33:45.562822  5985 net.cpp:90] Creating Layer relu5_1
I0417 23:33:45.562825  5985 net.cpp:410] relu5_1 <- conv5_1
I0417 23:33:45.562829  5985 net.cpp:357] relu5_1 -> conv5_1 (in-place)
I0417 23:33:45.562832  5985 net.cpp:120] Setting up relu5_1
I0417 23:33:45.562836  5985 net.cpp:127] Top shape: 2 512 14 14 (200704)
I0417 23:33:45.562839  5985 layer_factory.hpp:74] Creating layer conv5_2
I0417 23:33:45.562846  5985 net.cpp:90] Creating Layer conv5_2
I0417 23:33:45.562849  5985 net.cpp:410] conv5_2 <- conv5_1
I0417 23:33:45.562854  5985 net.cpp:368] conv5_2 -> conv5_2
I0417 23:33:45.562858  5985 net.cpp:120] Setting up conv5_2
I0417 23:33:45.632762  5985 net.cpp:127] Top shape: 2 512 14 14 (200704)
I0417 23:33:45.632778  5985 layer_factory.hpp:74] Creating layer conv5_2_bn
I0417 23:33:45.632787  5985 net.cpp:90] Creating Layer conv5_2_bn
I0417 23:33:45.632807  5985 net.cpp:410] conv5_2_bn <- conv5_2
I0417 23:33:45.632813  5985 net.cpp:357] conv5_2_bn -> conv5_2 (in-place)
I0417 23:33:45.632819  5985 net.cpp:120] Setting up conv5_2_bn
I0417 23:33:45.632833  5985 net.cpp:127] Top shape: 2 512 14 14 (200704)
I0417 23:33:45.632838  5985 layer_factory.hpp:74] Creating layer relu5_2
I0417 23:33:45.632843  5985 net.cpp:90] Creating Layer relu5_2
I0417 23:33:45.632845  5985 net.cpp:410] relu5_2 <- conv5_2
I0417 23:33:45.632848  5985 net.cpp:357] relu5_2 -> conv5_2 (in-place)
I0417 23:33:45.632853  5985 net.cpp:120] Setting up relu5_2
I0417 23:33:45.632856  5985 net.cpp:127] Top shape: 2 512 14 14 (200704)
I0417 23:33:45.632859  5985 layer_factory.hpp:74] Creating layer conv5_3
I0417 23:33:45.632865  5985 net.cpp:90] Creating Layer conv5_3
I0417 23:33:45.632868  5985 net.cpp:410] conv5_3 <- conv5_2
I0417 23:33:45.632874  5985 net.cpp:368] conv5_3 -> conv5_3
I0417 23:33:45.632879  5985 net.cpp:120] Setting up conv5_3
I0417 23:33:45.703186  5985 net.cpp:127] Top shape: 2 512 14 14 (200704)
I0417 23:33:45.703202  5985 layer_factory.hpp:74] Creating layer conv5_3_bn
I0417 23:33:45.703209  5985 net.cpp:90] Creating Layer conv5_3_bn
I0417 23:33:45.703213  5985 net.cpp:410] conv5_3_bn <- conv5_3
I0417 23:33:45.703218  5985 net.cpp:357] conv5_3_bn -> conv5_3 (in-place)
I0417 23:33:45.703223  5985 net.cpp:120] Setting up conv5_3_bn
I0417 23:33:45.703235  5985 net.cpp:127] Top shape: 2 512 14 14 (200704)
I0417 23:33:45.703241  5985 layer_factory.hpp:74] Creating layer relu5_3
I0417 23:33:45.703245  5985 net.cpp:90] Creating Layer relu5_3
I0417 23:33:45.703248  5985 net.cpp:410] relu5_3 <- conv5_3
I0417 23:33:45.703253  5985 net.cpp:357] relu5_3 -> conv5_3 (in-place)
I0417 23:33:45.703256  5985 net.cpp:120] Setting up relu5_3
I0417 23:33:45.703259  5985 net.cpp:127] Top shape: 2 512 14 14 (200704)
I0417 23:33:45.703263  5985 layer_factory.hpp:74] Creating layer pool5
I0417 23:33:45.703269  5985 net.cpp:90] Creating Layer pool5
I0417 23:33:45.703272  5985 net.cpp:410] pool5 <- conv5_3
I0417 23:33:45.703277  5985 net.cpp:368] pool5 -> pool5
I0417 23:33:45.703282  5985 net.cpp:368] pool5 -> pool5_mask
I0417 23:33:45.703287  5985 net.cpp:120] Setting up pool5
I0417 23:33:45.703294  5985 net.cpp:127] Top shape: 2 512 7 7 (50176)
I0417 23:33:45.703296  5985 net.cpp:127] Top shape: 2 512 7 7 (50176)
I0417 23:33:45.703299  5985 layer_factory.hpp:74] Creating layer upsample5
I0417 23:33:45.703311  5985 net.cpp:90] Creating Layer upsample5
I0417 23:33:45.703315  5985 net.cpp:410] upsample5 <- pool5
I0417 23:33:45.703318  5985 net.cpp:410] upsample5 <- pool5_mask
I0417 23:33:45.703323  5985 net.cpp:368] upsample5 -> pool5_D
I0417 23:33:45.703330  5985 net.cpp:120] Setting up upsample5
I0417 23:33:45.703335  5985 upsample_layer.cpp:31] Params 'pad_out_{}_' are deprecated. Please declare upsample height and width useing the upsample_h, upsample_w parameters.
I0417 23:33:45.703339  5985 net.cpp:127] Top shape: 2 512 14 14 (200704)
I0417 23:33:45.703342  5985 layer_factory.hpp:74] Creating layer conv5_3_D
I0417 23:33:45.703349  5985 net.cpp:90] Creating Layer conv5_3_D
I0417 23:33:45.703352  5985 net.cpp:410] conv5_3_D <- pool5_D
I0417 23:33:45.703357  5985 net.cpp:368] conv5_3_D -> conv5_3_D
I0417 23:33:45.703361  5985 net.cpp:120] Setting up conv5_3_D
I0417 23:33:45.773149  5985 net.cpp:127] Top shape: 2 512 14 14 (200704)
I0417 23:33:45.773164  5985 layer_factory.hpp:74] Creating layer conv5_3_D_bn
I0417 23:33:45.773172  5985 net.cpp:90] Creating Layer conv5_3_D_bn
I0417 23:33:45.773175  5985 net.cpp:410] conv5_3_D_bn <- conv5_3_D
I0417 23:33:45.773180  5985 net.cpp:357] conv5_3_D_bn -> conv5_3_D (in-place)
I0417 23:33:45.773186  5985 net.cpp:120] Setting up conv5_3_D_bn
I0417 23:33:45.773198  5985 net.cpp:127] Top shape: 2 512 14 14 (200704)
I0417 23:33:45.773205  5985 layer_factory.hpp:74] Creating layer relu5_3_D
I0417 23:33:45.773208  5985 net.cpp:90] Creating Layer relu5_3_D
I0417 23:33:45.773211  5985 net.cpp:410] relu5_3_D <- conv5_3_D
I0417 23:33:45.773216  5985 net.cpp:357] relu5_3_D -> conv5_3_D (in-place)
I0417 23:33:45.773236  5985 net.cpp:120] Setting up relu5_3_D
I0417 23:33:45.773241  5985 net.cpp:127] Top shape: 2 512 14 14 (200704)
I0417 23:33:45.773243  5985 layer_factory.hpp:74] Creating layer conv5_2_D
I0417 23:33:45.773248  5985 net.cpp:90] Creating Layer conv5_2_D
I0417 23:33:45.773252  5985 net.cpp:410] conv5_2_D <- conv5_3_D
I0417 23:33:45.773257  5985 net.cpp:368] conv5_2_D -> conv5_2_D
I0417 23:33:45.773262  5985 net.cpp:120] Setting up conv5_2_D
I0417 23:33:45.843426  5985 net.cpp:127] Top shape: 2 512 14 14 (200704)
I0417 23:33:45.843441  5985 layer_factory.hpp:74] Creating layer conv5_2_D_bn
I0417 23:33:45.843448  5985 net.cpp:90] Creating Layer conv5_2_D_bn
I0417 23:33:45.843452  5985 net.cpp:410] conv5_2_D_bn <- conv5_2_D
I0417 23:33:45.843459  5985 net.cpp:357] conv5_2_D_bn -> conv5_2_D (in-place)
I0417 23:33:45.843466  5985 net.cpp:120] Setting up conv5_2_D_bn
I0417 23:33:45.843477  5985 net.cpp:127] Top shape: 2 512 14 14 (200704)
I0417 23:33:45.843482  5985 layer_factory.hpp:74] Creating layer relu5_2_D
I0417 23:33:45.843487  5985 net.cpp:90] Creating Layer relu5_2_D
I0417 23:33:45.843490  5985 net.cpp:410] relu5_2_D <- conv5_2_D
I0417 23:33:45.843494  5985 net.cpp:357] relu5_2_D -> conv5_2_D (in-place)
I0417 23:33:45.843497  5985 net.cpp:120] Setting up relu5_2_D
I0417 23:33:45.843502  5985 net.cpp:127] Top shape: 2 512 14 14 (200704)
I0417 23:33:45.843504  5985 layer_factory.hpp:74] Creating layer conv5_1_D
I0417 23:33:45.843510  5985 net.cpp:90] Creating Layer conv5_1_D
I0417 23:33:45.843513  5985 net.cpp:410] conv5_1_D <- conv5_2_D
I0417 23:33:45.843518  5985 net.cpp:368] conv5_1_D -> conv5_1_D
I0417 23:33:45.843523  5985 net.cpp:120] Setting up conv5_1_D
I0417 23:33:45.913494  5985 net.cpp:127] Top shape: 2 512 14 14 (200704)
I0417 23:33:45.913509  5985 layer_factory.hpp:74] Creating layer conv5_1_D_bn
I0417 23:33:45.913518  5985 net.cpp:90] Creating Layer conv5_1_D_bn
I0417 23:33:45.913522  5985 net.cpp:410] conv5_1_D_bn <- conv5_1_D
I0417 23:33:45.913528  5985 net.cpp:357] conv5_1_D_bn -> conv5_1_D (in-place)
I0417 23:33:45.913534  5985 net.cpp:120] Setting up conv5_1_D_bn
I0417 23:33:45.913547  5985 net.cpp:127] Top shape: 2 512 14 14 (200704)
I0417 23:33:45.913552  5985 layer_factory.hpp:74] Creating layer relu5_1_D
I0417 23:33:45.913557  5985 net.cpp:90] Creating Layer relu5_1_D
I0417 23:33:45.913559  5985 net.cpp:410] relu5_1_D <- conv5_1_D
I0417 23:33:45.913563  5985 net.cpp:357] relu5_1_D -> conv5_1_D (in-place)
I0417 23:33:45.913566  5985 net.cpp:120] Setting up relu5_1_D
I0417 23:33:45.913570  5985 net.cpp:127] Top shape: 2 512 14 14 (200704)
I0417 23:33:45.913573  5985 layer_factory.hpp:74] Creating layer upsample4
I0417 23:33:45.913578  5985 net.cpp:90] Creating Layer upsample4
I0417 23:33:45.913581  5985 net.cpp:410] upsample4 <- conv5_1_D
I0417 23:33:45.913585  5985 net.cpp:410] upsample4 <- pool4_mask
I0417 23:33:45.913589  5985 net.cpp:368] upsample4 -> pool4_D
I0417 23:33:45.913594  5985 net.cpp:120] Setting up upsample4
I0417 23:33:45.913597  5985 upsample_layer.cpp:31] Params 'pad_out_{}_' are deprecated. Please declare upsample height and width useing the upsample_h, upsample_w parameters.
I0417 23:33:45.913602  5985 net.cpp:127] Top shape: 2 512 28 28 (802816)
I0417 23:33:45.913605  5985 layer_factory.hpp:74] Creating layer conv4_3_D
I0417 23:33:45.913612  5985 net.cpp:90] Creating Layer conv4_3_D
I0417 23:33:45.913615  5985 net.cpp:410] conv4_3_D <- pool4_D
I0417 23:33:45.913619  5985 net.cpp:368] conv4_3_D -> conv4_3_D
I0417 23:33:45.913627  5985 net.cpp:120] Setting up conv4_3_D
I0417 23:33:45.983659  5985 net.cpp:127] Top shape: 2 512 28 28 (802816)
I0417 23:33:45.983680  5985 layer_factory.hpp:74] Creating layer conv4_3_D_bn
I0417 23:33:45.983688  5985 net.cpp:90] Creating Layer conv4_3_D_bn
I0417 23:33:45.983692  5985 net.cpp:410] conv4_3_D_bn <- conv4_3_D
I0417 23:33:45.983697  5985 net.cpp:357] conv4_3_D_bn -> conv4_3_D (in-place)
I0417 23:33:45.983703  5985 net.cpp:120] Setting up conv4_3_D_bn
I0417 23:33:45.983717  5985 net.cpp:127] Top shape: 2 512 28 28 (802816)
I0417 23:33:45.983738  5985 layer_factory.hpp:74] Creating layer relu4_3_D
I0417 23:33:45.983743  5985 net.cpp:90] Creating Layer relu4_3_D
I0417 23:33:45.983747  5985 net.cpp:410] relu4_3_D <- conv4_3_D
I0417 23:33:45.983750  5985 net.cpp:357] relu4_3_D -> conv4_3_D (in-place)
I0417 23:33:45.983754  5985 net.cpp:120] Setting up relu4_3_D
I0417 23:33:45.983758  5985 net.cpp:127] Top shape: 2 512 28 28 (802816)
I0417 23:33:45.983762  5985 layer_factory.hpp:74] Creating layer conv4_2_D
I0417 23:33:45.983767  5985 net.cpp:90] Creating Layer conv4_2_D
I0417 23:33:45.983770  5985 net.cpp:410] conv4_2_D <- conv4_3_D
I0417 23:33:45.983774  5985 net.cpp:368] conv4_2_D -> conv4_2_D
I0417 23:33:45.983779  5985 net.cpp:120] Setting up conv4_2_D
I0417 23:33:46.053606  5985 net.cpp:127] Top shape: 2 512 28 28 (802816)
I0417 23:33:46.053622  5985 layer_factory.hpp:74] Creating layer conv4_2_D_bn
I0417 23:33:46.053629  5985 net.cpp:90] Creating Layer conv4_2_D_bn
I0417 23:33:46.053633  5985 net.cpp:410] conv4_2_D_bn <- conv4_2_D
I0417 23:33:46.053638  5985 net.cpp:357] conv4_2_D_bn -> conv4_2_D (in-place)
I0417 23:33:46.053643  5985 net.cpp:120] Setting up conv4_2_D_bn
I0417 23:33:46.053661  5985 net.cpp:127] Top shape: 2 512 28 28 (802816)
I0417 23:33:46.053668  5985 layer_factory.hpp:74] Creating layer relu4_2_D
I0417 23:33:46.053674  5985 net.cpp:90] Creating Layer relu4_2_D
I0417 23:33:46.053678  5985 net.cpp:410] relu4_2_D <- conv4_2_D
I0417 23:33:46.053681  5985 net.cpp:357] relu4_2_D -> conv4_2_D (in-place)
I0417 23:33:46.053685  5985 net.cpp:120] Setting up relu4_2_D
I0417 23:33:46.053689  5985 net.cpp:127] Top shape: 2 512 28 28 (802816)
I0417 23:33:46.053691  5985 layer_factory.hpp:74] Creating layer conv4_1_D
I0417 23:33:46.053704  5985 net.cpp:90] Creating Layer conv4_1_D
I0417 23:33:46.053706  5985 net.cpp:410] conv4_1_D <- conv4_2_D
I0417 23:33:46.053711  5985 net.cpp:368] conv4_1_D -> conv4_1_D
I0417 23:33:46.053715  5985 net.cpp:120] Setting up conv4_1_D
I0417 23:33:46.089087  5985 net.cpp:127] Top shape: 2 256 28 28 (401408)
I0417 23:33:46.089100  5985 layer_factory.hpp:74] Creating layer conv4_1_D_bn
I0417 23:33:46.089108  5985 net.cpp:90] Creating Layer conv4_1_D_bn
I0417 23:33:46.089112  5985 net.cpp:410] conv4_1_D_bn <- conv4_1_D
I0417 23:33:46.089117  5985 net.cpp:357] conv4_1_D_bn -> conv4_1_D (in-place)
I0417 23:33:46.089123  5985 net.cpp:120] Setting up conv4_1_D_bn
I0417 23:33:46.089136  5985 net.cpp:127] Top shape: 2 256 28 28 (401408)
I0417 23:33:46.089143  5985 layer_factory.hpp:74] Creating layer relu4_1_D
I0417 23:33:46.089148  5985 net.cpp:90] Creating Layer relu4_1_D
I0417 23:33:46.089150  5985 net.cpp:410] relu4_1_D <- conv4_1_D
I0417 23:33:46.089154  5985 net.cpp:357] relu4_1_D -> conv4_1_D (in-place)
I0417 23:33:46.089157  5985 net.cpp:120] Setting up relu4_1_D
I0417 23:33:46.089161  5985 net.cpp:127] Top shape: 2 256 28 28 (401408)
I0417 23:33:46.089164  5985 layer_factory.hpp:74] Creating layer upsample3
I0417 23:33:46.089174  5985 net.cpp:90] Creating Layer upsample3
I0417 23:33:46.089176  5985 net.cpp:410] upsample3 <- conv4_1_D
I0417 23:33:46.089180  5985 net.cpp:410] upsample3 <- pool3_mask
I0417 23:33:46.089184  5985 net.cpp:368] upsample3 -> pool3_D
I0417 23:33:46.089190  5985 net.cpp:120] Setting up upsample3
I0417 23:33:46.089192  5985 upsample_layer.cpp:31] Params 'pad_out_{}_' are deprecated. Please declare upsample height and width useing the upsample_h, upsample_w parameters.
I0417 23:33:46.089197  5985 net.cpp:127] Top shape: 2 256 56 56 (1605632)
I0417 23:33:46.089200  5985 layer_factory.hpp:74] Creating layer conv3_3_D
I0417 23:33:46.089205  5985 net.cpp:90] Creating Layer conv3_3_D
I0417 23:33:46.089208  5985 net.cpp:410] conv3_3_D <- pool3_D
I0417 23:33:46.089215  5985 net.cpp:368] conv3_3_D -> conv3_3_D
I0417 23:33:46.089220  5985 net.cpp:120] Setting up conv3_3_D
I0417 23:33:46.107152  5985 net.cpp:127] Top shape: 2 256 56 56 (1605632)
I0417 23:33:46.107166  5985 layer_factory.hpp:74] Creating layer conv3_3_D_bn
I0417 23:33:46.107173  5985 net.cpp:90] Creating Layer conv3_3_D_bn
I0417 23:33:46.107188  5985 net.cpp:410] conv3_3_D_bn <- conv3_3_D
I0417 23:33:46.107197  5985 net.cpp:357] conv3_3_D_bn -> conv3_3_D (in-place)
I0417 23:33:46.107202  5985 net.cpp:120] Setting up conv3_3_D_bn
I0417 23:33:46.107218  5985 net.cpp:127] Top shape: 2 256 56 56 (1605632)
I0417 23:33:46.107223  5985 layer_factory.hpp:74] Creating layer relu3_3_D
I0417 23:33:46.107228  5985 net.cpp:90] Creating Layer relu3_3_D
I0417 23:33:46.107230  5985 net.cpp:410] relu3_3_D <- conv3_3_D
I0417 23:33:46.107234  5985 net.cpp:357] relu3_3_D -> conv3_3_D (in-place)
I0417 23:33:46.107237  5985 net.cpp:120] Setting up relu3_3_D
I0417 23:33:46.107241  5985 net.cpp:127] Top shape: 2 256 56 56 (1605632)
I0417 23:33:46.107244  5985 layer_factory.hpp:74] Creating layer conv3_2_D
I0417 23:33:46.107251  5985 net.cpp:90] Creating Layer conv3_2_D
I0417 23:33:46.107254  5985 net.cpp:410] conv3_2_D <- conv3_3_D
I0417 23:33:46.107259  5985 net.cpp:368] conv3_2_D -> conv3_2_D
I0417 23:33:46.107264  5985 net.cpp:120] Setting up conv3_2_D
I0417 23:33:46.124467  5985 net.cpp:127] Top shape: 2 256 56 56 (1605632)
I0417 23:33:46.124478  5985 layer_factory.hpp:74] Creating layer conv3_2_D_bn
I0417 23:33:46.124485  5985 net.cpp:90] Creating Layer conv3_2_D_bn
I0417 23:33:46.124488  5985 net.cpp:410] conv3_2_D_bn <- conv3_2_D
I0417 23:33:46.124495  5985 net.cpp:357] conv3_2_D_bn -> conv3_2_D (in-place)
I0417 23:33:46.124500  5985 net.cpp:120] Setting up conv3_2_D_bn
I0417 23:33:46.124516  5985 net.cpp:127] Top shape: 2 256 56 56 (1605632)
I0417 23:33:46.124521  5985 layer_factory.hpp:74] Creating layer relu3_2_D
I0417 23:33:46.124526  5985 net.cpp:90] Creating Layer relu3_2_D
I0417 23:33:46.124528  5985 net.cpp:410] relu3_2_D <- conv3_2_D
I0417 23:33:46.124532  5985 net.cpp:357] relu3_2_D -> conv3_2_D (in-place)
I0417 23:33:46.124536  5985 net.cpp:120] Setting up relu3_2_D
I0417 23:33:46.124541  5985 net.cpp:127] Top shape: 2 256 56 56 (1605632)
I0417 23:33:46.124543  5985 layer_factory.hpp:74] Creating layer conv3_1_D
I0417 23:33:46.124548  5985 net.cpp:90] Creating Layer conv3_1_D
I0417 23:33:46.124552  5985 net.cpp:410] conv3_1_D <- conv3_2_D
I0417 23:33:46.124557  5985 net.cpp:368] conv3_1_D -> conv3_1_D
I0417 23:33:46.124560  5985 net.cpp:120] Setting up conv3_1_D
I0417 23:33:46.132987  5985 net.cpp:127] Top shape: 2 128 56 56 (802816)
I0417 23:33:46.132998  5985 layer_factory.hpp:74] Creating layer conv3_1_D_bn
I0417 23:33:46.133004  5985 net.cpp:90] Creating Layer conv3_1_D_bn
I0417 23:33:46.133008  5985 net.cpp:410] conv3_1_D_bn <- conv3_1_D
I0417 23:33:46.133013  5985 net.cpp:357] conv3_1_D_bn -> conv3_1_D (in-place)
I0417 23:33:46.133018  5985 net.cpp:120] Setting up conv3_1_D_bn
I0417 23:33:46.133034  5985 net.cpp:127] Top shape: 2 128 56 56 (802816)
I0417 23:33:46.133039  5985 layer_factory.hpp:74] Creating layer relu3_1_D
I0417 23:33:46.133044  5985 net.cpp:90] Creating Layer relu3_1_D
I0417 23:33:46.133046  5985 net.cpp:410] relu3_1_D <- conv3_1_D
I0417 23:33:46.133050  5985 net.cpp:357] relu3_1_D -> conv3_1_D (in-place)
I0417 23:33:46.133054  5985 net.cpp:120] Setting up relu3_1_D
I0417 23:33:46.133057  5985 net.cpp:127] Top shape: 2 128 56 56 (802816)
I0417 23:33:46.133059  5985 layer_factory.hpp:74] Creating layer upsample2
I0417 23:33:46.133064  5985 net.cpp:90] Creating Layer upsample2
I0417 23:33:46.133066  5985 net.cpp:410] upsample2 <- conv3_1_D
I0417 23:33:46.133070  5985 net.cpp:410] upsample2 <- pool2_mask
I0417 23:33:46.133075  5985 net.cpp:368] upsample2 -> pool2_D
I0417 23:33:46.133080  5985 net.cpp:120] Setting up upsample2
I0417 23:33:46.133082  5985 upsample_layer.cpp:31] Params 'pad_out_{}_' are deprecated. Please declare upsample height and width useing the upsample_h, upsample_w parameters.
I0417 23:33:46.133086  5985 net.cpp:127] Top shape: 2 128 112 112 (3211264)
I0417 23:33:46.133090  5985 layer_factory.hpp:74] Creating layer conv2_2_D
I0417 23:33:46.133095  5985 net.cpp:90] Creating Layer conv2_2_D
I0417 23:33:46.133097  5985 net.cpp:410] conv2_2_D <- pool2_D
I0417 23:33:46.133102  5985 net.cpp:368] conv2_2_D -> conv2_2_D
I0417 23:33:46.133116  5985 net.cpp:120] Setting up conv2_2_D
I0417 23:33:46.137333  5985 net.cpp:127] Top shape: 2 128 112 112 (3211264)
I0417 23:33:46.137343  5985 layer_factory.hpp:74] Creating layer conv2_2_D_bn
I0417 23:33:46.137349  5985 net.cpp:90] Creating Layer conv2_2_D_bn
I0417 23:33:46.137352  5985 net.cpp:410] conv2_2_D_bn <- conv2_2_D
I0417 23:33:46.137356  5985 net.cpp:357] conv2_2_D_bn -> conv2_2_D (in-place)
I0417 23:33:46.137362  5985 net.cpp:120] Setting up conv2_2_D_bn
I0417 23:33:46.137405  5985 net.cpp:127] Top shape: 2 128 112 112 (3211264)
I0417 23:33:46.137411  5985 layer_factory.hpp:74] Creating layer relu2_2_D
I0417 23:33:46.137415  5985 net.cpp:90] Creating Layer relu2_2_D
I0417 23:33:46.137418  5985 net.cpp:410] relu2_2_D <- conv2_2_D
I0417 23:33:46.137423  5985 net.cpp:357] relu2_2_D -> conv2_2_D (in-place)
I0417 23:33:46.137426  5985 net.cpp:120] Setting up relu2_2_D
I0417 23:33:46.137430  5985 net.cpp:127] Top shape: 2 128 112 112 (3211264)
I0417 23:33:46.137433  5985 layer_factory.hpp:74] Creating layer conv2_1_D
I0417 23:33:46.137437  5985 net.cpp:90] Creating Layer conv2_1_D
I0417 23:33:46.137440  5985 net.cpp:410] conv2_1_D <- conv2_2_D
I0417 23:33:46.137444  5985 net.cpp:368] conv2_1_D -> conv2_1_D
I0417 23:33:46.137449  5985 net.cpp:120] Setting up conv2_1_D
I0417 23:33:46.139564  5985 net.cpp:127] Top shape: 2 64 112 112 (1605632)
I0417 23:33:46.139574  5985 layer_factory.hpp:74] Creating layer conv2_1_D_bn
I0417 23:33:46.139578  5985 net.cpp:90] Creating Layer conv2_1_D_bn
I0417 23:33:46.139581  5985 net.cpp:410] conv2_1_D_bn <- conv2_1_D
I0417 23:33:46.139585  5985 net.cpp:357] conv2_1_D_bn -> conv2_1_D (in-place)
I0417 23:33:46.139590  5985 net.cpp:120] Setting up conv2_1_D_bn
I0417 23:33:46.139631  5985 net.cpp:127] Top shape: 2 64 112 112 (1605632)
I0417 23:33:46.139637  5985 layer_factory.hpp:74] Creating layer relu2_1_D
I0417 23:33:46.139642  5985 net.cpp:90] Creating Layer relu2_1_D
I0417 23:33:46.139644  5985 net.cpp:410] relu2_1_D <- conv2_1_D
I0417 23:33:46.139648  5985 net.cpp:357] relu2_1_D -> conv2_1_D (in-place)
I0417 23:33:46.139652  5985 net.cpp:120] Setting up relu2_1_D
I0417 23:33:46.139655  5985 net.cpp:127] Top shape: 2 64 112 112 (1605632)
I0417 23:33:46.139657  5985 layer_factory.hpp:74] Creating layer upsample1
I0417 23:33:46.139662  5985 net.cpp:90] Creating Layer upsample1
I0417 23:33:46.139664  5985 net.cpp:410] upsample1 <- conv2_1_D
I0417 23:33:46.139667  5985 net.cpp:410] upsample1 <- pool1_mask
I0417 23:33:46.139672  5985 net.cpp:368] upsample1 -> pool1_D
I0417 23:33:46.139675  5985 net.cpp:120] Setting up upsample1
I0417 23:33:46.139678  5985 upsample_layer.cpp:31] Params 'pad_out_{}_' are deprecated. Please declare upsample height and width useing the upsample_h, upsample_w parameters.
I0417 23:33:46.139681  5985 net.cpp:127] Top shape: 2 64 224 224 (6422528)
I0417 23:33:46.139684  5985 layer_factory.hpp:74] Creating layer conv1_2_D
I0417 23:33:46.139690  5985 net.cpp:90] Creating Layer conv1_2_D
I0417 23:33:46.139693  5985 net.cpp:410] conv1_2_D <- pool1_D
I0417 23:33:46.139698  5985 net.cpp:368] conv1_2_D -> conv1_2_D
I0417 23:33:46.139703  5985 net.cpp:120] Setting up conv1_2_D
I0417 23:33:46.140813  5985 net.cpp:127] Top shape: 2 64 224 224 (6422528)
I0417 23:33:46.140822  5985 layer_factory.hpp:74] Creating layer conv1_2_D_bn
I0417 23:33:46.140828  5985 net.cpp:90] Creating Layer conv1_2_D_bn
I0417 23:33:46.140831  5985 net.cpp:410] conv1_2_D_bn <- conv1_2_D
I0417 23:33:46.140836  5985 net.cpp:357] conv1_2_D_bn -> conv1_2_D (in-place)
I0417 23:33:46.140841  5985 net.cpp:120] Setting up conv1_2_D_bn
I0417 23:33:46.140976  5985 net.cpp:127] Top shape: 2 64 224 224 (6422528)
I0417 23:33:46.140985  5985 layer_factory.hpp:74] Creating layer relu1_2_D
I0417 23:33:46.140990  5985 net.cpp:90] Creating Layer relu1_2_D
I0417 23:33:46.140993  5985 net.cpp:410] relu1_2_D <- conv1_2_D
I0417 23:33:46.140996  5985 net.cpp:357] relu1_2_D -> conv1_2_D (in-place)
I0417 23:33:46.141000  5985 net.cpp:120] Setting up relu1_2_D
I0417 23:33:46.141011  5985 net.cpp:127] Top shape: 2 64 224 224 (6422528)
I0417 23:33:46.141015  5985 layer_factory.hpp:74] Creating layer conv1_1_D
I0417 23:33:46.141021  5985 net.cpp:90] Creating Layer conv1_1_D
I0417 23:33:46.141024  5985 net.cpp:410] conv1_1_D <- conv1_2_D
I0417 23:33:46.141028  5985 net.cpp:368] conv1_1_D -> conv1_1_D
I0417 23:33:46.141032  5985 net.cpp:120] Setting up conv1_1_D
I0417 23:33:46.141458  5985 net.cpp:127] Top shape: 2 21 224 224 (2107392)
I0417 23:33:46.141466  5985 layer_factory.hpp:74] Creating layer conv1_1_D_conv1_1_D_0_split
I0417 23:33:46.141472  5985 net.cpp:90] Creating Layer conv1_1_D_conv1_1_D_0_split
I0417 23:33:46.141475  5985 net.cpp:410] conv1_1_D_conv1_1_D_0_split <- conv1_1_D
I0417 23:33:46.141479  5985 net.cpp:368] conv1_1_D_conv1_1_D_0_split -> conv1_1_D_conv1_1_D_0_split_0
I0417 23:33:46.141484  5985 net.cpp:368] conv1_1_D_conv1_1_D_0_split -> conv1_1_D_conv1_1_D_0_split_1
I0417 23:33:46.141489  5985 net.cpp:120] Setting up conv1_1_D_conv1_1_D_0_split
I0417 23:33:46.141494  5985 net.cpp:127] Top shape: 2 21 224 224 (2107392)
I0417 23:33:46.141497  5985 net.cpp:127] Top shape: 2 21 224 224 (2107392)
I0417 23:33:46.141499  5985 layer_factory.hpp:74] Creating layer loss
I0417 23:33:46.141506  5985 net.cpp:90] Creating Layer loss
I0417 23:33:46.141510  5985 net.cpp:410] loss <- conv1_1_D_conv1_1_D_0_split_0
I0417 23:33:46.141512  5985 net.cpp:410] loss <- label_label_0_split_0
I0417 23:33:46.141516  5985 net.cpp:368] loss -> loss
I0417 23:33:46.141525  5985 net.cpp:120] Setting up loss
I0417 23:33:46.141530  5985 layer_factory.hpp:74] Creating layer loss
I0417 23:33:46.143568  5985 net.cpp:127] Top shape: (1)
I0417 23:33:46.143578  5985 net.cpp:129]     with loss weight 1
I0417 23:33:46.143592  5985 layer_factory.hpp:74] Creating layer accuracy
I0417 23:33:46.143597  5985 net.cpp:90] Creating Layer accuracy
I0417 23:33:46.143600  5985 net.cpp:410] accuracy <- conv1_1_D_conv1_1_D_0_split_1
I0417 23:33:46.143604  5985 net.cpp:410] accuracy <- label_label_0_split_1
I0417 23:33:46.143609  5985 net.cpp:368] accuracy -> accuracy
I0417 23:33:46.143613  5985 net.cpp:368] accuracy -> per_class_accuracy
I0417 23:33:46.143617  5985 net.cpp:120] Setting up accuracy
I0417 23:33:46.143620  5985 accuracy_layer.cpp:24] Per-class accuracies currently only work on TRAIN phase only.
I0417 23:33:46.143625  5985 net.cpp:127] Top shape: (1)
I0417 23:33:46.143628  5985 net.cpp:127] Top shape: 21 1 1 1 (21)
I0417 23:33:46.143631  5985 net.cpp:194] accuracy does not need backward computation.
I0417 23:33:46.143635  5985 net.cpp:192] loss needs backward computation.
I0417 23:33:46.143637  5985 net.cpp:192] conv1_1_D_conv1_1_D_0_split needs backward computation.
I0417 23:33:46.143640  5985 net.cpp:192] conv1_1_D needs backward computation.
I0417 23:33:46.143643  5985 net.cpp:192] relu1_2_D needs backward computation.
…
