…
net: "/home/pierre/hgRepos/models/caffeSegNet/train_segnet-camvid/train_val.prototxt"
test_initialization: false
I0414 19:29:18.776262  6320 solver.cpp:70] Creating training net from net file: /home/pierre/hgRepos/models/caffeSegNet/train_segnet-camvid/train_val.prototxt
I0414 19:29:18.779021  6320 net.cpp:42] Initializing net from parameters: 
name: "VGG_ILSVRC_16_layer"
state {
  phase: TRAIN
}
layer {
  name: "data"
  type: "DenseImageData"
  top: "data"
  top: "label"
  dense_image_data_param {
    source: "/home/shared/datasets/CamVid/train.txt"
    batch_size: 4
    shuffle: true
  }
}
layer {
  name: "conv1_1"
  type: "Convolution"
  bottom: "data"
  top: "conv1_1"
  param {
    lr_mult: 1
    decay_mult: 1
  }
  param {
    lr_mult: 2
    decay_mult: 0
  }
  convolution_param {
    num_output: 64
    pad: 1
    kernel_size: 3
    weight_filler {
      type: "msra"
    }
    bias_filler {
      type: "constant"
    }
  }
}
layer {
  name: "conv1_1_bn"
  type: "BN"
  bottom: "conv1_1"
  top: "conv1_1"
  param {
    lr_mult: 1
    decay_mult: 1
  }
  param {
    lr_mult: 1
    decay_mult: 0
  }
  bn_param {
    scale_filler {
      type: "constant"
      value: 1
    }
    shift_filler {
      type: "constant"
      value: 0.001
    }
  }
}
layer {
  name: "relu1_1"
  type: "ReLU"
  bottom: "conv1_1"
  top: "conv1_1"
}
layer {
  name: "conv1_2"
  type: "Convolution"
  bottom: "conv1_1"
  top: "conv1_2"
  param {
    lr_mult: 1
    decay_mult: 1
  }
  param {
    lr_mult: 2
    decay_mult: 0
  }
  convolution_param {
    num_output: 64
    pad: 1
    kernel_size: 3
    weight_filler {
      type: "msra"
    }
    bias_filler {
      type: "constant"
    }
  }
}
layer {
  name: "conv1_2_bn"
  type: "BN"
  bottom: "conv1_2"
  top: "conv1_2"
  param {
    lr_mult: 1
    decay_mult: 1
  }
  param {
    lr_mult: 1
    decay_mult: 0
  }
  bn_param {
    scale_filler {
      type: "constant"
      value: 1
    }
    shift_filler {
      type: "constant"
      value: 0.001
    }
  }
}
layer {
  name: "relu1_2"
  type: "ReLU"
  bottom: "conv1_2"
  top: "conv1_2"
}
layer {
  name: "pool1"
  type: "Pooling"
  bottom: "conv1_2"
  top: "pool1"
  top: "pool1_mask"
  pooling_param {
    pool: MAX
    kernel_size: 2
    stride: 2
  }
}
layer {
  name: "conv2_1"
  type: "Convolution"
  bottom: "pool1"
  top: "conv2_1"
  param {
    lr_mult: 1
    decay_mult: 1
  }
  param {
    lr_mult: 2
    decay_mult: 0
  }
  convolution_param {
    num_output: 128
    pad: 1
    kernel_size: 3
    weight_filler {
      type: "msra"
    }
    bias_filler {
      type: "constant"
    }
  }
}
layer {
  name: "conv2_1_bn"
  type: "BN"
  bottom: "conv2_1"
  top: "conv2_1"
  param {
    lr_mult: 1
    decay_mult: 1
  }
  param {
    lr_mult: 1
    decay_mult: 0
  }
  bn_param {
    scale_filler {
      type: "constant"
      value: 1
    }
    shift_filler {
      type: "constant"
      value: 0.001
    }
  }
}
layer {
  name: "relu2_1"
  type: "ReLU"
  bottom: "conv2_1"
  top: "conv2_1"
}
layer {
  name: "conv2_2"
  type: "Convolution"
  bottom: "conv2_1"
  top: "conv2_2"
  param {
    lr_mult: 1
    decay_mult: 1
  }
  param {
    lr_mult: 2
    decay_mult: 0
  }
  convolution_param {
    num_output: 128
    pad: 1
    kernel_size: 3
    weight_filler {
      type: "msra"
    }
    bias_filler {
      type: "constant"
    }
  }
}
layer {
  name: "conv2_2_bn"
  type: "BN"
  bottom: "conv2_2"
  top: "conv2_2"
  param {
    lr_mult: 1
    decay_mult: 1
  }
  param {
    lr_mult: 1
    decay_mult: 0
  }
  bn_param {
    scale_filler {
      type: "constant"
      value: 1
    }
    shift_filler {
      type: "constant"
      value: 0.001
    }
  }
}
layer {
  name: "relu2_2"
  type: "ReLU"
  bottom: "conv2_2"
  top: "conv2_2"
}
layer {
  name: "pool2"
  type: "Pooling"
  bottom: "conv2_2"
  top: "pool2"
  top: "pool2_mask"
  pooling_param {
    pool: MAX
    kernel_size: 2
    stride: 2
  }
}
layer {
  name: "conv3_1"
  type: "Convolution"
  bottom: "pool2"
  top: "conv3_1"
  param {
    lr_mult: 1
    decay_mult: 1
  }
  param {
    lr_mult: 2
    decay_mult: 0
  }
  convolution_param {
    num_output: 256
    pad: 1
    kernel_size: 3
    weight_filler {
      type: "msra"
    }
    bias_filler {
      type: "constant"
    }
  }
}
layer {
  name: "conv3_1_bn"
  type: "BN"
  bottom: "conv3_1"
  top: "conv3_1"
  param {
    lr_mult: 1
    decay_mult: 1
  }
  param {
    lr_mult: 1
    decay_mult: 0
  }
  bn_param {
    scale_filler {
      type: "constant"
      value: 1
    }
    shift_filler {
      type: "constant"
      value: 0.001
    }
  }
}
layer {
  name: "relu3_1"
  type: "ReLU"
  bottom: "conv3_1"
  top: "conv3_1"
}
layer {
  name: "conv3_2"
  type: "Convolution"
  bottom: "conv3_1"
  top: "conv3_2"
  param {
    lr_mult: 1
    decay_mult: 1
  }
  param {
    lr_mult: 2
    decay_mult: 0
  }
  convolution_param {
    num_output: 256
    pad: 1
    kernel_size: 3
    weight_filler {
      type: "msra"
    }
    bias_filler {
      type: "constant"
    }
  }
}
layer {
  name: "conv3_2_bn"
  type: "BN"
  bottom: "conv3_2"
  top: "conv3_2"
  param {
    lr_mult: 1
    decay_mult: 1
  }
  param {
    lr_mult: 1
    decay_mult: 0
  }
  bn_param {
    scale_filler {
      type: "constant"
      value: 1
    }
    shift_filler {
      type: "constant"
      value: 0.001
    }
  }
}
layer {
  name: "relu3_2"
  type: "ReLU"
  bottom: "conv3_2"
  top: "conv3_2"
}
layer {
  name: "conv3_3"
  type: "Convolution"
  bottom: "conv3_2"
  top: "conv3_3"
  param {
    lr_mult: 1
    decay_mult: 1
  }
  param {
    lr_mult: 2
    decay_mult: 0
  }
  convolution_param {
    num_output: 256
    pad: 1
    kernel_size: 3
    weight_filler {
      type: "msra"
    }
    bias_filler {
      type: "constant"
    }
  }
}
layer {
  name: "conv3_3_bn"
  type: "BN"
  bottom: "conv3_3"
  top: "conv3_3"
  param {
    lr_mult: 1
    decay_mult: 1
  }
  param {
    lr_mult: 1
    decay_mult: 0
  }
  bn_param {
    scale_filler {
      type: "constant"
      value: 1
    }
    shift_filler {
      type: "constant"
      value: 0.001
    }
  }
}
layer {
  name: "relu3_3"
  type: "ReLU"
  bottom: "conv3_3"
  top: "conv3_3"
}
layer {
  name: "pool3"
  type: "Pooling"
  bottom: "conv3_3"
  top: "pool3"
  top: "pool3_mask"
  pooling_param {
    pool: MAX
    kernel_size: 2
    stride: 2
  }
}
layer {
  name: "conv4_1"
  type: "Convolution"
  bottom: "pool3"
  top: "conv4_1"
  param {
    lr_mult: 1
    decay_mult: 1
  }
  param {
    lr_mult: 2
    decay_mult: 0
  }
  convolution_param {
    num_output: 512
    pad: 1
    kernel_size: 3
    weight_filler {
      type: "msra"
    }
    bias_filler {
      type: "constant"
    }
  }
}
layer {
  name: "conv4_1_bn"
  type: "BN"
  bottom: "conv4_1"
  top: "conv4_1"
  param {
    lr_mult: 1
    decay_mult: 1
  }
  param {
    lr_mult: 1
    decay_mult: 0
  }
  bn_param {
    scale_filler {
      type: "constant"
      value: 1
    }
    shift_filler {
      type: "constant"
      value: 0.001
    }
  }
}
layer {
  name: "relu4_1"
  type: "ReLU"
  bottom: "conv4_1"
  top: "conv4_1"
}
layer {
  name: "conv4_2"
  type: "Convolution"
  bottom: "conv4_1"
  top: "conv4_2"
  param {
    lr_mult: 1
    decay_mult: 1
  }
  param {
    lr_mult: 2
    decay_mult: 0
  }
  convolution_param {
    num_output: 512
    pad: 1
    kernel_size: 3
    weight_filler {
      type: "msra"
    }
    bias_filler {
      type: "constant"
    }
  }
}
layer {
  name: "conv4_2_bn"
  type: "BN"
  bottom: "conv4_2"
  top: "conv4_2"
  param {
    lr_mult: 1
    decay_mult: 1
  }
  param {
    lr_mult: 1
    decay_mult: 0
  }
  bn_param {
    scale_filler {
      type: "constant"
      value: 1
    }
    shift_filler {
      type: "constant"
      value: 0.001
    }
  }
}
layer {
  name: "relu4_2"
  type: "ReLU"
  bottom: "conv4_2"
  top: "conv4_2"
}
layer {
  name: "conv4_3"
  type: "Convolution"
  bottom: "conv4_2"
  top: "conv4_3"
  param {
    lr_mult: 1
    decay_mult: 1
  }
  param {
    lr_mult: 2
    decay_mult: 0
  }
  convolution_param {
    num_output: 512
    pad: 1
    kernel_size: 3
    weight_filler {
      type: "msra"
    }
    bias_filler {
      type: "constant"
    }
  }
}
layer {
  name: "conv4_3_bn"
  type: "BN"
  bottom: "conv4_3"
  top: "conv4_3"
  param {
    lr_mult: 1
    decay_mult: 1
  }
  param {
    lr_mult: 1
    decay_mult: 0
  }
  bn_param {
    scale_filler {
      type: "constant"
      value: 1
    }
    shift_filler {
      type: "constant"
      value: 0.001
    }
  }
}
layer {
  name: "relu4_3"
  type: "ReLU"
  bottom: "conv4_3"
  top: "conv4_3"
}
layer {
  name: "pool4"
  type: "Pooling"
  bottom: "conv4_3"
  top: "pool4"
  top: "pool4_mask"
  pooling_param {
    pool: MAX
    kernel_size: 2
    stride: 2
  }
}
layer {
  name: "conv5_1"
  type: "Convolution"
  bottom: "pool4"
  top: "conv5_1"
  param {
    lr_mult: 1
    decay_mult: 1
  }
  param {
    lr_mult: 2
    decay_mult: 0
  }
  convolution_param {
    num_output: 512
    pad: 1
    kernel_size: 3
    weight_filler {
      type: "msra"
    }
    bias_filler {
      type: "constant"
    }
  }
}
layer {
  name: "conv5_1_bn"
  type: "BN"
  bottom: "conv5_1"
  top: "conv5_1"
  param {
    lr_mult: 1
    decay_mult: 1
  }
  param {
    lr_mult: 1
    decay_mult: 0
  }
  bn_param {
    scale_filler {
      type: "constant"
      value: 1
    }
    shift_filler {
      type: "constant"
      value: 0.001
    }
  }
}
layer {
  name: "relu5_1"
  type: "ReLU"
  bottom: "conv5_1"
  top: "conv5_1"
}
layer {
  name: "conv5_2"
  type: "Convolution"
  bottom: "conv5_1"
  top: "conv5_2"
  param {
    lr_mult: 1
    decay_mult: 1
  }
  param {
    lr_mult: 2
    decay_mult: 0
  }
  convolution_param {
    num_output: 512
    pad: 1
    kernel_size: 3
    weight_filler {
      type: "msra"
    }
    bias_filler {
      type: "constant"
    }
  }
}
layer {
  name: "conv5_2_bn"
  type: "BN"
  bottom: "conv5_2"
  top: "conv5_2"
  param {
    lr_mult: 1
    decay_mult: 1
  }
  param {
    lr_mult: 1
    decay_mult: 0
  }
  bn_param {
    scale_filler {
      type: "constant"
      value: 1
    }
    shift_filler {
      type: "constant"
      value: 0.001
    }
  }
}
layer {
  name: "relu5_2"
  type: "ReLU"
  bottom: "conv5_2"
  top: "conv5_2"
}
layer {
  name: "conv5_3"
  type: "Convolution"
  bottom: "conv5_2"
  top: "conv5_3"
  param {
    lr_mult: 1
    decay_mult: 1
  }
  param {
    lr_mult: 2
    decay_mult: 0
  }
  convolution_param {
    num_output: 512
    pad: 1
    kernel_size: 3
    weight_filler {
      type: "msra"
    }
    bias_filler {
      type: "constant"
    }
  }
}
layer {
  name: "conv5_3_bn"
  type: "BN"
  bottom: "conv5_3"
  top: "conv5_3"
  param {
    lr_mult: 1
    decay_mult: 1
  }
  param {
    lr_mult: 1
    decay_mult: 0
  }
  bn_param {
    scale_filler {
      type: "constant"
      value: 1
    }
    shift_filler {
      type: "constant"
      value: 0.001
    }
  }
}
layer {
  name: "relu5_3"
  type: "ReLU"
  bottom: "conv5_3"
  top: "conv5_3"
}
layer {
  name: "pool5"
  type: "Pooling"
  bottom: "conv5_3"
  top: "pool5"
  top: "pool5_mask"
  pooling_param {
    pool: MAX
    kernel_size: 2
    stride: 2
  }
}
layer {
  name: "upsample5"
  type: "Upsample"
  bottom: "pool5"
  bottom: "pool5_mask"
  top: "pool5_D"
  upsample_param {
    scale: 2
    upsample_h: 23
    upsample_w: 30
  }
}
layer {
  name: "conv5_3_D"
  type: "Convolution"
  bottom: "pool5_D"
  top: "conv5_3_D"
  param {
    lr_mult: 1
    decay_mult: 1
  }
  param {
    lr_mult: 2
    decay_mult: 0
  }
  convolution_param {
    num_output: 512
    pad: 1
    kernel_size: 3
    weight_filler {
      type: "msra"
    }
    bias_filler {
      type: "constant"
    }
  }
}
layer {
  name: "conv5_3_D_bn"
  type: "BN"
  bottom: "conv5_3_D"
  top: "conv5_3_D"
  param {
    lr_mult: 1
    decay_mult: 1
  }
  param {
    lr_mult: 1
    decay_mult: 0
  }
  bn_param {
    scale_filler {
      type: "constant"
      value: 1
    }
    shift_filler {
      type: "constant"
      value: 0.001
    }
  }
}
layer {
  name: "relu5_3_D"
  type: "ReLU"
  bottom: "conv5_3_D"
  top: "conv5_3_D"
}
layer {
  name: "conv5_2_D"
  type: "Convolution"
  bottom: "conv5_3_D"
  top: "conv5_2_D"
  param {
    lr_mult: 1
    decay_mult: 1
  }
  param {
    lr_mult: 2
    decay_mult: 0
  }
  convolution_param {
    num_output: 512
    pad: 1
    kernel_size: 3
    weight_filler {
      type: "msra"
    }
    bias_filler {
      type: "constant"
    }
  }
}
layer {
  name: "conv5_2_D_bn"
  type: "BN"
  bottom: "conv5_2_D"
  top: "conv5_2_D"
  param {
    lr_mult: 1
    decay_mult: 1
  }
  param {
    lr_mult: 1
    decay_mult: 0
  }
  bn_param {
    scale_filler {
      type: "constant"
      value: 1
    }
    shift_filler {
      type: "constant"
      value: 0.001
    }
  }
}
layer {
  name: "relu5_2_D"
  type: "ReLU"
  bottom: "conv5_2_D"
  top: "conv5_2_D"
}
layer {
  name: "conv5_1_D"
  type: "Convolution"
  bottom: "conv5_2_D"
  top: "conv5_1_D"
  param {
    lr_mult: 1
    decay_mult: 1
  }
  param {
    lr_mult: 2
    decay_mult: 0
  }
  convolution_param {
    num_output: 512
    pad: 1
    kernel_size: 3
    weight_filler {
      type: "msra"
    }
    bias_filler {
      type: "constant"
    }
  }
}
layer {
  name: "conv5_1_D_bn"
  type: "BN"
  bottom: "conv5_1_D"
  top: "conv5_1_D"
  param {
    lr_mult: 1
    decay_mult: 1
  }
  param {
    lr_mult: 1
    decay_mult: 0
  }
  bn_param {
    scale_filler {
      type: "constant"
      value: 1
    }
    shift_filler {
      type: "constant"
      value: 0.001
    }
  }
}
layer {
  name: "relu5_1_D"
  type: "ReLU"
  bottom: "conv5_1_D"
  top: "conv5_1_D"
}
layer {
  name: "upsample4"
  type: "Upsample"
  bottom: "conv5_1_D"
  bottom: "pool4_mask"
  top: "pool4_D"
  upsample_param {
    scale: 2
    upsample_h: 45
    upsample_w: 60
  }
}
layer {
  name: "conv4_3_D"
  type: "Convolution"
  bottom: "pool4_D"
  top: "conv4_3_D"
  param {
    lr_mult: 1
    decay_mult: 1
  }
  param {
    lr_mult: 2
    decay_mult: 0
  }
  convolution_param {
    num_output: 512
    pad: 1
    kernel_size: 3
    weight_filler {
      type: "msra"
    }
    bias_filler {
      type: "constant"
    }
  }
}
layer {
  name: "conv4_3_D_bn"
  type: "BN"
  bottom: "conv4_3_D"
  top: "conv4_3_D"
  param {
    lr_mult: 1
    decay_mult: 1
  }
  param {
    lr_mult: 1
    decay_mult: 0
  }
  bn_param {
    scale_filler {
      type: "constant"
      value: 1
    }
    shift_filler {
      type: "constant"
      value: 0.001
    }
  }
}
layer {
  name: "relu4_3_D"
  type: "ReLU"
  bottom: "conv4_3_D"
  top: "conv4_3_D"
}
layer {
  name: "conv4_2_D"
  type: "Convolution"
  bottom: "conv4_3_D"
  top: "conv4_2_D"
  param {
    lr_mult: 1
    decay_mult: 1
  }
  param {
    lr_mult: 2
    decay_mult: 0
  }
  convolution_param {
    num_output: 512
    pad: 1
    kernel_size: 3
    weight_filler {
      type: "msra"
    }
    bias_filler {
      type: "constant"
    }
  }
}
layer {
  name: "conv4_2_D_bn"
  type: "BN"
  bottom: "conv4_2_D"
  top: "conv4_2_D"
  param {
    lr_mult: 1
    decay_mult: 1
  }
  param {
    lr_mult: 1
    decay_mult: 0
  }
  bn_param {
    scale_filler {
      type: "constant"
      value: 1
    }
    shift_filler {
      type: "constant"
      value: 0.001
    }
  }
}
layer {
  name: "relu4_2_D"
  type: "ReLU"
  bottom: "conv4_2_D"
  top: "conv4_2_D"
}
layer {
  name: "conv4_1_D"
  type: "Convolution"
  bottom: "conv4_2_D"
  top: "conv4_1_D"
  param {
    lr_mult: 1
    decay_mult: 1
  }
  param {
    lr_mult: 2
    decay_mult: 0
  }
  convolution_param {
    num_output: 256
    pad: 1
    kernel_size: 3
    weight_filler {
      type: "msra"
    }
    bias_filler {
      type: "constant"
    }
  }
}
layer {
  name: "conv4_1_D_bn"
  type: "BN"
  bottom: "conv4_1_D"
  top: "conv4_1_D"
  param {
    lr_mult: 1
    decay_mult: 1
  }
  param {
    lr_mult: 1
    decay_mult: 0
  }
  bn_param {
    scale_filler {
      type: "constant"
      value: 1
    }
    shift_filler {
      type: "constant"
      value: 0.001
    }
  }
}
layer {
  name: "relu4_1_D"
  type: "ReLU"
  bottom: "conv4_1_D"
  top: "conv4_1_D"
}
layer {
  name: "upsample3"
  type: "Upsample"
  bottom: "conv4_1_D"
  bottom: "pool3_mask"
  top: "pool3_D"
  upsample_param {
    scale: 2
  }
}
layer {
  name: "conv3_3_D"
  type: "Convolution"
  bottom: "pool3_D"
  top: "conv3_3_D"
  param {
    lr_mult: 1
    decay_mult: 1
  }
  param {
    lr_mult: 2
    decay_mult: 0
  }
  convolution_param {
    num_output: 256
    pad: 1
    kernel_size: 3
    weight_filler {
      type: "msra"
    }
    bias_filler {
      type: "constant"
    }
  }
}
layer {
  name: "conv3_3_D_bn"
  type: "BN"
  bottom: "conv3_3_D"
  top: "conv3_3_D"
  param {
    lr_mult: 1
    decay_mult: 1
  }
  param {
    lr_mult: 1
    decay_mult: 0
  }
  bn_param {
    scale_filler {
      type: "constant"
      value: 1
    }
    shift_filler {
      type: "constant"
      value: 0.001
    }
  }
}
layer {
  name: "relu3_3_D"
  type: "ReLU"
  bottom: "conv3_3_D"
  top: "conv3_3_D"
}
layer {
  name: "conv3_2_D"
  type: "Convolution"
  bottom: "conv3_3_D"
  top: "conv3_2_D"
  param {
    lr_mult: 1
    decay_mult: 1
  }
  param {
    lr_mult: 2
    decay_mult: 0
  }
  convolution_param {
    num_output: 256
    pad: 1
    kernel_size: 3
    weight_filler {
      type: "msra"
    }
    bias_filler {
      type: "constant"
    }
  }
}
layer {
  name: "conv3_2_D_bn"
  type: "BN"
  bottom: "conv3_2_D"
  top: "conv3_2_D"
  param {
    lr_mult: 1
    decay_mult: 1
  }
  param {
    lr_mult: 1
    decay_mult: 0
  }
  bn_param {
    scale_filler {
      type: "constant"
      value: 1
    }
    shift_filler {
      type: "constant"
      value: 0.001
    }
  }
}
layer {
  name: "relu3_2_D"
  type: "ReLU"
  bottom: "conv3_2_D"
  top: "conv3_2_D"
}
layer {
  name: "conv3_1_D"
  type: "Convolution"
  bottom: "conv3_2_D"
  top: "conv3_1_D"
  param {
    lr_mult: 1
    decay_mult: 1
  }
  param {
    lr_mult: 2
    decay_mult: 0
  }
  convolution_param {
    num_output: 128
    pad: 1
    kernel_size: 3
    weight_filler {
      type: "msra"
    }
    bias_filler {
      type: "constant"
    }
  }
}
layer {
  name: "conv3_1_D_bn"
  type: "BN"
  bottom: "conv3_1_D"
  top: "conv3_1_D"
  param {
    lr_mult: 1
    decay_mult: 1
  }
  param {
    lr_mult: 1
    decay_mult: 0
  }
  bn_param {
    scale_filler {
      type: "constant"
      value: 1
    }
    shift_filler {
      type: "constant"
      value: 0.001
    }
  }
}
layer {
  name: "relu3_1_D"
  type: "ReLU"
  bottom: "conv3_1_D"
  top: "conv3_1_D"
}
layer {
  name: "upsample2"
  type: "Upsample"
  bottom: "conv3_1_D"
  bottom: "pool2_mask"
  top: "pool2_D"
  upsample_param {
    scale: 2
  }
}
layer {
  name: "conv2_2_D"
  type: "Convolution"
  bottom: "pool2_D"
  top: "conv2_2_D"
  param {
    lr_mult: 1
    decay_mult: 1
  }
  param {
    lr_mult: 2
    decay_mult: 0
  }
  convolution_param {
    num_output: 128
    pad: 1
    kernel_size: 3
    weight_filler {
      type: "msra"
    }
    bias_filler {
      type: "constant"
    }
  }
}
layer {
  name: "conv2_2_D_bn"
  type: "BN"
  bottom: "conv2_2_D"
  top: "conv2_2_D"
  param {
    lr_mult: 1
    decay_mult: 1
  }
  param {
    lr_mult: 1
    decay_mult: 0
  }
  bn_param {
    scale_filler {
      type: "constant"
      value: 1
    }
    shift_filler {
      type: "constant"
      value: 0.001
    }
  }
}
layer {
  name: "relu2_2_D"
  type: "ReLU"
  bottom: "conv2_2_D"
  top: "conv2_2_D"
}
layer {
  name: "conv2_1_D"
  type: "Convolution"
  bottom: "conv2_2_D"
  top: "conv2_1_D"
  param {
    lr_mult: 1
    decay_mult: 1
  }
  param {
    lr_mult: 2
    decay_mult: 0
  }
  convolution_param {
    num_output: 64
    pad: 1
    kernel_size: 3
    weight_filler {
      type: "msra"
    }
    bias_filler {
      type: "constant"
    }
  }
}
layer {
  name: "conv2_1_D_bn"
  type: "BN"
  bottom: "conv2_1_D"
  top: "conv2_1_D"
  param {
    lr_mult: 1
    decay_mult: 1
  }
  param {
    lr_mult: 1
    decay_mult: 0
  }
  bn_param {
    scale_filler {
      type: "constant"
      value: 1
    }
    shift_filler {
      type: "constant"
      value: 0.001
    }
  }
}
layer {
  name: "relu2_1_D"
  type: "ReLU"
  bottom: "conv2_1_D"
  top: "conv2_1_D"
}
layer {
  name: "upsample1"
  type: "Upsample"
  bottom: "conv2_1_D"
  bottom: "pool1_mask"
  top: "pool1_D"
  upsample_param {
    scale: 2
  }
}
layer {
  name: "conv1_2_D"
  type: "Convolution"
  bottom: "pool1_D"
  top: "conv1_2_D"
  param {
    lr_mult: 1
    decay_mult: 1
  }
  param {
    lr_mult: 2
    decay_mult: 0
  }
  convolution_param {
    num_output: 64
    pad: 1
    kernel_size: 3
    weight_filler {
      type: "msra"
    }
    bias_filler {
      type: "constant"
    }
  }
}
layer {
  name: "conv1_2_D_bn"
  type: "BN"
  bottom: "conv1_2_D"
  top: "conv1_2_D"
  param {
    lr_mult: 1
    decay_mult: 1
  }
  param {
    lr_mult: 1
    decay_mult: 0
  }
  bn_param {
    scale_filler {
      type: "constant"
      value: 1
    }
    shift_filler {
      type: "constant"
      value: 0.001
    }
  }
}
layer {
  name: "relu1_2_D"
  type: "ReLU"
  bottom: "conv1_2_D"
  top: "conv1_2_D"
}
layer {
  name: "conv1_1_D"
  type: "Convolution"
  bottom: "conv1_2_D"
  top: "conv1_1_D"
  param {
    lr_mult: 1
    decay_mult: 1
  }
  param {
    lr_mult: 2
    decay_mult: 0
  }
  convolution_param {
    num_output: 11
    pad: 1
    kernel_size: 3
    weight_filler {
      type: "msra"
    }
    bias_filler {
      type: "constant"
    }
  }
}
layer {
  name: "loss"
  type: "SoftmaxWithLoss"
  bottom: "conv1_1_D"
  bottom: "label"
  top: "loss"
  loss_param {
    ignore_label: 11
    weight_by_label_freqs: true
    class_weighting: 0.2595
    class_weighting: 0.1826
    class_weighting: 4.564
    class_weighting: 0.1417
    class_weighting: 0.9051
    class_weighting: 0.3826
    class_weighting: 9.6446
    class_weighting: 1.8418
    class_weighting: 0.6823
    class_weighting: 6.2478
    class_weighting: 7.3614
  }
  softmax_param {
    engine: CAFFE
  }
}
layer {
  name: "accuracy"
  type: "Accuracy"
  bottom: "conv1_1_D"
  bottom: "label"
  top: "accuracy"
  top: "per_class_accuracy"
}
I0414 19:29:18.779394  6320 layer_factory.hpp:74] Creating layer data
I0414 19:29:18.779419  6320 net.cpp:90] Creating Layer data
I0414 19:29:18.779428  6320 net.cpp:368] data -> data
I0414 19:29:18.779449  6320 net.cpp:368] data -> label
I0414 19:29:18.779460  6320 net.cpp:120] Setting up data
I0414 19:29:18.779472  6320 dense_image_data_layer.cpp:36] Opening file /home/shared/datasets/CamVid/train.txt
I0414 19:29:18.779796  6320 dense_image_data_layer.cpp:46] Shuffling data
I0414 19:29:18.780098  6320 dense_image_data_layer.cpp:51] A total of 367 examples.
I0414 19:29:18.788866  6320 dense_image_data_layer.cpp:97] output data size: 4,3,360,480
I0414 19:29:18.791973  6320 net.cpp:127] Top shape: 4 3 360 480 (2073600)
I0414 19:29:18.792009  6320 net.cpp:127] Top shape: 4 1 360 480 (691200)
I0414 19:29:18.792021  6320 layer_factory.hpp:74] Creating layer label_data_1_split
I0414 19:29:18.792058  6320 net.cpp:90] Creating Layer label_data_1_split
I0414 19:29:18.792070  6320 net.cpp:410] label_data_1_split <- label
I0414 19:29:18.792086  6320 net.cpp:368] label_data_1_split -> label_data_1_split_0
I0414 19:29:18.792104  6320 net.cpp:368] label_data_1_split -> label_data_1_split_1
I0414 19:29:18.792114  6320 net.cpp:120] Setting up label_data_1_split
I0414 19:29:18.792125  6320 net.cpp:127] Top shape: 4 1 360 480 (691200)
I0414 19:29:18.792132  6320 net.cpp:127] Top shape: 4 1 360 480 (691200)
I0414 19:29:18.792137  6320 layer_factory.hpp:74] Creating layer conv1_1
I0414 19:29:18.792153  6320 net.cpp:90] Creating Layer conv1_1
I0414 19:29:18.792160  6320 net.cpp:410] conv1_1 <- data
I0414 19:29:18.792168  6320 net.cpp:368] conv1_1 -> conv1_1
I0414 19:29:18.792179  6320 net.cpp:120] Setting up conv1_1
I0414 19:29:19.424264  6320 net.cpp:127] Top shape: 4 64 360 480 (44236800)
I0414 19:29:19.424309  6320 layer_factory.hpp:74] Creating layer conv1_1_bn
I0414 19:29:19.424327  6320 net.cpp:90] Creating Layer conv1_1_bn
I0414 19:29:19.424363  6320 net.cpp:410] conv1_1_bn <- conv1_1
I0414 19:29:19.424374  6320 net.cpp:357] conv1_1_bn -> conv1_1 (in-place)
I0414 19:29:19.424388  6320 net.cpp:120] Setting up conv1_1_bn
I0414 19:29:19.425019  6320 net.cpp:127] Top shape: 4 64 360 480 (44236800)
I0414 19:29:19.425035  6320 layer_factory.hpp:74] Creating layer relu1_1
I0414 19:29:19.425046  6320 net.cpp:90] Creating Layer relu1_1
I0414 19:29:19.425050  6320 net.cpp:410] relu1_1 <- conv1_1
I0414 19:29:19.425056  6320 net.cpp:357] relu1_1 -> conv1_1 (in-place)
I0414 19:29:19.425063  6320 net.cpp:120] Setting up relu1_1
I0414 19:29:19.425410  6320 net.cpp:127] Top shape: 4 64 360 480 (44236800)
I0414 19:29:19.425422  6320 layer_factory.hpp:74] Creating layer conv1_2
I0414 19:29:19.425432  6320 net.cpp:90] Creating Layer conv1_2
I0414 19:29:19.425437  6320 net.cpp:410] conv1_2 <- conv1_1
I0414 19:29:19.425444  6320 net.cpp:368] conv1_2 -> conv1_2
I0414 19:29:19.425454  6320 net.cpp:120] Setting up conv1_2
I0414 19:29:19.427804  6320 net.cpp:127] Top shape: 4 64 360 480 (44236800)
I0414 19:29:19.427824  6320 layer_factory.hpp:74] Creating layer conv1_2_bn
I0414 19:29:19.427834  6320 net.cpp:90] Creating Layer conv1_2_bn
I0414 19:29:19.427839  6320 net.cpp:410] conv1_2_bn <- conv1_2
I0414 19:29:19.427847  6320 net.cpp:357] conv1_2_bn -> conv1_2 (in-place)
I0414 19:29:19.427855  6320 net.cpp:120] Setting up conv1_2_bn
I0414 19:29:19.428484  6320 net.cpp:127] Top shape: 4 64 360 480 (44236800)
I0414 19:29:19.428501  6320 layer_factory.hpp:74] Creating layer relu1_2
I0414 19:29:19.428508  6320 net.cpp:90] Creating Layer relu1_2
I0414 19:29:19.428514  6320 net.cpp:410] relu1_2 <- conv1_2
I0414 19:29:19.428519  6320 net.cpp:357] relu1_2 -> conv1_2 (in-place)
I0414 19:29:19.428525  6320 net.cpp:120] Setting up relu1_2
I0414 19:29:19.428897  6320 net.cpp:127] Top shape: 4 64 360 480 (44236800)
I0414 19:29:19.428910  6320 layer_factory.hpp:74] Creating layer pool1
I0414 19:29:19.428918  6320 layer_factory.cpp:55] CUDNN does not support padding or multiple tops. Using Caffe's own pooling layer.
I0414 19:29:19.428927  6320 net.cpp:90] Creating Layer pool1
I0414 19:29:19.428932  6320 net.cpp:410] pool1 <- conv1_2
I0414 19:29:19.428942  6320 net.cpp:368] pool1 -> pool1
I0414 19:29:19.428951  6320 net.cpp:368] pool1 -> pool1_mask
I0414 19:29:19.428957  6320 net.cpp:120] Setting up pool1
I0414 19:29:19.428980  6320 net.cpp:127] Top shape: 4 64 180 240 (11059200)
I0414 19:29:19.428992  6320 net.cpp:127] Top shape: 4 64 180 240 (11059200)
I0414 19:29:19.428997  6320 layer_factory.hpp:74] Creating layer conv2_1
I0414 19:29:19.429008  6320 net.cpp:90] Creating Layer conv2_1
I0414 19:29:19.429013  6320 net.cpp:410] conv2_1 <- pool1
I0414 19:29:19.429019  6320 net.cpp:368] conv2_1 -> conv2_1
I0414 19:29:19.429028  6320 net.cpp:120] Setting up conv2_1
I0414 19:29:19.432564  6320 net.cpp:127] Top shape: 4 128 180 240 (22118400)
I0414 19:29:19.432582  6320 layer_factory.hpp:74] Creating layer conv2_1_bn
I0414 19:29:19.432593  6320 net.cpp:90] Creating Layer conv2_1_bn
I0414 19:29:19.432598  6320 net.cpp:410] conv2_1_bn <- conv2_1
I0414 19:29:19.432605  6320 net.cpp:357] conv2_1_bn -> conv2_1 (in-place)
I0414 19:29:19.432612  6320 net.cpp:120] Setting up conv2_1_bn
I0414 19:29:19.432793  6320 net.cpp:127] Top shape: 4 128 180 240 (22118400)
I0414 19:29:19.432807  6320 layer_factory.hpp:74] Creating layer relu2_1
I0414 19:29:19.432817  6320 net.cpp:90] Creating Layer relu2_1
I0414 19:29:19.432822  6320 net.cpp:410] relu2_1 <- conv2_1
I0414 19:29:19.432828  6320 net.cpp:357] relu2_1 -> conv2_1 (in-place)
I0414 19:29:19.432835  6320 net.cpp:120] Setting up relu2_1
I0414 19:29:19.433032  6320 net.cpp:127] Top shape: 4 128 180 240 (22118400)
I0414 19:29:19.433043  6320 layer_factory.hpp:74] Creating layer conv2_2
I0414 19:29:19.433051  6320 net.cpp:90] Creating Layer conv2_2
I0414 19:29:19.433056  6320 net.cpp:410] conv2_2 <- conv2_1
I0414 19:29:19.433065  6320 net.cpp:368] conv2_2 -> conv2_2
I0414 19:29:19.433073  6320 net.cpp:120] Setting up conv2_2
I0414 19:29:19.439088  6320 net.cpp:127] Top shape: 4 128 180 240 (22118400)
I0414 19:29:19.439117  6320 layer_factory.hpp:74] Creating layer conv2_2_bn
I0414 19:29:19.439129  6320 net.cpp:90] Creating Layer conv2_2_bn
I0414 19:29:19.439134  6320 net.cpp:410] conv2_2_bn <- conv2_2
I0414 19:29:19.439142  6320 net.cpp:357] conv2_2_bn -> conv2_2 (in-place)
I0414 19:29:19.439151  6320 net.cpp:120] Setting up conv2_2_bn
I0414 19:29:19.439332  6320 net.cpp:127] Top shape: 4 128 180 240 (22118400)
I0414 19:29:19.439349  6320 layer_factory.hpp:74] Creating layer relu2_2
I0414 19:29:19.439357  6320 net.cpp:90] Creating Layer relu2_2
I0414 19:29:19.439362  6320 net.cpp:410] relu2_2 <- conv2_2
I0414 19:29:19.439369  6320 net.cpp:357] relu2_2 -> conv2_2 (in-place)
I0414 19:29:19.439376  6320 net.cpp:120] Setting up relu2_2
I0414 19:29:19.439729  6320 net.cpp:127] Top shape: 4 128 180 240 (22118400)
I0414 19:29:19.439743  6320 layer_factory.hpp:74] Creating layer pool2
I0414 19:29:19.439749  6320 layer_factory.cpp:55] CUDNN does not support padding or multiple tops. Using Caffe's own pooling layer.
I0414 19:29:19.439755  6320 net.cpp:90] Creating Layer pool2
I0414 19:29:19.439760  6320 net.cpp:410] pool2 <- conv2_2
I0414 19:29:19.439769  6320 net.cpp:368] pool2 -> pool2
I0414 19:29:19.439776  6320 net.cpp:368] pool2 -> pool2_mask
I0414 19:29:19.439782  6320 net.cpp:120] Setting up pool2
I0414 19:29:19.439791  6320 net.cpp:127] Top shape: 4 128 90 120 (5529600)
I0414 19:29:19.439796  6320 net.cpp:127] Top shape: 4 128 90 120 (5529600)
I0414 19:29:19.439801  6320 layer_factory.hpp:74] Creating layer conv3_1
I0414 19:29:19.439811  6320 net.cpp:90] Creating Layer conv3_1
I0414 19:29:19.439821  6320 net.cpp:410] conv3_1 <- pool2
I0414 19:29:19.439827  6320 net.cpp:368] conv3_1 -> conv3_1
I0414 19:29:19.439837  6320 net.cpp:120] Setting up conv3_1
I0414 19:29:19.450608  6320 net.cpp:127] Top shape: 4 256 90 120 (11059200)
I0414 19:29:19.450628  6320 layer_factory.hpp:74] Creating layer conv3_1_bn
I0414 19:29:19.450639  6320 net.cpp:90] Creating Layer conv3_1_bn
I0414 19:29:19.450644  6320 net.cpp:410] conv3_1_bn <- conv3_1
I0414 19:29:19.450652  6320 net.cpp:357] conv3_1_bn -> conv3_1 (in-place)
I0414 19:29:19.450661  6320 net.cpp:120] Setting up conv3_1_bn
I0414 19:29:19.450717  6320 net.cpp:127] Top shape: 4 256 90 120 (11059200)
I0414 19:29:19.450731  6320 layer_factory.hpp:74] Creating layer relu3_1
I0414 19:29:19.450736  6320 net.cpp:90] Creating Layer relu3_1
I0414 19:29:19.450742  6320 net.cpp:410] relu3_1 <- conv3_1
I0414 19:29:19.450750  6320 net.cpp:357] relu3_1 -> conv3_1 (in-place)
I0414 19:29:19.450757  6320 net.cpp:120] Setting up relu3_1
I0414 19:29:19.451109  6320 net.cpp:127] Top shape: 4 256 90 120 (11059200)
I0414 19:29:19.451122  6320 layer_factory.hpp:74] Creating layer conv3_2
I0414 19:29:19.451131  6320 net.cpp:90] Creating Layer conv3_2
I0414 19:29:19.451136  6320 net.cpp:410] conv3_2 <- conv3_1
I0414 19:29:19.451143  6320 net.cpp:368] conv3_2 -> conv3_2
I0414 19:29:19.451153  6320 net.cpp:120] Setting up conv3_2
I0414 19:29:19.471987  6320 net.cpp:127] Top shape: 4 256 90 120 (11059200)
I0414 19:29:19.472007  6320 layer_factory.hpp:74] Creating layer conv3_2_bn
I0414 19:29:19.472018  6320 net.cpp:90] Creating Layer conv3_2_bn
I0414 19:29:19.472023  6320 net.cpp:410] conv3_2_bn <- conv3_2
I0414 19:29:19.472029  6320 net.cpp:357] conv3_2_bn -> conv3_2 (in-place)
I0414 19:29:19.472038  6320 net.cpp:120] Setting up conv3_2_bn
I0414 19:29:19.472098  6320 net.cpp:127] Top shape: 4 256 90 120 (11059200)
I0414 19:29:19.472110  6320 layer_factory.hpp:74] Creating layer relu3_2
I0414 19:29:19.472117  6320 net.cpp:90] Creating Layer relu3_2
I0414 19:29:19.472121  6320 net.cpp:410] relu3_2 <- conv3_2
I0414 19:29:19.472131  6320 net.cpp:357] relu3_2 -> conv3_2 (in-place)
I0414 19:29:19.472136  6320 net.cpp:120] Setting up relu3_2
I0414 19:29:19.472335  6320 net.cpp:127] Top shape: 4 256 90 120 (11059200)
I0414 19:29:19.472347  6320 layer_factory.hpp:74] Creating layer conv3_3
I0414 19:29:19.472355  6320 net.cpp:90] Creating Layer conv3_3
I0414 19:29:19.472374  6320 net.cpp:410] conv3_3 <- conv3_2
I0414 19:29:19.472384  6320 net.cpp:368] conv3_3 -> conv3_3
I0414 19:29:19.472393  6320 net.cpp:120] Setting up conv3_3
I0414 19:29:19.493437  6320 net.cpp:127] Top shape: 4 256 90 120 (11059200)
I0414 19:29:19.493458  6320 layer_factory.hpp:74] Creating layer conv3_3_bn
I0414 19:29:19.493469  6320 net.cpp:90] Creating Layer conv3_3_bn
I0414 19:29:19.493474  6320 net.cpp:410] conv3_3_bn <- conv3_3
I0414 19:29:19.493484  6320 net.cpp:357] conv3_3_bn -> conv3_3 (in-place)
I0414 19:29:19.493491  6320 net.cpp:120] Setting up conv3_3_bn
I0414 19:29:19.493548  6320 net.cpp:127] Top shape: 4 256 90 120 (11059200)
I0414 19:29:19.493563  6320 layer_factory.hpp:74] Creating layer relu3_3
I0414 19:29:19.493569  6320 net.cpp:90] Creating Layer relu3_3
I0414 19:29:19.493574  6320 net.cpp:410] relu3_3 <- conv3_3
I0414 19:29:19.493580  6320 net.cpp:357] relu3_3 -> conv3_3 (in-place)
I0414 19:29:19.493587  6320 net.cpp:120] Setting up relu3_3
I0414 19:29:19.493944  6320 net.cpp:127] Top shape: 4 256 90 120 (11059200)
I0414 19:29:19.493957  6320 layer_factory.hpp:74] Creating layer pool3
I0414 19:29:19.493963  6320 layer_factory.cpp:55] CUDNN does not support padding or multiple tops. Using Caffe's own pooling layer.
I0414 19:29:19.493969  6320 net.cpp:90] Creating Layer pool3
I0414 19:29:19.493974  6320 net.cpp:410] pool3 <- conv3_3
I0414 19:29:19.493980  6320 net.cpp:368] pool3 -> pool3
I0414 19:29:19.493988  6320 net.cpp:368] pool3 -> pool3_mask
I0414 19:29:19.493998  6320 net.cpp:120] Setting up pool3
I0414 19:29:19.494009  6320 net.cpp:127] Top shape: 4 256 45 60 (2764800)
I0414 19:29:19.494015  6320 net.cpp:127] Top shape: 4 256 45 60 (2764800)
I0414 19:29:19.494020  6320 layer_factory.hpp:74] Creating layer conv4_1
I0414 19:29:19.494029  6320 net.cpp:90] Creating Layer conv4_1
I0414 19:29:19.494037  6320 net.cpp:410] conv4_1 <- pool3
I0414 19:29:19.494045  6320 net.cpp:368] conv4_1 -> conv4_1
I0414 19:29:19.494052  6320 net.cpp:120] Setting up conv4_1
I0414 19:29:19.534811  6320 net.cpp:127] Top shape: 4 512 45 60 (5529600)
I0414 19:29:19.534842  6320 layer_factory.hpp:74] Creating layer conv4_1_bn
I0414 19:29:19.534855  6320 net.cpp:90] Creating Layer conv4_1_bn
I0414 19:29:19.534862  6320 net.cpp:410] conv4_1_bn <- conv4_1
I0414 19:29:19.534871  6320 net.cpp:357] conv4_1_bn -> conv4_1 (in-place)
I0414 19:29:19.534881  6320 net.cpp:120] Setting up conv4_1_bn
I0414 19:29:19.534909  6320 net.cpp:127] Top shape: 4 512 45 60 (5529600)
I0414 19:29:19.534920  6320 layer_factory.hpp:74] Creating layer relu4_1
I0414 19:29:19.534927  6320 net.cpp:90] Creating Layer relu4_1
I0414 19:29:19.534932  6320 net.cpp:410] relu4_1 <- conv4_1
I0414 19:29:19.534940  6320 net.cpp:357] relu4_1 -> conv4_1 (in-place)
I0414 19:29:19.534947  6320 net.cpp:120] Setting up relu4_1
I0414 19:29:19.535442  6320 net.cpp:127] Top shape: 4 512 45 60 (5529600)
I0414 19:29:19.535455  6320 layer_factory.hpp:74] Creating layer conv4_2
I0414 19:29:19.535467  6320 net.cpp:90] Creating Layer conv4_2
I0414 19:29:19.535472  6320 net.cpp:410] conv4_2 <- conv4_1
I0414 19:29:19.535480  6320 net.cpp:368] conv4_2 -> conv4_2
I0414 19:29:19.535487  6320 net.cpp:120] Setting up conv4_2
I0414 19:29:19.616343  6320 net.cpp:127] Top shape: 4 512 45 60 (5529600)
I0414 19:29:19.616392  6320 layer_factory.hpp:74] Creating layer conv4_2_bn
I0414 19:29:19.616410  6320 net.cpp:90] Creating Layer conv4_2_bn
I0414 19:29:19.616417  6320 net.cpp:410] conv4_2_bn <- conv4_2
I0414 19:29:19.616426  6320 net.cpp:357] conv4_2_bn -> conv4_2 (in-place)
I0414 19:29:19.616438  6320 net.cpp:120] Setting up conv4_2_bn
I0414 19:29:19.616472  6320 net.cpp:127] Top shape: 4 512 45 60 (5529600)
I0414 19:29:19.616482  6320 layer_factory.hpp:74] Creating layer relu4_2
I0414 19:29:19.616489  6320 net.cpp:90] Creating Layer relu4_2
I0414 19:29:19.616493  6320 net.cpp:410] relu4_2 <- conv4_2
I0414 19:29:19.616499  6320 net.cpp:357] relu4_2 -> conv4_2 (in-place)
I0414 19:29:19.616506  6320 net.cpp:120] Setting up relu4_2
I0414 19:29:19.616705  6320 net.cpp:127] Top shape: 4 512 45 60 (5529600)
I0414 19:29:19.616737  6320 layer_factory.hpp:74] Creating layer conv4_3
I0414 19:29:19.616758  6320 net.cpp:90] Creating Layer conv4_3
I0414 19:29:19.616765  6320 net.cpp:410] conv4_3 <- conv4_2
I0414 19:29:19.616773  6320 net.cpp:368] conv4_3 -> conv4_3
I0414 19:29:19.616783  6320 net.cpp:120] Setting up conv4_3
I0414 19:29:19.697662  6320 net.cpp:127] Top shape: 4 512 45 60 (5529600)
I0414 19:29:19.697706  6320 layer_factory.hpp:74] Creating layer conv4_3_bn
I0414 19:29:19.697724  6320 net.cpp:90] Creating Layer conv4_3_bn
I0414 19:29:19.697732  6320 net.cpp:410] conv4_3_bn <- conv4_3
I0414 19:29:19.697741  6320 net.cpp:357] conv4_3_bn -> conv4_3 (in-place)
I0414 19:29:19.697752  6320 net.cpp:120] Setting up conv4_3_bn
I0414 19:29:19.697789  6320 net.cpp:127] Top shape: 4 512 45 60 (5529600)
I0414 19:29:19.697798  6320 layer_factory.hpp:74] Creating layer relu4_3
I0414 19:29:19.697808  6320 net.cpp:90] Creating Layer relu4_3
I0414 19:29:19.697811  6320 net.cpp:410] relu4_3 <- conv4_3
I0414 19:29:19.697818  6320 net.cpp:357] relu4_3 -> conv4_3 (in-place)
I0414 19:29:19.697824  6320 net.cpp:120] Setting up relu4_3
I0414 19:29:19.698182  6320 net.cpp:127] Top shape: 4 512 45 60 (5529600)
I0414 19:29:19.698195  6320 layer_factory.hpp:74] Creating layer pool4
I0414 19:29:19.698202  6320 layer_factory.cpp:55] CUDNN does not support padding or multiple tops. Using Caffe's own pooling layer.
I0414 19:29:19.698209  6320 net.cpp:90] Creating Layer pool4
I0414 19:29:19.698213  6320 net.cpp:410] pool4 <- conv4_3
I0414 19:29:19.698220  6320 net.cpp:368] pool4 -> pool4
I0414 19:29:19.698230  6320 net.cpp:368] pool4 -> pool4_mask
I0414 19:29:19.698238  6320 net.cpp:120] Setting up pool4
I0414 19:29:19.698248  6320 net.cpp:127] Top shape: 4 512 23 30 (1413120)
I0414 19:29:19.698253  6320 net.cpp:127] Top shape: 4 512 23 30 (1413120)
I0414 19:29:19.698258  6320 layer_factory.hpp:74] Creating layer conv5_1
I0414 19:29:19.698271  6320 net.cpp:90] Creating Layer conv5_1
I0414 19:29:19.698276  6320 net.cpp:410] conv5_1 <- pool4
I0414 19:29:19.698284  6320 net.cpp:368] conv5_1 -> conv5_1
I0414 19:29:19.698292  6320 net.cpp:120] Setting up conv5_1
I0414 19:29:19.779315  6320 net.cpp:127] Top shape: 4 512 23 30 (1413120)
I0414 19:29:19.779356  6320 layer_factory.hpp:74] Creating layer conv5_1_bn
I0414 19:29:19.779371  6320 net.cpp:90] Creating Layer conv5_1_bn
I0414 19:29:19.779378  6320 net.cpp:410] conv5_1_bn <- conv5_1
I0414 19:29:19.779391  6320 net.cpp:357] conv5_1_bn -> conv5_1 (in-place)
I0414 19:29:19.779402  6320 net.cpp:120] Setting up conv5_1_bn
I0414 19:29:19.779428  6320 net.cpp:127] Top shape: 4 512 23 30 (1413120)
I0414 19:29:19.779440  6320 layer_factory.hpp:74] Creating layer relu5_1
I0414 19:29:19.779450  6320 net.cpp:90] Creating Layer relu5_1
I0414 19:29:19.779455  6320 net.cpp:410] relu5_1 <- conv5_1
I0414 19:29:19.779461  6320 net.cpp:357] relu5_1 -> conv5_1 (in-place)
I0414 19:29:19.779469  6320 net.cpp:120] Setting up relu5_1
I0414 19:29:19.779832  6320 net.cpp:127] Top shape: 4 512 23 30 (1413120)
I0414 19:29:19.779846  6320 layer_factory.hpp:74] Creating layer conv5_2
I0414 19:29:19.779858  6320 net.cpp:90] Creating Layer conv5_2
I0414 19:29:19.779863  6320 net.cpp:410] conv5_2 <- conv5_1
I0414 19:29:19.779872  6320 net.cpp:368] conv5_2 -> conv5_2
I0414 19:29:19.779881  6320 net.cpp:120] Setting up conv5_2
I0414 19:29:19.860533  6320 net.cpp:127] Top shape: 4 512 23 30 (1413120)
I0414 19:29:19.860574  6320 layer_factory.hpp:74] Creating layer conv5_2_bn
I0414 19:29:19.860589  6320 net.cpp:90] Creating Layer conv5_2_bn
I0414 19:29:19.860596  6320 net.cpp:410] conv5_2_bn <- conv5_2
I0414 19:29:19.860607  6320 net.cpp:357] conv5_2_bn -> conv5_2 (in-place)
I0414 19:29:19.860620  6320 net.cpp:120] Setting up conv5_2_bn
I0414 19:29:19.860641  6320 net.cpp:127] Top shape: 4 512 23 30 (1413120)
I0414 19:29:19.860656  6320 layer_factory.hpp:74] Creating layer relu5_2
I0414 19:29:19.860663  6320 net.cpp:90] Creating Layer relu5_2
I0414 19:29:19.860668  6320 net.cpp:410] relu5_2 <- conv5_2
I0414 19:29:19.860695  6320 net.cpp:357] relu5_2 -> conv5_2 (in-place)
I0414 19:29:19.860703  6320 net.cpp:120] Setting up relu5_2
I0414 19:29:19.860901  6320 net.cpp:127] Top shape: 4 512 23 30 (1413120)
I0414 19:29:19.860916  6320 layer_factory.hpp:74] Creating layer conv5_3
I0414 19:29:19.860929  6320 net.cpp:90] Creating Layer conv5_3
I0414 19:29:19.860936  6320 net.cpp:410] conv5_3 <- conv5_2
I0414 19:29:19.860944  6320 net.cpp:368] conv5_3 -> conv5_3
I0414 19:29:19.860954  6320 net.cpp:120] Setting up conv5_3
I0414 19:29:19.944640  6320 net.cpp:127] Top shape: 4 512 23 30 (1413120)
I0414 19:29:19.944696  6320 layer_factory.hpp:74] Creating layer conv5_3_bn
I0414 19:29:19.944731  6320 net.cpp:90] Creating Layer conv5_3_bn
I0414 19:29:19.944746  6320 net.cpp:410] conv5_3_bn <- conv5_3
I0414 19:29:19.944758  6320 net.cpp:357] conv5_3_bn -> conv5_3 (in-place)
I0414 19:29:19.944774  6320 net.cpp:120] Setting up conv5_3_bn
I0414 19:29:19.944800  6320 net.cpp:127] Top shape: 4 512 23 30 (1413120)
I0414 19:29:19.944818  6320 layer_factory.hpp:74] Creating layer relu5_3
I0414 19:29:19.944833  6320 net.cpp:90] Creating Layer relu5_3
I0414 19:29:19.944839  6320 net.cpp:410] relu5_3 <- conv5_3
I0414 19:29:19.944847  6320 net.cpp:357] relu5_3 -> conv5_3 (in-place)
I0414 19:29:19.944854  6320 net.cpp:120] Setting up relu5_3
I0414 19:29:19.945202  6320 net.cpp:127] Top shape: 4 512 23 30 (1413120)
I0414 19:29:19.945214  6320 layer_factory.hpp:74] Creating layer pool5
I0414 19:29:19.945221  6320 layer_factory.cpp:55] CUDNN does not support padding or multiple tops. Using Caffe's own pooling layer.
I0414 19:29:19.945230  6320 net.cpp:90] Creating Layer pool5
I0414 19:29:19.945235  6320 net.cpp:410] pool5 <- conv5_3
I0414 19:29:19.945245  6320 net.cpp:368] pool5 -> pool5
I0414 19:29:19.945256  6320 net.cpp:368] pool5 -> pool5_mask
I0414 19:29:19.945263  6320 net.cpp:120] Setting up pool5
I0414 19:29:19.945273  6320 net.cpp:127] Top shape: 4 512 12 15 (368640)
I0414 19:29:19.945279  6320 net.cpp:127] Top shape: 4 512 12 15 (368640)
I0414 19:29:19.945283  6320 layer_factory.hpp:74] Creating layer upsample5
I0414 19:29:19.945297  6320 net.cpp:90] Creating Layer upsample5
I0414 19:29:19.945302  6320 net.cpp:410] upsample5 <- pool5
I0414 19:29:19.945307  6320 net.cpp:410] upsample5 <- pool5_mask
I0414 19:29:19.945313  6320 net.cpp:368] upsample5 -> pool5_D
I0414 19:29:19.945324  6320 net.cpp:120] Setting up upsample5
I0414 19:29:19.945334  6320 net.cpp:127] Top shape: 4 512 23 30 (1413120)
I0414 19:29:19.945339  6320 layer_factory.hpp:74] Creating layer conv5_3_D
I0414 19:29:19.945353  6320 net.cpp:90] Creating Layer conv5_3_D
I0414 19:29:19.945358  6320 net.cpp:410] conv5_3_D <- pool5_D
I0414 19:29:19.945366  6320 net.cpp:368] conv5_3_D -> conv5_3_D
I0414 19:29:19.945375  6320 net.cpp:120] Setting up conv5_3_D
I0414 19:29:20.026062  6320 net.cpp:127] Top shape: 4 512 23 30 (1413120)
I0414 19:29:20.026105  6320 layer_factory.hpp:74] Creating layer conv5_3_D_bn
I0414 19:29:20.026123  6320 net.cpp:90] Creating Layer conv5_3_D_bn
I0414 19:29:20.026129  6320 net.cpp:410] conv5_3_D_bn <- conv5_3_D
I0414 19:29:20.026140  6320 net.cpp:357] conv5_3_D_bn -> conv5_3_D (in-place)
I0414 19:29:20.026152  6320 net.cpp:120] Setting up conv5_3_D_bn
I0414 19:29:20.026175  6320 net.cpp:127] Top shape: 4 512 23 30 (1413120)
I0414 19:29:20.026186  6320 layer_factory.hpp:74] Creating layer relu5_3_D
I0414 19:29:20.026195  6320 net.cpp:90] Creating Layer relu5_3_D
I0414 19:29:20.026199  6320 net.cpp:410] relu5_3_D <- conv5_3_D
I0414 19:29:20.026213  6320 net.cpp:357] relu5_3_D -> conv5_3_D (in-place)
I0414 19:29:20.026221  6320 net.cpp:120] Setting up relu5_3_D
I0414 19:29:20.026576  6320 net.cpp:127] Top shape: 4 512 23 30 (1413120)
I0414 19:29:20.026588  6320 layer_factory.hpp:74] Creating layer conv5_2_D
I0414 19:29:20.026602  6320 net.cpp:90] Creating Layer conv5_2_D
I0414 19:29:20.026607  6320 net.cpp:410] conv5_2_D <- conv5_3_D
I0414 19:29:20.026618  6320 net.cpp:368] conv5_2_D -> conv5_2_D
I0414 19:29:20.026628  6320 net.cpp:120] Setting up conv5_2_D
I0414 19:29:20.107432  6320 net.cpp:127] Top shape: 4 512 23 30 (1413120)
I0414 19:29:20.107475  6320 layer_factory.hpp:74] Creating layer conv5_2_D_bn
I0414 19:29:20.107492  6320 net.cpp:90] Creating Layer conv5_2_D_bn
I0414 19:29:20.107499  6320 net.cpp:410] conv5_2_D_bn <- conv5_2_D
I0414 19:29:20.107511  6320 net.cpp:357] conv5_2_D_bn -> conv5_2_D (in-place)
I0414 19:29:20.107522  6320 net.cpp:120] Setting up conv5_2_D_bn
I0414 19:29:20.107547  6320 net.cpp:127] Top shape: 4 512 23 30 (1413120)
I0414 19:29:20.107561  6320 layer_factory.hpp:74] Creating layer relu5_2_D
I0414 19:29:20.107573  6320 net.cpp:90] Creating Layer relu5_2_D
I0414 19:29:20.107578  6320 net.cpp:410] relu5_2_D <- conv5_2_D
I0414 19:29:20.107583  6320 net.cpp:357] relu5_2_D -> conv5_2_D (in-place)
I0414 19:29:20.107590  6320 net.cpp:120] Setting up relu5_2_D
I0414 19:29:20.107794  6320 net.cpp:127] Top shape: 4 512 23 30 (1413120)
I0414 19:29:20.107805  6320 layer_factory.hpp:74] Creating layer conv5_1_D
I0414 19:29:20.107817  6320 net.cpp:90] Creating Layer conv5_1_D
I0414 19:29:20.107822  6320 net.cpp:410] conv5_1_D <- conv5_2_D
I0414 19:29:20.107832  6320 net.cpp:368] conv5_1_D -> conv5_1_D
I0414 19:29:20.107841  6320 net.cpp:120] Setting up conv5_1_D
I0414 19:29:20.189147  6320 net.cpp:127] Top shape: 4 512 23 30 (1413120)
I0414 19:29:20.189188  6320 layer_factory.hpp:74] Creating layer conv5_1_D_bn
I0414 19:29:20.189205  6320 net.cpp:90] Creating Layer conv5_1_D_bn
I0414 19:29:20.189213  6320 net.cpp:410] conv5_1_D_bn <- conv5_1_D
I0414 19:29:20.189223  6320 net.cpp:357] conv5_1_D_bn -> conv5_1_D (in-place)
I0414 19:29:20.189234  6320 net.cpp:120] Setting up conv5_1_D_bn
I0414 19:29:20.189256  6320 net.cpp:127] Top shape: 4 512 23 30 (1413120)
I0414 19:29:20.189265  6320 layer_factory.hpp:74] Creating layer relu5_1_D
I0414 19:29:20.189276  6320 net.cpp:90] Creating Layer relu5_1_D
I0414 19:29:20.189280  6320 net.cpp:410] relu5_1_D <- conv5_1_D
I0414 19:29:20.189288  6320 net.cpp:357] relu5_1_D -> conv5_1_D (in-place)
I0414 19:29:20.189296  6320 net.cpp:120] Setting up relu5_1_D
I0414 19:29:20.189801  6320 net.cpp:127] Top shape: 4 512 23 30 (1413120)
I0414 19:29:20.189817  6320 layer_factory.hpp:74] Creating layer upsample4
I0414 19:29:20.189827  6320 net.cpp:90] Creating Layer upsample4
I0414 19:29:20.189832  6320 net.cpp:410] upsample4 <- conv5_1_D
I0414 19:29:20.189838  6320 net.cpp:410] upsample4 <- pool4_mask
I0414 19:29:20.189846  6320 net.cpp:368] upsample4 -> pool4_D
I0414 19:29:20.189856  6320 net.cpp:120] Setting up upsample4
I0414 19:29:20.189864  6320 net.cpp:127] Top shape: 4 512 45 60 (5529600)
I0414 19:29:20.189869  6320 layer_factory.hpp:74] Creating layer conv4_3_D
I0414 19:29:20.189878  6320 net.cpp:90] Creating Layer conv4_3_D
I0414 19:29:20.189882  6320 net.cpp:410] conv4_3_D <- pool4_D
I0414 19:29:20.189898  6320 net.cpp:368] conv4_3_D -> conv4_3_D
I0414 19:29:20.189916  6320 net.cpp:120] Setting up conv4_3_D
I0414 19:29:20.270545  6320 net.cpp:127] Top shape: 4 512 45 60 (5529600)
I0414 19:29:20.270615  6320 layer_factory.hpp:74] Creating layer conv4_3_D_bn
I0414 19:29:20.270634  6320 net.cpp:90] Creating Layer conv4_3_D_bn
I0414 19:29:20.270642  6320 net.cpp:410] conv4_3_D_bn <- conv4_3_D
I0414 19:29:20.270663  6320 net.cpp:357] conv4_3_D_bn -> conv4_3_D (in-place)
I0414 19:29:20.270675  6320 net.cpp:120] Setting up conv4_3_D_bn
I0414 19:29:20.270707  6320 net.cpp:127] Top shape: 4 512 45 60 (5529600)
I0414 19:29:20.270719  6320 layer_factory.hpp:74] Creating layer relu4_3_D
I0414 19:29:20.270728  6320 net.cpp:90] Creating Layer relu4_3_D
I0414 19:29:20.270736  6320 net.cpp:410] relu4_3_D <- conv4_3_D
I0414 19:29:20.270743  6320 net.cpp:357] relu4_3_D -> conv4_3_D (in-place)
I0414 19:29:20.270750  6320 net.cpp:120] Setting up relu4_3_D
I0414 19:29:20.271100  6320 net.cpp:127] Top shape: 4 512 45 60 (5529600)
I0414 19:29:20.271112  6320 layer_factory.hpp:74] Creating layer conv4_2_D
I0414 19:29:20.271124  6320 net.cpp:90] Creating Layer conv4_2_D
I0414 19:29:20.271129  6320 net.cpp:410] conv4_2_D <- conv4_3_D
I0414 19:29:20.271138  6320 net.cpp:368] conv4_2_D -> conv4_2_D
I0414 19:29:20.271167  6320 net.cpp:120] Setting up conv4_2_D
I0414 19:29:20.352260  6320 net.cpp:127] Top shape: 4 512 45 60 (5529600)
I0414 19:29:20.352301  6320 layer_factory.hpp:74] Creating layer conv4_2_D_bn
I0414 19:29:20.352324  6320 net.cpp:90] Creating Layer conv4_2_D_bn
I0414 19:29:20.352332  6320 net.cpp:410] conv4_2_D_bn <- conv4_2_D
I0414 19:29:20.352342  6320 net.cpp:357] conv4_2_D_bn -> conv4_2_D (in-place)
I0414 19:29:20.352355  6320 net.cpp:120] Setting up conv4_2_D_bn
I0414 19:29:20.352383  6320 net.cpp:127] Top shape: 4 512 45 60 (5529600)
I0414 19:29:20.352393  6320 layer_factory.hpp:74] Creating layer relu4_2_D
I0414 19:29:20.352401  6320 net.cpp:90] Creating Layer relu4_2_D
I0414 19:29:20.352406  6320 net.cpp:410] relu4_2_D <- conv4_2_D
I0414 19:29:20.352411  6320 net.cpp:357] relu4_2_D -> conv4_2_D (in-place)
I0414 19:29:20.352418  6320 net.cpp:120] Setting up relu4_2_D
I0414 19:29:20.352612  6320 net.cpp:127] Top shape: 4 512 45 60 (5529600)
I0414 19:29:20.352628  6320 layer_factory.hpp:74] Creating layer conv4_1_D
I0414 19:29:20.352640  6320 net.cpp:90] Creating Layer conv4_1_D
I0414 19:29:20.352648  6320 net.cpp:410] conv4_1_D <- conv4_2_D
I0414 19:29:20.352658  6320 net.cpp:368] conv4_1_D -> conv4_1_D
I0414 19:29:20.352668  6320 net.cpp:120] Setting up conv4_1_D
I0414 19:29:20.399749  6320 net.cpp:127] Top shape: 4 256 45 60 (2764800)
I0414 19:29:20.399780  6320 layer_factory.hpp:74] Creating layer conv4_1_D_bn
I0414 19:29:20.399830  6320 net.cpp:90] Creating Layer conv4_1_D_bn
I0414 19:29:20.399839  6320 net.cpp:410] conv4_1_D_bn <- conv4_1_D
I0414 19:29:20.399850  6320 net.cpp:357] conv4_1_D_bn -> conv4_1_D (in-place)
I0414 19:29:20.399864  6320 net.cpp:120] Setting up conv4_1_D_bn
I0414 19:29:20.399893  6320 net.cpp:127] Top shape: 4 256 45 60 (2764800)
I0414 19:29:20.399905  6320 layer_factory.hpp:74] Creating layer relu4_1_D
I0414 19:29:20.399914  6320 net.cpp:90] Creating Layer relu4_1_D
I0414 19:29:20.399919  6320 net.cpp:410] relu4_1_D <- conv4_1_D
I0414 19:29:20.399924  6320 net.cpp:357] relu4_1_D -> conv4_1_D (in-place)
I0414 19:29:20.399931  6320 net.cpp:120] Setting up relu4_1_D
I0414 19:29:20.400281  6320 net.cpp:127] Top shape: 4 256 45 60 (2764800)
I0414 19:29:20.400295  6320 layer_factory.hpp:74] Creating layer upsample3
I0414 19:29:20.400303  6320 net.cpp:90] Creating Layer upsample3
I0414 19:29:20.400308  6320 net.cpp:410] upsample3 <- conv4_1_D
I0414 19:29:20.400315  6320 net.cpp:410] upsample3 <- pool3_mask
I0414 19:29:20.400321  6320 net.cpp:368] upsample3 -> pool3_D
I0414 19:29:20.400329  6320 net.cpp:120] Setting up upsample3
I0414 19:29:20.400334  6320 upsample_layer.cpp:31] Params 'pad_out_{}_' are deprecated. Please declare upsample height and width useing the upsample_h, upsample_w parameters.
I0414 19:29:20.400342  6320 net.cpp:127] Top shape: 4 256 90 120 (11059200)
I0414 19:29:20.400353  6320 layer_factory.hpp:74] Creating layer conv3_3_D
I0414 19:29:20.400372  6320 net.cpp:90] Creating Layer conv3_3_D
I0414 19:29:20.400377  6320 net.cpp:410] conv3_3_D <- pool3_D
I0414 19:29:20.400387  6320 net.cpp:368] conv3_3_D -> conv3_3_D
I0414 19:29:20.400394  6320 net.cpp:120] Setting up conv3_3_D
I0414 19:29:20.420933  6320 net.cpp:127] Top shape: 4 256 90 120 (11059200)
I0414 19:29:20.420950  6320 layer_factory.hpp:74] Creating layer conv3_3_D_bn
I0414 19:29:20.420967  6320 net.cpp:90] Creating Layer conv3_3_D_bn
I0414 19:29:20.420974  6320 net.cpp:410] conv3_3_D_bn <- conv3_3_D
I0414 19:29:20.420982  6320 net.cpp:357] conv3_3_D_bn -> conv3_3_D (in-place)
I0414 19:29:20.420990  6320 net.cpp:120] Setting up conv3_3_D_bn
I0414 19:29:20.421046  6320 net.cpp:127] Top shape: 4 256 90 120 (11059200)
I0414 19:29:20.421058  6320 layer_factory.hpp:74] Creating layer relu3_3_D
I0414 19:29:20.421066  6320 net.cpp:90] Creating Layer relu3_3_D
I0414 19:29:20.421069  6320 net.cpp:410] relu3_3_D <- conv3_3_D
I0414 19:29:20.421075  6320 net.cpp:357] relu3_3_D -> conv3_3_D (in-place)
I0414 19:29:20.421082  6320 net.cpp:120] Setting up relu3_3_D
I0414 19:29:20.421458  6320 net.cpp:127] Top shape: 4 256 90 120 (11059200)
I0414 19:29:20.421470  6320 layer_factory.hpp:74] Creating layer conv3_2_D
I0414 19:29:20.421484  6320 net.cpp:90] Creating Layer conv3_2_D
I0414 19:29:20.421490  6320 net.cpp:410] conv3_2_D <- conv3_3_D
I0414 19:29:20.421499  6320 net.cpp:368] conv3_2_D -> conv3_2_D
I0414 19:29:20.421507  6320 net.cpp:120] Setting up conv3_2_D
I0414 19:29:20.442553  6320 net.cpp:127] Top shape: 4 256 90 120 (11059200)
I0414 19:29:20.442582  6320 layer_factory.hpp:74] Creating layer conv3_2_D_bn
I0414 19:29:20.442596  6320 net.cpp:90] Creating Layer conv3_2_D_bn
I0414 19:29:20.442602  6320 net.cpp:410] conv3_2_D_bn <- conv3_2_D
I0414 19:29:20.442610  6320 net.cpp:357] conv3_2_D_bn -> conv3_2_D (in-place)
I0414 19:29:20.442620  6320 net.cpp:120] Setting up conv3_2_D_bn
I0414 19:29:20.442677  6320 net.cpp:127] Top shape: 4 256 90 120 (11059200)
I0414 19:29:20.442689  6320 layer_factory.hpp:74] Creating layer relu3_2_D
I0414 19:29:20.442697  6320 net.cpp:90] Creating Layer relu3_2_D
I0414 19:29:20.442700  6320 net.cpp:410] relu3_2_D <- conv3_2_D
I0414 19:29:20.442709  6320 net.cpp:357] relu3_2_D -> conv3_2_D (in-place)
I0414 19:29:20.442716  6320 net.cpp:120] Setting up relu3_2_D
I0414 19:29:20.442929  6320 net.cpp:127] Top shape: 4 256 90 120 (11059200)
I0414 19:29:20.442941  6320 layer_factory.hpp:74] Creating layer conv3_1_D
I0414 19:29:20.442958  6320 net.cpp:90] Creating Layer conv3_1_D
I0414 19:29:20.442965  6320 net.cpp:410] conv3_1_D <- conv3_2_D
I0414 19:29:20.442973  6320 net.cpp:368] conv3_1_D -> conv3_1_D
I0414 19:29:20.442981  6320 net.cpp:120] Setting up conv3_1_D
I0414 19:29:20.453940  6320 net.cpp:127] Top shape: 4 128 90 120 (5529600)
I0414 19:29:20.453963  6320 layer_factory.hpp:74] Creating layer conv3_1_D_bn
I0414 19:29:20.453975  6320 net.cpp:90] Creating Layer conv3_1_D_bn
I0414 19:29:20.453980  6320 net.cpp:410] conv3_1_D_bn <- conv3_1_D
I0414 19:29:20.453987  6320 net.cpp:357] conv3_1_D_bn -> conv3_1_D (in-place)
I0414 19:29:20.453995  6320 net.cpp:120] Setting up conv3_1_D_bn
I0414 19:29:20.454053  6320 net.cpp:127] Top shape: 4 128 90 120 (5529600)
I0414 19:29:20.454066  6320 layer_factory.hpp:74] Creating layer relu3_1_D
I0414 19:29:20.454072  6320 net.cpp:90] Creating Layer relu3_1_D
I0414 19:29:20.454077  6320 net.cpp:410] relu3_1_D <- conv3_1_D
I0414 19:29:20.454084  6320 net.cpp:357] relu3_1_D -> conv3_1_D (in-place)
I0414 19:29:20.454092  6320 net.cpp:120] Setting up relu3_1_D
I0414 19:29:20.454439  6320 net.cpp:127] Top shape: 4 128 90 120 (5529600)
I0414 19:29:20.454452  6320 layer_factory.hpp:74] Creating layer upsample2
I0414 19:29:20.454468  6320 net.cpp:90] Creating Layer upsample2
I0414 19:29:20.454473  6320 net.cpp:410] upsample2 <- conv3_1_D
I0414 19:29:20.454479  6320 net.cpp:410] upsample2 <- pool2_mask
I0414 19:29:20.454488  6320 net.cpp:368] upsample2 -> pool2_D
I0414 19:29:20.454496  6320 net.cpp:120] Setting up upsample2
I0414 19:29:20.454501  6320 upsample_layer.cpp:31] Params 'pad_out_{}_' are deprecated. Please declare upsample height and width useing the upsample_h, upsample_w parameters.
I0414 19:29:20.454509  6320 net.cpp:127] Top shape: 4 128 180 240 (22118400)
I0414 19:29:20.454514  6320 layer_factory.hpp:74] Creating layer conv2_2_D
I0414 19:29:20.454524  6320 net.cpp:90] Creating Layer conv2_2_D
I0414 19:29:20.454530  6320 net.cpp:410] conv2_2_D <- pool2_D
I0414 19:29:20.454537  6320 net.cpp:368] conv2_2_D -> conv2_2_D
I0414 19:29:20.454545  6320 net.cpp:120] Setting up conv2_2_D
I0414 19:29:20.460410  6320 net.cpp:127] Top shape: 4 128 180 240 (22118400)
I0414 19:29:20.460433  6320 layer_factory.hpp:74] Creating layer conv2_2_D_bn
I0414 19:29:20.460444  6320 net.cpp:90] Creating Layer conv2_2_D_bn
I0414 19:29:20.460449  6320 net.cpp:410] conv2_2_D_bn <- conv2_2_D
I0414 19:29:20.460458  6320 net.cpp:357] conv2_2_D_bn -> conv2_2_D (in-place)
I0414 19:29:20.460465  6320 net.cpp:120] Setting up conv2_2_D_bn
I0414 19:29:20.460647  6320 net.cpp:127] Top shape: 4 128 180 240 (22118400)
I0414 19:29:20.460662  6320 layer_factory.hpp:74] Creating layer relu2_2_D
I0414 19:29:20.460691  6320 net.cpp:90] Creating Layer relu2_2_D
I0414 19:29:20.460698  6320 net.cpp:410] relu2_2_D <- conv2_2_D
I0414 19:29:20.460705  6320 net.cpp:357] relu2_2_D -> conv2_2_D (in-place)
I0414 19:29:20.460711  6320 net.cpp:120] Setting up relu2_2_D
I0414 19:29:20.461064  6320 net.cpp:127] Top shape: 4 128 180 240 (22118400)
I0414 19:29:20.461076  6320 layer_factory.hpp:74] Creating layer conv2_1_D
I0414 19:29:20.461092  6320 net.cpp:90] Creating Layer conv2_1_D
I0414 19:29:20.461098  6320 net.cpp:410] conv2_1_D <- conv2_2_D
I0414 19:29:20.461105  6320 net.cpp:368] conv2_1_D -> conv2_1_D
I0414 19:29:20.461113  6320 net.cpp:120] Setting up conv2_1_D
I0414 19:29:20.464632  6320 net.cpp:127] Top shape: 4 64 180 240 (11059200)
I0414 19:29:20.464648  6320 layer_factory.hpp:74] Creating layer conv2_1_D_bn
I0414 19:29:20.464659  6320 net.cpp:90] Creating Layer conv2_1_D_bn
I0414 19:29:20.464664  6320 net.cpp:410] conv2_1_D_bn <- conv2_1_D
I0414 19:29:20.464673  6320 net.cpp:357] conv2_1_D_bn -> conv2_1_D (in-place)
I0414 19:29:20.464681  6320 net.cpp:120] Setting up conv2_1_D_bn
I0414 19:29:20.464859  6320 net.cpp:127] Top shape: 4 64 180 240 (11059200)
I0414 19:29:20.464884  6320 layer_factory.hpp:74] Creating layer relu2_1_D
I0414 19:29:20.464891  6320 net.cpp:90] Creating Layer relu2_1_D
I0414 19:29:20.464896  6320 net.cpp:410] relu2_1_D <- conv2_1_D
I0414 19:29:20.464906  6320 net.cpp:357] relu2_1_D -> conv2_1_D (in-place)
I0414 19:29:20.464916  6320 net.cpp:120] Setting up relu2_1_D
I0414 19:29:20.465263  6320 net.cpp:127] Top shape: 4 64 180 240 (11059200)
I0414 19:29:20.465277  6320 layer_factory.hpp:74] Creating layer upsample1
I0414 19:29:20.465291  6320 net.cpp:90] Creating Layer upsample1
I0414 19:29:20.465296  6320 net.cpp:410] upsample1 <- conv2_1_D
I0414 19:29:20.465302  6320 net.cpp:410] upsample1 <- pool1_mask
I0414 19:29:20.465311  6320 net.cpp:368] upsample1 -> pool1_D
I0414 19:29:20.465318  6320 net.cpp:120] Setting up upsample1
I0414 19:29:20.465323  6320 upsample_layer.cpp:31] Params 'pad_out_{}_' are deprecated. Please declare upsample height and width useing the upsample_h, upsample_w parameters.
I0414 19:29:20.465332  6320 net.cpp:127] Top shape: 4 64 360 480 (44236800)
I0414 19:29:20.465337  6320 layer_factory.hpp:74] Creating layer conv1_2_D
I0414 19:29:20.465343  6320 net.cpp:90] Creating Layer conv1_2_D
I0414 19:29:20.465348  6320 net.cpp:410] conv1_2_D <- pool1_D
I0414 19:29:20.465360  6320 net.cpp:368] conv1_2_D -> conv1_2_D
I0414 19:29:20.465369  6320 net.cpp:120] Setting up conv1_2_D
I0414 19:29:20.467874  6320 net.cpp:127] Top shape: 4 64 360 480 (44236800)
I0414 19:29:20.467890  6320 layer_factory.hpp:74] Creating layer conv1_2_D_bn
I0414 19:29:20.467907  6320 net.cpp:90] Creating Layer conv1_2_D_bn
I0414 19:29:20.467913  6320 net.cpp:410] conv1_2_D_bn <- conv1_2_D
I0414 19:29:20.467921  6320 net.cpp:357] conv1_2_D_bn -> conv1_2_D (in-place)
I0414 19:29:20.467929  6320 net.cpp:120] Setting up conv1_2_D_bn
I0414 19:29:20.468559  6320 net.cpp:127] Top shape: 4 64 360 480 (44236800)
I0414 19:29:20.468574  6320 layer_factory.hpp:74] Creating layer relu1_2_D
I0414 19:29:20.468582  6320 net.cpp:90] Creating Layer relu1_2_D
I0414 19:29:20.468586  6320 net.cpp:410] relu1_2_D <- conv1_2_D
I0414 19:29:20.468592  6320 net.cpp:357] relu1_2_D -> conv1_2_D (in-place)
I0414 19:29:20.468600  6320 net.cpp:120] Setting up relu1_2_D
I0414 19:29:20.468972  6320 net.cpp:127] Top shape: 4 64 360 480 (44236800)
I0414 19:29:20.468986  6320 layer_factory.hpp:74] Creating layer conv1_1_D
I0414 19:29:20.468994  6320 net.cpp:90] Creating Layer conv1_1_D
I0414 19:29:20.468998  6320 net.cpp:410] conv1_1_D <- conv1_2_D
I0414 19:29:20.469007  6320 net.cpp:368] conv1_1_D -> conv1_1_D
I0414 19:29:20.469017  6320 net.cpp:120] Setting up conv1_1_D
I0414 19:29:20.470342  6320 net.cpp:127] Top shape: 4 11 360 480 (7603200)
I0414 19:29:20.470360  6320 layer_factory.hpp:74] Creating layer conv1_1_D_conv1_1_D_0_split
I0414 19:29:20.470368  6320 net.cpp:90] Creating Layer conv1_1_D_conv1_1_D_0_split
I0414 19:29:20.470387  6320 net.cpp:410] conv1_1_D_conv1_1_D_0_split <- conv1_1_D
I0414 19:29:20.470397  6320 net.cpp:368] conv1_1_D_conv1_1_D_0_split -> conv1_1_D_conv1_1_D_0_split_0
I0414 19:29:20.470405  6320 net.cpp:368] conv1_1_D_conv1_1_D_0_split -> conv1_1_D_conv1_1_D_0_split_1
I0414 19:29:20.470412  6320 net.cpp:120] Setting up conv1_1_D_conv1_1_D_0_split
I0414 19:29:20.470420  6320 net.cpp:127] Top shape: 4 11 360 480 (7603200)
I0414 19:29:20.470429  6320 net.cpp:127] Top shape: 4 11 360 480 (7603200)
I0414 19:29:20.470434  6320 layer_factory.hpp:74] Creating layer loss
I0414 19:29:20.470453  6320 net.cpp:90] Creating Layer loss
I0414 19:29:20.470458  6320 net.cpp:410] loss <- conv1_1_D_conv1_1_D_0_split_0
I0414 19:29:20.470463  6320 net.cpp:410] loss <- label_data_1_split_0
I0414 19:29:20.470470  6320 net.cpp:368] loss -> loss
I0414 19:29:20.470490  6320 net.cpp:120] Setting up loss
I0414 19:29:20.470504  6320 layer_factory.hpp:74] Creating layer loss
I0414 19:29:20.481577  6320 net.cpp:127] Top shape: (1)
I0414 19:29:20.481616  6320 net.cpp:129]     with loss weight 1
I0414 19:29:20.481654  6320 layer_factory.hpp:74] Creating layer accuracy
I0414 19:29:20.481684  6320 net.cpp:90] Creating Layer accuracy
I0414 19:29:20.481693  6320 net.cpp:410] accuracy <- conv1_1_D_conv1_1_D_0_split_1
I0414 19:29:20.481709  6320 net.cpp:410] accuracy <- label_data_1_split_1
I0414 19:29:20.481719  6320 net.cpp:368] accuracy -> accuracy
I0414 19:29:20.481730  6320 net.cpp:368] accuracy -> per_class_accuracy
I0414 19:29:20.481737  6320 net.cpp:120] Setting up accuracy
I0414 19:29:20.481752  6320 accuracy_layer.cpp:24] Per-class accuracies currently only work on TRAIN phase only.
I0414 19:29:20.481761  6320 net.cpp:127] Top shape: (1)
I0414 19:29:20.481767  6320 net.cpp:127] Top shape: 11 1 1 1 (11)
I0414 19:29:20.481772  6320 net.cpp:194] accuracy does not need backward computation.
I0414 19:29:20.481777  6320 net.cpp:192] loss needs backward computation.
I0414 19:29:20.481782  6320 net.cpp:192] conv1_1_D_conv1_1_D_0_split needs backward computation.
I0414 19:29:20.481787  6320 net.cpp:192] conv1_1_D needs backward computation.
I0414 19:29:20.481792  6320 net.cpp:192] relu1_2_D needs backward computation.
…
