…
state {
  phase: TRAIN
}
layer {
  name: "data"
  type: "Data"
  top: "data"
  include {
    phase: TRAIN
  }
  transform_param {
    mean_value: 104.00699
    mean_value: 116.66877
    mean_value: 122.67892
  }
  data_param {
    source: "/home/shared/datasets/VOCdevkit/VOC2012/LMDB/train_lmdb"
    batch_size: 2
    backend: LMDB
  }
}
layer {
  name: "label"
  type: "Data"
  top: "label"
  include {
    phase: TRAIN
  }
  data_param {
    source: "/home/shared/datasets/VOCdevkit/VOC2012/LMDB/train_gt_lmdb"
    batch_size: 2
    backend: LMDB
  }
}
layer {
  name: "conv1_1"
  type: "Convolution"
  bottom: "data"
  top: "conv1_1"
  param {
    lr_mult: 1
    decay_mult: 1
  }
  param {
    lr_mult: 2
    decay_mult: 0
  }
  convolution_param {
    num_output: 64
    pad: 1
    kernel_size: 3
    weight_filler {
      type: "xavier"
    }
    bias_filler {
      type: "constant"
      value: 0
    }
  }
}
layer {
  name: "conv1_1_bn"
  type: "BN"
  bottom: "conv1_1"
  top: "conv1_1"
  param {
    lr_mult: 1
    decay_mult: 1
  }
  param {
    lr_mult: 1
    decay_mult: 0
  }
  bn_param {
    scale_filler {
      type: "constant"
      value: 1
    }
    shift_filler {
      type: "constant"
      value: 0
    }
  }
}
layer {
  name: "relu1_1"
  type: "ReLU"
  bottom: "conv1_1"
  top: "conv1_1"
}
layer {
  name: "conv1_2"
  type: "Convolution"
  bottom: "conv1_1"
  top: "conv1_2"
  param {
    lr_mult: 1
    decay_mult: 1
  }
  param {
    lr_mult: 2
    decay_mult: 0
  }
  convolution_param {
    num_output: 64
    pad: 1
    kernel_size: 3
    weight_filler {
      type: "xavier"
    }
    bias_filler {
      type: "constant"
      value: 0
    }
  }
}
layer {
  name: "conv1_2_bn"
  type: "BN"
  bottom: "conv1_2"
  top: "conv1_2"
  param {
    lr_mult: 1
    decay_mult: 1
  }
  param {
    lr_mult: 1
    decay_mult: 0
  }
  bn_param {
    scale_filler {
      type: "constant"
      value: 1
    }
    shift_filler {
      type: "constant"
      value: 0
    }
  }
}
layer {
  name: "relu1_2"
  type: "ReLU"
  bottom: "conv1_2"
  top: "conv1_2"
}
layer {
  name: "pool1_drop"
  type: "Dropout"
  bottom: "conv1_2"
  top: "conv1_2"
  dropout_param {
    dropout_ratio: 0.5
  }
}
layer {
  name: "pool1"
  type: "Pooling"
  bottom: "conv1_2"
  top: "pool1"
  top: "pool1_mask"
  pooling_param {
    pool: MAX
    kernel_size: 2
    stride: 2
  }
}
layer {
  name: "conv2_1"
  type: "Convolution"
  bottom: "pool1"
  top: "conv2_1"
  param {
    lr_mult: 1
    decay_mult: 1
  }
  param {
    lr_mult: 2
    decay_mult: 0
  }
  convolution_param {
    num_output: 128
    pad: 1
    kernel_size: 3
    weight_filler {
      type: "xavier"
    }
    bias_filler {
      type: "constant"
      value: 0
    }
  }
}
layer {
  name: "conv2_1_bn"
  type: "BN"
  bottom: "conv2_1"
  top: "conv2_1"
  param {
    lr_mult: 1
    decay_mult: 1
  }
  param {
    lr_mult: 1
    decay_mult: 0
  }
  bn_param {
    scale_filler {
      type: "constant"
      value: 1
    }
    shift_filler {
      type: "constant"
      value: 0
    }
  }
}
layer {
  name: "relu2_1"
  type: "ReLU"
  bottom: "conv2_1"
  top: "conv2_1"
}
layer {
  name: "conv2_2"
  type: "Convolution"
  bottom: "conv2_1"
  top: "conv2_2"
  param {
    lr_mult: 1
    decay_mult: 1
  }
  param {
    lr_mult: 2
    decay_mult: 0
  }
  convolution_param {
    num_output: 128
    pad: 1
    kernel_size: 3
    weight_filler {
      type: "xavier"
    }
    bias_filler {
      type: "constant"
      value: 0
    }
  }
}
layer {
  name: "conv2_2_bn"
  type: "BN"
  bottom: "conv2_2"
  top: "conv2_2"
  param {
    lr_mult: 1
    decay_mult: 1
  }
  param {
    lr_mult: 1
    decay_mult: 0
  }
  bn_param {
    scale_filler {
      type: "constant"
      value: 1
    }
    shift_filler {
      type: "constant"
      value: 0
    }
  }
}
layer {
  name: "relu2_2"
  type: "ReLU"
  bottom: "conv2_2"
  top: "conv2_2"
}
layer {
  name: "pool2_drop"
  type: "Dropout"
  bottom: "conv2_2"
  top: "conv2_2"
  dropout_param {
    dropout_ratio: 0.5
  }
}
layer {
  name: "pool2"
  type: "Pooling"
  bottom: "conv2_2"
  top: "pool2"
  top: "pool2_mask"
  pooling_param {
    pool: MAX
    kernel_size: 2
    stride: 2
  }
}
layer {
  name: "conv3_1"
  type: "Convolution"
  bottom: "pool2"
  top: "conv3_1"
  param {
    lr_mult: 1
    decay_mult: 1
  }
  param {
    lr_mult: 2
    decay_mult: 0
  }
  convolution_param {
    num_output: 256
    pad: 1
    kernel_size: 3
    weight_filler {
      type: "xavier"
    }
    bias_filler {
      type: "constant"
      value: 0
    }
  }
}
layer {
  name: "conv3_1_bn"
  type: "BN"
  bottom: "conv3_1"
  top: "conv3_1"
  param {
    lr_mult: 1
    decay_mult: 1
  }
  param {
    lr_mult: 1
    decay_mult: 0
  }
  bn_param {
    scale_filler {
      type: "constant"
      value: 1
    }
    shift_filler {
      type: "constant"
      value: 0
    }
  }
}
layer {
  name: "relu3_1"
  type: "ReLU"
  bottom: "conv3_1"
  top: "conv3_1"
}
layer {
  name: "conv3_2"
  type: "Convolution"
  bottom: "conv3_1"
  top: "conv3_2"
  param {
    lr_mult: 1
    decay_mult: 1
  }
  param {
    lr_mult: 2
    decay_mult: 0
  }
  convolution_param {
    num_output: 256
    pad: 1
    kernel_size: 3
    weight_filler {
      type: "xavier"
    }
    bias_filler {
      type: "constant"
      value: 0
    }
  }
}
layer {
  name: "conv3_2_bn"
  type: "BN"
  bottom: "conv3_2"
  top: "conv3_2"
  param {
    lr_mult: 1
    decay_mult: 1
  }
  param {
    lr_mult: 1
    decay_mult: 0
  }
  bn_param {
    scale_filler {
      type: "constant"
      value: 1
    }
    shift_filler {
      type: "constant"
      value: 0
    }
  }
}
layer {
  name: "relu3_2"
  type: "ReLU"
  bottom: "conv3_2"
  top: "conv3_2"
}
layer {
  name: "conv3_3"
  type: "Convolution"
  bottom: "conv3_2"
  top: "conv3_3"
  param {
    lr_mult: 1
    decay_mult: 1
  }
  param {
    lr_mult: 2
    decay_mult: 0
  }
  convolution_param {
    num_output: 256
    pad: 1
    kernel_size: 3
    weight_filler {
      type: "xavier"
    }
    bias_filler {
      type: "constant"
      value: 0
    }
  }
}
layer {
  name: "conv3_3_bn"
  type: "BN"
  bottom: "conv3_3"
  top: "conv3_3"
  param {
    lr_mult: 1
    decay_mult: 1
  }
  param {
    lr_mult: 1
    decay_mult: 0
  }
  bn_param {
    scale_filler {
      type: "constant"
      value: 1
    }
    shift_filler {
      type: "constant"
      value: 0
    }
  }
}
layer {
  name: "relu3_3"
  type: "ReLU"
  bottom: "conv3_3"
  top: "conv3_3"
}
layer {
  name: "pool3_drop"
  type: "Dropout"
  bottom: "conv3_3"
  top: "conv3_3"
  dropout_param {
    dropout_ratio: 0.5
  }
}
layer {
  name: "pool3"
  type: "Pooling"
  bottom: "conv3_3"
  top: "pool3"
  top: "pool3_mask"
  pooling_param {
    pool: MAX
    kernel_size: 2
    stride: 2
  }
}
layer {
  name: "conv4_1"
  type: "Convolution"
  bottom: "pool3"
  top: "conv4_1"
  param {
    lr_mult: 1
    decay_mult: 1
  }
  param {
    lr_mult: 2
    decay_mult: 0
  }
  convolution_param {
    num_output: 512
    pad: 1
    kernel_size: 3
    weight_filler {
      type: "xavier"
    }
    bias_filler {
      type: "constant"
      value: 0
    }
  }
}
layer {
  name: "conv4_1_bn"
  type: "BN"
  bottom: "conv4_1"
  top: "conv4_1"
  param {
    lr_mult: 1
    decay_mult: 1
  }
  param {
    lr_mult: 1
    decay_mult: 0
  }
  bn_param {
    scale_filler {
      type: "constant"
      value: 1
    }
    shift_filler {
      type: "constant"
      value: 0
    }
  }
}
layer {
  name: "relu4_1"
  type: "ReLU"
  bottom: "conv4_1"
  top: "conv4_1"
}
layer {
  name: "conv4_2"
  type: "Convolution"
  bottom: "conv4_1"
  top: "conv4_2"
  param {
    lr_mult: 1
    decay_mult: 1
  }
  param {
    lr_mult: 2
    decay_mult: 0
  }
  convolution_param {
    num_output: 512
    pad: 1
    kernel_size: 3
    weight_filler {
      type: "xavier"
    }
    bias_filler {
      type: "constant"
      value: 0
    }
  }
}
layer {
  name: "conv4_2_bn"
  type: "BN"
  bottom: "conv4_2"
  top: "conv4_2"
  param {
    lr_mult: 1
    decay_mult: 1
  }
  param {
    lr_mult: 1
    decay_mult: 0
  }
  bn_param {
    scale_filler {
      type: "constant"
      value: 1
    }
    shift_filler {
      type: "constant"
      value: 0
    }
  }
}
layer {
  name: "relu4_2"
  type: "ReLU"
  bottom: "conv4_2"
  top: "conv4_2"
}
layer {
  name: "conv4_3"
  type: "Convolution"
  bottom: "conv4_2"
  top: "conv4_3"
  param {
    lr_mult: 1
    decay_mult: 1
  }
  param {
    lr_mult: 2
    decay_mult: 0
  }
  convolution_param {
    num_output: 512
    pad: 1
    kernel_size: 3
    weight_filler {
      type: "xavier"
    }
    bias_filler {
      type: "constant"
      value: 0
    }
  }
}
layer {
  name: "conv4_3_bn"
  type: "BN"
  bottom: "conv4_3"
  top: "conv4_3"
  param {
    lr_mult: 1
    decay_mult: 1
  }
  param {
    lr_mult: 1
    decay_mult: 0
  }
  bn_param {
    scale_filler {
      type: "constant"
      value: 1
    }
    shift_filler {
      type: "constant"
      value: 0
    }
  }
}
layer {
  name: "relu4_3"
  type: "ReLU"
  bottom: "conv4_3"
  top: "conv4_3"
}
layer {
  name: "pool4_drop"
  type: "Dropout"
  bottom: "conv4_3"
  top: "conv4_3"
  dropout_param {
    dropout_ratio: 0.5
  }
}
layer {
  name: "pool4"
  type: "Pooling"
  bottom: "conv4_3"
  top: "pool4"
  top: "pool4_mask"
  pooling_param {
    pool: MAX
    kernel_size: 2
    stride: 2
  }
}
layer {
  name: "conv5_1"
  type: "Convolution"
  bottom: "pool4"
  top: "conv5_1"
  param {
    lr_mult: 1
    decay_mult: 1
  }
  param {
    lr_mult: 2
    decay_mult: 0
  }
  convolution_param {
    num_output: 512
    pad: 1
    kernel_size: 3
    weight_filler {
      type: "xavier"
    }
    bias_filler {
      type: "constant"
      value: 0
    }
  }
}
layer {
  name: "conv5_1_bn"
  type: "BN"
  bottom: "conv5_1"
  top: "conv5_1"
  param {
    lr_mult: 1
    decay_mult: 1
  }
  param {
    lr_mult: 1
    decay_mult: 0
  }
  bn_param {
    scale_filler {
      type: "constant"
      value: 1
    }
    shift_filler {
      type: "constant"
      value: 0
    }
  }
}
layer {
  name: "relu5_1"
  type: "ReLU"
  bottom: "conv5_1"
  top: "conv5_1"
}
layer {
  name: "conv5_2"
  type: "Convolution"
  bottom: "conv5_1"
  top: "conv5_2"
  param {
    lr_mult: 1
    decay_mult: 1
  }
  param {
    lr_mult: 2
    decay_mult: 0
  }
  convolution_param {
    num_output: 512
    pad: 1
    kernel_size: 3
    weight_filler {
      type: "xavier"
    }
    bias_filler {
      type: "constant"
      value: 0
    }
  }
}
layer {
  name: "conv5_2_bn"
  type: "BN"
  bottom: "conv5_2"
  top: "conv5_2"
  param {
    lr_mult: 1
    decay_mult: 1
  }
  param {
    lr_mult: 1
    decay_mult: 0
  }
  bn_param {
    scale_filler {
      type: "constant"
      value: 1
    }
    shift_filler {
      type: "constant"
      value: 0
    }
  }
}
layer {
  name: "relu5_2"
  type: "ReLU"
  bottom: "conv5_2"
  top: "conv5_2"
}
layer {
  name: "conv5_3"
  type: "Convolution"
  bottom: "conv5_2"
  top: "conv5_3"
  param {
    lr_mult: 1
    decay_mult: 1
  }
  param {
    lr_mult: 2
    decay_mult: 0
  }
  convolution_param {
    num_output: 512
    pad: 1
    kernel_size: 3
    weight_filler {
      type: "xavier"
    }
    bias_filler {
      type: "constant"
      value: 0
    }
  }
}
layer {
  name: "conv5_3_bn"
  type: "BN"
  bottom: "conv5_3"
  top: "conv5_3"
  param {
    lr_mult: 1
    decay_mult: 1
  }
  param {
    lr_mult: 1
    decay_mult: 0
  }
  bn_param {
    scale_filler {
      type: "constant"
      value: 1
    }
    shift_filler {
      type: "constant"
      value: 0
    }
  }
}
layer {
  name: "relu5_3"
  type: "ReLU"
  bottom: "conv5_3"
  top: "conv5_3"
}
layer {
  name: "pool5_drop"
  type: "Dropout"
  bottom: "conv5_3"
  top: "conv5_3"
  dropout_param {
    dropout_ratio: 0.5
  }
}
layer {
  name: "pool5"
  type: "Pooling"
  bottom: "conv5_3"
  top: "pool5"
  top: "pool5_mask"
  pooling_param {
    pool: MAX
    kernel_size: 2
    stride: 2
  }
}
layer {
  name: "upsample5_drop"
  type: "Dropout"
  bottom: "pool5"
  top: "pool5"
  dropout_param {
    dropout_ratio: 0.5
  }
}
layer {
  name: "upsample5"
  type: "Upsample"
  bottom: "pool5"
  bottom: "pool5_mask"
  top: "pool5_D"
  upsample_param {
    scale: 2
    upsample_h: 32
    upsample_w: 32
  }
}
layer {
  name: "conv5_3_D"
  type: "Convolution"
  bottom: "pool5_D"
  top: "conv5_3_D"
  param {
    lr_mult: 1
    decay_mult: 1
  }
  param {
    lr_mult: 2
    decay_mult: 0
  }
  convolution_param {
    num_output: 512
    pad: 1
    kernel_size: 3
    weight_filler {
      type: "xavier"
    }
    bias_filler {
      type: "constant"
      value: 0
    }
  }
}
layer {
  name: "conv5_3_D_bn"
  type: "BN"
  bottom: "conv5_3_D"
  top: "conv5_3_D"
  param {
    lr_mult: 1
    decay_mult: 1
  }
  param {
    lr_mult: 1
    decay_mult: 0
  }
  bn_param {
    scale_filler {
      type: "constant"
      value: 1
    }
    shift_filler {
      type: "constant"
      value: 0
    }
  }
}
layer {
  name: "relu5_3_D"
  type: "ReLU"
  bottom: "conv5_3_D"
  top: "conv5_3_D"
}
layer {
  name: "conv5_2_D"
  type: "Convolution"
  bottom: "conv5_3_D"
  top: "conv5_2_D"
  param {
    lr_mult: 1
    decay_mult: 1
  }
  param {
    lr_mult: 2
    decay_mult: 0
  }
  convolution_param {
    num_output: 512
    pad: 1
    kernel_size: 3
    weight_filler {
      type: "xavier"
    }
    bias_filler {
      type: "constant"
      value: 0
    }
  }
}
layer {
  name: "conv5_2_D_bn"
  type: "BN"
  bottom: "conv5_2_D"
  top: "conv5_2_D"
  param {
    lr_mult: 1
    decay_mult: 1
  }
  param {
    lr_mult: 1
    decay_mult: 0
  }
  bn_param {
    scale_filler {
      type: "constant"
      value: 1
    }
    shift_filler {
      type: "constant"
      value: 0
    }
  }
}
layer {
  name: "relu5_2_D"
  type: "ReLU"
  bottom: "conv5_2_D"
  top: "conv5_2_D"
}
layer {
  name: "conv5_1_D"
  type: "Convolution"
  bottom: "conv5_2_D"
  top: "conv5_1_D"
  param {
    lr_mult: 1
    decay_mult: 1
  }
  param {
    lr_mult: 2
    decay_mult: 0
  }
  convolution_param {
    num_output: 512
    pad: 1
    kernel_size: 3
    weight_filler {
      type: "xavier"
    }
    bias_filler {
      type: "constant"
      value: 0
    }
  }
}
layer {
  name: "conv5_1_D_bn"
  type: "BN"
  bottom: "conv5_1_D"
  top: "conv5_1_D"
  param {
    lr_mult: 1
    decay_mult: 1
  }
  param {
    lr_mult: 1
    decay_mult: 0
  }
  bn_param {
    scale_filler {
      type: "constant"
      value: 1
    }
    shift_filler {
      type: "constant"
      value: 0
    }
  }
}
layer {
  name: "relu5_1_D"
  type: "ReLU"
  bottom: "conv5_1_D"
  top: "conv5_1_D"
}
layer {
  name: "upsample4_drop"
  type: "Dropout"
  bottom: "conv5_1_D"
  top: "conv5_1_D"
  dropout_param {
    dropout_ratio: 0.5
  }
}
layer {
  name: "upsample4"
  type: "Upsample"
  bottom: "conv5_1_D"
  bottom: "pool4_mask"
  top: "pool4_D"
  upsample_param {
    scale: 2
    upsample_h: 63
    upsample_w: 63
  }
}
layer {
  name: "conv4_3_D"
  type: "Convolution"
  bottom: "pool4_D"
  top: "conv4_3_D"
  param {
    lr_mult: 1
    decay_mult: 1
  }
  param {
    lr_mult: 2
    decay_mult: 0
  }
  convolution_param {
    num_output: 512
    pad: 1
    kernel_size: 3
    weight_filler {
      type: "xavier"
    }
    bias_filler {
      type: "constant"
      value: 0
    }
  }
}
layer {
  name: "conv4_3_D_bn"
  type: "BN"
  bottom: "conv4_3_D"
  top: "conv4_3_D"
  param {
    lr_mult: 1
    decay_mult: 1
  }
  param {
    lr_mult: 1
    decay_mult: 0
  }
  bn_param {
    scale_filler {
      type: "constant"
      value: 1
    }
    shift_filler {
      type: "constant"
      value: 0
    }
  }
}
layer {
  name: "relu4_3_D"
  type: "ReLU"
  bottom: "conv4_3_D"
  top: "conv4_3_D"
}
layer {
  name: "conv4_2_D"
  type: "Convolution"
  bottom: "conv4_3_D"
  top: "conv4_2_D"
  param {
    lr_mult: 1
    decay_mult: 1
  }
  param {
    lr_mult: 2
    decay_mult: 0
  }
  convolution_param {
    num_output: 512
    pad: 1
    kernel_size: 3
    weight_filler {
      type: "xavier"
    }
    bias_filler {
      type: "constant"
      value: 0
    }
  }
}
layer {
  name: "conv4_2_D_bn"
  type: "BN"
  bottom: "conv4_2_D"
  top: "conv4_2_D"
  param {
    lr_mult: 1
    decay_mult: 1
  }
  param {
    lr_mult: 1
    decay_mult: 0
  }
  bn_param {
    scale_filler {
      type: "constant"
      value: 1
    }
    shift_filler {
      type: "constant"
      value: 0
    }
  }
}
layer {
  name: "relu4_2_D"
  type: "ReLU"
  bottom: "conv4_2_D"
  top: "conv4_2_D"
}
layer {
  name: "conv4_1_D"
  type: "Convolution"
  bottom: "conv4_2_D"
  top: "conv4_1_D"
  param {
    lr_mult: 1
    decay_mult: 1
  }
  param {
    lr_mult: 2
    decay_mult: 0
  }
  convolution_param {
    num_output: 256
    pad: 1
    kernel_size: 3
    weight_filler {
      type: "xavier"
    }
    bias_filler {
      type: "constant"
      value: 0
    }
  }
}
layer {
  name: "conv4_1_D_bn"
  type: "BN"
  bottom: "conv4_1_D"
  top: "conv4_1_D"
  param {
    lr_mult: 1
    decay_mult: 1
  }
  param {
    lr_mult: 1
    decay_mult: 0
  }
  bn_param {
    scale_filler {
      type: "constant"
      value: 1
    }
    shift_filler {
      type: "constant"
      value: 0
    }
  }
}
layer {
  name: "relu4_1_D"
  type: "ReLU"
  bottom: "conv4_1_D"
  top: "conv4_1_D"
}
layer {
  name: "upsample3_drop"
  type: "Dropout"
  bottom: "conv4_1_D"
  top: "conv4_1_D"
  dropout_param {
    dropout_ratio: 0.5
  }
}
layer {
  name: "upsample3"
  type: "Upsample"
  bottom: "conv4_1_D"
  bottom: "pool3_mask"
  top: "pool3_D"
  upsample_param {
    scale: 2
    upsample_h: 125
    upsample_w: 125
  }
}
layer {
  name: "conv3_3_D"
  type: "Convolution"
  bottom: "pool3_D"
  top: "conv3_3_D"
  param {
    lr_mult: 1
    decay_mult: 1
  }
  param {
    lr_mult: 2
    decay_mult: 0
  }
  convolution_param {
    num_output: 256
    pad: 1
    kernel_size: 3
    weight_filler {
      type: "xavier"
    }
    bias_filler {
      type: "constant"
      value: 0
    }
  }
}
layer {
  name: "conv3_3_D_bn"
  type: "BN"
  bottom: "conv3_3_D"
  top: "conv3_3_D"
  param {
    lr_mult: 1
    decay_mult: 1
  }
  param {
    lr_mult: 1
    decay_mult: 0
  }
  bn_param {
    scale_filler {
      type: "constant"
      value: 1
    }
    shift_filler {
      type: "constant"
      value: 0
    }
  }
}
layer {
  name: "relu3_3_D"
  type: "ReLU"
  bottom: "conv3_3_D"
  top: "conv3_3_D"
}
layer {
  name: "conv3_2_D"
  type: "Convolution"
  bottom: "conv3_3_D"
  top: "conv3_2_D"
  param {
    lr_mult: 1
    decay_mult: 1
  }
  param {
    lr_mult: 2
    decay_mult: 0
  }
  convolution_param {
    num_output: 256
    pad: 1
    kernel_size: 3
    weight_filler {
      type: "xavier"
    }
    bias_filler {
      type: "constant"
      value: 0
    }
  }
}
layer {
  name: "conv3_2_D_bn"
  type: "BN"
  bottom: "conv3_2_D"
  top: "conv3_2_D"
  param {
    lr_mult: 1
    decay_mult: 1
  }
  param {
    lr_mult: 1
    decay_mult: 0
  }
  bn_param {
    scale_filler {
      type: "constant"
      value: 1
    }
    shift_filler {
      type: "constant"
      value: 0
    }
  }
}
layer {
  name: "relu3_2_D"
  type: "ReLU"
  bottom: "conv3_2_D"
  top: "conv3_2_D"
}
layer {
  name: "conv3_1_D"
  type: "Convolution"
  bottom: "conv3_2_D"
  top: "conv3_1_D"
  param {
    lr_mult: 1
    decay_mult: 1
  }
  param {
    lr_mult: 2
    decay_mult: 0
  }
  convolution_param {
    num_output: 128
    pad: 1
    kernel_size: 3
    weight_filler {
      type: "xavier"
    }
    bias_filler {
      type: "constant"
      value: 0
    }
  }
}
layer {
  name: "conv3_1_D_bn"
  type: "BN"
  bottom: "conv3_1_D"
  top: "conv3_1_D"
  param {
    lr_mult: 1
    decay_mult: 1
  }
  param {
    lr_mult: 1
    decay_mult: 0
  }
  bn_param {
    scale_filler {
      type: "constant"
      value: 1
    }
    shift_filler {
      type: "constant"
      value: 0
    }
  }
}
layer {
  name: "relu3_1_D"
  type: "ReLU"
  bottom: "conv3_1_D"
  top: "conv3_1_D"
}
layer {
  name: "upsample2_drop"
  type: "Dropout"
  bottom: "conv3_1_D"
  top: "conv3_1_D"
  dropout_param {
    dropout_ratio: 0.5
  }
}
layer {
  name: "upsample2"
  type: "Upsample"
  bottom: "conv3_1_D"
  bottom: "pool2_mask"
  top: "pool2_D"
  upsample_param {
    scale: 2
  }
}
layer {
  name: "conv2_2_D"
  type: "Convolution"
  bottom: "pool2_D"
  top: "conv2_2_D"
  param {
    lr_mult: 1
    decay_mult: 1
  }
  param {
    lr_mult: 2
    decay_mult: 0
  }
  convolution_param {
    num_output: 128
    pad: 1
    kernel_size: 3
    weight_filler {
      type: "xavier"
    }
    bias_filler {
      type: "constant"
      value: 0
    }
  }
}
layer {
  name: "conv2_2_D_bn"
  type: "BN"
  bottom: "conv2_2_D"
  top: "conv2_2_D"
  param {
    lr_mult: 1
    decay_mult: 1
  }
  param {
    lr_mult: 1
    decay_mult: 0
  }
  bn_param {
    scale_filler {
      type: "constant"
      value: 1
    }
    shift_filler {
      type: "constant"
      value: 0
    }
  }
}
layer {
  name: "relu2_2_D"
  type: "ReLU"
  bottom: "conv2_2_D"
  top: "conv2_2_D"
}
layer {
  name: "conv2_1_D"
  type: "Convolution"
  bottom: "conv2_2_D"
  top: "conv2_1_D"
  param {
    lr_mult: 1
    decay_mult: 1
  }
  param {
    lr_mult: 2
    decay_mult: 0
  }
  convolution_param {
    num_output: 64
    pad: 1
    kernel_size: 3
    weight_filler {
      type: "xavier"
    }
    bias_filler {
      type: "constant"
      value: 0
    }
  }
}
layer {
  name: "conv2_1_D_bn"
  type: "BN"
  bottom: "conv2_1_D"
  top: "conv2_1_D"
  param {
    lr_mult: 1
    decay_mult: 1
  }
  param {
    lr_mult: 1
    decay_mult: 0
  }
  bn_param {
    scale_filler {
      type: "constant"
      value: 1
    }
    shift_filler {
      type: "constant"
      value: 0
    }
  }
}
layer {
  name: "relu2_1_D"
  type: "ReLU"
  bottom: "conv2_1_D"
  top: "conv2_1_D"
}
layer {
  name: "upsample1_drop"
  type: "Dropout"
  bottom: "conv2_1_D"
  top: "conv2_1_D"
  dropout_param {
    dropout_ratio: 0.5
  }
}
layer {
  name: "upsample1"
  type: "Upsample"
  bottom: "conv2_1_D"
  bottom: "pool1_mask"
  top: "pool1_D"
  upsample_param {
    scale: 2
  }
}
layer {
  name: "conv1_2_D"
  type: "Convolution"
  bottom: "pool1_D"
  top: "conv1_2_D"
  param {
    lr_mult: 1
    decay_mult: 1
  }
  param {
    lr_mult: 2
    decay_mult: 0
  }
  convolution_param {
    num_output: 64
    pad: 1
    kernel_size: 3
    weight_filler {
      type: "xavier"
    }
    bias_filler {
      type: "constant"
      value: 0
    }
  }
}
layer {
  name: "conv1_2_D_bn"
  type: "BN"
  bottom: "conv1_2_D"
  top: "conv1_2_D"
  param {
    lr_mult: 1
    decay_mult: 1
  }
  param {
    lr_mult: 1
    decay_mult: 0
  }
  bn_param {
    scale_filler {
      type: "constant"
      value: 1
    }
    shift_filler {
      type: "constant"
      value: 0
    }
  }
}
layer {
  name: "relu1_2_D"
  type: "ReLU"
  bottom: "conv1_2_D"
  top: "conv1_2_D"
}
layer {
  name: "conv1_1_D"
  type: "Convolution"
  bottom: "conv1_2_D"
  top: "conv1_1_D"
  param {
    lr_mult: 1
    decay_mult: 1
  }
  param {
    lr_mult: 2
    decay_mult: 0
  }
  convolution_param {
    num_output: 21
    pad: 1
    kernel_size: 3
    weight_filler {
      type: "xavier"
    }
    bias_filler {
      type: "constant"
      value: 0
    }
  }
}
layer {
  name: "loss"
  type: "SoftmaxWithLoss"
  bottom: "conv1_1_D"
  bottom: "label"
  top: "loss"
  loss_param {
    ignore_label: 21
    weight_by_label_freqs: true
    class_weighting: 0.2719
    class_weighting: 1.583
    class_weighting: 3.012
    class_weighting: 1.6572
    class_weighting: 1.7892
    class_weighting: 1.7815
    class_weighting: 0.5962
    class_weighting: 1.2053
    class_weighting: 0.674
    class_weighting: 1.8299
    class_weighting: 0.9166
    class_weighting: 0.8532
    class_weighting: 0.8935
    class_weighting: 0.9973
    class_weighting: 0.9742
    class_weighting: 1.1778
    class_weighting: 1.9162
    class_weighting: 1
    class_weighting: 0.8758
    class_weighting: 0.7225
    class_weighting: 1.3287
  }
  softmax_param {
    engine: CAFFE
  }
}
layer {
  name: "accuracy"
  type: "Accuracy"
  bottom: "conv1_1_D"
  bottom: "label"
  top: "accuracy"
  top: "per_class_accuracy"
}
I0418 18:16:58.325080 24121 layer_factory.hpp:74] Creating layer data
I0418 18:16:58.325115 24121 net.cpp:90] Creating Layer data
I0418 18:16:58.325129 24121 net.cpp:368] data -> data
I0418 18:16:58.325161 24121 net.cpp:120] Setting up data
I0418 18:16:58.325263 24121 db.cpp:34] Opened lmdb /home/shared/datasets/VOCdevkit/VOC2012/LMDB/train_lmdb
I0418 18:16:58.326259 24121 data_layer.cpp:52] output data size: 2,3,500,500
I0418 18:16:58.328670 24121 net.cpp:127] Top shape: 2 3 500 500 (1500000)
I0418 18:16:58.328696 24121 layer_factory.hpp:74] Creating layer label
I0418 18:16:58.328718 24121 net.cpp:90] Creating Layer label
I0418 18:16:58.328729 24121 net.cpp:368] label -> label
I0418 18:16:58.328748 24121 net.cpp:120] Setting up label
I0418 18:16:58.328835 24121 db.cpp:34] Opened lmdb /home/shared/datasets/VOCdevkit/VOC2012/LMDB/train_gt_lmdb
I0418 18:16:58.329030 24121 data_layer.cpp:52] output data size: 2,1,500,500
I0418 18:16:58.329643 24121 net.cpp:127] Top shape: 2 1 500 500 (500000)
I0418 18:16:58.329658 24121 layer_factory.hpp:74] Creating layer label_label_0_split
I0418 18:16:58.329677 24121 net.cpp:90] Creating Layer label_label_0_split
I0418 18:16:58.329689 24121 net.cpp:410] label_label_0_split <- label
I0418 18:16:58.329706 24121 net.cpp:368] label_label_0_split -> label_label_0_split_0
I0418 18:16:58.329721 24121 net.cpp:368] label_label_0_split -> label_label_0_split_1
I0418 18:16:58.329733 24121 net.cpp:120] Setting up label_label_0_split
I0418 18:16:58.329747 24121 net.cpp:127] Top shape: 2 1 500 500 (500000)
I0418 18:16:58.329758 24121 net.cpp:127] Top shape: 2 1 500 500 (500000)
I0418 18:16:58.329766 24121 layer_factory.hpp:74] Creating layer conv1_1
I0418 18:16:58.329782 24121 net.cpp:90] Creating Layer conv1_1
I0418 18:16:58.329790 24121 net.cpp:410] conv1_1 <- data
I0418 18:16:58.329802 24121 net.cpp:368] conv1_1 -> conv1_1
I0418 18:16:58.329819 24121 net.cpp:120] Setting up conv1_1
I0418 18:16:59.626595 24121 net.cpp:127] Top shape: 2 64 500 500 (32000000)
I0418 18:16:59.626648 24121 layer_factory.hpp:74] Creating layer conv1_1_bn
I0418 18:16:59.626675 24121 net.cpp:90] Creating Layer conv1_1_bn
I0418 18:16:59.626684 24121 net.cpp:410] conv1_1_bn <- conv1_1
I0418 18:16:59.626696 24121 net.cpp:357] conv1_1_bn -> conv1_1 (in-place)
I0418 18:16:59.626710 24121 net.cpp:120] Setting up conv1_1_bn
I0418 18:16:59.627637 24121 net.cpp:127] Top shape: 2 64 500 500 (32000000)
I0418 18:16:59.627660 24121 layer_factory.hpp:74] Creating layer relu1_1
I0418 18:16:59.627683 24121 net.cpp:90] Creating Layer relu1_1
I0418 18:16:59.627698 24121 net.cpp:410] relu1_1 <- conv1_1
I0418 18:16:59.627712 24121 net.cpp:357] relu1_1 -> conv1_1 (in-place)
I0418 18:16:59.627724 24121 net.cpp:120] Setting up relu1_1
I0418 18:16:59.628135 24121 net.cpp:127] Top shape: 2 64 500 500 (32000000)
I0418 18:16:59.628150 24121 layer_factory.hpp:74] Creating layer conv1_2
I0418 18:16:59.628170 24121 net.cpp:90] Creating Layer conv1_2
I0418 18:16:59.628183 24121 net.cpp:410] conv1_2 <- conv1_1
I0418 18:16:59.628198 24121 net.cpp:368] conv1_2 -> conv1_2
I0418 18:16:59.628221 24121 net.cpp:120] Setting up conv1_2
I0418 18:16:59.678155 24121 net.cpp:127] Top shape: 2 64 500 500 (32000000)
I0418 18:16:59.678181 24121 layer_factory.hpp:74] Creating layer conv1_2_bn
I0418 18:16:59.678203 24121 net.cpp:90] Creating Layer conv1_2_bn
I0418 18:16:59.678236 24121 net.cpp:410] conv1_2_bn <- conv1_2
I0418 18:16:59.678251 24121 net.cpp:357] conv1_2_bn -> conv1_2 (in-place)
I0418 18:16:59.678270 24121 net.cpp:120] Setting up conv1_2_bn
I0418 18:16:59.679152 24121 net.cpp:127] Top shape: 2 64 500 500 (32000000)
I0418 18:16:59.679175 24121 layer_factory.hpp:74] Creating layer relu1_2
I0418 18:16:59.679193 24121 net.cpp:90] Creating Layer relu1_2
I0418 18:16:59.679203 24121 net.cpp:410] relu1_2 <- conv1_2
I0418 18:16:59.679214 24121 net.cpp:357] relu1_2 -> conv1_2 (in-place)
I0418 18:16:59.679227 24121 net.cpp:120] Setting up relu1_2
I0418 18:16:59.681133 24121 net.cpp:127] Top shape: 2 64 500 500 (32000000)
I0418 18:16:59.681148 24121 layer_factory.hpp:74] Creating layer pool1_drop
I0418 18:16:59.681160 24121 net.cpp:90] Creating Layer pool1_drop
I0418 18:16:59.681174 24121 net.cpp:410] pool1_drop <- conv1_2
I0418 18:16:59.681186 24121 net.cpp:357] pool1_drop -> conv1_2 (in-place)
I0418 18:16:59.681203 24121 net.cpp:120] Setting up pool1_drop
I0418 18:16:59.681221 24121 net.cpp:127] Top shape: 2 64 500 500 (32000000)
I0418 18:16:59.681232 24121 layer_factory.hpp:74] Creating layer pool1
I0418 18:16:59.681244 24121 layer_factory.cpp:55] CUDNN does not support padding or multiple tops. Using Caffe's own pooling layer.
I0418 18:16:59.681258 24121 net.cpp:90] Creating Layer pool1
I0418 18:16:59.681272 24121 net.cpp:410] pool1 <- conv1_2
I0418 18:16:59.681285 24121 net.cpp:368] pool1 -> pool1
I0418 18:16:59.681301 24121 net.cpp:368] pool1 -> pool1_mask
I0418 18:16:59.681316 24121 net.cpp:120] Setting up pool1
I0418 18:16:59.681357 24121 net.cpp:127] Top shape: 2 64 250 250 (8000000)
I0418 18:16:59.681371 24121 net.cpp:127] Top shape: 2 64 250 250 (8000000)
I0418 18:16:59.681383 24121 layer_factory.hpp:74] Creating layer conv2_1
I0418 18:16:59.681401 24121 net.cpp:90] Creating Layer conv2_1
I0418 18:16:59.681411 24121 net.cpp:410] conv2_1 <- pool1
I0418 18:16:59.681426 24121 net.cpp:368] conv2_1 -> conv2_1
I0418 18:16:59.681445 24121 net.cpp:120] Setting up conv2_1
I0418 18:16:59.693110 24121 net.cpp:127] Top shape: 2 128 250 250 (16000000)
I0418 18:16:59.693133 24121 layer_factory.hpp:74] Creating layer conv2_1_bn
I0418 18:16:59.693152 24121 net.cpp:90] Creating Layer conv2_1_bn
I0418 18:16:59.693163 24121 net.cpp:410] conv2_1_bn <- conv2_1
I0418 18:16:59.693177 24121 net.cpp:357] conv2_1_bn -> conv2_1 (in-place)
I0418 18:16:59.693197 24121 net.cpp:120] Setting up conv2_1_bn
I0418 18:16:59.693447 24121 net.cpp:127] Top shape: 2 128 250 250 (16000000)
I0418 18:16:59.693466 24121 layer_factory.hpp:74] Creating layer relu2_1
I0418 18:16:59.693480 24121 net.cpp:90] Creating Layer relu2_1
I0418 18:16:59.693492 24121 net.cpp:410] relu2_1 <- conv2_1
I0418 18:16:59.693505 24121 net.cpp:357] relu2_1 -> conv2_1 (in-place)
I0418 18:16:59.693517 24121 net.cpp:120] Setting up relu2_1
I0418 18:16:59.697880 24121 net.cpp:127] Top shape: 2 128 250 250 (16000000)
I0418 18:16:59.697893 24121 layer_factory.hpp:74] Creating layer conv2_2
I0418 18:16:59.697912 24121 net.cpp:90] Creating Layer conv2_2
I0418 18:16:59.697926 24121 net.cpp:410] conv2_2 <- conv2_1
I0418 18:16:59.697940 24121 net.cpp:368] conv2_2 -> conv2_2
I0418 18:16:59.697954 24121 net.cpp:120] Setting up conv2_2
I0418 18:16:59.731122 24121 net.cpp:127] Top shape: 2 128 250 250 (16000000)
I0418 18:16:59.731147 24121 layer_factory.hpp:74] Creating layer conv2_2_bn
I0418 18:16:59.731164 24121 net.cpp:90] Creating Layer conv2_2_bn
I0418 18:16:59.731175 24121 net.cpp:410] conv2_2_bn <- conv2_2
I0418 18:16:59.731191 24121 net.cpp:357] conv2_2_bn -> conv2_2 (in-place)
I0418 18:16:59.731211 24121 net.cpp:120] Setting up conv2_2_bn
I0418 18:16:59.731462 24121 net.cpp:127] Top shape: 2 128 250 250 (16000000)
I0418 18:16:59.731479 24121 layer_factory.hpp:74] Creating layer relu2_2
I0418 18:16:59.731498 24121 net.cpp:90] Creating Layer relu2_2
I0418 18:16:59.731518 24121 net.cpp:410] relu2_2 <- conv2_2
I0418 18:16:59.731530 24121 net.cpp:357] relu2_2 -> conv2_2 (in-place)
I0418 18:16:59.731544 24121 net.cpp:120] Setting up relu2_2
I0418 18:16:59.737082 24121 net.cpp:127] Top shape: 2 128 250 250 (16000000)
I0418 18:16:59.737097 24121 layer_factory.hpp:74] Creating layer pool2_drop
I0418 18:16:59.737113 24121 net.cpp:90] Creating Layer pool2_drop
I0418 18:16:59.737128 24121 net.cpp:410] pool2_drop <- conv2_2
I0418 18:16:59.737139 24121 net.cpp:357] pool2_drop -> conv2_2 (in-place)
I0418 18:16:59.737152 24121 net.cpp:120] Setting up pool2_drop
I0418 18:16:59.737166 24121 net.cpp:127] Top shape: 2 128 250 250 (16000000)
I0418 18:16:59.737176 24121 layer_factory.hpp:74] Creating layer pool2
I0418 18:16:59.737185 24121 layer_factory.cpp:55] CUDNN does not support padding or multiple tops. Using Caffe's own pooling layer.
I0418 18:16:59.737197 24121 net.cpp:90] Creating Layer pool2
I0418 18:16:59.737206 24121 net.cpp:410] pool2 <- conv2_2
I0418 18:16:59.737221 24121 net.cpp:368] pool2 -> pool2
I0418 18:16:59.737242 24121 net.cpp:368] pool2 -> pool2_mask
I0418 18:16:59.737260 24121 net.cpp:120] Setting up pool2
I0418 18:16:59.737279 24121 net.cpp:127] Top shape: 2 128 125 125 (4000000)
I0418 18:16:59.737293 24121 net.cpp:127] Top shape: 2 128 125 125 (4000000)
I0418 18:16:59.737305 24121 layer_factory.hpp:74] Creating layer conv3_1
I0418 18:16:59.737323 24121 net.cpp:90] Creating Layer conv3_1
I0418 18:16:59.737334 24121 net.cpp:410] conv3_1 <- pool2
I0418 18:16:59.737349 24121 net.cpp:368] conv3_1 -> conv3_1
I0418 18:16:59.737368 24121 net.cpp:120] Setting up conv3_1
I0418 18:16:59.783303 24121 net.cpp:127] Top shape: 2 256 125 125 (8000000)
I0418 18:16:59.783329 24121 layer_factory.hpp:74] Creating layer conv3_1_bn
I0418 18:16:59.783354 24121 net.cpp:90] Creating Layer conv3_1_bn
I0418 18:16:59.783367 24121 net.cpp:410] conv3_1_bn <- conv3_1
I0418 18:16:59.783380 24121 net.cpp:357] conv3_1_bn -> conv3_1 (in-place)
I0418 18:16:59.783401 24121 net.cpp:120] Setting up conv3_1_bn
I0418 18:16:59.783490 24121 net.cpp:127] Top shape: 2 256 125 125 (8000000)
I0418 18:16:59.783515 24121 layer_factory.hpp:74] Creating layer relu3_1
I0418 18:16:59.783529 24121 net.cpp:90] Creating Layer relu3_1
I0418 18:16:59.783541 24121 net.cpp:410] relu3_1 <- conv3_1
I0418 18:16:59.783555 24121 net.cpp:357] relu3_1 -> conv3_1 (in-place)
I0418 18:16:59.783572 24121 net.cpp:120] Setting up relu3_1
I0418 18:16:59.786622 24121 net.cpp:127] Top shape: 2 256 125 125 (8000000)
I0418 18:16:59.786635 24121 layer_factory.hpp:74] Creating layer conv3_2
I0418 18:16:59.786653 24121 net.cpp:90] Creating Layer conv3_2
I0418 18:16:59.786666 24121 net.cpp:410] conv3_2 <- conv3_1
I0418 18:16:59.786680 24121 net.cpp:368] conv3_2 -> conv3_2
I0418 18:16:59.786695 24121 net.cpp:120] Setting up conv3_2
I0418 18:16:59.903664 24121 net.cpp:127] Top shape: 2 256 125 125 (8000000)
I0418 18:16:59.903687 24121 layer_factory.hpp:74] Creating layer conv3_2_bn
I0418 18:16:59.903703 24121 net.cpp:90] Creating Layer conv3_2_bn
I0418 18:16:59.903717 24121 net.cpp:410] conv3_2_bn <- conv3_2
I0418 18:16:59.903733 24121 net.cpp:357] conv3_2_bn -> conv3_2 (in-place)
I0418 18:16:59.903748 24121 net.cpp:120] Setting up conv3_2_bn
I0418 18:16:59.903841 24121 net.cpp:127] Top shape: 2 256 125 125 (8000000)
I0418 18:16:59.903861 24121 layer_factory.hpp:74] Creating layer relu3_2
I0418 18:16:59.903873 24121 net.cpp:90] Creating Layer relu3_2
I0418 18:16:59.903883 24121 net.cpp:410] relu3_2 <- conv3_2
I0418 18:16:59.903895 24121 net.cpp:357] relu3_2 -> conv3_2 (in-place)
I0418 18:16:59.903908 24121 net.cpp:120] Setting up relu3_2
I0418 18:16:59.914058 24121 net.cpp:127] Top shape: 2 256 125 125 (8000000)
I0418 18:16:59.914072 24121 layer_factory.hpp:74] Creating layer conv3_3
I0418 18:16:59.914095 24121 net.cpp:90] Creating Layer conv3_3
I0418 18:16:59.914106 24121 net.cpp:410] conv3_3 <- conv3_2
I0418 18:16:59.914120 24121 net.cpp:368] conv3_3 -> conv3_3
I0418 18:16:59.914135 24121 net.cpp:120] Setting up conv3_3
I0418 18:16:59.932411 24121 net.cpp:127] Top shape: 2 256 125 125 (8000000)
I0418 18:16:59.932435 24121 layer_factory.hpp:74] Creating layer conv3_3_bn
I0418 18:16:59.932457 24121 net.cpp:90] Creating Layer conv3_3_bn
I0418 18:16:59.932494 24121 net.cpp:410] conv3_3_bn <- conv3_3
I0418 18:16:59.932509 24121 net.cpp:357] conv3_3_bn -> conv3_3 (in-place)
I0418 18:16:59.932528 24121 net.cpp:120] Setting up conv3_3_bn
I0418 18:16:59.932618 24121 net.cpp:127] Top shape: 2 256 125 125 (8000000)
I0418 18:16:59.932642 24121 layer_factory.hpp:74] Creating layer relu3_3
I0418 18:16:59.932658 24121 net.cpp:90] Creating Layer relu3_3
I0418 18:16:59.932668 24121 net.cpp:410] relu3_3 <- conv3_3
I0418 18:16:59.932680 24121 net.cpp:357] relu3_3 -> conv3_3 (in-place)
I0418 18:16:59.932699 24121 net.cpp:120] Setting up relu3_3
I0418 18:16:59.935858 24121 net.cpp:127] Top shape: 2 256 125 125 (8000000)
I0418 18:16:59.935873 24121 layer_factory.hpp:74] Creating layer pool3_drop
I0418 18:16:59.935889 24121 net.cpp:90] Creating Layer pool3_drop
I0418 18:16:59.935901 24121 net.cpp:410] pool3_drop <- conv3_3
I0418 18:16:59.935914 24121 net.cpp:357] pool3_drop -> conv3_3 (in-place)
I0418 18:16:59.935926 24121 net.cpp:120] Setting up pool3_drop
I0418 18:16:59.935941 24121 net.cpp:127] Top shape: 2 256 125 125 (8000000)
I0418 18:16:59.935956 24121 layer_factory.hpp:74] Creating layer pool3
I0418 18:16:59.935967 24121 layer_factory.cpp:55] CUDNN does not support padding or multiple tops. Using Caffe's own pooling layer.
I0418 18:16:59.935979 24121 net.cpp:90] Creating Layer pool3
I0418 18:16:59.935988 24121 net.cpp:410] pool3 <- conv3_3
I0418 18:16:59.936004 24121 net.cpp:368] pool3 -> pool3
I0418 18:16:59.936022 24121 net.cpp:368] pool3 -> pool3_mask
I0418 18:16:59.936041 24121 net.cpp:120] Setting up pool3
I0418 18:16:59.936061 24121 net.cpp:127] Top shape: 2 256 63 63 (2032128)
I0418 18:16:59.936080 24121 net.cpp:127] Top shape: 2 256 63 63 (2032128)
I0418 18:16:59.936091 24121 layer_factory.hpp:74] Creating layer conv4_1
I0418 18:16:59.936107 24121 net.cpp:90] Creating Layer conv4_1
I0418 18:16:59.936120 24121 net.cpp:410] conv4_1 <- pool3
I0418 18:16:59.936137 24121 net.cpp:368] conv4_1 -> conv4_1
I0418 18:16:59.936151 24121 net.cpp:120] Setting up conv4_1
I0418 18:16:59.950160 24121 net.cpp:127] Top shape: 2 512 63 63 (4064256)
I0418 18:16:59.950193 24121 layer_factory.hpp:74] Creating layer conv4_1_bn
I0418 18:16:59.950215 24121 net.cpp:90] Creating Layer conv4_1_bn
I0418 18:16:59.950229 24121 net.cpp:410] conv4_1_bn <- conv4_1
I0418 18:16:59.950244 24121 net.cpp:357] conv4_1_bn -> conv4_1 (in-place)
I0418 18:16:59.950260 24121 net.cpp:120] Setting up conv4_1_bn
I0418 18:16:59.950306 24121 net.cpp:127] Top shape: 2 512 63 63 (4064256)
I0418 18:16:59.950323 24121 layer_factory.hpp:74] Creating layer relu4_1
I0418 18:16:59.950350 24121 net.cpp:90] Creating Layer relu4_1
I0418 18:16:59.950363 24121 net.cpp:410] relu4_1 <- conv4_1
I0418 18:16:59.950377 24121 net.cpp:357] relu4_1 -> conv4_1 (in-place)
I0418 18:16:59.950390 24121 net.cpp:120] Setting up relu4_1
I0418 18:16:59.955066 24121 net.cpp:127] Top shape: 2 512 63 63 (4064256)
I0418 18:16:59.955080 24121 layer_factory.hpp:74] Creating layer conv4_2
I0418 18:16:59.955099 24121 net.cpp:90] Creating Layer conv4_2
I0418 18:16:59.955118 24121 net.cpp:410] conv4_2 <- conv4_1
I0418 18:16:59.955137 24121 net.cpp:368] conv4_2 -> conv4_2
I0418 18:16:59.955152 24121 net.cpp:120] Setting up conv4_2
I0418 18:16:59.978489 24121 net.cpp:127] Top shape: 2 512 63 63 (4064256)
I0418 18:16:59.978543 24121 layer_factory.hpp:74] Creating layer conv4_2_bn
I0418 18:16:59.978564 24121 net.cpp:90] Creating Layer conv4_2_bn
I0418 18:16:59.978577 24121 net.cpp:410] conv4_2_bn <- conv4_2
I0418 18:16:59.978595 24121 net.cpp:357] conv4_2_bn -> conv4_2 (in-place)
I0418 18:16:59.978612 24121 net.cpp:120] Setting up conv4_2_bn
I0418 18:16:59.978672 24121 net.cpp:127] Top shape: 2 512 63 63 (4064256)
I0418 18:16:59.978693 24121 layer_factory.hpp:74] Creating layer relu4_2
I0418 18:16:59.978713 24121 net.cpp:90] Creating Layer relu4_2
I0418 18:16:59.978723 24121 net.cpp:410] relu4_2 <- conv4_2
I0418 18:16:59.978735 24121 net.cpp:357] relu4_2 -> conv4_2 (in-place)
I0418 18:16:59.978747 24121 net.cpp:120] Setting up relu4_2
I0418 18:16:59.982704 24121 net.cpp:127] Top shape: 2 512 63 63 (4064256)
I0418 18:16:59.982735 24121 layer_factory.hpp:74] Creating layer conv4_3
I0418 18:16:59.982763 24121 net.cpp:90] Creating Layer conv4_3
I0418 18:16:59.982779 24121 net.cpp:410] conv4_3 <- conv4_2
I0418 18:16:59.982796 24121 net.cpp:368] conv4_3 -> conv4_3
I0418 18:16:59.982815 24121 net.cpp:120] Setting up conv4_3
I0418 18:17:00.008149 24121 net.cpp:127] Top shape: 2 512 63 63 (4064256)
I0418 18:17:00.008195 24121 layer_factory.hpp:74] Creating layer conv4_3_bn
I0418 18:17:00.008219 24121 net.cpp:90] Creating Layer conv4_3_bn
I0418 18:17:00.008232 24121 net.cpp:410] conv4_3_bn <- conv4_3
I0418 18:17:00.008247 24121 net.cpp:357] conv4_3_bn -> conv4_3 (in-place)
I0418 18:17:00.008265 24121 net.cpp:120] Setting up conv4_3_bn
I0418 18:17:00.008312 24121 net.cpp:127] Top shape: 2 512 63 63 (4064256)
I0418 18:17:00.008329 24121 layer_factory.hpp:74] Creating layer relu4_3
I0418 18:17:00.008347 24121 net.cpp:90] Creating Layer relu4_3
I0418 18:17:00.008360 24121 net.cpp:410] relu4_3 <- conv4_3
I0418 18:17:00.008373 24121 net.cpp:357] relu4_3 -> conv4_3 (in-place)
I0418 18:17:00.008385 24121 net.cpp:120] Setting up relu4_3
I0418 18:17:00.011822 24121 net.cpp:127] Top shape: 2 512 63 63 (4064256)
I0418 18:17:00.011837 24121 layer_factory.hpp:74] Creating layer pool4_drop
I0418 18:17:00.011853 24121 net.cpp:90] Creating Layer pool4_drop
I0418 18:17:00.011867 24121 net.cpp:410] pool4_drop <- conv4_3
I0418 18:17:00.011878 24121 net.cpp:357] pool4_drop -> conv4_3 (in-place)
I0418 18:17:00.011893 24121 net.cpp:120] Setting up pool4_drop
I0418 18:17:00.011907 24121 net.cpp:127] Top shape: 2 512 63 63 (4064256)
I0418 18:17:00.011917 24121 layer_factory.hpp:74] Creating layer pool4
I0418 18:17:00.011939 24121 layer_factory.cpp:55] CUDNN does not support padding or multiple tops. Using Caffe's own pooling layer.
I0418 18:17:00.011960 24121 net.cpp:90] Creating Layer pool4
I0418 18:17:00.011971 24121 net.cpp:410] pool4 <- conv4_3
I0418 18:17:00.011986 24121 net.cpp:368] pool4 -> pool4
I0418 18:17:00.012006 24121 net.cpp:368] pool4 -> pool4_mask
I0418 18:17:00.012022 24121 net.cpp:120] Setting up pool4
I0418 18:17:00.012039 24121 net.cpp:127] Top shape: 2 512 32 32 (1048576)
I0418 18:17:00.012054 24121 net.cpp:127] Top shape: 2 512 32 32 (1048576)
I0418 18:17:00.012063 24121 layer_factory.hpp:74] Creating layer conv5_1
I0418 18:17:00.012082 24121 net.cpp:90] Creating Layer conv5_1
I0418 18:17:00.012095 24121 net.cpp:410] conv5_1 <- pool4
I0418 18:17:00.012111 24121 net.cpp:368] conv5_1 -> conv5_1
I0418 18:17:00.012131 24121 net.cpp:120] Setting up conv5_1
I0418 18:17:00.038974 24121 net.cpp:127] Top shape: 2 512 32 32 (1048576)
I0418 18:17:00.039013 24121 layer_factory.hpp:74] Creating layer conv5_1_bn
I0418 18:17:00.039034 24121 net.cpp:90] Creating Layer conv5_1_bn
I0418 18:17:00.039048 24121 net.cpp:410] conv5_1_bn <- conv5_1
I0418 18:17:00.039065 24121 net.cpp:357] conv5_1_bn -> conv5_1 (in-place)
I0418 18:17:00.039083 24121 net.cpp:120] Setting up conv5_1_bn
I0418 18:17:00.039126 24121 net.cpp:127] Top shape: 2 512 32 32 (1048576)
I0418 18:17:00.039147 24121 layer_factory.hpp:74] Creating layer relu5_1
I0418 18:17:00.039170 24121 net.cpp:90] Creating Layer relu5_1
I0418 18:17:00.039180 24121 net.cpp:410] relu5_1 <- conv5_1
I0418 18:17:00.039192 24121 net.cpp:357] relu5_1 -> conv5_1 (in-place)
I0418 18:17:00.039212 24121 net.cpp:120] Setting up relu5_1
I0418 18:17:00.042701 24121 net.cpp:127] Top shape: 2 512 32 32 (1048576)
I0418 18:17:00.042717 24121 layer_factory.hpp:74] Creating layer conv5_2
I0418 18:17:00.042742 24121 net.cpp:90] Creating Layer conv5_2
I0418 18:17:00.042758 24121 net.cpp:410] conv5_2 <- conv5_1
I0418 18:17:00.042773 24121 net.cpp:368] conv5_2 -> conv5_2
I0418 18:17:00.042793 24121 net.cpp:120] Setting up conv5_2
I0418 18:17:00.065819 24121 net.cpp:127] Top shape: 2 512 32 32 (1048576)
I0418 18:17:00.065863 24121 layer_factory.hpp:74] Creating layer conv5_2_bn
I0418 18:17:00.065884 24121 net.cpp:90] Creating Layer conv5_2_bn
I0418 18:17:00.065896 24121 net.cpp:410] conv5_2_bn <- conv5_2
I0418 18:17:00.065948 24121 net.cpp:357] conv5_2_bn -> conv5_2 (in-place)
I0418 18:17:00.065979 24121 net.cpp:120] Setting up conv5_2_bn
I0418 18:17:00.066032 24121 net.cpp:127] Top shape: 2 512 32 32 (1048576)
I0418 18:17:00.066051 24121 layer_factory.hpp:74] Creating layer relu5_2
I0418 18:17:00.066068 24121 net.cpp:90] Creating Layer relu5_2
I0418 18:17:00.066082 24121 net.cpp:410] relu5_2 <- conv5_2
I0418 18:17:00.066098 24121 net.cpp:357] relu5_2 -> conv5_2 (in-place)
I0418 18:17:00.066112 24121 net.cpp:120] Setting up relu5_2
I0418 18:17:00.069255 24121 net.cpp:127] Top shape: 2 512 32 32 (1048576)
I0418 18:17:00.069270 24121 layer_factory.hpp:74] Creating layer conv5_3
I0418 18:17:00.069288 24121 net.cpp:90] Creating Layer conv5_3
I0418 18:17:00.069301 24121 net.cpp:410] conv5_3 <- conv5_2
I0418 18:17:00.069319 24121 net.cpp:368] conv5_3 -> conv5_3
I0418 18:17:00.069334 24121 net.cpp:120] Setting up conv5_3
I0418 18:17:00.094980 24121 net.cpp:127] Top shape: 2 512 32 32 (1048576)
I0418 18:17:00.095024 24121 layer_factory.hpp:74] Creating layer conv5_3_bn
I0418 18:17:00.095046 24121 net.cpp:90] Creating Layer conv5_3_bn
I0418 18:17:00.095060 24121 net.cpp:410] conv5_3_bn <- conv5_3
I0418 18:17:00.095077 24121 net.cpp:357] conv5_3_bn -> conv5_3 (in-place)
I0418 18:17:00.095094 24121 net.cpp:120] Setting up conv5_3_bn
I0418 18:17:00.095144 24121 net.cpp:127] Top shape: 2 512 32 32 (1048576)
I0418 18:17:00.095163 24121 layer_factory.hpp:74] Creating layer relu5_3
I0418 18:17:00.095185 24121 net.cpp:90] Creating Layer relu5_3
I0418 18:17:00.095199 24121 net.cpp:410] relu5_3 <- conv5_3
I0418 18:17:00.095212 24121 net.cpp:357] relu5_3 -> conv5_3 (in-place)
I0418 18:17:00.095224 24121 net.cpp:120] Setting up relu5_3
I0418 18:17:00.097950 24121 net.cpp:127] Top shape: 2 512 32 32 (1048576)
I0418 18:17:00.097965 24121 layer_factory.hpp:74] Creating layer pool5_drop
I0418 18:17:00.097978 24121 net.cpp:90] Creating Layer pool5_drop
I0418 18:17:00.097990 24121 net.cpp:410] pool5_drop <- conv5_3
I0418 18:17:00.098006 24121 net.cpp:357] pool5_drop -> conv5_3 (in-place)
I0418 18:17:00.098021 24121 net.cpp:120] Setting up pool5_drop
I0418 18:17:00.098040 24121 net.cpp:127] Top shape: 2 512 32 32 (1048576)
I0418 18:17:00.098052 24121 layer_factory.hpp:74] Creating layer pool5
I0418 18:17:00.098064 24121 layer_factory.cpp:55] CUDNN does not support padding or multiple tops. Using Caffe's own pooling layer.
I0418 18:17:00.098076 24121 net.cpp:90] Creating Layer pool5
I0418 18:17:00.098085 24121 net.cpp:410] pool5 <- conv5_3
I0418 18:17:00.098101 24121 net.cpp:368] pool5 -> pool5
I0418 18:17:00.098119 24121 net.cpp:368] pool5 -> pool5_mask
I0418 18:17:00.098136 24121 net.cpp:120] Setting up pool5
I0418 18:17:00.098156 24121 net.cpp:127] Top shape: 2 512 16 16 (262144)
I0418 18:17:00.098171 24121 net.cpp:127] Top shape: 2 512 16 16 (262144)
I0418 18:17:00.098186 24121 layer_factory.hpp:74] Creating layer upsample5_drop
I0418 18:17:00.098199 24121 net.cpp:90] Creating Layer upsample5_drop
I0418 18:17:00.098209 24121 net.cpp:410] upsample5_drop <- pool5
I0418 18:17:00.098222 24121 net.cpp:357] upsample5_drop -> pool5 (in-place)
I0418 18:17:00.098233 24121 net.cpp:120] Setting up upsample5_drop
I0418 18:17:00.098250 24121 net.cpp:127] Top shape: 2 512 16 16 (262144)
I0418 18:17:00.098261 24121 layer_factory.hpp:74] Creating layer upsample5
I0418 18:17:00.098283 24121 net.cpp:90] Creating Layer upsample5
I0418 18:17:00.098296 24121 net.cpp:410] upsample5 <- pool5
I0418 18:17:00.098309 24121 net.cpp:410] upsample5 <- pool5_mask
I0418 18:17:00.098322 24121 net.cpp:368] upsample5 -> pool5_D
I0418 18:17:00.098340 24121 net.cpp:120] Setting up upsample5
I0418 18:17:00.098362 24121 net.cpp:127] Top shape: 2 512 32 32 (1048576)
I0418 18:17:00.098376 24121 layer_factory.hpp:74] Creating layer conv5_3_D
I0418 18:17:00.098395 24121 net.cpp:90] Creating Layer conv5_3_D
I0418 18:17:00.098409 24121 net.cpp:410] conv5_3_D <- pool5_D
I0418 18:17:00.098424 24121 net.cpp:368] conv5_3_D -> conv5_3_D
I0418 18:17:00.098439 24121 net.cpp:120] Setting up conv5_3_D
I0418 18:17:00.122503 24121 net.cpp:127] Top shape: 2 512 32 32 (1048576)
I0418 18:17:00.122546 24121 layer_factory.hpp:74] Creating layer conv5_3_D_bn
I0418 18:17:00.122570 24121 net.cpp:90] Creating Layer conv5_3_D_bn
I0418 18:17:00.122584 24121 net.cpp:410] conv5_3_D_bn <- conv5_3_D
I0418 18:17:00.122601 24121 net.cpp:357] conv5_3_D_bn -> conv5_3_D (in-place)
I0418 18:17:00.122617 24121 net.cpp:120] Setting up conv5_3_D_bn
I0418 18:17:00.122654 24121 net.cpp:127] Top shape: 2 512 32 32 (1048576)
I0418 18:17:00.122679 24121 layer_factory.hpp:74] Creating layer relu5_3_D
I0418 18:17:00.122697 24121 net.cpp:90] Creating Layer relu5_3_D
I0418 18:17:00.122714 24121 net.cpp:410] relu5_3_D <- conv5_3_D
I0418 18:17:00.122730 24121 net.cpp:357] relu5_3_D -> conv5_3_D (in-place)
I0418 18:17:00.122745 24121 net.cpp:120] Setting up relu5_3_D
I0418 18:17:00.125627 24121 net.cpp:127] Top shape: 2 512 32 32 (1048576)
I0418 18:17:00.125644 24121 layer_factory.hpp:74] Creating layer conv5_2_D
I0418 18:17:00.125663 24121 net.cpp:90] Creating Layer conv5_2_D
I0418 18:17:00.125677 24121 net.cpp:410] conv5_2_D <- conv5_3_D
I0418 18:17:00.125691 24121 net.cpp:368] conv5_2_D -> conv5_2_D
I0418 18:17:00.125715 24121 net.cpp:120] Setting up conv5_2_D
I0418 18:17:00.151695 24121 net.cpp:127] Top shape: 2 512 32 32 (1048576)
I0418 18:17:00.151739 24121 layer_factory.hpp:74] Creating layer conv5_2_D_bn
I0418 18:17:00.151764 24121 net.cpp:90] Creating Layer conv5_2_D_bn
I0418 18:17:00.151779 24121 net.cpp:410] conv5_2_D_bn <- conv5_2_D
I0418 18:17:00.151793 24121 net.cpp:357] conv5_2_D_bn -> conv5_2_D (in-place)
I0418 18:17:00.151809 24121 net.cpp:120] Setting up conv5_2_D_bn
I0418 18:17:00.151845 24121 net.cpp:127] Top shape: 2 512 32 32 (1048576)
I0418 18:17:00.151865 24121 layer_factory.hpp:74] Creating layer relu5_2_D
I0418 18:17:00.151887 24121 net.cpp:90] Creating Layer relu5_2_D
I0418 18:17:00.151901 24121 net.cpp:410] relu5_2_D <- conv5_2_D
I0418 18:17:00.151917 24121 net.cpp:357] relu5_2_D -> conv5_2_D (in-place)
I0418 18:17:00.151934 24121 net.cpp:120] Setting up relu5_2_D
I0418 18:17:00.154443 24121 net.cpp:127] Top shape: 2 512 32 32 (1048576)
I0418 18:17:00.154458 24121 layer_factory.hpp:74] Creating layer conv5_1_D
I0418 18:17:00.154477 24121 net.cpp:90] Creating Layer conv5_1_D
I0418 18:17:00.154491 24121 net.cpp:410] conv5_1_D <- conv5_2_D
I0418 18:17:00.154508 24121 net.cpp:368] conv5_1_D -> conv5_1_D
I0418 18:17:00.154527 24121 net.cpp:120] Setting up conv5_1_D
I0418 18:17:00.179360 24121 net.cpp:127] Top shape: 2 512 32 32 (1048576)
I0418 18:17:00.179404 24121 layer_factory.hpp:74] Creating layer conv5_1_D_bn
I0418 18:17:00.179432 24121 net.cpp:90] Creating Layer conv5_1_D_bn
I0418 18:17:00.179443 24121 net.cpp:410] conv5_1_D_bn <- conv5_1_D
I0418 18:17:00.179461 24121 net.cpp:357] conv5_1_D_bn -> conv5_1_D (in-place)
I0418 18:17:00.179478 24121 net.cpp:120] Setting up conv5_1_D_bn
I0418 18:17:00.179533 24121 net.cpp:127] Top shape: 2 512 32 32 (1048576)
I0418 18:17:00.179550 24121 layer_factory.hpp:74] Creating layer relu5_1_D
I0418 18:17:00.179576 24121 net.cpp:90] Creating Layer relu5_1_D
I0418 18:17:00.179587 24121 net.cpp:410] relu5_1_D <- conv5_1_D
I0418 18:17:00.179600 24121 net.cpp:357] relu5_1_D -> conv5_1_D (in-place)
I0418 18:17:00.179617 24121 net.cpp:120] Setting up relu5_1_D
I0418 18:17:00.183189 24121 net.cpp:127] Top shape: 2 512 32 32 (1048576)
I0418 18:17:00.183204 24121 layer_factory.hpp:74] Creating layer upsample4_drop
I0418 18:17:00.183218 24121 net.cpp:90] Creating Layer upsample4_drop
I0418 18:17:00.183230 24121 net.cpp:410] upsample4_drop <- conv5_1_D
I0418 18:17:00.183243 24121 net.cpp:357] upsample4_drop -> conv5_1_D (in-place)
I0418 18:17:00.183256 24121 net.cpp:120] Setting up upsample4_drop
I0418 18:17:00.183271 24121 net.cpp:127] Top shape: 2 512 32 32 (1048576)
I0418 18:17:00.183290 24121 layer_factory.hpp:74] Creating layer upsample4
I0418 18:17:00.183325 24121 net.cpp:90] Creating Layer upsample4
I0418 18:17:00.183336 24121 net.cpp:410] upsample4 <- conv5_1_D
I0418 18:17:00.183377 24121 net.cpp:410] upsample4 <- pool4_mask
I0418 18:17:00.183392 24121 net.cpp:368] upsample4 -> pool4_D
I0418 18:17:00.183410 24121 net.cpp:120] Setting up upsample4
I0418 18:17:00.183430 24121 net.cpp:127] Top shape: 2 512 63 63 (4064256)
I0418 18:17:00.183445 24121 layer_factory.hpp:74] Creating layer conv4_3_D
I0418 18:17:00.183465 24121 net.cpp:90] Creating Layer conv4_3_D
I0418 18:17:00.183478 24121 net.cpp:410] conv4_3_D <- pool4_D
I0418 18:17:00.183509 24121 net.cpp:368] conv4_3_D -> conv4_3_D
I0418 18:17:00.183533 24121 net.cpp:120] Setting up conv4_3_D
I0418 18:17:00.213731 24121 net.cpp:127] Top shape: 2 512 63 63 (4064256)
I0418 18:17:00.213793 24121 layer_factory.hpp:74] Creating layer conv4_3_D_bn
I0418 18:17:00.213820 24121 net.cpp:90] Creating Layer conv4_3_D_bn
I0418 18:17:00.213832 24121 net.cpp:410] conv4_3_D_bn <- conv4_3_D
I0418 18:17:00.213851 24121 net.cpp:357] conv4_3_D_bn -> conv4_3_D (in-place)
I0418 18:17:00.213877 24121 net.cpp:120] Setting up conv4_3_D_bn
I0418 18:17:00.213927 24121 net.cpp:127] Top shape: 2 512 63 63 (4064256)
I0418 18:17:00.213943 24121 layer_factory.hpp:74] Creating layer relu4_3_D
I0418 18:17:00.213960 24121 net.cpp:90] Creating Layer relu4_3_D
I0418 18:17:00.213974 24121 net.cpp:410] relu4_3_D <- conv4_3_D
I0418 18:17:00.213987 24121 net.cpp:357] relu4_3_D -> conv4_3_D (in-place)
I0418 18:17:00.214000 24121 net.cpp:120] Setting up relu4_3_D
I0418 18:17:00.216271 24121 net.cpp:127] Top shape: 2 512 63 63 (4064256)
I0418 18:17:00.216286 24121 layer_factory.hpp:74] Creating layer conv4_2_D
I0418 18:17:00.216303 24121 net.cpp:90] Creating Layer conv4_2_D
I0418 18:17:00.216316 24121 net.cpp:410] conv4_2_D <- conv4_3_D
I0418 18:17:00.216333 24121 net.cpp:368] conv4_2_D -> conv4_2_D
I0418 18:17:00.216358 24121 net.cpp:120] Setting up conv4_2_D
I0418 18:17:00.245177 24121 net.cpp:127] Top shape: 2 512 63 63 (4064256)
I0418 18:17:00.245223 24121 layer_factory.hpp:74] Creating layer conv4_2_D_bn
I0418 18:17:00.245245 24121 net.cpp:90] Creating Layer conv4_2_D_bn
I0418 18:17:00.245260 24121 net.cpp:410] conv4_2_D_bn <- conv4_2_D
I0418 18:17:00.245275 24121 net.cpp:357] conv4_2_D_bn -> conv4_2_D (in-place)
I0418 18:17:00.245291 24121 net.cpp:120] Setting up conv4_2_D_bn
I0418 18:17:00.245343 24121 net.cpp:127] Top shape: 2 512 63 63 (4064256)
I0418 18:17:00.245360 24121 layer_factory.hpp:74] Creating layer relu4_2_D
I0418 18:17:00.245375 24121 net.cpp:90] Creating Layer relu4_2_D
I0418 18:17:00.245385 24121 net.cpp:410] relu4_2_D <- conv4_2_D
I0418 18:17:00.245398 24121 net.cpp:357] relu4_2_D -> conv4_2_D (in-place)
I0418 18:17:00.245415 24121 net.cpp:120] Setting up relu4_2_D
I0418 18:17:00.250335 24121 net.cpp:127] Top shape: 2 512 63 63 (4064256)
I0418 18:17:00.250354 24121 layer_factory.hpp:74] Creating layer conv4_1_D
I0418 18:17:00.250373 24121 net.cpp:90] Creating Layer conv4_1_D
I0418 18:17:00.250387 24121 net.cpp:410] conv4_1_D <- conv4_2_D
I0418 18:17:00.250401 24121 net.cpp:368] conv4_1_D -> conv4_1_D
I0418 18:17:00.250422 24121 net.cpp:120] Setting up conv4_1_D
I0418 18:17:00.263825 24121 net.cpp:127] Top shape: 2 256 63 63 (2032128)
I0418 18:17:00.263852 24121 layer_factory.hpp:74] Creating layer conv4_1_D_bn
I0418 18:17:00.263871 24121 net.cpp:90] Creating Layer conv4_1_D_bn
I0418 18:17:00.263885 24121 net.cpp:410] conv4_1_D_bn <- conv4_1_D
I0418 18:17:00.263902 24121 net.cpp:357] conv4_1_D_bn -> conv4_1_D (in-place)
I0418 18:17:00.263918 24121 net.cpp:120] Setting up conv4_1_D_bn
I0418 18:17:00.263965 24121 net.cpp:127] Top shape: 2 256 63 63 (2032128)
I0418 18:17:00.263984 24121 layer_factory.hpp:74] Creating layer relu4_1_D
I0418 18:17:00.264004 24121 net.cpp:90] Creating Layer relu4_1_D
I0418 18:17:00.264019 24121 net.cpp:410] relu4_1_D <- conv4_1_D
I0418 18:17:00.264031 24121 net.cpp:357] relu4_1_D -> conv4_1_D (in-place)
I0418 18:17:00.264050 24121 net.cpp:120] Setting up relu4_1_D
I0418 18:17:00.266136 24121 net.cpp:127] Top shape: 2 256 63 63 (2032128)
I0418 18:17:00.266150 24121 layer_factory.hpp:74] Creating layer upsample3_drop
I0418 18:17:00.266199 24121 net.cpp:90] Creating Layer upsample3_drop
I0418 18:17:00.266211 24121 net.cpp:410] upsample3_drop <- conv4_1_D
I0418 18:17:00.266224 24121 net.cpp:357] upsample3_drop -> conv4_1_D (in-place)
I0418 18:17:00.266237 24121 net.cpp:120] Setting up upsample3_drop
I0418 18:17:00.266253 24121 net.cpp:127] Top shape: 2 256 63 63 (2032128)
I0418 18:17:00.266264 24121 layer_factory.hpp:74] Creating layer upsample3
I0418 18:17:00.266280 24121 net.cpp:90] Creating Layer upsample3
I0418 18:17:00.266294 24121 net.cpp:410] upsample3 <- conv4_1_D
I0418 18:17:00.266306 24121 net.cpp:410] upsample3 <- pool3_mask
I0418 18:17:00.266324 24121 net.cpp:368] upsample3 -> pool3_D
I0418 18:17:00.266341 24121 net.cpp:120] Setting up upsample3
I0418 18:17:00.266358 24121 net.cpp:127] Top shape: 2 256 125 125 (8000000)
I0418 18:17:00.266372 24121 layer_factory.hpp:74] Creating layer conv3_3_D
I0418 18:17:00.266388 24121 net.cpp:90] Creating Layer conv3_3_D
I0418 18:17:00.266397 24121 net.cpp:410] conv3_3_D <- pool3_D
I0418 18:17:00.266414 24121 net.cpp:368] conv3_3_D -> conv3_3_D
I0418 18:17:00.266433 24121 net.cpp:120] Setting up conv3_3_D
I0418 18:17:00.296809 24121 net.cpp:127] Top shape: 2 256 125 125 (8000000)
I0418 18:17:00.296834 24121 layer_factory.hpp:74] Creating layer conv3_3_D_bn
I0418 18:17:00.296856 24121 net.cpp:90] Creating Layer conv3_3_D_bn
I0418 18:17:00.296870 24121 net.cpp:410] conv3_3_D_bn <- conv3_3_D
I0418 18:17:00.296885 24121 net.cpp:357] conv3_3_D_bn -> conv3_3_D (in-place)
I0418 18:17:00.296900 24121 net.cpp:120] Setting up conv3_3_D_bn
I0418 18:17:00.296994 24121 net.cpp:127] Top shape: 2 256 125 125 (8000000)
I0418 18:17:00.297013 24121 layer_factory.hpp:74] Creating layer relu3_3_D
I0418 18:17:00.297027 24121 net.cpp:90] Creating Layer relu3_3_D
I0418 18:17:00.297037 24121 net.cpp:410] relu3_3_D <- conv3_3_D
I0418 18:17:00.297052 24121 net.cpp:357] relu3_3_D -> conv3_3_D (in-place)
I0418 18:17:00.297071 24121 net.cpp:120] Setting up relu3_3_D
I0418 18:17:00.299290 24121 net.cpp:127] Top shape: 2 256 125 125 (8000000)
I0418 18:17:00.299307 24121 layer_factory.hpp:74] Creating layer conv3_2_D
I0418 18:17:00.299324 24121 net.cpp:90] Creating Layer conv3_2_D
I0418 18:17:00.299340 24121 net.cpp:410] conv3_2_D <- conv3_3_D
I0418 18:17:00.299356 24121 net.cpp:368] conv3_2_D -> conv3_2_D
I0418 18:17:00.299379 24121 net.cpp:120] Setting up conv3_2_D
I0418 18:17:00.308818 24121 net.cpp:127] Top shape: 2 256 125 125 (8000000)
I0418 18:17:00.308840 24121 layer_factory.hpp:74] Creating layer conv3_2_D_bn
I0418 18:17:00.308863 24121 net.cpp:90] Creating Layer conv3_2_D_bn
I0418 18:17:00.308876 24121 net.cpp:410] conv3_2_D_bn <- conv3_2_D
I0418 18:17:00.308892 24121 net.cpp:357] conv3_2_D_bn -> conv3_2_D (in-place)
I0418 18:17:00.308912 24121 net.cpp:120] Setting up conv3_2_D_bn
I0418 18:17:00.309001 24121 net.cpp:127] Top shape: 2 256 125 125 (8000000)
I0418 18:17:00.309022 24121 layer_factory.hpp:74] Creating layer relu3_2_D
I0418 18:17:00.309039 24121 net.cpp:90] Creating Layer relu3_2_D
I0418 18:17:00.309049 24121 net.cpp:410] relu3_2_D <- conv3_2_D
I0418 18:17:00.309064 24121 net.cpp:357] relu3_2_D -> conv3_2_D (in-place)
I0418 18:17:00.309082 24121 net.cpp:120] Setting up relu3_2_D
I0418 18:17:00.312724 24121 net.cpp:127] Top shape: 2 256 125 125 (8000000)
I0418 18:17:00.312738 24121 layer_factory.hpp:74] Creating layer conv3_1_D
I0418 18:17:00.312757 24121 net.cpp:90] Creating Layer conv3_1_D
I0418 18:17:00.312770 24121 net.cpp:410] conv3_1_D <- conv3_2_D
I0418 18:17:00.312784 24121 net.cpp:368] conv3_1_D -> conv3_1_D
I0418 18:17:00.312810 24121 net.cpp:120] Setting up conv3_1_D
I0418 18:17:00.360003 24121 net.cpp:127] Top shape: 2 128 125 125 (4000000)
I0418 18:17:00.360023 24121 layer_factory.hpp:74] Creating layer conv3_1_D_bn
I0418 18:17:00.360044 24121 net.cpp:90] Creating Layer conv3_1_D_bn
I0418 18:17:00.360057 24121 net.cpp:410] conv3_1_D_bn <- conv3_1_D
I0418 18:17:00.360074 24121 net.cpp:357] conv3_1_D_bn -> conv3_1_D (in-place)
I0418 18:17:00.360092 24121 net.cpp:120] Setting up conv3_1_D_bn
I0418 18:17:00.360195 24121 net.cpp:127] Top shape: 2 128 125 125 (4000000)
I0418 18:17:00.360219 24121 layer_factory.hpp:74] Creating layer relu3_1_D
I0418 18:17:00.360231 24121 net.cpp:90] Creating Layer relu3_1_D
I0418 18:17:00.360244 24121 net.cpp:410] relu3_1_D <- conv3_1_D
I0418 18:17:00.360256 24121 net.cpp:357] relu3_1_D -> conv3_1_D (in-place)
I0418 18:17:00.360270 24121 net.cpp:120] Setting up relu3_1_D
I0418 18:17:00.362352 24121 net.cpp:127] Top shape: 2 128 125 125 (4000000)
I0418 18:17:00.362366 24121 layer_factory.hpp:74] Creating layer upsample2_drop
I0418 18:17:00.362380 24121 net.cpp:90] Creating Layer upsample2_drop
I0418 18:17:00.362390 24121 net.cpp:410] upsample2_drop <- conv3_1_D
I0418 18:17:00.362407 24121 net.cpp:357] upsample2_drop -> conv3_1_D (in-place)
I0418 18:17:00.362421 24121 net.cpp:120] Setting up upsample2_drop
I0418 18:17:00.362442 24121 net.cpp:127] Top shape: 2 128 125 125 (4000000)
I0418 18:17:00.362454 24121 layer_factory.hpp:74] Creating layer upsample2
I0418 18:17:00.362468 24121 net.cpp:90] Creating Layer upsample2
I0418 18:17:00.362480 24121 net.cpp:410] upsample2 <- conv3_1_D
I0418 18:17:00.362493 24121 net.cpp:410] upsample2 <- pool2_mask
I0418 18:17:00.362505 24121 net.cpp:368] upsample2 -> pool2_D
I0418 18:17:00.362520 24121 net.cpp:120] Setting up upsample2
I0418 18:17:00.362536 24121 upsample_layer.cpp:31] Params 'pad_out_{}_' are deprecated. Please declare upsample height and width useing the upsample_h, upsample_w parameters.
I0418 18:17:00.362557 24121 net.cpp:127] Top shape: 2 128 250 250 (16000000)
I0418 18:17:00.362571 24121 layer_factory.hpp:74] Creating layer conv2_2_D
I0418 18:17:00.362589 24121 net.cpp:90] Creating Layer conv2_2_D
I0418 18:17:00.362602 24121 net.cpp:410] conv2_2_D <- pool2_D
I0418 18:17:00.362620 24121 net.cpp:368] conv2_2_D -> conv2_2_D
I0418 18:17:00.362637 24121 net.cpp:120] Setting up conv2_2_D
I0418 18:17:00.374358 24121 net.cpp:127] Top shape: 2 128 250 250 (16000000)
I0418 18:17:00.374380 24121 layer_factory.hpp:74] Creating layer conv2_2_D_bn
I0418 18:17:00.374395 24121 net.cpp:90] Creating Layer conv2_2_D_bn
I0418 18:17:00.374405 24121 net.cpp:410] conv2_2_D_bn <- conv2_2_D
I0418 18:17:00.374421 24121 net.cpp:357] conv2_2_D_bn -> conv2_2_D (in-place)
I0418 18:17:00.374436 24121 net.cpp:120] Setting up conv2_2_D_bn
I0418 18:17:00.374689 24121 net.cpp:127] Top shape: 2 128 250 250 (16000000)
I0418 18:17:00.374712 24121 layer_factory.hpp:74] Creating layer relu2_2_D
I0418 18:17:00.374725 24121 net.cpp:90] Creating Layer relu2_2_D
I0418 18:17:00.374735 24121 net.cpp:410] relu2_2_D <- conv2_2_D
I0418 18:17:00.374747 24121 net.cpp:357] relu2_2_D -> conv2_2_D (in-place)
I0418 18:17:00.374759 24121 net.cpp:120] Setting up relu2_2_D
I0418 18:17:00.378538 24121 net.cpp:127] Top shape: 2 128 250 250 (16000000)
I0418 18:17:00.378553 24121 layer_factory.hpp:74] Creating layer conv2_1_D
I0418 18:17:00.378573 24121 net.cpp:90] Creating Layer conv2_1_D
I0418 18:17:00.378589 24121 net.cpp:410] conv2_1_D <- conv2_2_D
I0418 18:17:00.378603 24121 net.cpp:368] conv2_1_D -> conv2_1_D
I0418 18:17:00.378624 24121 net.cpp:120] Setting up conv2_1_D
I0418 18:17:00.407874 24121 net.cpp:127] Top shape: 2 64 250 250 (8000000)
I0418 18:17:00.407896 24121 layer_factory.hpp:74] Creating layer conv2_1_D_bn
I0418 18:17:00.407913 24121 net.cpp:90] Creating Layer conv2_1_D_bn
I0418 18:17:00.407923 24121 net.cpp:410] conv2_1_D_bn <- conv2_1_D
I0418 18:17:00.407937 24121 net.cpp:357] conv2_1_D_bn -> conv2_1_D (in-place)
I0418 18:17:00.407950 24121 net.cpp:120] Setting up conv2_1_D_bn
I0418 18:17:00.408203 24121 net.cpp:127] Top shape: 2 64 250 250 (8000000)
I0418 18:17:00.408222 24121 layer_factory.hpp:74] Creating layer relu2_1_D
I0418 18:17:00.408238 24121 net.cpp:90] Creating Layer relu2_1_D
I0418 18:17:00.408248 24121 net.cpp:410] relu2_1_D <- conv2_1_D
I0418 18:17:00.408262 24121 net.cpp:357] relu2_1_D -> conv2_1_D (in-place)
I0418 18:17:00.408279 24121 net.cpp:120] Setting up relu2_1_D
I0418 18:17:00.411574 24121 net.cpp:127] Top shape: 2 64 250 250 (8000000)
I0418 18:17:00.411594 24121 layer_factory.hpp:74] Creating layer upsample1_drop
I0418 18:17:00.411636 24121 net.cpp:90] Creating Layer upsample1_drop
I0418 18:17:00.411653 24121 net.cpp:410] upsample1_drop <- conv2_1_D
I0418 18:17:00.411670 24121 net.cpp:357] upsample1_drop -> conv2_1_D (in-place)
I0418 18:17:00.411686 24121 net.cpp:120] Setting up upsample1_drop
I0418 18:17:00.411707 24121 net.cpp:127] Top shape: 2 64 250 250 (8000000)
I0418 18:17:00.411720 24121 layer_factory.hpp:74] Creating layer upsample1
I0418 18:17:00.411732 24121 net.cpp:90] Creating Layer upsample1
I0418 18:17:00.411743 24121 net.cpp:410] upsample1 <- conv2_1_D
I0418 18:17:00.411756 24121 net.cpp:410] upsample1 <- pool1_mask
I0418 18:17:00.411768 24121 net.cpp:368] upsample1 -> pool1_D
I0418 18:17:00.411783 24121 net.cpp:120] Setting up upsample1
I0418 18:17:00.411795 24121 upsample_layer.cpp:31] Params 'pad_out_{}_' are deprecated. Please declare upsample height and width useing the upsample_h, upsample_w parameters.
I0418 18:17:00.411810 24121 net.cpp:127] Top shape: 2 64 500 500 (32000000)
I0418 18:17:00.411823 24121 layer_factory.hpp:74] Creating layer conv1_2_D
I0418 18:17:00.411841 24121 net.cpp:90] Creating Layer conv1_2_D
I0418 18:17:00.411855 24121 net.cpp:410] conv1_2_D <- pool1_D
I0418 18:17:00.411873 24121 net.cpp:368] conv1_2_D -> conv1_2_D
I0418 18:17:00.411890 24121 net.cpp:120] Setting up conv1_2_D
I0418 18:17:00.420476 24121 net.cpp:127] Top shape: 2 64 500 500 (32000000)
I0418 18:17:00.420498 24121 layer_factory.hpp:74] Creating layer conv1_2_D_bn
I0418 18:17:00.420519 24121 net.cpp:90] Creating Layer conv1_2_D_bn
I0418 18:17:00.420538 24121 net.cpp:410] conv1_2_D_bn <- conv1_2_D
I0418 18:17:00.420554 24121 net.cpp:357] conv1_2_D_bn -> conv1_2_D (in-place)
I0418 18:17:00.420572 24121 net.cpp:120] Setting up conv1_2_D_bn
I0418 18:17:00.421464 24121 net.cpp:127] Top shape: 2 64 500 500 (32000000)
I0418 18:17:00.421484 24121 layer_factory.hpp:74] Creating layer relu1_2_D
I0418 18:17:00.421502 24121 net.cpp:90] Creating Layer relu1_2_D
I0418 18:17:00.421519 24121 net.cpp:410] relu1_2_D <- conv1_2_D
I0418 18:17:00.421531 24121 net.cpp:357] relu1_2_D -> conv1_2_D (in-place)
I0418 18:17:00.421550 24121 net.cpp:120] Setting up relu1_2_D
I0418 18:17:00.425050 24121 net.cpp:127] Top shape: 2 64 500 500 (32000000)
I0418 18:17:00.425065 24121 layer_factory.hpp:74] Creating layer conv1_1_D
I0418 18:17:00.425082 24121 net.cpp:90] Creating Layer conv1_1_D
I0418 18:17:00.425092 24121 net.cpp:410] conv1_1_D <- conv1_2_D
I0418 18:17:00.425108 24121 net.cpp:368] conv1_1_D -> conv1_1_D
I0418 18:17:00.425123 24121 net.cpp:120] Setting up conv1_1_D
I0418 18:17:00.434476 24121 net.cpp:127] Top shape: 2 21 500 500 (10500000)
I0418 18:17:00.434499 24121 layer_factory.hpp:74] Creating layer conv1_1_D_conv1_1_D_0_split
I0418 18:17:00.434514 24121 net.cpp:90] Creating Layer conv1_1_D_conv1_1_D_0_split
I0418 18:17:00.434522 24121 net.cpp:410] conv1_1_D_conv1_1_D_0_split <- conv1_1_D
I0418 18:17:00.434540 24121 net.cpp:368] conv1_1_D_conv1_1_D_0_split -> conv1_1_D_conv1_1_D_0_split_0
I0418 18:17:00.434554 24121 net.cpp:368] conv1_1_D_conv1_1_D_0_split -> conv1_1_D_conv1_1_D_0_split_1
I0418 18:17:00.434573 24121 net.cpp:120] Setting up conv1_1_D_conv1_1_D_0_split
I0418 18:17:00.434588 24121 net.cpp:127] Top shape: 2 21 500 500 (10500000)
I0418 18:17:00.434603 24121 net.cpp:127] Top shape: 2 21 500 500 (10500000)
I0418 18:17:00.434613 24121 layer_factory.hpp:74] Creating layer loss
I0418 18:17:00.434638 24121 net.cpp:90] Creating Layer loss
I0418 18:17:00.434653 24121 net.cpp:410] loss <- conv1_1_D_conv1_1_D_0_split_0
I0418 18:17:00.434664 24121 net.cpp:410] loss <- label_label_0_split_0
I0418 18:17:00.434680 24121 net.cpp:368] loss -> loss
I0418 18:17:00.434701 24121 net.cpp:120] Setting up loss
I0418 18:17:00.434722 24121 layer_factory.hpp:74] Creating layer loss
I0418 18:17:00.450258 24121 net.cpp:127] Top shape: (1)
I0418 18:17:00.450301 24121 net.cpp:129]     with loss weight 1
I0418 18:17:00.450340 24121 layer_factory.hpp:74] Creating layer accuracy
I0418 18:17:00.450361 24121 net.cpp:90] Creating Layer accuracy
I0418 18:17:00.450402 24121 net.cpp:410] accuracy <- conv1_1_D_conv1_1_D_0_split_1
I0418 18:17:00.450428 24121 net.cpp:410] accuracy <- label_label_0_split_1
I0418 18:17:00.450448 24121 net.cpp:368] accuracy -> accuracy
I0418 18:17:00.450469 24121 net.cpp:368] accuracy -> per_class_accuracy
I0418 18:17:00.450485 24121 net.cpp:120] Setting up accuracy
I0418 18:17:00.450508 24121 accuracy_layer.cpp:24] Per-class accuracies currently only work on TRAIN phase only.
I0418 18:17:00.450526 24121 net.cpp:127] Top shape: (1)
I0418 18:17:00.450538 24121 net.cpp:127] Top shape: 21 1 1 1 (21)
I0418 18:17:00.450548 24121 net.cpp:194] accuracy does not need backward computation.
I0418 18:17:00.450558 24121 net.cpp:192] loss needs backward computation.
I0418 18:17:00.450568 24121 net.cpp:192] conv1_1_D_conv1_1_D_0_split needs backward computation.
I0418 18:17:00.450577 24121 net.cpp:192] conv1_1_D needs backward computation.
I0418 18:17:00.450587 24121 net.cpp:192] relu1_2_D needs backward computation.
…
