…
I0414 19:44:17.808876  7170 net.cpp:42] Initializing net from parameters: 
name: "VGG_ILSVRC_16_layer"
state {
  phase: TRAIN
}
layer {
  name: "data"
  type: "Data"
  top: "data"
  include {
    phase: TRAIN
  }
  transform_param {
    mean_value: 0
    mean_value: 0
    mean_value: 0
  }
  data_param {
    source: "/home/shared/datasets/CamVid/LMDB_2/train_lmdb"
    batch_size: 2
    backend: LMDB
  }
}
layer {
  name: "label"
  type: "Data"
  top: "label"
  include {
    phase: TRAIN
  }
  data_param {
    source: "/home/shared/datasets/CamVid/LMDB_2/train_gt_lmdb"
    batch_size: 2
    backend: LMDB
  }
}
layer {
  name: "conv1_1"
  type: "Convolution"
  bottom: "data"
  top: "conv1_1"
  param {
    lr_mult: 1
    decay_mult: 1
  }
  param {
    lr_mult: 2
    decay_mult: 0
  }
  convolution_param {
    num_output: 64
    pad: 1
    kernel_size: 3
    weight_filler {
      type: "msra"
    }
    bias_filler {
      type: "constant"
    }
  }
}
layer {
  name: "conv1_1_bn"
  type: "BN"
  bottom: "conv1_1"
  top: "conv1_1"
  param {
    lr_mult: 1
    decay_mult: 1
  }
  param {
    lr_mult: 1
    decay_mult: 0
  }
  bn_param {
    scale_filler {
      type: "constant"
      value: 1
    }
    shift_filler {
      type: "constant"
      value: 0.001
    }
  }
}
layer {
  name: "relu1_1"
  type: "ReLU"
  bottom: "conv1_1"
  top: "conv1_1"
}
layer {
  name: "conv1_2"
  type: "Convolution"
  bottom: "conv1_1"
  top: "conv1_2"
  param {
    lr_mult: 1
    decay_mult: 1
  }
  param {
    lr_mult: 2
    decay_mult: 0
  }
  convolution_param {
    num_output: 64
    pad: 1
    kernel_size: 3
    weight_filler {
      type: "msra"
    }
    bias_filler {
      type: "constant"
    }
  }
}
layer {
  name: "conv1_2_bn"
  type: "BN"
  bottom: "conv1_2"
  top: "conv1_2"
  param {
    lr_mult: 1
    decay_mult: 1
  }
  param {
    lr_mult: 1
    decay_mult: 0
  }
  bn_param {
    scale_filler {
      type: "constant"
      value: 1
    }
    shift_filler {
      type: "constant"
      value: 0.001
    }
  }
}
layer {
  name: "relu1_2"
  type: "ReLU"
  bottom: "conv1_2"
  top: "conv1_2"
}
layer {
  name: "pool1"
  type: "Pooling"
  bottom: "conv1_2"
  top: "pool1"
  top: "pool1_mask"
  pooling_param {
    pool: MAX
    kernel_size: 2
    stride: 2
  }
}
layer {
  name: "conv2_1"
  type: "Convolution"
  bottom: "pool1"
  top: "conv2_1"
  param {
    lr_mult: 1
    decay_mult: 1
  }
  param {
    lr_mult: 2
    decay_mult: 0
  }
  convolution_param {
    num_output: 128
    pad: 1
    kernel_size: 3
    weight_filler {
      type: "msra"
    }
    bias_filler {
      type: "constant"
    }
  }
}
layer {
  name: "conv2_1_bn"
  type: "BN"
  bottom: "conv2_1"
  top: "conv2_1"
  param {
    lr_mult: 1
    decay_mult: 1
  }
  param {
    lr_mult: 1
    decay_mult: 0
  }
  bn_param {
    scale_filler {
      type: "constant"
      value: 1
    }
    shift_filler {
      type: "constant"
      value: 0.001
    }
  }
}
layer {
  name: "relu2_1"
  type: "ReLU"
  bottom: "conv2_1"
  top: "conv2_1"
}
layer {
  name: "conv2_2"
  type: "Convolution"
  bottom: "conv2_1"
  top: "conv2_2"
  param {
    lr_mult: 1
    decay_mult: 1
  }
  param {
    lr_mult: 2
    decay_mult: 0
  }
  convolution_param {
    num_output: 128
    pad: 1
    kernel_size: 3
    weight_filler {
      type: "msra"
    }
    bias_filler {
      type: "constant"
    }
  }
}
layer {
  name: "conv2_2_bn"
  type: "BN"
  bottom: "conv2_2"
  top: "conv2_2"
  param {
    lr_mult: 1
    decay_mult: 1
  }
  param {
    lr_mult: 1
    decay_mult: 0
  }
  bn_param {
    scale_filler {
      type: "constant"
      value: 1
    }
    shift_filler {
      type: "constant"
      value: 0.001
    }
  }
}
layer {
  name: "relu2_2"
  type: "ReLU"
  bottom: "conv2_2"
  top: "conv2_2"
}
layer {
  name: "pool2"
  type: "Pooling"
  bottom: "conv2_2"
  top: "pool2"
  top: "pool2_mask"
  pooling_param {
    pool: MAX
    kernel_size: 2
    stride: 2
  }
}
layer {
  name: "conv3_1"
  type: "Convolution"
  bottom: "pool2"
  top: "conv3_1"
  param {
    lr_mult: 1
    decay_mult: 1
  }
  param {
    lr_mult: 2
    decay_mult: 0
  }
  convolution_param {
    num_output: 256
    pad: 1
    kernel_size: 3
    weight_filler {
      type: "msra"
    }
    bias_filler {
      type: "constant"
    }
  }
}
layer {
  name: "conv3_1_bn"
  type: "BN"
  bottom: "conv3_1"
  top: "conv3_1"
  param {
    lr_mult: 1
    decay_mult: 1
  }
  param {
    lr_mult: 1
    decay_mult: 0
  }
  bn_param {
    scale_filler {
      type: "constant"
      value: 1
    }
    shift_filler {
      type: "constant"
      value: 0.001
    }
  }
}
layer {
  name: "relu3_1"
  type: "ReLU"
  bottom: "conv3_1"
  top: "conv3_1"
}
layer {
  name: "conv3_2"
  type: "Convolution"
  bottom: "conv3_1"
  top: "conv3_2"
  param {
    lr_mult: 1
    decay_mult: 1
  }
  param {
    lr_mult: 2
    decay_mult: 0
  }
  convolution_param {
    num_output: 256
    pad: 1
    kernel_size: 3
    weight_filler {
      type: "msra"
    }
    bias_filler {
      type: "constant"
    }
  }
}
layer {
  name: "conv3_2_bn"
  type: "BN"
  bottom: "conv3_2"
  top: "conv3_2"
  param {
    lr_mult: 1
    decay_mult: 1
  }
  param {
    lr_mult: 1
    decay_mult: 0
  }
  bn_param {
    scale_filler {
      type: "constant"
      value: 1
    }
    shift_filler {
      type: "constant"
      value: 0.001
    }
  }
}
layer {
  name: "relu3_2"
  type: "ReLU"
  bottom: "conv3_2"
  top: "conv3_2"
}
layer {
  name: "conv3_3"
  type: "Convolution"
  bottom: "conv3_2"
  top: "conv3_3"
  param {
    lr_mult: 1
    decay_mult: 1
  }
  param {
    lr_mult: 2
    decay_mult: 0
  }
  convolution_param {
    num_output: 256
    pad: 1
    kernel_size: 3
    weight_filler {
      type: "msra"
    }
    bias_filler {
      type: "constant"
    }
  }
}
layer {
  name: "conv3_3_bn"
  type: "BN"
  bottom: "conv3_3"
  top: "conv3_3"
  param {
    lr_mult: 1
    decay_mult: 1
  }
  param {
    lr_mult: 1
    decay_mult: 0
  }
  bn_param {
    scale_filler {
      type: "constant"
      value: 1
    }
    shift_filler {
      type: "constant"
      value: 0.001
    }
  }
}
layer {
  name: "relu3_3"
  type: "ReLU"
  bottom: "conv3_3"
  top: "conv3_3"
}
layer {
  name: "pool3"
  type: "Pooling"
  bottom: "conv3_3"
  top: "pool3"
  top: "pool3_mask"
  pooling_param {
    pool: MAX
    kernel_size: 2
    stride: 2
  }
}
layer {
  name: "conv4_1"
  type: "Convolution"
  bottom: "pool3"
  top: "conv4_1"
  param {
    lr_mult: 1
    decay_mult: 1
  }
  param {
    lr_mult: 2
    decay_mult: 0
  }
  convolution_param {
    num_output: 512
    pad: 1
    kernel_size: 3
    weight_filler {
      type: "msra"
    }
    bias_filler {
      type: "constant"
    }
  }
}
layer {
  name: "conv4_1_bn"
  type: "BN"
  bottom: "conv4_1"
  top: "conv4_1"
  param {
    lr_mult: 1
    decay_mult: 1
  }
  param {
    lr_mult: 1
    decay_mult: 0
  }
  bn_param {
    scale_filler {
      type: "constant"
      value: 1
    }
    shift_filler {
      type: "constant"
      value: 0.001
    }
  }
}
layer {
  name: "relu4_1"
  type: "ReLU"
  bottom: "conv4_1"
  top: "conv4_1"
}
layer {
  name: "conv4_2"
  type: "Convolution"
  bottom: "conv4_1"
  top: "conv4_2"
  param {
    lr_mult: 1
    decay_mult: 1
  }
  param {
    lr_mult: 2
    decay_mult: 0
  }
  convolution_param {
    num_output: 512
    pad: 1
    kernel_size: 3
    weight_filler {
      type: "msra"
    }
    bias_filler {
      type: "constant"
    }
  }
}
layer {
  name: "conv4_2_bn"
  type: "BN"
  bottom: "conv4_2"
  top: "conv4_2"
  param {
    lr_mult: 1
    decay_mult: 1
  }
  param {
    lr_mult: 1
    decay_mult: 0
  }
  bn_param {
    scale_filler {
      type: "constant"
      value: 1
    }
    shift_filler {
      type: "constant"
      value: 0.001
    }
  }
}
layer {
  name: "relu4_2"
  type: "ReLU"
  bottom: "conv4_2"
  top: "conv4_2"
}
layer {
  name: "conv4_3"
  type: "Convolution"
  bottom: "conv4_2"
  top: "conv4_3"
  param {
    lr_mult: 1
    decay_mult: 1
  }
  param {
    lr_mult: 2
    decay_mult: 0
  }
  convolution_param {
    num_output: 512
    pad: 1
    kernel_size: 3
    weight_filler {
      type: "msra"
    }
    bias_filler {
      type: "constant"
    }
  }
}
layer {
  name: "conv4_3_bn"
  type: "BN"
  bottom: "conv4_3"
  top: "conv4_3"
  param {
    lr_mult: 1
    decay_mult: 1
  }
  param {
    lr_mult: 1
    decay_mult: 0
  }
  bn_param {
    scale_filler {
      type: "constant"
      value: 1
    }
    shift_filler {
      type: "constant"
      value: 0.001
    }
  }
}
layer {
  name: "relu4_3"
  type: "ReLU"
  bottom: "conv4_3"
  top: "conv4_3"
}
layer {
  name: "pool4"
  type: "Pooling"
  bottom: "conv4_3"
  top: "pool4"
  top: "pool4_mask"
  pooling_param {
    pool: MAX
    kernel_size: 2
    stride: 2
  }
}
layer {
  name: "conv5_1"
  type: "Convolution"
  bottom: "pool4"
  top: "conv5_1"
  param {
    lr_mult: 1
    decay_mult: 1
  }
  param {
    lr_mult: 2
    decay_mult: 0
  }
  convolution_param {
    num_output: 512
    pad: 1
    kernel_size: 3
    weight_filler {
      type: "msra"
    }
    bias_filler {
      type: "constant"
    }
  }
}
layer {
  name: "conv5_1_bn"
  type: "BN"
  bottom: "conv5_1"
  top: "conv5_1"
  param {
    lr_mult: 1
    decay_mult: 1
  }
  param {
    lr_mult: 1
    decay_mult: 0
  }
  bn_param {
    scale_filler {
      type: "constant"
      value: 1
    }
    shift_filler {
      type: "constant"
      value: 0.001
    }
  }
}
layer {
  name: "relu5_1"
  type: "ReLU"
  bottom: "conv5_1"
  top: "conv5_1"
}
layer {
  name: "conv5_2"
  type: "Convolution"
  bottom: "conv5_1"
  top: "conv5_2"
  param {
    lr_mult: 1
    decay_mult: 1
  }
  param {
    lr_mult: 2
    decay_mult: 0
  }
  convolution_param {
    num_output: 512
    pad: 1
    kernel_size: 3
    weight_filler {
      type: "msra"
    }
    bias_filler {
      type: "constant"
    }
  }
}
layer {
  name: "conv5_2_bn"
  type: "BN"
  bottom: "conv5_2"
  top: "conv5_2"
  param {
    lr_mult: 1
    decay_mult: 1
  }
  param {
    lr_mult: 1
    decay_mult: 0
  }
  bn_param {
    scale_filler {
      type: "constant"
      value: 1
    }
    shift_filler {
      type: "constant"
      value: 0.001
    }
  }
}
layer {
  name: "relu5_2"
  type: "ReLU"
  bottom: "conv5_2"
  top: "conv5_2"
}
layer {
  name: "conv5_3"
  type: "Convolution"
  bottom: "conv5_2"
  top: "conv5_3"
  param {
    lr_mult: 1
    decay_mult: 1
  }
  param {
    lr_mult: 2
    decay_mult: 0
  }
  convolution_param {
    num_output: 512
    pad: 1
    kernel_size: 3
    weight_filler {
      type: "msra"
    }
    bias_filler {
      type: "constant"
    }
  }
}
layer {
  name: "conv5_3_bn"
  type: "BN"
  bottom: "conv5_3"
  top: "conv5_3"
  param {
    lr_mult: 1
    decay_mult: 1
  }
  param {
    lr_mult: 1
    decay_mult: 0
  }
  bn_param {
    scale_filler {
      type: "constant"
      value: 1
    }
    shift_filler {
      type: "constant"
      value: 0.001
    }
  }
}
layer {
  name: "relu5_3"
  type: "ReLU"
  bottom: "conv5_3"
  top: "conv5_3"
}
layer {
  name: "pool5"
  type: "Pooling"
  bottom: "conv5_3"
  top: "pool5"
  top: "pool5_mask"
  pooling_param {
    pool: MAX
    kernel_size: 2
    stride: 2
  }
}
layer {
  name: "upsample5"
  type: "Upsample"
  bottom: "pool5"
  bottom: "pool5_mask"
  top: "pool5_D"
  upsample_param {
    scale: 2
    upsample_h: 23
    upsample_w: 30
  }
}
layer {
  name: "conv5_3_D"
  type: "Convolution"
  bottom: "pool5_D"
  top: "conv5_3_D"
  param {
    lr_mult: 1
    decay_mult: 1
  }
  param {
    lr_mult: 2
    decay_mult: 0
  }
  convolution_param {
    num_output: 512
    pad: 1
    kernel_size: 3
    weight_filler {
      type: "msra"
    }
    bias_filler {
      type: "constant"
    }
  }
}
layer {
  name: "conv5_3_D_bn"
  type: "BN"
  bottom: "conv5_3_D"
  top: "conv5_3_D"
  param {
    lr_mult: 1
    decay_mult: 1
  }
  param {
    lr_mult: 1
    decay_mult: 0
  }
  bn_param {
    scale_filler {
      type: "constant"
      value: 1
    }
    shift_filler {
      type: "constant"
      value: 0.001
    }
  }
}
layer {
  name: "relu5_3_D"
  type: "ReLU"
  bottom: "conv5_3_D"
  top: "conv5_3_D"
}
layer {
  name: "conv5_2_D"
  type: "Convolution"
  bottom: "conv5_3_D"
  top: "conv5_2_D"
  param {
    lr_mult: 1
    decay_mult: 1
  }
  param {
    lr_mult: 2
    decay_mult: 0
  }
  convolution_param {
    num_output: 512
    pad: 1
    kernel_size: 3
    weight_filler {
      type: "msra"
    }
    bias_filler {
      type: "constant"
    }
  }
}
layer {
  name: "conv5_2_D_bn"
  type: "BN"
  bottom: "conv5_2_D"
  top: "conv5_2_D"
  param {
    lr_mult: 1
    decay_mult: 1
  }
  param {
    lr_mult: 1
    decay_mult: 0
  }
  bn_param {
    scale_filler {
      type: "constant"
      value: 1
    }
    shift_filler {
      type: "constant"
      value: 0.001
    }
  }
}
layer {
  name: "relu5_2_D"
  type: "ReLU"
  bottom: "conv5_2_D"
  top: "conv5_2_D"
}
layer {
  name: "conv5_1_D"
  type: "Convolution"
  bottom: "conv5_2_D"
  top: "conv5_1_D"
  param {
    lr_mult: 1
    decay_mult: 1
  }
  param {
    lr_mult: 2
    decay_mult: 0
  }
  convolution_param {
    num_output: 512
    pad: 1
    kernel_size: 3
    weight_filler {
      type: "msra"
    }
    bias_filler {
      type: "constant"
    }
  }
}
layer {
  name: "conv5_1_D_bn"
  type: "BN"
  bottom: "conv5_1_D"
  top: "conv5_1_D"
  param {
    lr_mult: 1
    decay_mult: 1
  }
  param {
    lr_mult: 1
    decay_mult: 0
  }
  bn_param {
    scale_filler {
      type: "constant"
      value: 1
    }
    shift_filler {
      type: "constant"
      value: 0.001
    }
  }
}
layer {
  name: "relu5_1_D"
  type: "ReLU"
  bottom: "conv5_1_D"
  top: "conv5_1_D"
}
layer {
  name: "upsample4"
  type: "Upsample"
  bottom: "conv5_1_D"
  bottom: "pool4_mask"
  top: "pool4_D"
  upsample_param {
    scale: 2
    upsample_h: 45
    upsample_w: 60
  }
}
layer {
  name: "conv4_3_D"
  type: "Convolution"
  bottom: "pool4_D"
  top: "conv4_3_D"
  param {
    lr_mult: 1
    decay_mult: 1
  }
  param {
    lr_mult: 2
    decay_mult: 0
  }
  convolution_param {
    num_output: 512
    pad: 1
    kernel_size: 3
    weight_filler {
      type: "msra"
    }
    bias_filler {
      type: "constant"
    }
  }
}
layer {
  name: "conv4_3_D_bn"
  type: "BN"
  bottom: "conv4_3_D"
  top: "conv4_3_D"
  param {
    lr_mult: 1
    decay_mult: 1
  }
  param {
    lr_mult: 1
    decay_mult: 0
  }
  bn_param {
    scale_filler {
      type: "constant"
      value: 1
    }
    shift_filler {
      type: "constant"
      value: 0.001
    }
  }
}
layer {
  name: "relu4_3_D"
  type: "ReLU"
  bottom: "conv4_3_D"
  top: "conv4_3_D"
}
layer {
  name: "conv4_2_D"
  type: "Convolution"
  bottom: "conv4_3_D"
  top: "conv4_2_D"
  param {
    lr_mult: 1
    decay_mult: 1
  }
  param {
    lr_mult: 2
    decay_mult: 0
  }
  convolution_param {
    num_output: 512
    pad: 1
    kernel_size: 3
    weight_filler {
      type: "msra"
    }
    bias_filler {
      type: "constant"
    }
  }
}
layer {
  name: "conv4_2_D_bn"
  type: "BN"
  bottom: "conv4_2_D"
  top: "conv4_2_D"
  param {
    lr_mult: 1
    decay_mult: 1
  }
  param {
    lr_mult: 1
    decay_mult: 0
  }
  bn_param {
    scale_filler {
      type: "constant"
      value: 1
    }
    shift_filler {
      type: "constant"
      value: 0.001
    }
  }
}
layer {
  name: "relu4_2_D"
  type: "ReLU"
  bottom: "conv4_2_D"
  top: "conv4_2_D"
}
layer {
  name: "conv4_1_D"
  type: "Convolution"
  bottom: "conv4_2_D"
  top: "conv4_1_D"
  param {
    lr_mult: 1
    decay_mult: 1
  }
  param {
    lr_mult: 2
    decay_mult: 0
  }
  convolution_param {
    num_output: 256
    pad: 1
    kernel_size: 3
    weight_filler {
      type: "msra"
    }
    bias_filler {
      type: "constant"
    }
  }
}
layer {
  name: "conv4_1_D_bn"
  type: "BN"
  bottom: "conv4_1_D"
  top: "conv4_1_D"
  param {
    lr_mult: 1
    decay_mult: 1
  }
  param {
    lr_mult: 1
    decay_mult: 0
  }
  bn_param {
    scale_filler {
      type: "constant"
      value: 1
    }
    shift_filler {
      type: "constant"
      value: 0.001
    }
  }
}
layer {
  name: "relu4_1_D"
  type: "ReLU"
  bottom: "conv4_1_D"
  top: "conv4_1_D"
}
layer {
  name: "upsample3"
  type: "Upsample"
  bottom: "conv4_1_D"
  bottom: "pool3_mask"
  top: "pool3_D"
  upsample_param {
    scale: 2
  }
}
layer {
  name: "conv3_3_D"
  type: "Convolution"
  bottom: "pool3_D"
  top: "conv3_3_D"
  param {
    lr_mult: 1
    decay_mult: 1
  }
  param {
    lr_mult: 2
    decay_mult: 0
  }
  convolution_param {
    num_output: 256
    pad: 1
    kernel_size: 3
    weight_filler {
      type: "msra"
    }
    bias_filler {
      type: "constant"
    }
  }
}
layer {
  name: "conv3_3_D_bn"
  type: "BN"
  bottom: "conv3_3_D"
  top: "conv3_3_D"
  param {
    lr_mult: 1
    decay_mult: 1
  }
  param {
    lr_mult: 1
    decay_mult: 0
  }
  bn_param {
    scale_filler {
      type: "constant"
      value: 1
    }
    shift_filler {
      type: "constant"
      value: 0.001
    }
  }
}
layer {
  name: "relu3_3_D"
  type: "ReLU"
  bottom: "conv3_3_D"
  top: "conv3_3_D"
}
layer {
  name: "conv3_2_D"
  type: "Convolution"
  bottom: "conv3_3_D"
  top: "conv3_2_D"
  param {
    lr_mult: 1
    decay_mult: 1
  }
  param {
    lr_mult: 2
    decay_mult: 0
  }
  convolution_param {
    num_output: 256
    pad: 1
    kernel_size: 3
    weight_filler {
      type: "msra"
    }
    bias_filler {
      type: "constant"
    }
  }
}
layer {
  name: "conv3_2_D_bn"
  type: "BN"
  bottom: "conv3_2_D"
  top: "conv3_2_D"
  param {
    lr_mult: 1
    decay_mult: 1
  }
  param {
    lr_mult: 1
    decay_mult: 0
  }
  bn_param {
    scale_filler {
      type: "constant"
      value: 1
    }
    shift_filler {
      type: "constant"
      value: 0.001
    }
  }
}
layer {
  name: "relu3_2_D"
  type: "ReLU"
  bottom: "conv3_2_D"
  top: "conv3_2_D"
}
layer {
  name: "conv3_1_D"
  type: "Convolution"
  bottom: "conv3_2_D"
  top: "conv3_1_D"
  param {
    lr_mult: 1
    decay_mult: 1
  }
  param {
    lr_mult: 2
    decay_mult: 0
  }
  convolution_param {
    num_output: 128
    pad: 1
    kernel_size: 3
    weight_filler {
      type: "msra"
    }
    bias_filler {
      type: "constant"
    }
  }
}
layer {
  name: "conv3_1_D_bn"
  type: "BN"
  bottom: "conv3_1_D"
  top: "conv3_1_D"
  param {
    lr_mult: 1
    decay_mult: 1
  }
  param {
    lr_mult: 1
    decay_mult: 0
  }
  bn_param {
    scale_filler {
      type: "constant"
      value: 1
    }
    shift_filler {
      type: "constant"
      value: 0.001
    }
  }
}
layer {
  name: "relu3_1_D"
  type: "ReLU"
  bottom: "conv3_1_D"
  top: "conv3_1_D"
}
layer {
  name: "upsample2"
  type: "Upsample"
  bottom: "conv3_1_D"
  bottom: "pool2_mask"
  top: "pool2_D"
  upsample_param {
    scale: 2
  }
}
layer {
  name: "conv2_2_D"
  type: "Convolution"
  bottom: "pool2_D"
  top: "conv2_2_D"
  param {
    lr_mult: 1
    decay_mult: 1
  }
  param {
    lr_mult: 2
    decay_mult: 0
  }
  convolution_param {
    num_output: 128
    pad: 1
    kernel_size: 3
    weight_filler {
      type: "msra"
    }
    bias_filler {
      type: "constant"
    }
  }
}
layer {
  name: "conv2_2_D_bn"
  type: "BN"
  bottom: "conv2_2_D"
  top: "conv2_2_D"
  param {
    lr_mult: 1
    decay_mult: 1
  }
  param {
    lr_mult: 1
    decay_mult: 0
  }
  bn_param {
    scale_filler {
      type: "constant"
      value: 1
    }
    shift_filler {
      type: "constant"
      value: 0.001
    }
  }
}
layer {
  name: "relu2_2_D"
  type: "ReLU"
  bottom: "conv2_2_D"
  top: "conv2_2_D"
}
layer {
  name: "conv2_1_D"
  type: "Convolution"
  bottom: "conv2_2_D"
  top: "conv2_1_D"
  param {
    lr_mult: 1
    decay_mult: 1
  }
  param {
    lr_mult: 2
    decay_mult: 0
  }
  convolution_param {
    num_output: 64
    pad: 1
    kernel_size: 3
    weight_filler {
      type: "msra"
    }
    bias_filler {
      type: "constant"
    }
  }
}
layer {
  name: "conv2_1_D_bn"
  type: "BN"
  bottom: "conv2_1_D"
  top: "conv2_1_D"
  param {
    lr_mult: 1
    decay_mult: 1
  }
  param {
    lr_mult: 1
    decay_mult: 0
  }
  bn_param {
    scale_filler {
      type: "constant"
      value: 1
    }
    shift_filler {
      type: "constant"
      value: 0.001
    }
  }
}
layer {
  name: "relu2_1_D"
  type: "ReLU"
  bottom: "conv2_1_D"
  top: "conv2_1_D"
}
layer {
  name: "upsample1"
  type: "Upsample"
  bottom: "conv2_1_D"
  bottom: "pool1_mask"
  top: "pool1_D"
  upsample_param {
    scale: 2
  }
}
layer {
  name: "conv1_2_D"
  type: "Convolution"
  bottom: "pool1_D"
  top: "conv1_2_D"
  param {
    lr_mult: 1
    decay_mult: 1
  }
  param {
    lr_mult: 2
    decay_mult: 0
  }
  convolution_param {
    num_output: 64
    pad: 1
    kernel_size: 3
    weight_filler {
      type: "msra"
    }
    bias_filler {
      type: "constant"
    }
  }
}
layer {
  name: "conv1_2_D_bn"
  type: "BN"
  bottom: "conv1_2_D"
  top: "conv1_2_D"
  param {
    lr_mult: 1
    decay_mult: 1
  }
  param {
    lr_mult: 1
    decay_mult: 0
  }
  bn_param {
    scale_filler {
      type: "constant"
      value: 1
    }
    shift_filler {
      type: "constant"
      value: 0.001
    }
  }
}
layer {
  name: "relu1_2_D"
  type: "ReLU"
  bottom: "conv1_2_D"
  top: "conv1_2_D"
}
layer {
  name: "conv1_1_D"
  type: "Convolution"
  bottom: "conv1_2_D"
  top: "conv1_1_D"
  param {
    lr_mult: 1
    decay_mult: 1
  }
  param {
    lr_mult: 2
    decay_mult: 0
  }
  convolution_param {
    num_output: 11
    pad: 1
    kernel_size: 3
    weight_filler {
      type: "msra"
    }
    bias_filler {
      type: "constant"
    }
  }
}
layer {
  name: "loss"
  type: "SoftmaxWithLoss"
  bottom: "conv1_1_D"
  bottom: "label"
  top: "loss"
  loss_param {
    ignore_label: 11
    weight_by_label_freqs: true
    class_weighting: 0.2595
    class_weighting: 0.1826
    class_weighting: 4.564
    class_weighting: 0.1417
    class_weighting: 0.9051
    class_weighting: 0.3826
    class_weighting: 9.6446
    class_weighting: 1.8418
    class_weighting: 0.6823
    class_weighting: 6.2478
    class_weighting: 7.3614
  }
  softmax_param {
    engine: CAFFE
  }
}
layer {
  name: "accuracy"
  type: "Accuracy"
  bottom: "conv1_1_D"
  bottom: "label"
  top: "accuracy"
  top: "per_class_accuracy"
}
I0414 19:44:17.809243  7170 layer_factory.hpp:74] Creating layer data
I0414 19:44:17.809273  7170 net.cpp:90] Creating Layer data
I0414 19:44:17.809280  7170 net.cpp:368] data -> data
I0414 19:44:17.809304  7170 net.cpp:120] Setting up data
I0414 19:44:17.809412  7170 db.cpp:34] Opened lmdb /home/shared/datasets/CamVid/LMDB_2/train_lmdb
I0414 19:44:17.809937  7170 data_layer.cpp:52] output data size: 2,3,360,480
I0414 19:44:17.811508  7170 net.cpp:127] Top shape: 2 3 360 480 (1036800)
I0414 19:44:17.811525  7170 layer_factory.hpp:74] Creating layer label
I0414 19:44:17.811542  7170 net.cpp:90] Creating Layer label
I0414 19:44:17.811548  7170 net.cpp:368] label -> label
I0414 19:44:17.811559  7170 net.cpp:120] Setting up label
I0414 19:44:17.811635  7170 db.cpp:34] Opened lmdb /home/shared/datasets/CamVid/LMDB_2/train_gt_lmdb
I0414 19:44:17.811746  7170 data_layer.cpp:52] output data size: 2,1,360,480
I0414 19:44:17.811981  7170 net.cpp:127] Top shape: 2 1 360 480 (345600)
I0414 19:44:17.811992  7170 layer_factory.hpp:74] Creating layer label_label_0_split
I0414 19:44:17.812006  7170 net.cpp:90] Creating Layer label_label_0_split
I0414 19:44:17.812013  7170 net.cpp:410] label_label_0_split <- label
I0414 19:44:17.812026  7170 net.cpp:368] label_label_0_split -> label_label_0_split_0
I0414 19:44:17.812042  7170 net.cpp:368] label_label_0_split -> label_label_0_split_1
I0414 19:44:17.812065  7170 net.cpp:120] Setting up label_label_0_split
I0414 19:44:17.812078  7170 net.cpp:127] Top shape: 2 1 360 480 (345600)
I0414 19:44:17.812088  7170 net.cpp:127] Top shape: 2 1 360 480 (345600)
I0414 19:44:17.812091  7170 layer_factory.hpp:74] Creating layer conv1_1
I0414 19:44:17.812103  7170 net.cpp:90] Creating Layer conv1_1
I0414 19:44:17.812109  7170 net.cpp:410] conv1_1 <- data
I0414 19:44:17.812117  7170 net.cpp:368] conv1_1 -> conv1_1
I0414 19:44:17.812129  7170 net.cpp:120] Setting up conv1_1
I0414 19:44:18.631654  7170 net.cpp:127] Top shape: 2 64 360 480 (22118400)
I0414 19:44:18.631742  7170 layer_factory.hpp:74] Creating layer conv1_1_bn
I0414 19:44:18.631768  7170 net.cpp:90] Creating Layer conv1_1_bn
I0414 19:44:18.631780  7170 net.cpp:410] conv1_1_bn <- conv1_1
I0414 19:44:18.631790  7170 net.cpp:357] conv1_1_bn -> conv1_1 (in-place)
I0414 19:44:18.631805  7170 net.cpp:120] Setting up conv1_1_bn
I0414 19:44:18.632197  7170 net.cpp:127] Top shape: 2 64 360 480 (22118400)
I0414 19:44:18.632215  7170 layer_factory.hpp:74] Creating layer relu1_1
I0414 19:44:18.632225  7170 net.cpp:90] Creating Layer relu1_1
I0414 19:44:18.632230  7170 net.cpp:410] relu1_1 <- conv1_1
I0414 19:44:18.632236  7170 net.cpp:357] relu1_1 -> conv1_1 (in-place)
I0414 19:44:18.632242  7170 net.cpp:120] Setting up relu1_1
I0414 19:44:18.632598  7170 net.cpp:127] Top shape: 2 64 360 480 (22118400)
I0414 19:44:18.632611  7170 layer_factory.hpp:74] Creating layer conv1_2
I0414 19:44:18.632622  7170 net.cpp:90] Creating Layer conv1_2
I0414 19:44:18.632627  7170 net.cpp:410] conv1_2 <- conv1_1
I0414 19:44:18.632633  7170 net.cpp:368] conv1_2 -> conv1_2
I0414 19:44:18.632642  7170 net.cpp:120] Setting up conv1_2
I0414 19:44:18.636343  7170 net.cpp:127] Top shape: 2 64 360 480 (22118400)
I0414 19:44:18.636361  7170 layer_factory.hpp:74] Creating layer conv1_2_bn
I0414 19:44:18.636373  7170 net.cpp:90] Creating Layer conv1_2_bn
I0414 19:44:18.636379  7170 net.cpp:410] conv1_2_bn <- conv1_2
I0414 19:44:18.636386  7170 net.cpp:357] conv1_2_bn -> conv1_2 (in-place)
I0414 19:44:18.636394  7170 net.cpp:120] Setting up conv1_2_bn
I0414 19:44:18.636757  7170 net.cpp:127] Top shape: 2 64 360 480 (22118400)
I0414 19:44:18.636772  7170 layer_factory.hpp:74] Creating layer relu1_2
I0414 19:44:18.636783  7170 net.cpp:90] Creating Layer relu1_2
I0414 19:44:18.636788  7170 net.cpp:410] relu1_2 <- conv1_2
I0414 19:44:18.636795  7170 net.cpp:357] relu1_2 -> conv1_2 (in-place)
I0414 19:44:18.636801  7170 net.cpp:120] Setting up relu1_2
I0414 19:44:18.637323  7170 net.cpp:127] Top shape: 2 64 360 480 (22118400)
I0414 19:44:18.637336  7170 layer_factory.hpp:74] Creating layer pool1
I0414 19:44:18.637344  7170 layer_factory.cpp:55] CUDNN does not support padding or multiple tops. Using Caffe's own pooling layer.
I0414 19:44:18.637353  7170 net.cpp:90] Creating Layer pool1
I0414 19:44:18.637358  7170 net.cpp:410] pool1 <- conv1_2
I0414 19:44:18.637365  7170 net.cpp:368] pool1 -> pool1
I0414 19:44:18.637373  7170 net.cpp:368] pool1 -> pool1_mask
I0414 19:44:18.637380  7170 net.cpp:120] Setting up pool1
I0414 19:44:18.637405  7170 net.cpp:127] Top shape: 2 64 180 240 (5529600)
I0414 19:44:18.637415  7170 net.cpp:127] Top shape: 2 64 180 240 (5529600)
I0414 19:44:18.637420  7170 layer_factory.hpp:74] Creating layer conv2_1
I0414 19:44:18.637429  7170 net.cpp:90] Creating Layer conv2_1
I0414 19:44:18.637434  7170 net.cpp:410] conv2_1 <- pool1
I0414 19:44:18.637442  7170 net.cpp:368] conv2_1 -> conv2_1
I0414 19:44:18.637451  7170 net.cpp:120] Setting up conv2_1
I0414 19:44:18.643059  7170 net.cpp:127] Top shape: 2 128 180 240 (11059200)
I0414 19:44:18.643077  7170 layer_factory.hpp:74] Creating layer conv2_1_bn
I0414 19:44:18.643090  7170 net.cpp:90] Creating Layer conv2_1_bn
I0414 19:44:18.643095  7170 net.cpp:410] conv2_1_bn <- conv2_1
I0414 19:44:18.643102  7170 net.cpp:357] conv2_1_bn -> conv2_1 (in-place)
I0414 19:44:18.643110  7170 net.cpp:120] Setting up conv2_1_bn
I0414 19:44:18.643211  7170 net.cpp:127] Top shape: 2 128 180 240 (11059200)
I0414 19:44:18.643244  7170 layer_factory.hpp:74] Creating layer relu2_1
I0414 19:44:18.643254  7170 net.cpp:90] Creating Layer relu2_1
I0414 19:44:18.643259  7170 net.cpp:410] relu2_1 <- conv2_1
I0414 19:44:18.643265  7170 net.cpp:357] relu2_1 -> conv2_1 (in-place)
I0414 19:44:18.643271  7170 net.cpp:120] Setting up relu2_1
I0414 19:44:18.644177  7170 net.cpp:127] Top shape: 2 128 180 240 (11059200)
I0414 19:44:18.644189  7170 layer_factory.hpp:74] Creating layer conv2_2
I0414 19:44:18.644198  7170 net.cpp:90] Creating Layer conv2_2
I0414 19:44:18.644203  7170 net.cpp:410] conv2_2 <- conv2_1
I0414 19:44:18.644212  7170 net.cpp:368] conv2_2 -> conv2_2
I0414 19:44:18.644219  7170 net.cpp:120] Setting up conv2_2
I0414 19:44:18.650933  7170 net.cpp:127] Top shape: 2 128 180 240 (11059200)
I0414 19:44:18.650949  7170 layer_factory.hpp:74] Creating layer conv2_2_bn
I0414 19:44:18.650962  7170 net.cpp:90] Creating Layer conv2_2_bn
I0414 19:44:18.650967  7170 net.cpp:410] conv2_2_bn <- conv2_2
I0414 19:44:18.650974  7170 net.cpp:357] conv2_2_bn -> conv2_2 (in-place)
I0414 19:44:18.650982  7170 net.cpp:120] Setting up conv2_2_bn
I0414 19:44:18.651080  7170 net.cpp:127] Top shape: 2 128 180 240 (11059200)
I0414 19:44:18.651094  7170 layer_factory.hpp:74] Creating layer relu2_2
I0414 19:44:18.651103  7170 net.cpp:90] Creating Layer relu2_2
I0414 19:44:18.651108  7170 net.cpp:410] relu2_2 <- conv2_2
I0414 19:44:18.651113  7170 net.cpp:357] relu2_2 -> conv2_2 (in-place)
I0414 19:44:18.651120  7170 net.cpp:120] Setting up relu2_2
I0414 19:44:18.652082  7170 net.cpp:127] Top shape: 2 128 180 240 (11059200)
I0414 19:44:18.652096  7170 layer_factory.hpp:74] Creating layer pool2
I0414 19:44:18.652101  7170 layer_factory.cpp:55] CUDNN does not support padding or multiple tops. Using Caffe's own pooling layer.
I0414 19:44:18.652109  7170 net.cpp:90] Creating Layer pool2
I0414 19:44:18.652114  7170 net.cpp:410] pool2 <- conv2_2
I0414 19:44:18.652122  7170 net.cpp:368] pool2 -> pool2
I0414 19:44:18.652129  7170 net.cpp:368] pool2 -> pool2_mask
I0414 19:44:18.652137  7170 net.cpp:120] Setting up pool2
I0414 19:44:18.652144  7170 net.cpp:127] Top shape: 2 128 90 120 (2764800)
I0414 19:44:18.652150  7170 net.cpp:127] Top shape: 2 128 90 120 (2764800)
I0414 19:44:18.652154  7170 layer_factory.hpp:74] Creating layer conv3_1
I0414 19:44:18.652164  7170 net.cpp:90] Creating Layer conv3_1
I0414 19:44:18.652173  7170 net.cpp:410] conv3_1 <- pool2
I0414 19:44:18.652180  7170 net.cpp:368] conv3_1 -> conv3_1
I0414 19:44:18.652189  7170 net.cpp:120] Setting up conv3_1
I0414 19:44:18.666633  7170 net.cpp:127] Top shape: 2 256 90 120 (5529600)
I0414 19:44:18.666651  7170 layer_factory.hpp:74] Creating layer conv3_1_bn
I0414 19:44:18.666663  7170 net.cpp:90] Creating Layer conv3_1_bn
I0414 19:44:18.666669  7170 net.cpp:410] conv3_1_bn <- conv3_1
I0414 19:44:18.666677  7170 net.cpp:357] conv3_1_bn -> conv3_1 (in-place)
I0414 19:44:18.666684  7170 net.cpp:120] Setting up conv3_1_bn
I0414 19:44:18.666723  7170 net.cpp:127] Top shape: 2 256 90 120 (5529600)
I0414 19:44:18.666733  7170 layer_factory.hpp:74] Creating layer relu3_1
I0414 19:44:18.666741  7170 net.cpp:90] Creating Layer relu3_1
I0414 19:44:18.666746  7170 net.cpp:410] relu3_1 <- conv3_1
I0414 19:44:18.666752  7170 net.cpp:357] relu3_1 -> conv3_1 (in-place)
I0414 19:44:18.666759  7170 net.cpp:120] Setting up relu3_1
I0414 19:44:18.667778  7170 net.cpp:127] Top shape: 2 256 90 120 (5529600)
I0414 19:44:18.667793  7170 layer_factory.hpp:74] Creating layer conv3_2
I0414 19:44:18.667804  7170 net.cpp:90] Creating Layer conv3_2
I0414 19:44:18.667809  7170 net.cpp:410] conv3_2 <- conv3_1
I0414 19:44:18.667816  7170 net.cpp:368] conv3_2 -> conv3_2
I0414 19:44:18.667824  7170 net.cpp:120] Setting up conv3_2
I0414 19:44:18.793882  7170 net.cpp:127] Top shape: 2 256 90 120 (5529600)
I0414 19:44:18.793905  7170 layer_factory.hpp:74] Creating layer conv3_2_bn
I0414 19:44:18.793917  7170 net.cpp:90] Creating Layer conv3_2_bn
I0414 19:44:18.793923  7170 net.cpp:410] conv3_2_bn <- conv3_2
I0414 19:44:18.793947  7170 net.cpp:357] conv3_2_bn -> conv3_2 (in-place)
I0414 19:44:18.793957  7170 net.cpp:120] Setting up conv3_2_bn
I0414 19:44:18.794000  7170 net.cpp:127] Top shape: 2 256 90 120 (5529600)
I0414 19:44:18.794010  7170 layer_factory.hpp:74] Creating layer relu3_2
I0414 19:44:18.794018  7170 net.cpp:90] Creating Layer relu3_2
I0414 19:44:18.794023  7170 net.cpp:410] relu3_2 <- conv3_2
I0414 19:44:18.794028  7170 net.cpp:357] relu3_2 -> conv3_2 (in-place)
I0414 19:44:18.794035  7170 net.cpp:120] Setting up relu3_2
I0414 19:44:18.795044  7170 net.cpp:127] Top shape: 2 256 90 120 (5529600)
I0414 19:44:18.795056  7170 layer_factory.hpp:74] Creating layer conv3_3
I0414 19:44:18.795066  7170 net.cpp:90] Creating Layer conv3_3
I0414 19:44:18.795071  7170 net.cpp:410] conv3_3 <- conv3_2
I0414 19:44:18.795080  7170 net.cpp:368] conv3_3 -> conv3_3
I0414 19:44:18.795089  7170 net.cpp:120] Setting up conv3_3
I0414 19:44:18.817637  7170 net.cpp:127] Top shape: 2 256 90 120 (5529600)
I0414 19:44:18.817657  7170 layer_factory.hpp:74] Creating layer conv3_3_bn
I0414 19:44:18.817668  7170 net.cpp:90] Creating Layer conv3_3_bn
I0414 19:44:18.817674  7170 net.cpp:410] conv3_3_bn <- conv3_3
I0414 19:44:18.817682  7170 net.cpp:357] conv3_3_bn -> conv3_3 (in-place)
I0414 19:44:18.817692  7170 net.cpp:120] Setting up conv3_3_bn
I0414 19:44:18.817749  7170 net.cpp:127] Top shape: 2 256 90 120 (5529600)
I0414 19:44:18.817761  7170 layer_factory.hpp:74] Creating layer relu3_3
I0414 19:44:18.817770  7170 net.cpp:90] Creating Layer relu3_3
I0414 19:44:18.817775  7170 net.cpp:410] relu3_3 <- conv3_3
I0414 19:44:18.817781  7170 net.cpp:357] relu3_3 -> conv3_3 (in-place)
I0414 19:44:18.817787  7170 net.cpp:120] Setting up relu3_3
I0414 19:44:18.818820  7170 net.cpp:127] Top shape: 2 256 90 120 (5529600)
I0414 19:44:18.818833  7170 layer_factory.hpp:74] Creating layer pool3
I0414 19:44:18.818840  7170 layer_factory.cpp:55] CUDNN does not support padding or multiple tops. Using Caffe's own pooling layer.
I0414 19:44:18.818847  7170 net.cpp:90] Creating Layer pool3
I0414 19:44:18.818851  7170 net.cpp:410] pool3 <- conv3_3
I0414 19:44:18.818858  7170 net.cpp:368] pool3 -> pool3
I0414 19:44:18.818867  7170 net.cpp:368] pool3 -> pool3_mask
I0414 19:44:18.818877  7170 net.cpp:120] Setting up pool3
I0414 19:44:18.818887  7170 net.cpp:127] Top shape: 2 256 45 60 (1382400)
I0414 19:44:18.818893  7170 net.cpp:127] Top shape: 2 256 45 60 (1382400)
I0414 19:44:18.818898  7170 layer_factory.hpp:74] Creating layer conv4_1
I0414 19:44:18.818912  7170 net.cpp:90] Creating Layer conv4_1
I0414 19:44:18.818917  7170 net.cpp:410] conv4_1 <- pool3
I0414 19:44:18.818924  7170 net.cpp:368] conv4_1 -> conv4_1
I0414 19:44:18.818931  7170 net.cpp:120] Setting up conv4_1
I0414 19:44:18.885949  7170 net.cpp:127] Top shape: 2 512 45 60 (2764800)
I0414 19:44:18.885975  7170 layer_factory.hpp:74] Creating layer conv4_1_bn
I0414 19:44:18.885987  7170 net.cpp:90] Creating Layer conv4_1_bn
I0414 19:44:18.885993  7170 net.cpp:410] conv4_1_bn <- conv4_1
I0414 19:44:18.886001  7170 net.cpp:357] conv4_1_bn -> conv4_1 (in-place)
I0414 19:44:18.886010  7170 net.cpp:120] Setting up conv4_1_bn
I0414 19:44:18.886039  7170 net.cpp:127] Top shape: 2 512 45 60 (2764800)
I0414 19:44:18.886045  7170 layer_factory.hpp:74] Creating layer relu4_1
I0414 19:44:18.886059  7170 net.cpp:90] Creating Layer relu4_1
I0414 19:44:18.886064  7170 net.cpp:410] relu4_1 <- conv4_1
I0414 19:44:18.886070  7170 net.cpp:357] relu4_1 -> conv4_1 (in-place)
I0414 19:44:18.886075  7170 net.cpp:120] Setting up relu4_1
I0414 19:44:18.887234  7170 net.cpp:127] Top shape: 2 512 45 60 (2764800)
I0414 19:44:18.887248  7170 layer_factory.hpp:74] Creating layer conv4_2
I0414 19:44:18.887260  7170 net.cpp:90] Creating Layer conv4_2
I0414 19:44:18.887265  7170 net.cpp:410] conv4_2 <- conv4_1
I0414 19:44:18.887274  7170 net.cpp:368] conv4_2 -> conv4_2
I0414 19:44:18.887284  7170 net.cpp:120] Setting up conv4_2
I0414 19:44:18.969998  7170 net.cpp:127] Top shape: 2 512 45 60 (2764800)
I0414 19:44:18.970048  7170 layer_factory.hpp:74] Creating layer conv4_2_bn
I0414 19:44:18.970093  7170 net.cpp:90] Creating Layer conv4_2_bn
I0414 19:44:18.970099  7170 net.cpp:410] conv4_2_bn <- conv4_2
I0414 19:44:18.970109  7170 net.cpp:357] conv4_2_bn -> conv4_2 (in-place)
I0414 19:44:18.970124  7170 net.cpp:120] Setting up conv4_2_bn
I0414 19:44:18.970152  7170 net.cpp:127] Top shape: 2 512 45 60 (2764800)
I0414 19:44:18.970161  7170 layer_factory.hpp:74] Creating layer relu4_2
I0414 19:44:18.970173  7170 net.cpp:90] Creating Layer relu4_2
I0414 19:44:18.970178  7170 net.cpp:410] relu4_2 <- conv4_2
I0414 19:44:18.970186  7170 net.cpp:357] relu4_2 -> conv4_2 (in-place)
I0414 19:44:18.970193  7170 net.cpp:120] Setting up relu4_2
I0414 19:44:18.971118  7170 net.cpp:127] Top shape: 2 512 45 60 (2764800)
I0414 19:44:18.971130  7170 layer_factory.hpp:74] Creating layer conv4_3
I0414 19:44:18.971141  7170 net.cpp:90] Creating Layer conv4_3
I0414 19:44:18.971146  7170 net.cpp:410] conv4_3 <- conv4_2
I0414 19:44:18.971154  7170 net.cpp:368] conv4_3 -> conv4_3
I0414 19:44:18.971163  7170 net.cpp:120] Setting up conv4_3
I0414 19:44:19.076000  7170 net.cpp:127] Top shape: 2 512 45 60 (2764800)
I0414 19:44:19.076041  7170 layer_factory.hpp:74] Creating layer conv4_3_bn
I0414 19:44:19.076061  7170 net.cpp:90] Creating Layer conv4_3_bn
I0414 19:44:19.076068  7170 net.cpp:410] conv4_3_bn <- conv4_3
I0414 19:44:19.076077  7170 net.cpp:357] conv4_3_bn -> conv4_3 (in-place)
I0414 19:44:19.076088  7170 net.cpp:120] Setting up conv4_3_bn
I0414 19:44:19.076119  7170 net.cpp:127] Top shape: 2 512 45 60 (2764800)
I0414 19:44:19.076128  7170 layer_factory.hpp:74] Creating layer relu4_3
I0414 19:44:19.076138  7170 net.cpp:90] Creating Layer relu4_3
I0414 19:44:19.076141  7170 net.cpp:410] relu4_3 <- conv4_3
I0414 19:44:19.076148  7170 net.cpp:357] relu4_3 -> conv4_3 (in-place)
I0414 19:44:19.076153  7170 net.cpp:120] Setting up relu4_3
I0414 19:44:19.077301  7170 net.cpp:127] Top shape: 2 512 45 60 (2764800)
I0414 19:44:19.077314  7170 layer_factory.hpp:74] Creating layer pool4
I0414 19:44:19.077322  7170 layer_factory.cpp:55] CUDNN does not support padding or multiple tops. Using Caffe's own pooling layer.
I0414 19:44:19.077329  7170 net.cpp:90] Creating Layer pool4
I0414 19:44:19.077334  7170 net.cpp:410] pool4 <- conv4_3
I0414 19:44:19.077342  7170 net.cpp:368] pool4 -> pool4
I0414 19:44:19.077352  7170 net.cpp:368] pool4 -> pool4_mask
I0414 19:44:19.077358  7170 net.cpp:120] Setting up pool4
I0414 19:44:19.077368  7170 net.cpp:127] Top shape: 2 512 23 30 (706560)
I0414 19:44:19.077373  7170 net.cpp:127] Top shape: 2 512 23 30 (706560)
I0414 19:44:19.077378  7170 layer_factory.hpp:74] Creating layer conv5_1
I0414 19:44:19.077392  7170 net.cpp:90] Creating Layer conv5_1
I0414 19:44:19.077397  7170 net.cpp:410] conv5_1 <- pool4
I0414 19:44:19.077404  7170 net.cpp:368] conv5_1 -> conv5_1
I0414 19:44:19.077412  7170 net.cpp:120] Setting up conv5_1
I0414 19:44:19.164619  7170 net.cpp:127] Top shape: 2 512 23 30 (706560)
I0414 19:44:19.164661  7170 layer_factory.hpp:74] Creating layer conv5_1_bn
I0414 19:44:19.164676  7170 net.cpp:90] Creating Layer conv5_1_bn
I0414 19:44:19.164683  7170 net.cpp:410] conv5_1_bn <- conv5_1
I0414 19:44:19.164695  7170 net.cpp:357] conv5_1_bn -> conv5_1 (in-place)
I0414 19:44:19.164705  7170 net.cpp:120] Setting up conv5_1_bn
I0414 19:44:19.164729  7170 net.cpp:127] Top shape: 2 512 23 30 (706560)
I0414 19:44:19.164742  7170 layer_factory.hpp:74] Creating layer relu5_1
I0414 19:44:19.164752  7170 net.cpp:90] Creating Layer relu5_1
I0414 19:44:19.164757  7170 net.cpp:410] relu5_1 <- conv5_1
I0414 19:44:19.164763  7170 net.cpp:357] relu5_1 -> conv5_1 (in-place)
I0414 19:44:19.164769  7170 net.cpp:120] Setting up relu5_1
I0414 19:44:19.166067  7170 net.cpp:127] Top shape: 2 512 23 30 (706560)
I0414 19:44:19.166080  7170 layer_factory.hpp:74] Creating layer conv5_2
I0414 19:44:19.166091  7170 net.cpp:90] Creating Layer conv5_2
I0414 19:44:19.166098  7170 net.cpp:410] conv5_2 <- conv5_1
I0414 19:44:19.166105  7170 net.cpp:368] conv5_2 -> conv5_2
I0414 19:44:19.166115  7170 net.cpp:120] Setting up conv5_2
I0414 19:44:19.256132  7170 net.cpp:127] Top shape: 2 512 23 30 (706560)
I0414 19:44:19.256175  7170 layer_factory.hpp:74] Creating layer conv5_2_bn
I0414 19:44:19.256197  7170 net.cpp:90] Creating Layer conv5_2_bn
I0414 19:44:19.256208  7170 net.cpp:410] conv5_2_bn <- conv5_2
I0414 19:44:19.256219  7170 net.cpp:357] conv5_2_bn -> conv5_2 (in-place)
I0414 19:44:19.256230  7170 net.cpp:120] Setting up conv5_2_bn
I0414 19:44:19.256256  7170 net.cpp:127] Top shape: 2 512 23 30 (706560)
I0414 19:44:19.256268  7170 layer_factory.hpp:74] Creating layer relu5_2
I0414 19:44:19.256278  7170 net.cpp:90] Creating Layer relu5_2
I0414 19:44:19.256283  7170 net.cpp:410] relu5_2 <- conv5_2
I0414 19:44:19.256289  7170 net.cpp:357] relu5_2 -> conv5_2 (in-place)
I0414 19:44:19.256296  7170 net.cpp:120] Setting up relu5_2
I0414 19:44:19.257449  7170 net.cpp:127] Top shape: 2 512 23 30 (706560)
I0414 19:44:19.257462  7170 layer_factory.hpp:74] Creating layer conv5_3
I0414 19:44:19.257473  7170 net.cpp:90] Creating Layer conv5_3
I0414 19:44:19.257478  7170 net.cpp:410] conv5_3 <- conv5_2
I0414 19:44:19.257488  7170 net.cpp:368] conv5_3 -> conv5_3
I0414 19:44:19.257498  7170 net.cpp:120] Setting up conv5_3
I0414 19:44:19.346998  7170 net.cpp:127] Top shape: 2 512 23 30 (706560)
I0414 19:44:19.347038  7170 layer_factory.hpp:74] Creating layer conv5_3_bn
I0414 19:44:19.347053  7170 net.cpp:90] Creating Layer conv5_3_bn
I0414 19:44:19.347059  7170 net.cpp:410] conv5_3_bn <- conv5_3
I0414 19:44:19.347070  7170 net.cpp:357] conv5_3_bn -> conv5_3 (in-place)
I0414 19:44:19.347081  7170 net.cpp:120] Setting up conv5_3_bn
I0414 19:44:19.347110  7170 net.cpp:127] Top shape: 2 512 23 30 (706560)
I0414 19:44:19.347124  7170 layer_factory.hpp:74] Creating layer relu5_3
I0414 19:44:19.347136  7170 net.cpp:90] Creating Layer relu5_3
I0414 19:44:19.347141  7170 net.cpp:410] relu5_3 <- conv5_3
I0414 19:44:19.347146  7170 net.cpp:357] relu5_3 -> conv5_3 (in-place)
I0414 19:44:19.347152  7170 net.cpp:120] Setting up relu5_3
I0414 19:44:19.352166  7170 net.cpp:127] Top shape: 2 512 23 30 (706560)
I0414 19:44:19.352180  7170 layer_factory.hpp:74] Creating layer pool5
I0414 19:44:19.352186  7170 layer_factory.cpp:55] CUDNN does not support padding or multiple tops. Using Caffe's own pooling layer.
I0414 19:44:19.352195  7170 net.cpp:90] Creating Layer pool5
I0414 19:44:19.352200  7170 net.cpp:410] pool5 <- conv5_3
I0414 19:44:19.352212  7170 net.cpp:368] pool5 -> pool5
I0414 19:44:19.352221  7170 net.cpp:368] pool5 -> pool5_mask
I0414 19:44:19.352228  7170 net.cpp:120] Setting up pool5
I0414 19:44:19.352238  7170 net.cpp:127] Top shape: 2 512 12 15 (184320)
I0414 19:44:19.352243  7170 net.cpp:127] Top shape: 2 512 12 15 (184320)
I0414 19:44:19.352248  7170 layer_factory.hpp:74] Creating layer upsample5
I0414 19:44:19.352258  7170 net.cpp:90] Creating Layer upsample5
I0414 19:44:19.352263  7170 net.cpp:410] upsample5 <- pool5
I0414 19:44:19.352269  7170 net.cpp:410] upsample5 <- pool5_mask
I0414 19:44:19.352275  7170 net.cpp:368] upsample5 -> pool5_D
I0414 19:44:19.352291  7170 net.cpp:120] Setting up upsample5
I0414 19:44:19.352301  7170 net.cpp:127] Top shape: 2 512 23 30 (706560)
I0414 19:44:19.352306  7170 layer_factory.hpp:74] Creating layer conv5_3_D
I0414 19:44:19.352319  7170 net.cpp:90] Creating Layer conv5_3_D
I0414 19:44:19.352324  7170 net.cpp:410] conv5_3_D <- pool5_D
I0414 19:44:19.352331  7170 net.cpp:368] conv5_3_D -> conv5_3_D
I0414 19:44:19.352340  7170 net.cpp:120] Setting up conv5_3_D
I0414 19:44:19.437804  7170 net.cpp:127] Top shape: 2 512 23 30 (706560)
I0414 19:44:19.437844  7170 layer_factory.hpp:74] Creating layer conv5_3_D_bn
I0414 19:44:19.437860  7170 net.cpp:90] Creating Layer conv5_3_D_bn
I0414 19:44:19.437867  7170 net.cpp:410] conv5_3_D_bn <- conv5_3_D
I0414 19:44:19.437878  7170 net.cpp:357] conv5_3_D_bn -> conv5_3_D (in-place)
I0414 19:44:19.437890  7170 net.cpp:120] Setting up conv5_3_D_bn
I0414 19:44:19.437912  7170 net.cpp:127] Top shape: 2 512 23 30 (706560)
I0414 19:44:19.437925  7170 layer_factory.hpp:74] Creating layer relu5_3_D
I0414 19:44:19.437958  7170 net.cpp:90] Creating Layer relu5_3_D
I0414 19:44:19.437964  7170 net.cpp:410] relu5_3_D <- conv5_3_D
I0414 19:44:19.437971  7170 net.cpp:357] relu5_3_D -> conv5_3_D (in-place)
I0414 19:44:19.437978  7170 net.cpp:120] Setting up relu5_3_D
I0414 19:44:19.440042  7170 net.cpp:127] Top shape: 2 512 23 30 (706560)
I0414 19:44:19.440055  7170 layer_factory.hpp:74] Creating layer conv5_2_D
I0414 19:44:19.440068  7170 net.cpp:90] Creating Layer conv5_2_D
I0414 19:44:19.440073  7170 net.cpp:410] conv5_2_D <- conv5_3_D
I0414 19:44:19.440083  7170 net.cpp:368] conv5_2_D -> conv5_2_D
I0414 19:44:19.440093  7170 net.cpp:120] Setting up conv5_2_D
I0414 19:44:19.527410  7170 net.cpp:127] Top shape: 2 512 23 30 (706560)
I0414 19:44:19.527449  7170 layer_factory.hpp:74] Creating layer conv5_2_D_bn
I0414 19:44:19.527467  7170 net.cpp:90] Creating Layer conv5_2_D_bn
I0414 19:44:19.527473  7170 net.cpp:410] conv5_2_D_bn <- conv5_2_D
I0414 19:44:19.527484  7170 net.cpp:357] conv5_2_D_bn -> conv5_2_D (in-place)
I0414 19:44:19.527495  7170 net.cpp:120] Setting up conv5_2_D_bn
I0414 19:44:19.527518  7170 net.cpp:127] Top shape: 2 512 23 30 (706560)
I0414 19:44:19.527525  7170 layer_factory.hpp:74] Creating layer relu5_2_D
I0414 19:44:19.527539  7170 net.cpp:90] Creating Layer relu5_2_D
I0414 19:44:19.527544  7170 net.cpp:410] relu5_2_D <- conv5_2_D
I0414 19:44:19.527550  7170 net.cpp:357] relu5_2_D -> conv5_2_D (in-place)
I0414 19:44:19.527556  7170 net.cpp:120] Setting up relu5_2_D
I0414 19:44:19.528533  7170 net.cpp:127] Top shape: 2 512 23 30 (706560)
I0414 19:44:19.528545  7170 layer_factory.hpp:74] Creating layer conv5_1_D
I0414 19:44:19.528558  7170 net.cpp:90] Creating Layer conv5_1_D
I0414 19:44:19.528563  7170 net.cpp:410] conv5_1_D <- conv5_2_D
I0414 19:44:19.528571  7170 net.cpp:368] conv5_1_D -> conv5_1_D
I0414 19:44:19.528580  7170 net.cpp:120] Setting up conv5_1_D
I0414 19:44:19.637750  7170 net.cpp:127] Top shape: 2 512 23 30 (706560)
I0414 19:44:19.637789  7170 layer_factory.hpp:74] Creating layer conv5_1_D_bn
I0414 19:44:19.637805  7170 net.cpp:90] Creating Layer conv5_1_D_bn
I0414 19:44:19.637811  7170 net.cpp:410] conv5_1_D_bn <- conv5_1_D
I0414 19:44:19.637820  7170 net.cpp:357] conv5_1_D_bn -> conv5_1_D (in-place)
I0414 19:44:19.637831  7170 net.cpp:120] Setting up conv5_1_D_bn
I0414 19:44:19.637855  7170 net.cpp:127] Top shape: 2 512 23 30 (706560)
I0414 19:44:19.637866  7170 layer_factory.hpp:74] Creating layer relu5_1_D
I0414 19:44:19.637873  7170 net.cpp:90] Creating Layer relu5_1_D
I0414 19:44:19.637878  7170 net.cpp:410] relu5_1_D <- conv5_1_D
I0414 19:44:19.637887  7170 net.cpp:357] relu5_1_D -> conv5_1_D (in-place)
I0414 19:44:19.637892  7170 net.cpp:120] Setting up relu5_1_D
I0414 19:44:19.639034  7170 net.cpp:127] Top shape: 2 512 23 30 (706560)
I0414 19:44:19.639046  7170 layer_factory.hpp:74] Creating layer upsample4
I0414 19:44:19.639057  7170 net.cpp:90] Creating Layer upsample4
I0414 19:44:19.639062  7170 net.cpp:410] upsample4 <- conv5_1_D
I0414 19:44:19.639068  7170 net.cpp:410] upsample4 <- pool4_mask
I0414 19:44:19.639077  7170 net.cpp:368] upsample4 -> pool4_D
I0414 19:44:19.639086  7170 net.cpp:120] Setting up upsample4
I0414 19:44:19.639094  7170 net.cpp:127] Top shape: 2 512 45 60 (2764800)
I0414 19:44:19.639099  7170 layer_factory.hpp:74] Creating layer conv4_3_D
I0414 19:44:19.639109  7170 net.cpp:90] Creating Layer conv4_3_D
I0414 19:44:19.639113  7170 net.cpp:410] conv4_3_D <- pool4_D
I0414 19:44:19.639127  7170 net.cpp:368] conv4_3_D -> conv4_3_D
I0414 19:44:19.639147  7170 net.cpp:120] Setting up conv4_3_D
I0414 19:44:19.747547  7170 net.cpp:127] Top shape: 2 512 45 60 (2764800)
I0414 19:44:19.747623  7170 layer_factory.hpp:74] Creating layer conv4_3_D_bn
I0414 19:44:19.747639  7170 net.cpp:90] Creating Layer conv4_3_D_bn
I0414 19:44:19.747648  7170 net.cpp:410] conv4_3_D_bn <- conv4_3_D
I0414 19:44:19.747661  7170 net.cpp:357] conv4_3_D_bn -> conv4_3_D (in-place)
I0414 19:44:19.747673  7170 net.cpp:120] Setting up conv4_3_D_bn
I0414 19:44:19.747726  7170 net.cpp:127] Top shape: 2 512 45 60 (2764800)
I0414 19:44:19.747736  7170 layer_factory.hpp:74] Creating layer relu4_3_D
I0414 19:44:19.747753  7170 net.cpp:90] Creating Layer relu4_3_D
I0414 19:44:19.747761  7170 net.cpp:410] relu4_3_D <- conv4_3_D
I0414 19:44:19.747767  7170 net.cpp:357] relu4_3_D -> conv4_3_D (in-place)
I0414 19:44:19.747774  7170 net.cpp:120] Setting up relu4_3_D
I0414 19:44:19.748664  7170 net.cpp:127] Top shape: 2 512 45 60 (2764800)
I0414 19:44:19.748678  7170 layer_factory.hpp:74] Creating layer conv4_2_D
I0414 19:44:19.748690  7170 net.cpp:90] Creating Layer conv4_2_D
I0414 19:44:19.748697  7170 net.cpp:410] conv4_2_D <- conv4_3_D
I0414 19:44:19.748705  7170 net.cpp:368] conv4_2_D -> conv4_2_D
I0414 19:44:19.748714  7170 net.cpp:120] Setting up conv4_2_D
I0414 19:44:19.836206  7170 net.cpp:127] Top shape: 2 512 45 60 (2764800)
I0414 19:44:19.836242  7170 layer_factory.hpp:74] Creating layer conv4_2_D_bn
I0414 19:44:19.836259  7170 net.cpp:90] Creating Layer conv4_2_D_bn
I0414 19:44:19.836266  7170 net.cpp:410] conv4_2_D_bn <- conv4_2_D
I0414 19:44:19.836277  7170 net.cpp:357] conv4_2_D_bn -> conv4_2_D (in-place)
I0414 19:44:19.836288  7170 net.cpp:120] Setting up conv4_2_D_bn
I0414 19:44:19.836318  7170 net.cpp:127] Top shape: 2 512 45 60 (2764800)
I0414 19:44:19.836329  7170 layer_factory.hpp:74] Creating layer relu4_2_D
I0414 19:44:19.836338  7170 net.cpp:90] Creating Layer relu4_2_D
I0414 19:44:19.836341  7170 net.cpp:410] relu4_2_D <- conv4_2_D
I0414 19:44:19.836347  7170 net.cpp:357] relu4_2_D -> conv4_2_D (in-place)
I0414 19:44:19.836354  7170 net.cpp:120] Setting up relu4_2_D
I0414 19:44:19.837363  7170 net.cpp:127] Top shape: 2 512 45 60 (2764800)
I0414 19:44:19.837373  7170 layer_factory.hpp:74] Creating layer conv4_1_D
I0414 19:44:19.837402  7170 net.cpp:90] Creating Layer conv4_1_D
I0414 19:44:19.837407  7170 net.cpp:410] conv4_1_D <- conv4_2_D
I0414 19:44:19.837415  7170 net.cpp:368] conv4_1_D -> conv4_1_D
I0414 19:44:19.837424  7170 net.cpp:120] Setting up conv4_1_D
I0414 19:44:19.879380  7170 net.cpp:127] Top shape: 2 256 45 60 (1382400)
I0414 19:44:19.879415  7170 layer_factory.hpp:74] Creating layer conv4_1_D_bn
I0414 19:44:19.879431  7170 net.cpp:90] Creating Layer conv4_1_D_bn
I0414 19:44:19.879438  7170 net.cpp:410] conv4_1_D_bn <- conv4_1_D
I0414 19:44:19.879448  7170 net.cpp:357] conv4_1_D_bn -> conv4_1_D (in-place)
I0414 19:44:19.879458  7170 net.cpp:120] Setting up conv4_1_D_bn
I0414 19:44:19.879488  7170 net.cpp:127] Top shape: 2 256 45 60 (1382400)
I0414 19:44:19.879498  7170 layer_factory.hpp:74] Creating layer relu4_1_D
I0414 19:44:19.879504  7170 net.cpp:90] Creating Layer relu4_1_D
I0414 19:44:19.879509  7170 net.cpp:410] relu4_1_D <- conv4_1_D
I0414 19:44:19.879515  7170 net.cpp:357] relu4_1_D -> conv4_1_D (in-place)
I0414 19:44:19.879521  7170 net.cpp:120] Setting up relu4_1_D
I0414 19:44:19.880504  7170 net.cpp:127] Top shape: 2 256 45 60 (1382400)
I0414 19:44:19.880517  7170 layer_factory.hpp:74] Creating layer upsample3
I0414 19:44:19.880527  7170 net.cpp:90] Creating Layer upsample3
I0414 19:44:19.880532  7170 net.cpp:410] upsample3 <- conv4_1_D
I0414 19:44:19.880538  7170 net.cpp:410] upsample3 <- pool3_mask
I0414 19:44:19.880547  7170 net.cpp:368] upsample3 -> pool3_D
I0414 19:44:19.880554  7170 net.cpp:120] Setting up upsample3
I0414 19:44:19.880560  7170 upsample_layer.cpp:31] Params 'pad_out_{}_' are deprecated. Please declare upsample height and width useing the upsample_h, upsample_w parameters.
I0414 19:44:19.880568  7170 net.cpp:127] Top shape: 2 256 90 120 (5529600)
I0414 19:44:19.880573  7170 layer_factory.hpp:74] Creating layer conv3_3_D
I0414 19:44:19.880581  7170 net.cpp:90] Creating Layer conv3_3_D
I0414 19:44:19.880585  7170 net.cpp:410] conv3_3_D <- pool3_D
I0414 19:44:19.880597  7170 net.cpp:368] conv3_3_D -> conv3_3_D
I0414 19:44:19.880606  7170 net.cpp:120] Setting up conv3_3_D
I0414 19:44:19.903445  7170 net.cpp:127] Top shape: 2 256 90 120 (5529600)
I0414 19:44:19.903467  7170 layer_factory.hpp:74] Creating layer conv3_3_D_bn
I0414 19:44:19.903499  7170 net.cpp:90] Creating Layer conv3_3_D_bn
I0414 19:44:19.903506  7170 net.cpp:410] conv3_3_D_bn <- conv3_3_D
I0414 19:44:19.903515  7170 net.cpp:357] conv3_3_D_bn -> conv3_3_D (in-place)
I0414 19:44:19.903523  7170 net.cpp:120] Setting up conv3_3_D_bn
I0414 19:44:19.903581  7170 net.cpp:127] Top shape: 2 256 90 120 (5529600)
I0414 19:44:19.903594  7170 layer_factory.hpp:74] Creating layer relu3_3_D
I0414 19:44:19.903601  7170 net.cpp:90] Creating Layer relu3_3_D
I0414 19:44:19.903606  7170 net.cpp:410] relu3_3_D <- conv3_3_D
I0414 19:44:19.903612  7170 net.cpp:357] relu3_3_D -> conv3_3_D (in-place)
I0414 19:44:19.903619  7170 net.cpp:120] Setting up relu3_3_D
I0414 19:44:19.904623  7170 net.cpp:127] Top shape: 2 256 90 120 (5529600)
I0414 19:44:19.904638  7170 layer_factory.hpp:74] Creating layer conv3_2_D
I0414 19:44:19.904647  7170 net.cpp:90] Creating Layer conv3_2_D
I0414 19:44:19.904652  7170 net.cpp:410] conv3_2_D <- conv3_3_D
I0414 19:44:19.904661  7170 net.cpp:368] conv3_2_D -> conv3_2_D
I0414 19:44:19.904670  7170 net.cpp:120] Setting up conv3_2_D
I0414 19:44:19.931254  7170 net.cpp:127] Top shape: 2 256 90 120 (5529600)
I0414 19:44:19.931295  7170 layer_factory.hpp:74] Creating layer conv3_2_D_bn
I0414 19:44:19.931314  7170 net.cpp:90] Creating Layer conv3_2_D_bn
I0414 19:44:19.931321  7170 net.cpp:410] conv3_2_D_bn <- conv3_2_D
I0414 19:44:19.931331  7170 net.cpp:357] conv3_2_D_bn -> conv3_2_D (in-place)
I0414 19:44:19.931341  7170 net.cpp:120] Setting up conv3_2_D_bn
I0414 19:44:19.931391  7170 net.cpp:127] Top shape: 2 256 90 120 (5529600)
I0414 19:44:19.931401  7170 layer_factory.hpp:74] Creating layer relu3_2_D
I0414 19:44:19.931408  7170 net.cpp:90] Creating Layer relu3_2_D
I0414 19:44:19.931413  7170 net.cpp:410] relu3_2_D <- conv3_2_D
I0414 19:44:19.931421  7170 net.cpp:357] relu3_2_D -> conv3_2_D (in-place)
I0414 19:44:19.931427  7170 net.cpp:120] Setting up relu3_2_D
I0414 19:44:19.932413  7170 net.cpp:127] Top shape: 2 256 90 120 (5529600)
I0414 19:44:19.932425  7170 layer_factory.hpp:74] Creating layer conv3_1_D
I0414 19:44:19.932435  7170 net.cpp:90] Creating Layer conv3_1_D
I0414 19:44:19.932440  7170 net.cpp:410] conv3_1_D <- conv3_2_D
I0414 19:44:19.932449  7170 net.cpp:368] conv3_1_D -> conv3_1_D
I0414 19:44:19.932458  7170 net.cpp:120] Setting up conv3_1_D
I0414 19:44:19.945365  7170 net.cpp:127] Top shape: 2 128 90 120 (2764800)
I0414 19:44:19.945382  7170 layer_factory.hpp:74] Creating layer conv3_1_D_bn
I0414 19:44:19.945394  7170 net.cpp:90] Creating Layer conv3_1_D_bn
I0414 19:44:19.945399  7170 net.cpp:410] conv3_1_D_bn <- conv3_1_D
I0414 19:44:19.945408  7170 net.cpp:357] conv3_1_D_bn -> conv3_1_D (in-place)
I0414 19:44:19.945415  7170 net.cpp:120] Setting up conv3_1_D_bn
I0414 19:44:19.945471  7170 net.cpp:127] Top shape: 2 128 90 120 (2764800)
I0414 19:44:19.945487  7170 layer_factory.hpp:74] Creating layer relu3_1_D
I0414 19:44:19.945494  7170 net.cpp:90] Creating Layer relu3_1_D
I0414 19:44:19.945499  7170 net.cpp:410] relu3_1_D <- conv3_1_D
I0414 19:44:19.945508  7170 net.cpp:357] relu3_1_D -> conv3_1_D (in-place)
I0414 19:44:19.945513  7170 net.cpp:120] Setting up relu3_1_D
I0414 19:44:19.946550  7170 net.cpp:127] Top shape: 2 128 90 120 (2764800)
I0414 19:44:19.946563  7170 layer_factory.hpp:74] Creating layer upsample2
I0414 19:44:19.946571  7170 net.cpp:90] Creating Layer upsample2
I0414 19:44:19.946578  7170 net.cpp:410] upsample2 <- conv3_1_D
I0414 19:44:19.946585  7170 net.cpp:410] upsample2 <- pool2_mask
I0414 19:44:19.946591  7170 net.cpp:368] upsample2 -> pool2_D
I0414 19:44:19.946599  7170 net.cpp:120] Setting up upsample2
I0414 19:44:19.946604  7170 upsample_layer.cpp:31] Params 'pad_out_{}_' are deprecated. Please declare upsample height and width useing the upsample_h, upsample_w parameters.
I0414 19:44:19.946612  7170 net.cpp:127] Top shape: 2 128 180 240 (11059200)
I0414 19:44:19.946617  7170 layer_factory.hpp:74] Creating layer conv2_2_D
I0414 19:44:19.946626  7170 net.cpp:90] Creating Layer conv2_2_D
I0414 19:44:19.946652  7170 net.cpp:410] conv2_2_D <- pool2_D
I0414 19:44:19.946662  7170 net.cpp:368] conv2_2_D -> conv2_2_D
I0414 19:44:19.946671  7170 net.cpp:120] Setting up conv2_2_D
I0414 19:44:19.953515  7170 net.cpp:127] Top shape: 2 128 180 240 (11059200)
I0414 19:44:19.953531  7170 layer_factory.hpp:74] Creating layer conv2_2_D_bn
I0414 19:44:19.953542  7170 net.cpp:90] Creating Layer conv2_2_D_bn
I0414 19:44:19.953547  7170 net.cpp:410] conv2_2_D_bn <- conv2_2_D
I0414 19:44:19.953557  7170 net.cpp:357] conv2_2_D_bn -> conv2_2_D (in-place)
I0414 19:44:19.953564  7170 net.cpp:120] Setting up conv2_2_D_bn
I0414 19:44:19.953743  7170 net.cpp:127] Top shape: 2 128 180 240 (11059200)
I0414 19:44:19.953759  7170 layer_factory.hpp:74] Creating layer relu2_2_D
I0414 19:44:19.953768  7170 net.cpp:90] Creating Layer relu2_2_D
I0414 19:44:19.953773  7170 net.cpp:410] relu2_2_D <- conv2_2_D
I0414 19:44:19.953780  7170 net.cpp:357] relu2_2_D -> conv2_2_D (in-place)
I0414 19:44:19.953788  7170 net.cpp:120] Setting up relu2_2_D
I0414 19:44:19.954154  7170 net.cpp:127] Top shape: 2 128 180 240 (11059200)
I0414 19:44:19.954165  7170 layer_factory.hpp:74] Creating layer conv2_1_D
I0414 19:44:19.954177  7170 net.cpp:90] Creating Layer conv2_1_D
I0414 19:44:19.954182  7170 net.cpp:410] conv2_1_D <- conv2_2_D
I0414 19:44:19.954191  7170 net.cpp:368] conv2_1_D -> conv2_1_D
I0414 19:44:19.954200  7170 net.cpp:120] Setting up conv2_1_D
I0414 19:44:19.959019  7170 net.cpp:127] Top shape: 2 64 180 240 (5529600)
I0414 19:44:19.959035  7170 layer_factory.hpp:74] Creating layer conv2_1_D_bn
I0414 19:44:19.959044  7170 net.cpp:90] Creating Layer conv2_1_D_bn
I0414 19:44:19.959049  7170 net.cpp:410] conv2_1_D_bn <- conv2_1_D
I0414 19:44:19.959059  7170 net.cpp:357] conv2_1_D_bn -> conv2_1_D (in-place)
I0414 19:44:19.959066  7170 net.cpp:120] Setting up conv2_1_D_bn
I0414 19:44:19.959246  7170 net.cpp:127] Top shape: 2 64 180 240 (5529600)
I0414 19:44:19.959260  7170 layer_factory.hpp:74] Creating layer relu2_1_D
I0414 19:44:19.959267  7170 net.cpp:90] Creating Layer relu2_1_D
I0414 19:44:19.959272  7170 net.cpp:410] relu2_1_D <- conv2_1_D
I0414 19:44:19.959280  7170 net.cpp:357] relu2_1_D -> conv2_1_D (in-place)
I0414 19:44:19.959287  7170 net.cpp:120] Setting up relu2_1_D
I0414 19:44:19.960575  7170 net.cpp:127] Top shape: 2 64 180 240 (5529600)
I0414 19:44:19.960589  7170 layer_factory.hpp:74] Creating layer upsample1
I0414 19:44:19.960597  7170 net.cpp:90] Creating Layer upsample1
I0414 19:44:19.960604  7170 net.cpp:410] upsample1 <- conv2_1_D
I0414 19:44:19.960610  7170 net.cpp:410] upsample1 <- pool1_mask
I0414 19:44:19.960616  7170 net.cpp:368] upsample1 -> pool1_D
I0414 19:44:19.960623  7170 net.cpp:120] Setting up upsample1
I0414 19:44:19.960628  7170 upsample_layer.cpp:31] Params 'pad_out_{}_' are deprecated. Please declare upsample height and width useing the upsample_h, upsample_w parameters.
I0414 19:44:19.960635  7170 net.cpp:127] Top shape: 2 64 360 480 (22118400)
I0414 19:44:19.960640  7170 layer_factory.hpp:74] Creating layer conv1_2_D
I0414 19:44:19.960649  7170 net.cpp:90] Creating Layer conv1_2_D
I0414 19:44:19.960654  7170 net.cpp:410] conv1_2_D <- pool1_D
I0414 19:44:19.960665  7170 net.cpp:368] conv1_2_D -> conv1_2_D
I0414 19:44:19.960674  7170 net.cpp:120] Setting up conv1_2_D
I0414 19:44:19.966575  7170 net.cpp:127] Top shape: 2 64 360 480 (22118400)
I0414 19:44:19.966593  7170 layer_factory.hpp:74] Creating layer conv1_2_D_bn
I0414 19:44:19.966603  7170 net.cpp:90] Creating Layer conv1_2_D_bn
I0414 19:44:19.966609  7170 net.cpp:410] conv1_2_D_bn <- conv1_2_D
I0414 19:44:19.966616  7170 net.cpp:357] conv1_2_D_bn -> conv1_2_D (in-place)
I0414 19:44:19.966624  7170 net.cpp:120] Setting up conv1_2_D_bn
I0414 19:44:19.967254  7170 net.cpp:127] Top shape: 2 64 360 480 (22118400)
I0414 19:44:19.967268  7170 layer_factory.hpp:74] Creating layer relu1_2_D
I0414 19:44:19.967277  7170 net.cpp:90] Creating Layer relu1_2_D
I0414 19:44:19.967280  7170 net.cpp:410] relu1_2_D <- conv1_2_D
I0414 19:44:19.967286  7170 net.cpp:357] relu1_2_D -> conv1_2_D (in-place)
I0414 19:44:19.967309  7170 net.cpp:120] Setting up relu1_2_D
I0414 19:44:19.967692  7170 net.cpp:127] Top shape: 2 64 360 480 (22118400)
I0414 19:44:19.967710  7170 layer_factory.hpp:74] Creating layer conv1_1_D
I0414 19:44:19.967720  7170 net.cpp:90] Creating Layer conv1_1_D
I0414 19:44:19.967725  7170 net.cpp:410] conv1_1_D <- conv1_2_D
I0414 19:44:19.967733  7170 net.cpp:368] conv1_1_D -> conv1_1_D
I0414 19:44:19.967741  7170 net.cpp:120] Setting up conv1_1_D
I0414 19:44:19.971755  7170 net.cpp:127] Top shape: 2 11 360 480 (3801600)
I0414 19:44:19.971771  7170 layer_factory.hpp:74] Creating layer conv1_1_D_conv1_1_D_0_split
I0414 19:44:19.971781  7170 net.cpp:90] Creating Layer conv1_1_D_conv1_1_D_0_split
I0414 19:44:19.971786  7170 net.cpp:410] conv1_1_D_conv1_1_D_0_split <- conv1_1_D
I0414 19:44:19.971792  7170 net.cpp:368] conv1_1_D_conv1_1_D_0_split -> conv1_1_D_conv1_1_D_0_split_0
I0414 19:44:19.971801  7170 net.cpp:368] conv1_1_D_conv1_1_D_0_split -> conv1_1_D_conv1_1_D_0_split_1
I0414 19:44:19.971807  7170 net.cpp:120] Setting up conv1_1_D_conv1_1_D_0_split
I0414 19:44:19.971817  7170 net.cpp:127] Top shape: 2 11 360 480 (3801600)
I0414 19:44:19.971822  7170 net.cpp:127] Top shape: 2 11 360 480 (3801600)
I0414 19:44:19.971827  7170 layer_factory.hpp:74] Creating layer loss
I0414 19:44:19.971846  7170 net.cpp:90] Creating Layer loss
I0414 19:44:19.971851  7170 net.cpp:410] loss <- conv1_1_D_conv1_1_D_0_split_0
I0414 19:44:19.971858  7170 net.cpp:410] loss <- label_label_0_split_0
I0414 19:44:19.971864  7170 net.cpp:368] loss -> loss
I0414 19:44:19.971881  7170 net.cpp:120] Setting up loss
I0414 19:44:19.971890  7170 layer_factory.hpp:74] Creating layer loss
I0414 19:44:19.981961  7170 net.cpp:127] Top shape: (1)
I0414 19:44:19.982000  7170 net.cpp:129]     with loss weight 1
I0414 19:44:19.982034  7170 layer_factory.hpp:74] Creating layer accuracy
I0414 19:44:19.982049  7170 net.cpp:90] Creating Layer accuracy
I0414 19:44:19.982056  7170 net.cpp:410] accuracy <- conv1_1_D_conv1_1_D_0_split_1
I0414 19:44:19.982065  7170 net.cpp:410] accuracy <- label_label_0_split_1
I0414 19:44:19.982072  7170 net.cpp:368] accuracy -> accuracy
I0414 19:44:19.982081  7170 net.cpp:368] accuracy -> per_class_accuracy
I0414 19:44:19.982089  7170 net.cpp:120] Setting up accuracy
I0414 19:44:19.982095  7170 accuracy_layer.cpp:24] Per-class accuracies currently only work on TRAIN phase only.
I0414 19:44:19.982106  7170 net.cpp:127] Top shape: (1)
I0414 19:44:19.982112  7170 net.cpp:127] Top shape: 11 1 1 1 (11)
I0414 19:44:19.982117  7170 net.cpp:194] accuracy does not need backward computation.
I0414 19:44:19.982123  7170 net.cpp:192] loss needs backward computation.
I0414 19:44:19.982128  7170 net.cpp:192] conv1_1_D_conv1_1_D_0_split needs backward computation.
I0414 19:44:19.982133  7170 net.cpp:192] conv1_1_D needs backward computation.
I0414 19:44:19.982137  7170 net.cpp:192] relu1_2_D needs backward computation.
…
