…
test_initialization: false
I0418 18:25:22.111237 25444 solver.cpp:70] Creating training net from net file: /home/pierre/hgRepos/models/caffeSegNet/train_segnet-pascal/dropout_weighting/train_val.prototxt
I0418 18:25:22.114223 25444 net.cpp:42] Initializing net from parameters: 
name: "VGG_ILSVRC_16_layer"
state {
  phase: TRAIN
}
layer {
  name: "data"
  type: "DenseImageData"
  top: "data"
  top: "label"
  dense_image_data_param {
    source: "/home/shared/datasets/VOCdevkit/VOC2012/ImageSets/Segmentation/train_img_lab_224.txt"
    batch_size: 2
    shuffle: true
  }
}
layer {
  name: "conv1_1"
  type: "Convolution"
  bottom: "data"
  top: "conv1_1"
  param {
    lr_mult: 1
    decay_mult: 1
  }
  param {
    lr_mult: 2
    decay_mult: 0
  }
  convolution_param {
    num_output: 64
    pad: 1
    kernel_size: 3
    weight_filler {
      type: "xavier"
    }
    bias_filler {
      type: "constant"
      value: 0
    }
  }
}
layer {
  name: "conv1_1_bn"
  type: "BN"
  bottom: "conv1_1"
  top: "conv1_1"
  param {
    lr_mult: 1
    decay_mult: 1
  }
  param {
    lr_mult: 1
    decay_mult: 0
  }
  bn_param {
    scale_filler {
      type: "constant"
      value: 1
    }
    shift_filler {
      type: "constant"
      value: 0
    }
  }
}
layer {
  name: "relu1_1"
  type: "ReLU"
  bottom: "conv1_1"
  top: "conv1_1"
}
layer {
  name: "conv1_2"
  type: "Convolution"
  bottom: "conv1_1"
  top: "conv1_2"
  param {
    lr_mult: 1
    decay_mult: 1
  }
  param {
    lr_mult: 2
    decay_mult: 0
  }
  convolution_param {
    num_output: 64
    pad: 1
    kernel_size: 3
    weight_filler {
      type: "xavier"
    }
    bias_filler {
      type: "constant"
      value: 0
    }
  }
}
layer {
  name: "conv1_2_bn"
  type: "BN"
  bottom: "conv1_2"
  top: "conv1_2"
  param {
    lr_mult: 1
    decay_mult: 1
  }
  param {
    lr_mult: 1
    decay_mult: 0
  }
  bn_param {
    scale_filler {
      type: "constant"
      value: 1
    }
    shift_filler {
      type: "constant"
      value: 0
    }
  }
}
layer {
  name: "relu1_2"
  type: "ReLU"
  bottom: "conv1_2"
  top: "conv1_2"
}
layer {
  name: "pool1_drop"
  type: "Dropout"
  bottom: "conv1_2"
  top: "conv1_2"
  dropout_param {
    dropout_ratio: 0.5
  }
}
layer {
  name: "pool1"
  type: "Pooling"
  bottom: "conv1_2"
  top: "pool1"
  top: "pool1_mask"
  pooling_param {
    pool: MAX
    kernel_size: 2
    stride: 2
  }
}
layer {
  name: "conv2_1"
  type: "Convolution"
  bottom: "pool1"
  top: "conv2_1"
  param {
    lr_mult: 1
    decay_mult: 1
  }
  param {
    lr_mult: 2
    decay_mult: 0
  }
  convolution_param {
    num_output: 128
    pad: 1
    kernel_size: 3
    weight_filler {
      type: "xavier"
    }
    bias_filler {
      type: "constant"
      value: 0
    }
  }
}
layer {
  name: "conv2_1_bn"
  type: "BN"
  bottom: "conv2_1"
  top: "conv2_1"
  param {
    lr_mult: 1
    decay_mult: 1
  }
  param {
    lr_mult: 1
    decay_mult: 0
  }
  bn_param {
    scale_filler {
      type: "constant"
      value: 1
    }
    shift_filler {
      type: "constant"
      value: 0
    }
  }
}
layer {
  name: "relu2_1"
  type: "ReLU"
  bottom: "conv2_1"
  top: "conv2_1"
}
layer {
  name: "conv2_2"
  type: "Convolution"
  bottom: "conv2_1"
  top: "conv2_2"
  param {
    lr_mult: 1
    decay_mult: 1
  }
  param {
    lr_mult: 2
    decay_mult: 0
  }
  convolution_param {
    num_output: 128
    pad: 1
    kernel_size: 3
    weight_filler {
      type: "xavier"
    }
    bias_filler {
      type: "constant"
      value: 0
    }
  }
}
layer {
  name: "conv2_2_bn"
  type: "BN"
  bottom: "conv2_2"
  top: "conv2_2"
  param {
    lr_mult: 1
    decay_mult: 1
  }
  param {
    lr_mult: 1
    decay_mult: 0
  }
  bn_param {
    scale_filler {
      type: "constant"
      value: 1
    }
    shift_filler {
      type: "constant"
      value: 0
    }
  }
}
layer {
  name: "relu2_2"
  type: "ReLU"
  bottom: "conv2_2"
  top: "conv2_2"
}
layer {
  name: "pool2_drop"
  type: "Dropout"
  bottom: "conv2_2"
  top: "conv2_2"
  dropout_param {
    dropout_ratio: 0.5
  }
}
layer {
  name: "pool2"
  type: "Pooling"
  bottom: "conv2_2"
  top: "pool2"
  top: "pool2_mask"
  pooling_param {
    pool: MAX
    kernel_size: 2
    stride: 2
  }
}
layer {
  name: "conv3_1"
  type: "Convolution"
  bottom: "pool2"
  top: "conv3_1"
  param {
    lr_mult: 1
    decay_mult: 1
  }
  param {
    lr_mult: 2
    decay_mult: 0
  }
  convolution_param {
    num_output: 256
    pad: 1
    kernel_size: 3
    weight_filler {
      type: "xavier"
    }
    bias_filler {
      type: "constant"
      value: 0
    }
  }
}
layer {
  name: "conv3_1_bn"
  type: "BN"
  bottom: "conv3_1"
  top: "conv3_1"
  param {
    lr_mult: 1
    decay_mult: 1
  }
  param {
    lr_mult: 1
    decay_mult: 0
  }
  bn_param {
    scale_filler {
      type: "constant"
      value: 1
    }
    shift_filler {
      type: "constant"
      value: 0
    }
  }
}
layer {
  name: "relu3_1"
  type: "ReLU"
  bottom: "conv3_1"
  top: "conv3_1"
}
layer {
  name: "conv3_2"
  type: "Convolution"
  bottom: "conv3_1"
  top: "conv3_2"
  param {
    lr_mult: 1
    decay_mult: 1
  }
  param {
    lr_mult: 2
    decay_mult: 0
  }
  convolution_param {
    num_output: 256
    pad: 1
    kernel_size: 3
    weight_filler {
      type: "xavier"
    }
    bias_filler {
      type: "constant"
      value: 0
    }
  }
}
layer {
  name: "conv3_2_bn"
  type: "BN"
  bottom: "conv3_2"
  top: "conv3_2"
  param {
    lr_mult: 1
    decay_mult: 1
  }
  param {
    lr_mult: 1
    decay_mult: 0
  }
  bn_param {
    scale_filler {
      type: "constant"
      value: 1
    }
    shift_filler {
      type: "constant"
      value: 0
    }
  }
}
layer {
  name: "relu3_2"
  type: "ReLU"
  bottom: "conv3_2"
  top: "conv3_2"
}
layer {
  name: "conv3_3"
  type: "Convolution"
  bottom: "conv3_2"
  top: "conv3_3"
  param {
    lr_mult: 1
    decay_mult: 1
  }
  param {
    lr_mult: 2
    decay_mult: 0
  }
  convolution_param {
    num_output: 256
    pad: 1
    kernel_size: 3
    weight_filler {
      type: "xavier"
    }
    bias_filler {
      type: "constant"
      value: 0
    }
  }
}
layer {
  name: "conv3_3_bn"
  type: "BN"
  bottom: "conv3_3"
  top: "conv3_3"
  param {
    lr_mult: 1
    decay_mult: 1
  }
  param {
    lr_mult: 1
    decay_mult: 0
  }
  bn_param {
    scale_filler {
      type: "constant"
      value: 1
    }
    shift_filler {
      type: "constant"
      value: 0
    }
  }
}
layer {
  name: "relu3_3"
  type: "ReLU"
  bottom: "conv3_3"
  top: "conv3_3"
}
layer {
  name: "pool3_drop"
  type: "Dropout"
  bottom: "conv3_3"
  top: "conv3_3"
  dropout_param {
    dropout_ratio: 0.5
  }
}
layer {
  name: "pool3"
  type: "Pooling"
  bottom: "conv3_3"
  top: "pool3"
  top: "pool3_mask"
  pooling_param {
    pool: MAX
    kernel_size: 2
    stride: 2
  }
}
layer {
  name: "conv4_1"
  type: "Convolution"
  bottom: "pool3"
  top: "conv4_1"
  param {
    lr_mult: 1
    decay_mult: 1
  }
  param {
    lr_mult: 2
    decay_mult: 0
  }
  convolution_param {
    num_output: 512
    pad: 1
    kernel_size: 3
    weight_filler {
      type: "xavier"
    }
    bias_filler {
      type: "constant"
      value: 0
    }
  }
}
layer {
  name: "conv4_1_bn"
  type: "BN"
  bottom: "conv4_1"
  top: "conv4_1"
  param {
    lr_mult: 1
    decay_mult: 1
  }
  param {
    lr_mult: 1
    decay_mult: 0
  }
  bn_param {
    scale_filler {
      type: "constant"
      value: 1
    }
    shift_filler {
      type: "constant"
      value: 0
    }
  }
}
layer {
  name: "relu4_1"
  type: "ReLU"
  bottom: "conv4_1"
  top: "conv4_1"
}
layer {
  name: "conv4_2"
  type: "Convolution"
  bottom: "conv4_1"
  top: "conv4_2"
  param {
    lr_mult: 1
    decay_mult: 1
  }
  param {
    lr_mult: 2
    decay_mult: 0
  }
  convolution_param {
    num_output: 512
    pad: 1
    kernel_size: 3
    weight_filler {
      type: "xavier"
    }
    bias_filler {
      type: "constant"
      value: 0
    }
  }
}
layer {
  name: "conv4_2_bn"
  type: "BN"
  bottom: "conv4_2"
  top: "conv4_2"
  param {
    lr_mult: 1
    decay_mult: 1
  }
  param {
    lr_mult: 1
    decay_mult: 0
  }
  bn_param {
    scale_filler {
      type: "constant"
      value: 1
    }
    shift_filler {
      type: "constant"
      value: 0
    }
  }
}
layer {
  name: "relu4_2"
  type: "ReLU"
  bottom: "conv4_2"
  top: "conv4_2"
}
layer {
  name: "conv4_3"
  type: "Convolution"
  bottom: "conv4_2"
  top: "conv4_3"
  param {
    lr_mult: 1
    decay_mult: 1
  }
  param {
    lr_mult: 2
    decay_mult: 0
  }
  convolution_param {
    num_output: 512
    pad: 1
    kernel_size: 3
    weight_filler {
      type: "xavier"
    }
    bias_filler {
      type: "constant"
      value: 0
    }
  }
}
layer {
  name: "conv4_3_bn"
  type: "BN"
  bottom: "conv4_3"
  top: "conv4_3"
  param {
    lr_mult: 1
    decay_mult: 1
  }
  param {
    lr_mult: 1
    decay_mult: 0
  }
  bn_param {
    scale_filler {
      type: "constant"
      value: 1
    }
    shift_filler {
      type: "constant"
      value: 0
    }
  }
}
layer {
  name: "relu4_3"
  type: "ReLU"
  bottom: "conv4_3"
  top: "conv4_3"
}
layer {
  name: "pool4_drop"
  type: "Dropout"
  bottom: "conv4_3"
  top: "conv4_3"
  dropout_param {
    dropout_ratio: 0.5
  }
}
layer {
  name: "pool4"
  type: "Pooling"
  bottom: "conv4_3"
  top: "pool4"
  top: "pool4_mask"
  pooling_param {
    pool: MAX
    kernel_size: 2
    stride: 2
  }
}
layer {
  name: "conv5_1"
  type: "Convolution"
  bottom: "pool4"
  top: "conv5_1"
  param {
    lr_mult: 1
    decay_mult: 1
  }
  param {
    lr_mult: 2
    decay_mult: 0
  }
  convolution_param {
    num_output: 512
    pad: 1
    kernel_size: 3
    weight_filler {
      type: "xavier"
    }
    bias_filler {
      type: "constant"
      value: 0
    }
  }
}
layer {
  name: "conv5_1_bn"
  type: "BN"
  bottom: "conv5_1"
  top: "conv5_1"
  param {
    lr_mult: 1
    decay_mult: 1
  }
  param {
    lr_mult: 1
    decay_mult: 0
  }
  bn_param {
    scale_filler {
      type: "constant"
      value: 1
    }
    shift_filler {
      type: "constant"
      value: 0
    }
  }
}
layer {
  name: "relu5_1"
  type: "ReLU"
  bottom: "conv5_1"
  top: "conv5_1"
}
layer {
  name: "conv5_2"
  type: "Convolution"
  bottom: "conv5_1"
  top: "conv5_2"
  param {
    lr_mult: 1
    decay_mult: 1
  }
  param {
    lr_mult: 2
    decay_mult: 0
  }
  convolution_param {
    num_output: 512
    pad: 1
    kernel_size: 3
    weight_filler {
      type: "xavier"
    }
    bias_filler {
      type: "constant"
      value: 0
    }
  }
}
layer {
  name: "conv5_2_bn"
  type: "BN"
  bottom: "conv5_2"
  top: "conv5_2"
  param {
    lr_mult: 1
    decay_mult: 1
  }
  param {
    lr_mult: 1
    decay_mult: 0
  }
  bn_param {
    scale_filler {
      type: "constant"
      value: 1
    }
    shift_filler {
      type: "constant"
      value: 0
    }
  }
}
layer {
  name: "relu5_2"
  type: "ReLU"
  bottom: "conv5_2"
  top: "conv5_2"
}
layer {
  name: "conv5_3"
  type: "Convolution"
  bottom: "conv5_2"
  top: "conv5_3"
  param {
    lr_mult: 1
    decay_mult: 1
  }
  param {
    lr_mult: 2
    decay_mult: 0
  }
  convolution_param {
    num_output: 512
    pad: 1
    kernel_size: 3
    weight_filler {
      type: "xavier"
    }
    bias_filler {
      type: "constant"
      value: 0
    }
  }
}
layer {
  name: "conv5_3_bn"
  type: "BN"
  bottom: "conv5_3"
  top: "conv5_3"
  param {
    lr_mult: 1
    decay_mult: 1
  }
  param {
    lr_mult: 1
    decay_mult: 0
  }
  bn_param {
    scale_filler {
      type: "constant"
      value: 1
    }
    shift_filler {
      type: "constant"
      value: 0
    }
  }
}
layer {
  name: "relu5_3"
  type: "ReLU"
  bottom: "conv5_3"
  top: "conv5_3"
}
layer {
  name: "pool5_drop"
  type: "Dropout"
  bottom: "conv5_3"
  top: "conv5_3"
  dropout_param {
    dropout_ratio: 0.5
  }
}
layer {
  name: "pool5"
  type: "Pooling"
  bottom: "conv5_3"
  top: "pool5"
  top: "pool5_mask"
  pooling_param {
    pool: MAX
    kernel_size: 2
    stride: 2
  }
}
layer {
  name: "upsample5_drop"
  type: "Dropout"
  bottom: "pool5"
  top: "pool5"
  dropout_param {
    dropout_ratio: 0.5
  }
}
layer {
  name: "upsample5"
  type: "Upsample"
  bottom: "pool5"
  bottom: "pool5_mask"
  top: "pool5_D"
  upsample_param {
    scale: 2
  }
}
layer {
  name: "conv5_3_D"
  type: "Convolution"
  bottom: "pool5_D"
  top: "conv5_3_D"
  param {
    lr_mult: 1
    decay_mult: 1
  }
  param {
    lr_mult: 2
    decay_mult: 0
  }
  convolution_param {
    num_output: 512
    pad: 1
    kernel_size: 3
    weight_filler {
      type: "xavier"
    }
    bias_filler {
      type: "constant"
      value: 0
    }
  }
}
layer {
  name: "conv5_3_D_bn"
  type: "BN"
  bottom: "conv5_3_D"
  top: "conv5_3_D"
  param {
    lr_mult: 1
    decay_mult: 1
  }
  param {
    lr_mult: 1
    decay_mult: 0
  }
  bn_param {
    scale_filler {
      type: "constant"
      value: 1
    }
    shift_filler {
      type: "constant"
      value: 0
    }
  }
}
layer {
  name: "relu5_3_D"
  type: "ReLU"
  bottom: "conv5_3_D"
  top: "conv5_3_D"
}
layer {
  name: "conv5_2_D"
  type: "Convolution"
  bottom: "conv5_3_D"
  top: "conv5_2_D"
  param {
    lr_mult: 1
    decay_mult: 1
  }
  param {
    lr_mult: 2
    decay_mult: 0
  }
  convolution_param {
    num_output: 512
    pad: 1
    kernel_size: 3
    weight_filler {
      type: "xavier"
    }
    bias_filler {
      type: "constant"
      value: 0
    }
  }
}
layer {
  name: "conv5_2_D_bn"
  type: "BN"
  bottom: "conv5_2_D"
  top: "conv5_2_D"
  param {
    lr_mult: 1
    decay_mult: 1
  }
  param {
    lr_mult: 1
    decay_mult: 0
  }
  bn_param {
    scale_filler {
      type: "constant"
      value: 1
    }
    shift_filler {
      type: "constant"
      value: 0
    }
  }
}
layer {
  name: "relu5_2_D"
  type: "ReLU"
  bottom: "conv5_2_D"
  top: "conv5_2_D"
}
layer {
  name: "conv5_1_D"
  type: "Convolution"
  bottom: "conv5_2_D"
  top: "conv5_1_D"
  param {
    lr_mult: 1
    decay_mult: 1
  }
  param {
    lr_mult: 2
    decay_mult: 0
  }
  convolution_param {
    num_output: 512
    pad: 1
    kernel_size: 3
    weight_filler {
      type: "xavier"
    }
    bias_filler {
      type: "constant"
      value: 0
    }
  }
}
layer {
  name: "conv5_1_D_bn"
  type: "BN"
  bottom: "conv5_1_D"
  top: "conv5_1_D"
  param {
    lr_mult: 1
    decay_mult: 1
  }
  param {
    lr_mult: 1
    decay_mult: 0
  }
  bn_param {
    scale_filler {
      type: "constant"
      value: 1
    }
    shift_filler {
      type: "constant"
      value: 0
    }
  }
}
layer {
  name: "relu5_1_D"
  type: "ReLU"
  bottom: "conv5_1_D"
  top: "conv5_1_D"
}
layer {
  name: "upsample4_drop"
  type: "Dropout"
  bottom: "conv5_1_D"
  top: "conv5_1_D"
  dropout_param {
    dropout_ratio: 0.5
  }
}
layer {
  name: "upsample4"
  type: "Upsample"
  bottom: "conv5_1_D"
  bottom: "pool4_mask"
  top: "pool4_D"
  upsample_param {
    scale: 2
  }
}
layer {
  name: "conv4_3_D"
  type: "Convolution"
  bottom: "pool4_D"
  top: "conv4_3_D"
  param {
    lr_mult: 1
    decay_mult: 1
  }
  param {
    lr_mult: 2
    decay_mult: 0
  }
  convolution_param {
    num_output: 512
    pad: 1
    kernel_size: 3
    weight_filler {
      type: "xavier"
    }
    bias_filler {
      type: "constant"
      value: 0
    }
  }
}
layer {
  name: "conv4_3_D_bn"
  type: "BN"
  bottom: "conv4_3_D"
  top: "conv4_3_D"
  param {
    lr_mult: 1
    decay_mult: 1
  }
  param {
    lr_mult: 1
    decay_mult: 0
  }
  bn_param {
    scale_filler {
      type: "constant"
      value: 1
    }
    shift_filler {
      type: "constant"
      value: 0
    }
  }
}
layer {
  name: "relu4_3_D"
  type: "ReLU"
  bottom: "conv4_3_D"
  top: "conv4_3_D"
}
layer {
  name: "conv4_2_D"
  type: "Convolution"
  bottom: "conv4_3_D"
  top: "conv4_2_D"
  param {
    lr_mult: 1
    decay_mult: 1
  }
  param {
    lr_mult: 2
    decay_mult: 0
  }
  convolution_param {
    num_output: 512
    pad: 1
    kernel_size: 3
    weight_filler {
      type: "xavier"
    }
    bias_filler {
      type: "constant"
      value: 0
    }
  }
}
layer {
  name: "conv4_2_D_bn"
  type: "BN"
  bottom: "conv4_2_D"
  top: "conv4_2_D"
  param {
    lr_mult: 1
    decay_mult: 1
  }
  param {
    lr_mult: 1
    decay_mult: 0
  }
  bn_param {
    scale_filler {
      type: "constant"
      value: 1
    }
    shift_filler {
      type: "constant"
      value: 0
    }
  }
}
layer {
  name: "relu4_2_D"
  type: "ReLU"
  bottom: "conv4_2_D"
  top: "conv4_2_D"
}
layer {
  name: "conv4_1_D"
  type: "Convolution"
  bottom: "conv4_2_D"
  top: "conv4_1_D"
  param {
    lr_mult: 1
    decay_mult: 1
  }
  param {
    lr_mult: 2
    decay_mult: 0
  }
  convolution_param {
    num_output: 256
    pad: 1
    kernel_size: 3
    weight_filler {
      type: "xavier"
    }
    bias_filler {
      type: "constant"
      value: 0
    }
  }
}
layer {
  name: "conv4_1_D_bn"
  type: "BN"
  bottom: "conv4_1_D"
  top: "conv4_1_D"
  param {
    lr_mult: 1
    decay_mult: 1
  }
  param {
    lr_mult: 1
    decay_mult: 0
  }
  bn_param {
    scale_filler {
      type: "constant"
      value: 1
    }
    shift_filler {
      type: "constant"
      value: 0
    }
  }
}
layer {
  name: "relu4_1_D"
  type: "ReLU"
  bottom: "conv4_1_D"
  top: "conv4_1_D"
}
layer {
  name: "upsample3_drop"
  type: "Dropout"
  bottom: "conv4_1_D"
  top: "conv4_1_D"
  dropout_param {
    dropout_ratio: 0.5
  }
}
layer {
  name: "upsample3"
  type: "Upsample"
  bottom: "conv4_1_D"
  bottom: "pool3_mask"
  top: "pool3_D"
  upsample_param {
    scale: 2
  }
}
layer {
  name: "conv3_3_D"
  type: "Convolution"
  bottom: "pool3_D"
  top: "conv3_3_D"
  param {
    lr_mult: 1
    decay_mult: 1
  }
  param {
    lr_mult: 2
    decay_mult: 0
  }
  convolution_param {
    num_output: 256
    pad: 1
    kernel_size: 3
    weight_filler {
      type: "xavier"
    }
    bias_filler {
      type: "constant"
      value: 0
    }
  }
}
layer {
  name: "conv3_3_D_bn"
  type: "BN"
  bottom: "conv3_3_D"
  top: "conv3_3_D"
  param {
    lr_mult: 1
    decay_mult: 1
  }
  param {
    lr_mult: 1
    decay_mult: 0
  }
  bn_param {
    scale_filler {
      type: "constant"
      value: 1
    }
    shift_filler {
      type: "constant"
      value: 0
    }
  }
}
layer {
  name: "relu3_3_D"
  type: "ReLU"
  bottom: "conv3_3_D"
  top: "conv3_3_D"
}
layer {
  name: "conv3_2_D"
  type: "Convolution"
  bottom: "conv3_3_D"
  top: "conv3_2_D"
  param {
    lr_mult: 1
    decay_mult: 1
  }
  param {
    lr_mult: 2
    decay_mult: 0
  }
  convolution_param {
    num_output: 256
    pad: 1
    kernel_size: 3
    weight_filler {
      type: "xavier"
    }
    bias_filler {
      type: "constant"
      value: 0
    }
  }
}
layer {
  name: "conv3_2_D_bn"
  type: "BN"
  bottom: "conv3_2_D"
  top: "conv3_2_D"
  param {
    lr_mult: 1
    decay_mult: 1
  }
  param {
    lr_mult: 1
    decay_mult: 0
  }
  bn_param {
    scale_filler {
      type: "constant"
      value: 1
    }
    shift_filler {
      type: "constant"
      value: 0
    }
  }
}
layer {
  name: "relu3_2_D"
  type: "ReLU"
  bottom: "conv3_2_D"
  top: "conv3_2_D"
}
layer {
  name: "conv3_1_D"
  type: "Convolution"
  bottom: "conv3_2_D"
  top: "conv3_1_D"
  param {
    lr_mult: 1
    decay_mult: 1
  }
  param {
    lr_mult: 2
    decay_mult: 0
  }
  convolution_param {
    num_output: 128
    pad: 1
    kernel_size: 3
    weight_filler {
      type: "xavier"
    }
    bias_filler {
      type: "constant"
      value: 0
    }
  }
}
layer {
  name: "conv3_1_D_bn"
  type: "BN"
  bottom: "conv3_1_D"
  top: "conv3_1_D"
  param {
    lr_mult: 1
    decay_mult: 1
  }
  param {
    lr_mult: 1
    decay_mult: 0
  }
  bn_param {
    scale_filler {
      type: "constant"
      value: 1
    }
    shift_filler {
      type: "constant"
      value: 0
    }
  }
}
layer {
  name: "relu3_1_D"
  type: "ReLU"
  bottom: "conv3_1_D"
  top: "conv3_1_D"
}
layer {
  name: "upsample2_drop"
  type: "Dropout"
  bottom: "conv3_1_D"
  top: "conv3_1_D"
  dropout_param {
    dropout_ratio: 0.5
  }
}
layer {
  name: "upsample2"
  type: "Upsample"
  bottom: "conv3_1_D"
  bottom: "pool2_mask"
  top: "pool2_D"
  upsample_param {
    scale: 2
  }
}
layer {
  name: "conv2_2_D"
  type: "Convolution"
  bottom: "pool2_D"
  top: "conv2_2_D"
  param {
    lr_mult: 1
    decay_mult: 1
  }
  param {
    lr_mult: 2
    decay_mult: 0
  }
  convolution_param {
    num_output: 128
    pad: 1
    kernel_size: 3
    weight_filler {
      type: "xavier"
    }
    bias_filler {
      type: "constant"
      value: 0
    }
  }
}
layer {
  name: "conv2_2_D_bn"
  type: "BN"
  bottom: "conv2_2_D"
  top: "conv2_2_D"
  param {
    lr_mult: 1
    decay_mult: 1
  }
  param {
    lr_mult: 1
    decay_mult: 0
  }
  bn_param {
    scale_filler {
      type: "constant"
      value: 1
    }
    shift_filler {
      type: "constant"
      value: 0
    }
  }
}
layer {
  name: "relu2_2_D"
  type: "ReLU"
  bottom: "conv2_2_D"
  top: "conv2_2_D"
}
layer {
  name: "conv2_1_D"
  type: "Convolution"
  bottom: "conv2_2_D"
  top: "conv2_1_D"
  param {
    lr_mult: 1
    decay_mult: 1
  }
  param {
    lr_mult: 2
    decay_mult: 0
  }
  convolution_param {
    num_output: 64
    pad: 1
    kernel_size: 3
    weight_filler {
      type: "xavier"
    }
    bias_filler {
      type: "constant"
      value: 0
    }
  }
}
layer {
  name: "conv2_1_D_bn"
  type: "BN"
  bottom: "conv2_1_D"
  top: "conv2_1_D"
  param {
    lr_mult: 1
    decay_mult: 1
  }
  param {
    lr_mult: 1
    decay_mult: 0
  }
  bn_param {
    scale_filler {
      type: "constant"
      value: 1
    }
    shift_filler {
      type: "constant"
      value: 0
    }
  }
}
layer {
  name: "relu2_1_D"
  type: "ReLU"
  bottom: "conv2_1_D"
  top: "conv2_1_D"
}
layer {
  name: "upsample1_drop"
  type: "Dropout"
  bottom: "conv2_1_D"
  top: "conv2_1_D"
  dropout_param {
    dropout_ratio: 0.5
  }
}
layer {
  name: "upsample1"
  type: "Upsample"
  bottom: "conv2_1_D"
  bottom: "pool1_mask"
  top: "pool1_D"
  upsample_param {
    scale: 2
  }
}
layer {
  name: "conv1_2_D"
  type: "Convolution"
  bottom: "pool1_D"
  top: "conv1_2_D"
  param {
    lr_mult: 1
    decay_mult: 1
  }
  param {
    lr_mult: 2
    decay_mult: 0
  }
  convolution_param {
    num_output: 64
    pad: 1
    kernel_size: 3
    weight_filler {
      type: "xavier"
    }
    bias_filler {
      type: "constant"
      value: 0
    }
  }
}
layer {
  name: "conv1_2_D_bn"
  type: "BN"
  bottom: "conv1_2_D"
  top: "conv1_2_D"
  param {
    lr_mult: 1
    decay_mult: 1
  }
  param {
    lr_mult: 1
    decay_mult: 0
  }
  bn_param {
    scale_filler {
      type: "constant"
      value: 1
    }
    shift_filler {
      type: "constant"
      value: 0
    }
  }
}
layer {
  name: "relu1_2_D"
  type: "ReLU"
  bottom: "conv1_2_D"
  top: "conv1_2_D"
}
layer {
  name: "conv1_1_D"
  type: "Convolution"
  bottom: "conv1_2_D"
  top: "conv1_1_D"
  param {
    lr_mult: 1
    decay_mult: 1
  }
  param {
    lr_mult: 2
    decay_mult: 0
  }
  convolution_param {
    num_output: 21
    pad: 1
    kernel_size: 3
    weight_filler {
      type: "xavier"
    }
    bias_filler {
      type: "constant"
      value: 0
    }
  }
}
layer {
  name: "loss"
  type: "SoftmaxWithLoss"
  bottom: "conv1_1_D"
  bottom: "label"
  top: "loss"
  loss_param {
    ignore_label: 255
    weight_by_label_freqs: true
    class_weighting: 0.2719
    class_weighting: 1.583
    class_weighting: 3.012
    class_weighting: 1.6572
    class_weighting: 1.7892
    class_weighting: 1.7815
    class_weighting: 0.5962
    class_weighting: 1.2053
    class_weighting: 0.674
    class_weighting: 1.8299
    class_weighting: 0.9166
    class_weighting: 0.8532
    class_weighting: 0.8935
    class_weighting: 0.9973
    class_weighting: 0.9742
    class_weighting: 1.1778
    class_weighting: 1.9162
    class_weighting: 1
    class_weighting: 0.8758
    class_weighting: 0.7225
    class_weighting: 1.3287
  }
  softmax_param {
    engine: CAFFE
  }
}
layer {
  name: "accuracy"
  type: "Accuracy"
  bottom: "conv1_1_D"
  bottom: "label"
  top: "accuracy"
  top: "per_class_accuracy"
}
I0418 18:25:22.114631 25444 layer_factory.hpp:74] Creating layer data
I0418 18:25:22.114658 25444 net.cpp:90] Creating Layer data
I0418 18:25:22.114667 25444 net.cpp:368] data -> data
I0418 18:25:22.114694 25444 net.cpp:368] data -> label
I0418 18:25:22.114706 25444 net.cpp:120] Setting up data
I0418 18:25:22.114722 25444 dense_image_data_layer.cpp:36] Opening file /home/shared/datasets/VOCdevkit/VOC2012/ImageSets/Segmentation/train_img_lab_224.txt
I0418 18:25:22.117079 25444 dense_image_data_layer.cpp:46] Shuffling data
I0418 18:25:22.117681 25444 dense_image_data_layer.cpp:51] A total of 2913 examples.
I0418 18:25:22.119704 25444 dense_image_data_layer.cpp:97] output data size: 2,3,224,224
I0418 18:25:22.120244 25444 net.cpp:127] Top shape: 2 3 224 224 (301056)
I0418 18:25:22.120260 25444 net.cpp:127] Top shape: 2 1 224 224 (100352)
I0418 18:25:22.120267 25444 layer_factory.hpp:74] Creating layer label_data_1_split
I0418 18:25:22.120280 25444 net.cpp:90] Creating Layer label_data_1_split
I0418 18:25:22.120288 25444 net.cpp:410] label_data_1_split <- label
I0418 18:25:22.120301 25444 net.cpp:368] label_data_1_split -> label_data_1_split_0
I0418 18:25:22.120312 25444 net.cpp:368] label_data_1_split -> label_data_1_split_1
I0418 18:25:22.120319 25444 net.cpp:120] Setting up label_data_1_split
I0418 18:25:22.120329 25444 net.cpp:127] Top shape: 2 1 224 224 (100352)
I0418 18:25:22.120337 25444 net.cpp:127] Top shape: 2 1 224 224 (100352)
I0418 18:25:22.120343 25444 layer_factory.hpp:74] Creating layer conv1_1
I0418 18:25:22.120354 25444 net.cpp:90] Creating Layer conv1_1
I0418 18:25:22.120359 25444 net.cpp:410] conv1_1 <- data
I0418 18:25:22.120367 25444 net.cpp:368] conv1_1 -> conv1_1
I0418 18:25:22.120379 25444 net.cpp:120] Setting up conv1_1
I0418 18:25:23.536036 25444 net.cpp:127] Top shape: 2 64 224 224 (6422528)
I0418 18:25:23.536109 25444 layer_factory.hpp:74] Creating layer conv1_1_bn
I0418 18:25:23.536151 25444 net.cpp:90] Creating Layer conv1_1_bn
I0418 18:25:23.536160 25444 net.cpp:410] conv1_1_bn <- conv1_1
I0418 18:25:23.536173 25444 net.cpp:357] conv1_1_bn -> conv1_1 (in-place)
I0418 18:25:23.536188 25444 net.cpp:120] Setting up conv1_1_bn
I0418 18:25:23.536345 25444 net.cpp:127] Top shape: 2 64 224 224 (6422528)
I0418 18:25:23.536362 25444 layer_factory.hpp:74] Creating layer relu1_1
I0418 18:25:23.536378 25444 net.cpp:90] Creating Layer relu1_1
I0418 18:25:23.536384 25444 net.cpp:410] relu1_1 <- conv1_1
I0418 18:25:23.536391 25444 net.cpp:357] relu1_1 -> conv1_1 (in-place)
I0418 18:25:23.536398 25444 net.cpp:120] Setting up relu1_1
I0418 18:25:23.540344 25444 net.cpp:127] Top shape: 2 64 224 224 (6422528)
I0418 18:25:23.540359 25444 layer_factory.hpp:74] Creating layer conv1_2
I0418 18:25:23.540371 25444 net.cpp:90] Creating Layer conv1_2
I0418 18:25:23.540377 25444 net.cpp:410] conv1_2 <- conv1_1
I0418 18:25:23.540385 25444 net.cpp:368] conv1_2 -> conv1_2
I0418 18:25:23.540395 25444 net.cpp:120] Setting up conv1_2
I0418 18:25:23.556007 25444 net.cpp:127] Top shape: 2 64 224 224 (6422528)
I0418 18:25:23.556026 25444 layer_factory.hpp:74] Creating layer conv1_2_bn
I0418 18:25:23.556040 25444 net.cpp:90] Creating Layer conv1_2_bn
I0418 18:25:23.556046 25444 net.cpp:410] conv1_2_bn <- conv1_2
I0418 18:25:23.556052 25444 net.cpp:357] conv1_2_bn -> conv1_2 (in-place)
I0418 18:25:23.556061 25444 net.cpp:120] Setting up conv1_2_bn
I0418 18:25:23.556252 25444 net.cpp:127] Top shape: 2 64 224 224 (6422528)
I0418 18:25:23.556267 25444 layer_factory.hpp:74] Creating layer relu1_2
I0418 18:25:23.556275 25444 net.cpp:90] Creating Layer relu1_2
I0418 18:25:23.556280 25444 net.cpp:410] relu1_2 <- conv1_2
I0418 18:25:23.556287 25444 net.cpp:357] relu1_2 -> conv1_2 (in-place)
I0418 18:25:23.556293 25444 net.cpp:120] Setting up relu1_2
I0418 18:25:23.559723 25444 net.cpp:127] Top shape: 2 64 224 224 (6422528)
I0418 18:25:23.559738 25444 layer_factory.hpp:74] Creating layer pool1_drop
I0418 18:25:23.559748 25444 net.cpp:90] Creating Layer pool1_drop
I0418 18:25:23.559753 25444 net.cpp:410] pool1_drop <- conv1_2
I0418 18:25:23.559779 25444 net.cpp:357] pool1_drop -> conv1_2 (in-place)
I0418 18:25:23.559789 25444 net.cpp:120] Setting up pool1_drop
I0418 18:25:23.559800 25444 net.cpp:127] Top shape: 2 64 224 224 (6422528)
I0418 18:25:23.559805 25444 layer_factory.hpp:74] Creating layer pool1
I0418 18:25:23.559813 25444 layer_factory.cpp:55] CUDNN does not support padding or multiple tops. Using Caffe's own pooling layer.
I0418 18:25:23.559823 25444 net.cpp:90] Creating Layer pool1
I0418 18:25:23.559828 25444 net.cpp:410] pool1 <- conv1_2
I0418 18:25:23.559835 25444 net.cpp:368] pool1 -> pool1
I0418 18:25:23.559842 25444 net.cpp:368] pool1 -> pool1_mask
I0418 18:25:23.559849 25444 net.cpp:120] Setting up pool1
I0418 18:25:23.559890 25444 net.cpp:127] Top shape: 2 64 112 112 (1605632)
I0418 18:25:23.559897 25444 net.cpp:127] Top shape: 2 64 112 112 (1605632)
I0418 18:25:23.559902 25444 layer_factory.hpp:74] Creating layer conv2_1
I0418 18:25:23.559913 25444 net.cpp:90] Creating Layer conv2_1
I0418 18:25:23.559918 25444 net.cpp:410] conv2_1 <- pool1
I0418 18:25:23.559927 25444 net.cpp:368] conv2_1 -> conv2_1
I0418 18:25:23.559937 25444 net.cpp:120] Setting up conv2_1
I0418 18:25:23.572404 25444 net.cpp:127] Top shape: 2 128 112 112 (3211264)
I0418 18:25:23.572425 25444 layer_factory.hpp:74] Creating layer conv2_1_bn
I0418 18:25:23.572435 25444 net.cpp:90] Creating Layer conv2_1_bn
I0418 18:25:23.572441 25444 net.cpp:410] conv2_1_bn <- conv2_1
I0418 18:25:23.572449 25444 net.cpp:357] conv2_1_bn -> conv2_1 (in-place)
I0418 18:25:23.572458 25444 net.cpp:120] Setting up conv2_1_bn
I0418 18:25:23.572518 25444 net.cpp:127] Top shape: 2 128 112 112 (3211264)
I0418 18:25:23.572531 25444 layer_factory.hpp:74] Creating layer relu2_1
I0418 18:25:23.572540 25444 net.cpp:90] Creating Layer relu2_1
I0418 18:25:23.572543 25444 net.cpp:410] relu2_1 <- conv2_1
I0418 18:25:23.572551 25444 net.cpp:357] relu2_1 -> conv2_1 (in-place)
I0418 18:25:23.572556 25444 net.cpp:120] Setting up relu2_1
I0418 18:25:23.575866 25444 net.cpp:127] Top shape: 2 128 112 112 (3211264)
I0418 18:25:23.575880 25444 layer_factory.hpp:74] Creating layer conv2_2
I0418 18:25:23.575891 25444 net.cpp:90] Creating Layer conv2_2
I0418 18:25:23.575896 25444 net.cpp:410] conv2_2 <- conv2_1
I0418 18:25:23.575906 25444 net.cpp:368] conv2_2 -> conv2_2
I0418 18:25:23.575914 25444 net.cpp:120] Setting up conv2_2
I0418 18:25:23.591990 25444 net.cpp:127] Top shape: 2 128 112 112 (3211264)
I0418 18:25:23.592007 25444 layer_factory.hpp:74] Creating layer conv2_2_bn
I0418 18:25:23.592018 25444 net.cpp:90] Creating Layer conv2_2_bn
I0418 18:25:23.592025 25444 net.cpp:410] conv2_2_bn <- conv2_2
I0418 18:25:23.592033 25444 net.cpp:357] conv2_2_bn -> conv2_2 (in-place)
I0418 18:25:23.592041 25444 net.cpp:120] Setting up conv2_2_bn
I0418 18:25:23.592102 25444 net.cpp:127] Top shape: 2 128 112 112 (3211264)
I0418 18:25:23.592113 25444 layer_factory.hpp:74] Creating layer relu2_2
I0418 18:25:23.592119 25444 net.cpp:90] Creating Layer relu2_2
I0418 18:25:23.592123 25444 net.cpp:410] relu2_2 <- conv2_2
I0418 18:25:23.592130 25444 net.cpp:357] relu2_2 -> conv2_2 (in-place)
I0418 18:25:23.592136 25444 net.cpp:120] Setting up relu2_2
I0418 18:25:23.596041 25444 net.cpp:127] Top shape: 2 128 112 112 (3211264)
I0418 18:25:23.596055 25444 layer_factory.hpp:74] Creating layer pool2_drop
I0418 18:25:23.596066 25444 net.cpp:90] Creating Layer pool2_drop
I0418 18:25:23.596071 25444 net.cpp:410] pool2_drop <- conv2_2
I0418 18:25:23.596079 25444 net.cpp:357] pool2_drop -> conv2_2 (in-place)
I0418 18:25:23.596087 25444 net.cpp:120] Setting up pool2_drop
I0418 18:25:23.596094 25444 net.cpp:127] Top shape: 2 128 112 112 (3211264)
I0418 18:25:23.596099 25444 layer_factory.hpp:74] Creating layer pool2
I0418 18:25:23.596106 25444 layer_factory.cpp:55] CUDNN does not support padding or multiple tops. Using Caffe's own pooling layer.
I0418 18:25:23.596112 25444 net.cpp:90] Creating Layer pool2
I0418 18:25:23.596115 25444 net.cpp:410] pool2 <- conv2_2
I0418 18:25:23.596123 25444 net.cpp:368] pool2 -> pool2
I0418 18:25:23.596143 25444 net.cpp:368] pool2 -> pool2_mask
I0418 18:25:23.596150 25444 net.cpp:120] Setting up pool2
I0418 18:25:23.596159 25444 net.cpp:127] Top shape: 2 128 56 56 (802816)
I0418 18:25:23.596165 25444 net.cpp:127] Top shape: 2 128 56 56 (802816)
I0418 18:25:23.596170 25444 layer_factory.hpp:74] Creating layer conv3_1
I0418 18:25:23.596179 25444 net.cpp:90] Creating Layer conv3_1
I0418 18:25:23.596184 25444 net.cpp:410] conv3_1 <- pool2
I0418 18:25:23.596192 25444 net.cpp:368] conv3_1 -> conv3_1
I0418 18:25:23.596200 25444 net.cpp:120] Setting up conv3_1
I0418 18:25:23.609578 25444 net.cpp:127] Top shape: 2 256 56 56 (1605632)
I0418 18:25:23.609601 25444 layer_factory.hpp:74] Creating layer conv3_1_bn
I0418 18:25:23.609611 25444 net.cpp:90] Creating Layer conv3_1_bn
I0418 18:25:23.609617 25444 net.cpp:410] conv3_1_bn <- conv3_1
I0418 18:25:23.609627 25444 net.cpp:357] conv3_1_bn -> conv3_1 (in-place)
I0418 18:25:23.609635 25444 net.cpp:120] Setting up conv3_1_bn
I0418 18:25:23.609663 25444 net.cpp:127] Top shape: 2 256 56 56 (1605632)
I0418 18:25:23.609671 25444 layer_factory.hpp:74] Creating layer relu3_1
I0418 18:25:23.609678 25444 net.cpp:90] Creating Layer relu3_1
I0418 18:25:23.609683 25444 net.cpp:410] relu3_1 <- conv3_1
I0418 18:25:23.609689 25444 net.cpp:357] relu3_1 -> conv3_1 (in-place)
I0418 18:25:23.609695 25444 net.cpp:120] Setting up relu3_1
I0418 18:25:23.613564 25444 net.cpp:127] Top shape: 2 256 56 56 (1605632)
I0418 18:25:23.613579 25444 layer_factory.hpp:74] Creating layer conv3_2
I0418 18:25:23.613590 25444 net.cpp:90] Creating Layer conv3_2
I0418 18:25:23.613596 25444 net.cpp:410] conv3_2 <- conv3_1
I0418 18:25:23.613603 25444 net.cpp:368] conv3_2 -> conv3_2
I0418 18:25:23.613612 25444 net.cpp:120] Setting up conv3_2
I0418 18:25:23.624531 25444 net.cpp:127] Top shape: 2 256 56 56 (1605632)
I0418 18:25:23.624552 25444 layer_factory.hpp:74] Creating layer conv3_2_bn
I0418 18:25:23.624565 25444 net.cpp:90] Creating Layer conv3_2_bn
I0418 18:25:23.624572 25444 net.cpp:410] conv3_2_bn <- conv3_2
I0418 18:25:23.624578 25444 net.cpp:357] conv3_2_bn -> conv3_2 (in-place)
I0418 18:25:23.624588 25444 net.cpp:120] Setting up conv3_2_bn
I0418 18:25:23.624614 25444 net.cpp:127] Top shape: 2 256 56 56 (1605632)
I0418 18:25:23.624622 25444 layer_factory.hpp:74] Creating layer relu3_2
I0418 18:25:23.624629 25444 net.cpp:90] Creating Layer relu3_2
I0418 18:25:23.624634 25444 net.cpp:410] relu3_2 <- conv3_2
I0418 18:25:23.624642 25444 net.cpp:357] relu3_2 -> conv3_2 (in-place)
I0418 18:25:23.624650 25444 net.cpp:120] Setting up relu3_2
I0418 18:25:23.630630 25444 net.cpp:127] Top shape: 2 256 56 56 (1605632)
I0418 18:25:23.630642 25444 layer_factory.hpp:74] Creating layer conv3_3
I0418 18:25:23.630653 25444 net.cpp:90] Creating Layer conv3_3
I0418 18:25:23.630659 25444 net.cpp:410] conv3_3 <- conv3_2
I0418 18:25:23.630668 25444 net.cpp:368] conv3_3 -> conv3_3
I0418 18:25:23.630677 25444 net.cpp:120] Setting up conv3_3
I0418 18:25:23.667995 25444 net.cpp:127] Top shape: 2 256 56 56 (1605632)
I0418 18:25:23.668015 25444 layer_factory.hpp:74] Creating layer conv3_3_bn
I0418 18:25:23.668028 25444 net.cpp:90] Creating Layer conv3_3_bn
I0418 18:25:23.668035 25444 net.cpp:410] conv3_3_bn <- conv3_3
I0418 18:25:23.668041 25444 net.cpp:357] conv3_3_bn -> conv3_3 (in-place)
I0418 18:25:23.668050 25444 net.cpp:120] Setting up conv3_3_bn
I0418 18:25:23.668076 25444 net.cpp:127] Top shape: 2 256 56 56 (1605632)
I0418 18:25:23.668084 25444 layer_factory.hpp:74] Creating layer relu3_3
I0418 18:25:23.668093 25444 net.cpp:90] Creating Layer relu3_3
I0418 18:25:23.668098 25444 net.cpp:410] relu3_3 <- conv3_3
I0418 18:25:23.668104 25444 net.cpp:357] relu3_3 -> conv3_3 (in-place)
I0418 18:25:23.668110 25444 net.cpp:120] Setting up relu3_3
I0418 18:25:23.673348 25444 net.cpp:127] Top shape: 2 256 56 56 (1605632)
I0418 18:25:23.673362 25444 layer_factory.hpp:74] Creating layer pool3_drop
I0418 18:25:23.673372 25444 net.cpp:90] Creating Layer pool3_drop
I0418 18:25:23.673377 25444 net.cpp:410] pool3_drop <- conv3_3
I0418 18:25:23.673400 25444 net.cpp:357] pool3_drop -> conv3_3 (in-place)
I0418 18:25:23.673409 25444 net.cpp:120] Setting up pool3_drop
I0418 18:25:23.673418 25444 net.cpp:127] Top shape: 2 256 56 56 (1605632)
I0418 18:25:23.673424 25444 layer_factory.hpp:74] Creating layer pool3
I0418 18:25:23.673430 25444 layer_factory.cpp:55] CUDNN does not support padding or multiple tops. Using Caffe's own pooling layer.
I0418 18:25:23.673439 25444 net.cpp:90] Creating Layer pool3
I0418 18:25:23.673444 25444 net.cpp:410] pool3 <- conv3_3
I0418 18:25:23.673450 25444 net.cpp:368] pool3 -> pool3
I0418 18:25:23.673457 25444 net.cpp:368] pool3 -> pool3_mask
I0418 18:25:23.673467 25444 net.cpp:120] Setting up pool3
I0418 18:25:23.673476 25444 net.cpp:127] Top shape: 2 256 28 28 (401408)
I0418 18:25:23.673482 25444 net.cpp:127] Top shape: 2 256 28 28 (401408)
I0418 18:25:23.673487 25444 layer_factory.hpp:74] Creating layer conv4_1
I0418 18:25:23.673498 25444 net.cpp:90] Creating Layer conv4_1
I0418 18:25:23.673503 25444 net.cpp:410] conv4_1 <- pool3
I0418 18:25:23.673511 25444 net.cpp:368] conv4_1 -> conv4_1
I0418 18:25:23.673519 25444 net.cpp:120] Setting up conv4_1
I0418 18:25:23.689250 25444 net.cpp:127] Top shape: 2 512 28 28 (802816)
I0418 18:25:23.689283 25444 layer_factory.hpp:74] Creating layer conv4_1_bn
I0418 18:25:23.689299 25444 net.cpp:90] Creating Layer conv4_1_bn
I0418 18:25:23.689306 25444 net.cpp:410] conv4_1_bn <- conv4_1
I0418 18:25:23.689316 25444 net.cpp:357] conv4_1_bn -> conv4_1 (in-place)
I0418 18:25:23.689327 25444 net.cpp:120] Setting up conv4_1_bn
I0418 18:25:23.689352 25444 net.cpp:127] Top shape: 2 512 28 28 (802816)
I0418 18:25:23.689362 25444 layer_factory.hpp:74] Creating layer relu4_1
I0418 18:25:23.689371 25444 net.cpp:90] Creating Layer relu4_1
I0418 18:25:23.689376 25444 net.cpp:410] relu4_1 <- conv4_1
I0418 18:25:23.689383 25444 net.cpp:357] relu4_1 -> conv4_1 (in-place)
I0418 18:25:23.689388 25444 net.cpp:120] Setting up relu4_1
I0418 18:25:23.692915 25444 net.cpp:127] Top shape: 2 512 28 28 (802816)
I0418 18:25:23.692929 25444 layer_factory.hpp:74] Creating layer conv4_2
I0418 18:25:23.692950 25444 net.cpp:90] Creating Layer conv4_2
I0418 18:25:23.692955 25444 net.cpp:410] conv4_2 <- conv4_1
I0418 18:25:23.692962 25444 net.cpp:368] conv4_2 -> conv4_2
I0418 18:25:23.692971 25444 net.cpp:120] Setting up conv4_2
I0418 18:25:23.718711 25444 net.cpp:127] Top shape: 2 512 28 28 (802816)
I0418 18:25:23.718767 25444 layer_factory.hpp:74] Creating layer conv4_2_bn
I0418 18:25:23.718786 25444 net.cpp:90] Creating Layer conv4_2_bn
I0418 18:25:23.718794 25444 net.cpp:410] conv4_2_bn <- conv4_2
I0418 18:25:23.718806 25444 net.cpp:357] conv4_2_bn -> conv4_2 (in-place)
I0418 18:25:23.718817 25444 net.cpp:120] Setting up conv4_2_bn
I0418 18:25:23.718840 25444 net.cpp:127] Top shape: 2 512 28 28 (802816)
I0418 18:25:23.718850 25444 layer_factory.hpp:74] Creating layer relu4_2
I0418 18:25:23.718859 25444 net.cpp:90] Creating Layer relu4_2
I0418 18:25:23.718864 25444 net.cpp:410] relu4_2 <- conv4_2
I0418 18:25:23.718870 25444 net.cpp:357] relu4_2 -> conv4_2 (in-place)
I0418 18:25:23.718876 25444 net.cpp:120] Setting up relu4_2
I0418 18:25:23.731784 25444 net.cpp:127] Top shape: 2 512 28 28 (802816)
I0418 18:25:23.731799 25444 layer_factory.hpp:74] Creating layer conv4_3
I0418 18:25:23.731812 25444 net.cpp:90] Creating Layer conv4_3
I0418 18:25:23.731818 25444 net.cpp:410] conv4_3 <- conv4_2
I0418 18:25:23.731828 25444 net.cpp:368] conv4_3 -> conv4_3
I0418 18:25:23.731838 25444 net.cpp:120] Setting up conv4_3
I0418 18:25:23.765898 25444 net.cpp:127] Top shape: 2 512 28 28 (802816)
I0418 18:25:23.765944 25444 layer_factory.hpp:74] Creating layer conv4_3_bn
I0418 18:25:23.765961 25444 net.cpp:90] Creating Layer conv4_3_bn
I0418 18:25:23.765969 25444 net.cpp:410] conv4_3_bn <- conv4_3
I0418 18:25:23.765981 25444 net.cpp:357] conv4_3_bn -> conv4_3 (in-place)
I0418 18:25:23.765995 25444 net.cpp:120] Setting up conv4_3_bn
I0418 18:25:23.766018 25444 net.cpp:127] Top shape: 2 512 28 28 (802816)
I0418 18:25:23.766026 25444 layer_factory.hpp:74] Creating layer relu4_3
I0418 18:25:23.766063 25444 net.cpp:90] Creating Layer relu4_3
I0418 18:25:23.766068 25444 net.cpp:410] relu4_3 <- conv4_3
I0418 18:25:23.766075 25444 net.cpp:357] relu4_3 -> conv4_3 (in-place)
I0418 18:25:23.766082 25444 net.cpp:120] Setting up relu4_3
I0418 18:25:23.768312 25444 net.cpp:127] Top shape: 2 512 28 28 (802816)
I0418 18:25:23.768326 25444 layer_factory.hpp:74] Creating layer pool4_drop
I0418 18:25:23.768337 25444 net.cpp:90] Creating Layer pool4_drop
I0418 18:25:23.768342 25444 net.cpp:410] pool4_drop <- conv4_3
I0418 18:25:23.768349 25444 net.cpp:357] pool4_drop -> conv4_3 (in-place)
I0418 18:25:23.768357 25444 net.cpp:120] Setting up pool4_drop
I0418 18:25:23.768364 25444 net.cpp:127] Top shape: 2 512 28 28 (802816)
I0418 18:25:23.768370 25444 layer_factory.hpp:74] Creating layer pool4
I0418 18:25:23.768378 25444 layer_factory.cpp:55] CUDNN does not support padding or multiple tops. Using Caffe's own pooling layer.
I0418 18:25:23.768386 25444 net.cpp:90] Creating Layer pool4
I0418 18:25:23.768391 25444 net.cpp:410] pool4 <- conv4_3
I0418 18:25:23.768399 25444 net.cpp:368] pool4 -> pool4
I0418 18:25:23.768406 25444 net.cpp:368] pool4 -> pool4_mask
I0418 18:25:23.768414 25444 net.cpp:120] Setting up pool4
I0418 18:25:23.768422 25444 net.cpp:127] Top shape: 2 512 14 14 (200704)
I0418 18:25:23.768430 25444 net.cpp:127] Top shape: 2 512 14 14 (200704)
I0418 18:25:23.768435 25444 layer_factory.hpp:74] Creating layer conv5_1
I0418 18:25:23.768445 25444 net.cpp:90] Creating Layer conv5_1
I0418 18:25:23.768450 25444 net.cpp:410] conv5_1 <- pool4
I0418 18:25:23.768458 25444 net.cpp:368] conv5_1 -> conv5_1
I0418 18:25:23.768466 25444 net.cpp:120] Setting up conv5_1
I0418 18:25:23.804884 25444 net.cpp:127] Top shape: 2 512 14 14 (200704)
I0418 18:25:23.804930 25444 layer_factory.hpp:74] Creating layer conv5_1_bn
I0418 18:25:23.804950 25444 net.cpp:90] Creating Layer conv5_1_bn
I0418 18:25:23.804958 25444 net.cpp:410] conv5_1_bn <- conv5_1
I0418 18:25:23.804970 25444 net.cpp:357] conv5_1_bn -> conv5_1 (in-place)
I0418 18:25:23.804983 25444 net.cpp:120] Setting up conv5_1_bn
I0418 18:25:23.805006 25444 net.cpp:127] Top shape: 2 512 14 14 (200704)
I0418 18:25:23.805014 25444 layer_factory.hpp:74] Creating layer relu5_1
I0418 18:25:23.805032 25444 net.cpp:90] Creating Layer relu5_1
I0418 18:25:23.805037 25444 net.cpp:410] relu5_1 <- conv5_1
I0418 18:25:23.805043 25444 net.cpp:357] relu5_1 -> conv5_1 (in-place)
I0418 18:25:23.805049 25444 net.cpp:120] Setting up relu5_1
I0418 18:25:23.808964 25444 net.cpp:127] Top shape: 2 512 14 14 (200704)
I0418 18:25:23.808979 25444 layer_factory.hpp:74] Creating layer conv5_2
I0418 18:25:23.808993 25444 net.cpp:90] Creating Layer conv5_2
I0418 18:25:23.808998 25444 net.cpp:410] conv5_2 <- conv5_1
I0418 18:25:23.809008 25444 net.cpp:368] conv5_2 -> conv5_2
I0418 18:25:23.809018 25444 net.cpp:120] Setting up conv5_2
I0418 18:25:23.837891 25444 net.cpp:127] Top shape: 2 512 14 14 (200704)
I0418 18:25:23.837937 25444 layer_factory.hpp:74] Creating layer conv5_2_bn
I0418 18:25:23.837957 25444 net.cpp:90] Creating Layer conv5_2_bn
I0418 18:25:23.837965 25444 net.cpp:410] conv5_2_bn <- conv5_2
I0418 18:25:23.837977 25444 net.cpp:357] conv5_2_bn -> conv5_2 (in-place)
I0418 18:25:23.837990 25444 net.cpp:120] Setting up conv5_2_bn
I0418 18:25:23.838011 25444 net.cpp:127] Top shape: 2 512 14 14 (200704)
I0418 18:25:23.838019 25444 layer_factory.hpp:74] Creating layer relu5_2
I0418 18:25:23.838027 25444 net.cpp:90] Creating Layer relu5_2
I0418 18:25:23.838032 25444 net.cpp:410] relu5_2 <- conv5_2
I0418 18:25:23.838037 25444 net.cpp:357] relu5_2 -> conv5_2 (in-place)
I0418 18:25:23.838043 25444 net.cpp:120] Setting up relu5_2
I0418 18:25:23.841878 25444 net.cpp:127] Top shape: 2 512 14 14 (200704)
I0418 18:25:23.841892 25444 layer_factory.hpp:74] Creating layer conv5_3
I0418 18:25:23.841905 25444 net.cpp:90] Creating Layer conv5_3
I0418 18:25:23.841910 25444 net.cpp:410] conv5_3 <- conv5_2
I0418 18:25:23.841918 25444 net.cpp:368] conv5_3 -> conv5_3
I0418 18:25:23.841946 25444 net.cpp:120] Setting up conv5_3
I0418 18:25:23.970072 25444 net.cpp:127] Top shape: 2 512 14 14 (200704)
I0418 18:25:23.970116 25444 layer_factory.hpp:74] Creating layer conv5_3_bn
I0418 18:25:23.970135 25444 net.cpp:90] Creating Layer conv5_3_bn
I0418 18:25:23.970142 25444 net.cpp:410] conv5_3_bn <- conv5_3
I0418 18:25:23.970155 25444 net.cpp:357] conv5_3_bn -> conv5_3 (in-place)
I0418 18:25:23.970167 25444 net.cpp:120] Setting up conv5_3_bn
I0418 18:25:23.970188 25444 net.cpp:127] Top shape: 2 512 14 14 (200704)
I0418 18:25:23.970196 25444 layer_factory.hpp:74] Creating layer relu5_3
I0418 18:25:23.970207 25444 net.cpp:90] Creating Layer relu5_3
I0418 18:25:23.970212 25444 net.cpp:410] relu5_3 <- conv5_3
I0418 18:25:23.970218 25444 net.cpp:357] relu5_3 -> conv5_3 (in-place)
I0418 18:25:23.970226 25444 net.cpp:120] Setting up relu5_3
I0418 18:25:23.973450 25444 net.cpp:127] Top shape: 2 512 14 14 (200704)
I0418 18:25:23.973464 25444 layer_factory.hpp:74] Creating layer pool5_drop
I0418 18:25:23.973475 25444 net.cpp:90] Creating Layer pool5_drop
I0418 18:25:23.973481 25444 net.cpp:410] pool5_drop <- conv5_3
I0418 18:25:23.973487 25444 net.cpp:357] pool5_drop -> conv5_3 (in-place)
I0418 18:25:23.973495 25444 net.cpp:120] Setting up pool5_drop
I0418 18:25:23.973502 25444 net.cpp:127] Top shape: 2 512 14 14 (200704)
I0418 18:25:23.973507 25444 layer_factory.hpp:74] Creating layer pool5
I0418 18:25:23.973515 25444 layer_factory.cpp:55] CUDNN does not support padding or multiple tops. Using Caffe's own pooling layer.
I0418 18:25:23.973525 25444 net.cpp:90] Creating Layer pool5
I0418 18:25:23.973529 25444 net.cpp:410] pool5 <- conv5_3
I0418 18:25:23.973536 25444 net.cpp:368] pool5 -> pool5
I0418 18:25:23.973544 25444 net.cpp:368] pool5 -> pool5_mask
I0418 18:25:23.973551 25444 net.cpp:120] Setting up pool5
I0418 18:25:23.973562 25444 net.cpp:127] Top shape: 2 512 7 7 (50176)
I0418 18:25:23.973567 25444 net.cpp:127] Top shape: 2 512 7 7 (50176)
I0418 18:25:23.973573 25444 layer_factory.hpp:74] Creating layer upsample5_drop
I0418 18:25:23.973582 25444 net.cpp:90] Creating Layer upsample5_drop
I0418 18:25:23.973587 25444 net.cpp:410] upsample5_drop <- pool5
I0418 18:25:23.973592 25444 net.cpp:357] upsample5_drop -> pool5 (in-place)
I0418 18:25:23.973599 25444 net.cpp:120] Setting up upsample5_drop
I0418 18:25:23.973606 25444 net.cpp:127] Top shape: 2 512 7 7 (50176)
I0418 18:25:23.973611 25444 layer_factory.hpp:74] Creating layer upsample5
I0418 18:25:23.973619 25444 net.cpp:90] Creating Layer upsample5
I0418 18:25:23.973628 25444 net.cpp:410] upsample5 <- pool5
I0418 18:25:23.973634 25444 net.cpp:410] upsample5 <- pool5_mask
I0418 18:25:23.973639 25444 net.cpp:368] upsample5 -> pool5_D
I0418 18:25:23.973652 25444 net.cpp:120] Setting up upsample5
I0418 18:25:23.973659 25444 upsample_layer.cpp:31] Params 'pad_out_{}_' are deprecated. Please declare upsample height and width useing the upsample_h, upsample_w parameters.
I0418 18:25:23.973666 25444 net.cpp:127] Top shape: 2 512 14 14 (200704)
I0418 18:25:23.973671 25444 layer_factory.hpp:74] Creating layer conv5_3_D
I0418 18:25:23.973681 25444 net.cpp:90] Creating Layer conv5_3_D
I0418 18:25:23.973686 25444 net.cpp:410] conv5_3_D <- pool5_D
I0418 18:25:23.973695 25444 net.cpp:368] conv5_3_D -> conv5_3_D
I0418 18:25:23.973703 25444 net.cpp:120] Setting up conv5_3_D
I0418 18:25:24.010272 25444 net.cpp:127] Top shape: 2 512 14 14 (200704)
I0418 18:25:24.010316 25444 layer_factory.hpp:74] Creating layer conv5_3_D_bn
I0418 18:25:24.010336 25444 net.cpp:90] Creating Layer conv5_3_D_bn
I0418 18:25:24.010344 25444 net.cpp:410] conv5_3_D_bn <- conv5_3_D
I0418 18:25:24.010356 25444 net.cpp:357] conv5_3_D_bn -> conv5_3_D (in-place)
I0418 18:25:24.010370 25444 net.cpp:120] Setting up conv5_3_D_bn
I0418 18:25:24.010390 25444 net.cpp:127] Top shape: 2 512 14 14 (200704)
I0418 18:25:24.010399 25444 layer_factory.hpp:74] Creating layer relu5_3_D
I0418 18:25:24.010409 25444 net.cpp:90] Creating Layer relu5_3_D
I0418 18:25:24.010414 25444 net.cpp:410] relu5_3_D <- conv5_3_D
I0418 18:25:24.010444 25444 net.cpp:357] relu5_3_D -> conv5_3_D (in-place)
I0418 18:25:24.010452 25444 net.cpp:120] Setting up relu5_3_D
I0418 18:25:24.015401 25444 net.cpp:127] Top shape: 2 512 14 14 (200704)
I0418 18:25:24.015416 25444 layer_factory.hpp:74] Creating layer conv5_2_D
I0418 18:25:24.015429 25444 net.cpp:90] Creating Layer conv5_2_D
I0418 18:25:24.015434 25444 net.cpp:410] conv5_2_D <- conv5_3_D
I0418 18:25:24.015442 25444 net.cpp:368] conv5_2_D -> conv5_2_D
I0418 18:25:24.015452 25444 net.cpp:120] Setting up conv5_2_D
I0418 18:25:24.039525 25444 net.cpp:127] Top shape: 2 512 14 14 (200704)
I0418 18:25:24.039571 25444 layer_factory.hpp:74] Creating layer conv5_2_D_bn
I0418 18:25:24.039592 25444 net.cpp:90] Creating Layer conv5_2_D_bn
I0418 18:25:24.039599 25444 net.cpp:410] conv5_2_D_bn <- conv5_2_D
I0418 18:25:24.039609 25444 net.cpp:357] conv5_2_D_bn -> conv5_2_D (in-place)
I0418 18:25:24.039623 25444 net.cpp:120] Setting up conv5_2_D_bn
I0418 18:25:24.039644 25444 net.cpp:127] Top shape: 2 512 14 14 (200704)
I0418 18:25:24.039651 25444 layer_factory.hpp:74] Creating layer relu5_2_D
I0418 18:25:24.039660 25444 net.cpp:90] Creating Layer relu5_2_D
I0418 18:25:24.039665 25444 net.cpp:410] relu5_2_D <- conv5_2_D
I0418 18:25:24.039674 25444 net.cpp:357] relu5_2_D -> conv5_2_D (in-place)
I0418 18:25:24.039682 25444 net.cpp:120] Setting up relu5_2_D
I0418 18:25:24.044673 25444 net.cpp:127] Top shape: 2 512 14 14 (200704)
I0418 18:25:24.044687 25444 layer_factory.hpp:74] Creating layer conv5_1_D
I0418 18:25:24.044699 25444 net.cpp:90] Creating Layer conv5_1_D
I0418 18:25:24.044704 25444 net.cpp:410] conv5_1_D <- conv5_2_D
I0418 18:25:24.044714 25444 net.cpp:368] conv5_1_D -> conv5_1_D
I0418 18:25:24.044724 25444 net.cpp:120] Setting up conv5_1_D
I0418 18:25:24.084887 25444 net.cpp:127] Top shape: 2 512 14 14 (200704)
I0418 18:25:24.084935 25444 layer_factory.hpp:74] Creating layer conv5_1_D_bn
I0418 18:25:24.084956 25444 net.cpp:90] Creating Layer conv5_1_D_bn
I0418 18:25:24.084964 25444 net.cpp:410] conv5_1_D_bn <- conv5_1_D
I0418 18:25:24.084977 25444 net.cpp:357] conv5_1_D_bn -> conv5_1_D (in-place)
I0418 18:25:24.084991 25444 net.cpp:120] Setting up conv5_1_D_bn
I0418 18:25:24.085014 25444 net.cpp:127] Top shape: 2 512 14 14 (200704)
I0418 18:25:24.085022 25444 layer_factory.hpp:74] Creating layer relu5_1_D
I0418 18:25:24.085032 25444 net.cpp:90] Creating Layer relu5_1_D
I0418 18:25:24.085037 25444 net.cpp:410] relu5_1_D <- conv5_1_D
I0418 18:25:24.085043 25444 net.cpp:357] relu5_1_D -> conv5_1_D (in-place)
I0418 18:25:24.085049 25444 net.cpp:120] Setting up relu5_1_D
I0418 18:25:24.087573 25444 net.cpp:127] Top shape: 2 512 14 14 (200704)
I0418 18:25:24.087586 25444 layer_factory.hpp:74] Creating layer upsample4_drop
I0418 18:25:24.087595 25444 net.cpp:90] Creating Layer upsample4_drop
I0418 18:25:24.087600 25444 net.cpp:410] upsample4_drop <- conv5_1_D
I0418 18:25:24.087607 25444 net.cpp:357] upsample4_drop -> conv5_1_D (in-place)
I0418 18:25:24.087615 25444 net.cpp:120] Setting up upsample4_drop
I0418 18:25:24.087622 25444 net.cpp:127] Top shape: 2 512 14 14 (200704)
I0418 18:25:24.087628 25444 layer_factory.hpp:74] Creating layer upsample4
I0418 18:25:24.087640 25444 net.cpp:90] Creating Layer upsample4
I0418 18:25:24.087644 25444 net.cpp:410] upsample4 <- conv5_1_D
I0418 18:25:24.087651 25444 net.cpp:410] upsample4 <- pool4_mask
I0418 18:25:24.087657 25444 net.cpp:368] upsample4 -> pool4_D
I0418 18:25:24.087666 25444 net.cpp:120] Setting up upsample4
I0418 18:25:24.087671 25444 upsample_layer.cpp:31] Params 'pad_out_{}_' are deprecated. Please declare upsample height and width useing the upsample_h, upsample_w parameters.
I0418 18:25:24.087679 25444 net.cpp:127] Top shape: 2 512 28 28 (802816)
I0418 18:25:24.087684 25444 layer_factory.hpp:74] Creating layer conv4_3_D
I0418 18:25:24.087705 25444 net.cpp:90] Creating Layer conv4_3_D
I0418 18:25:24.087712 25444 net.cpp:410] conv4_3_D <- pool4_D
I0418 18:25:24.087720 25444 net.cpp:368] conv4_3_D -> conv4_3_D
I0418 18:25:24.087734 25444 net.cpp:120] Setting up conv4_3_D
I0418 18:25:24.116646 25444 net.cpp:127] Top shape: 2 512 28 28 (802816)
I0418 18:25:24.116706 25444 layer_factory.hpp:74] Creating layer conv4_3_D_bn
I0418 18:25:24.116729 25444 net.cpp:90] Creating Layer conv4_3_D_bn
I0418 18:25:24.116736 25444 net.cpp:410] conv4_3_D_bn <- conv4_3_D
I0418 18:25:24.116747 25444 net.cpp:357] conv4_3_D_bn -> conv4_3_D (in-place)
I0418 18:25:24.116760 25444 net.cpp:120] Setting up conv4_3_D_bn
I0418 18:25:24.116785 25444 net.cpp:127] Top shape: 2 512 28 28 (802816)
I0418 18:25:24.116794 25444 layer_factory.hpp:74] Creating layer relu4_3_D
I0418 18:25:24.116804 25444 net.cpp:90] Creating Layer relu4_3_D
I0418 18:25:24.116809 25444 net.cpp:410] relu4_3_D <- conv4_3_D
I0418 18:25:24.116816 25444 net.cpp:357] relu4_3_D -> conv4_3_D (in-place)
I0418 18:25:24.116822 25444 net.cpp:120] Setting up relu4_3_D
I0418 18:25:24.123680 25444 net.cpp:127] Top shape: 2 512 28 28 (802816)
I0418 18:25:24.123693 25444 layer_factory.hpp:74] Creating layer conv4_2_D
I0418 18:25:24.123706 25444 net.cpp:90] Creating Layer conv4_2_D
I0418 18:25:24.123713 25444 net.cpp:410] conv4_2_D <- conv4_3_D
I0418 18:25:24.123721 25444 net.cpp:368] conv4_2_D -> conv4_2_D
I0418 18:25:24.123731 25444 net.cpp:120] Setting up conv4_2_D
I0418 18:25:24.150796 25444 net.cpp:127] Top shape: 2 512 28 28 (802816)
I0418 18:25:24.150842 25444 layer_factory.hpp:74] Creating layer conv4_2_D_bn
I0418 18:25:24.150859 25444 net.cpp:90] Creating Layer conv4_2_D_bn
I0418 18:25:24.150868 25444 net.cpp:410] conv4_2_D_bn <- conv4_2_D
I0418 18:25:24.150878 25444 net.cpp:357] conv4_2_D_bn -> conv4_2_D (in-place)
I0418 18:25:24.150892 25444 net.cpp:120] Setting up conv4_2_D_bn
I0418 18:25:24.150915 25444 net.cpp:127] Top shape: 2 512 28 28 (802816)
I0418 18:25:24.150923 25444 layer_factory.hpp:74] Creating layer relu4_2_D
I0418 18:25:24.150936 25444 net.cpp:90] Creating Layer relu4_2_D
I0418 18:25:24.150941 25444 net.cpp:410] relu4_2_D <- conv4_2_D
I0418 18:25:24.150948 25444 net.cpp:357] relu4_2_D -> conv4_2_D (in-place)
I0418 18:25:24.150954 25444 net.cpp:120] Setting up relu4_2_D
I0418 18:25:24.173559 25444 net.cpp:127] Top shape: 2 512 28 28 (802816)
I0418 18:25:24.173574 25444 layer_factory.hpp:74] Creating layer conv4_1_D
I0418 18:25:24.173585 25444 net.cpp:90] Creating Layer conv4_1_D
I0418 18:25:24.173590 25444 net.cpp:410] conv4_1_D <- conv4_2_D
I0418 18:25:24.173600 25444 net.cpp:368] conv4_1_D -> conv4_1_D
I0418 18:25:24.173609 25444 net.cpp:120] Setting up conv4_1_D
I0418 18:25:24.282680 25444 net.cpp:127] Top shape: 2 256 28 28 (401408)
I0418 18:25:24.282719 25444 layer_factory.hpp:74] Creating layer conv4_1_D_bn
I0418 18:25:24.282737 25444 net.cpp:90] Creating Layer conv4_1_D_bn
I0418 18:25:24.282745 25444 net.cpp:410] conv4_1_D_bn <- conv4_1_D
I0418 18:25:24.282757 25444 net.cpp:357] conv4_1_D_bn -> conv4_1_D (in-place)
I0418 18:25:24.282769 25444 net.cpp:120] Setting up conv4_1_D_bn
I0418 18:25:24.282793 25444 net.cpp:127] Top shape: 2 256 28 28 (401408)
I0418 18:25:24.282802 25444 layer_factory.hpp:74] Creating layer relu4_1_D
I0418 18:25:24.282812 25444 net.cpp:90] Creating Layer relu4_1_D
I0418 18:25:24.282817 25444 net.cpp:410] relu4_1_D <- conv4_1_D
I0418 18:25:24.282824 25444 net.cpp:357] relu4_1_D -> conv4_1_D (in-place)
I0418 18:25:24.282830 25444 net.cpp:120] Setting up relu4_1_D
I0418 18:25:24.307711 25444 net.cpp:127] Top shape: 2 256 28 28 (401408)
I0418 18:25:24.307724 25444 layer_factory.hpp:74] Creating layer upsample3_drop
I0418 18:25:24.307734 25444 net.cpp:90] Creating Layer upsample3_drop
I0418 18:25:24.307739 25444 net.cpp:410] upsample3_drop <- conv4_1_D
I0418 18:25:24.307746 25444 net.cpp:357] upsample3_drop -> conv4_1_D (in-place)
I0418 18:25:24.307754 25444 net.cpp:120] Setting up upsample3_drop
I0418 18:25:24.307762 25444 net.cpp:127] Top shape: 2 256 28 28 (401408)
I0418 18:25:24.307768 25444 layer_factory.hpp:74] Creating layer upsample3
I0418 18:25:24.307777 25444 net.cpp:90] Creating Layer upsample3
I0418 18:25:24.307781 25444 net.cpp:410] upsample3 <- conv4_1_D
I0418 18:25:24.307787 25444 net.cpp:410] upsample3 <- pool3_mask
I0418 18:25:24.307816 25444 net.cpp:368] upsample3 -> pool3_D
I0418 18:25:24.307826 25444 net.cpp:120] Setting up upsample3
I0418 18:25:24.307831 25444 upsample_layer.cpp:31] Params 'pad_out_{}_' are deprecated. Please declare upsample height and width useing the upsample_h, upsample_w parameters.
I0418 18:25:24.307839 25444 net.cpp:127] Top shape: 2 256 56 56 (1605632)
I0418 18:25:24.307844 25444 layer_factory.hpp:74] Creating layer conv3_3_D
I0418 18:25:24.307857 25444 net.cpp:90] Creating Layer conv3_3_D
I0418 18:25:24.307862 25444 net.cpp:410] conv3_3_D <- pool3_D
I0418 18:25:24.307869 25444 net.cpp:368] conv3_3_D -> conv3_3_D
I0418 18:25:24.307878 25444 net.cpp:120] Setting up conv3_3_D
I0418 18:25:24.421046 25444 net.cpp:127] Top shape: 2 256 56 56 (1605632)
I0418 18:25:24.421063 25444 layer_factory.hpp:74] Creating layer conv3_3_D_bn
I0418 18:25:24.421072 25444 net.cpp:90] Creating Layer conv3_3_D_bn
I0418 18:25:24.421078 25444 net.cpp:410] conv3_3_D_bn <- conv3_3_D
I0418 18:25:24.421087 25444 net.cpp:357] conv3_3_D_bn -> conv3_3_D (in-place)
I0418 18:25:24.421095 25444 net.cpp:120] Setting up conv3_3_D_bn
I0418 18:25:24.421124 25444 net.cpp:127] Top shape: 2 256 56 56 (1605632)
I0418 18:25:24.421133 25444 layer_factory.hpp:74] Creating layer relu3_3_D
I0418 18:25:24.421139 25444 net.cpp:90] Creating Layer relu3_3_D
I0418 18:25:24.421144 25444 net.cpp:410] relu3_3_D <- conv3_3_D
I0418 18:25:24.421150 25444 net.cpp:357] relu3_3_D -> conv3_3_D (in-place)
I0418 18:25:24.421156 25444 net.cpp:120] Setting up relu3_3_D
I0418 18:25:24.426129 25444 net.cpp:127] Top shape: 2 256 56 56 (1605632)
I0418 18:25:24.426144 25444 layer_factory.hpp:74] Creating layer conv3_2_D
I0418 18:25:24.426156 25444 net.cpp:90] Creating Layer conv3_2_D
I0418 18:25:24.426162 25444 net.cpp:410] conv3_2_D <- conv3_3_D
I0418 18:25:24.426169 25444 net.cpp:368] conv3_2_D -> conv3_2_D
I0418 18:25:24.426177 25444 net.cpp:120] Setting up conv3_2_D
I0418 18:25:24.459556 25444 net.cpp:127] Top shape: 2 256 56 56 (1605632)
I0418 18:25:24.459580 25444 layer_factory.hpp:74] Creating layer conv3_2_D_bn
I0418 18:25:24.459594 25444 net.cpp:90] Creating Layer conv3_2_D_bn
I0418 18:25:24.459599 25444 net.cpp:410] conv3_2_D_bn <- conv3_2_D
I0418 18:25:24.459607 25444 net.cpp:357] conv3_2_D_bn -> conv3_2_D (in-place)
I0418 18:25:24.459615 25444 net.cpp:120] Setting up conv3_2_D_bn
I0418 18:25:24.459642 25444 net.cpp:127] Top shape: 2 256 56 56 (1605632)
I0418 18:25:24.459650 25444 layer_factory.hpp:74] Creating layer relu3_2_D
I0418 18:25:24.459659 25444 net.cpp:90] Creating Layer relu3_2_D
I0418 18:25:24.459664 25444 net.cpp:410] relu3_2_D <- conv3_2_D
I0418 18:25:24.459671 25444 net.cpp:357] relu3_2_D -> conv3_2_D (in-place)
I0418 18:25:24.459676 25444 net.cpp:120] Setting up relu3_2_D
I0418 18:25:24.464056 25444 net.cpp:127] Top shape: 2 256 56 56 (1605632)
I0418 18:25:24.464067 25444 layer_factory.hpp:74] Creating layer conv3_1_D
I0418 18:25:24.464079 25444 net.cpp:90] Creating Layer conv3_1_D
I0418 18:25:24.464085 25444 net.cpp:410] conv3_1_D <- conv3_2_D
I0418 18:25:24.464094 25444 net.cpp:368] conv3_1_D -> conv3_1_D
I0418 18:25:24.464103 25444 net.cpp:120] Setting up conv3_1_D
I0418 18:25:24.497750 25444 net.cpp:127] Top shape: 2 128 56 56 (802816)
I0418 18:25:24.497768 25444 layer_factory.hpp:74] Creating layer conv3_1_D_bn
I0418 18:25:24.497778 25444 net.cpp:90] Creating Layer conv3_1_D_bn
I0418 18:25:24.497783 25444 net.cpp:410] conv3_1_D_bn <- conv3_1_D
I0418 18:25:24.497792 25444 net.cpp:357] conv3_1_D_bn -> conv3_1_D (in-place)
I0418 18:25:24.497802 25444 net.cpp:120] Setting up conv3_1_D_bn
I0418 18:25:24.497828 25444 net.cpp:127] Top shape: 2 128 56 56 (802816)
I0418 18:25:24.497838 25444 layer_factory.hpp:74] Creating layer relu3_1_D
I0418 18:25:24.497845 25444 net.cpp:90] Creating Layer relu3_1_D
I0418 18:25:24.497850 25444 net.cpp:410] relu3_1_D <- conv3_1_D
I0418 18:25:24.497856 25444 net.cpp:357] relu3_1_D -> conv3_1_D (in-place)
I0418 18:25:24.497862 25444 net.cpp:120] Setting up relu3_1_D
I0418 18:25:24.506213 25444 net.cpp:127] Top shape: 2 128 56 56 (802816)
I0418 18:25:24.506239 25444 layer_factory.hpp:74] Creating layer upsample2_drop
I0418 18:25:24.506252 25444 net.cpp:90] Creating Layer upsample2_drop
I0418 18:25:24.506258 25444 net.cpp:410] upsample2_drop <- conv3_1_D
I0418 18:25:24.506265 25444 net.cpp:357] upsample2_drop -> conv3_1_D (in-place)
I0418 18:25:24.506273 25444 net.cpp:120] Setting up upsample2_drop
I0418 18:25:24.506281 25444 net.cpp:127] Top shape: 2 128 56 56 (802816)
I0418 18:25:24.506286 25444 layer_factory.hpp:74] Creating layer upsample2
I0418 18:25:24.506296 25444 net.cpp:90] Creating Layer upsample2
I0418 18:25:24.506301 25444 net.cpp:410] upsample2 <- conv3_1_D
I0418 18:25:24.506307 25444 net.cpp:410] upsample2 <- pool2_mask
I0418 18:25:24.506314 25444 net.cpp:368] upsample2 -> pool2_D
I0418 18:25:24.506321 25444 net.cpp:120] Setting up upsample2
I0418 18:25:24.506327 25444 upsample_layer.cpp:31] Params 'pad_out_{}_' are deprecated. Please declare upsample height and width useing the upsample_h, upsample_w parameters.
I0418 18:25:24.506335 25444 net.cpp:127] Top shape: 2 128 112 112 (3211264)
I0418 18:25:24.506341 25444 layer_factory.hpp:74] Creating layer conv2_2_D
I0418 18:25:24.506351 25444 net.cpp:90] Creating Layer conv2_2_D
I0418 18:25:24.506356 25444 net.cpp:410] conv2_2_D <- pool2_D
I0418 18:25:24.506364 25444 net.cpp:368] conv2_2_D -> conv2_2_D
I0418 18:25:24.506373 25444 net.cpp:120] Setting up conv2_2_D
I0418 18:25:24.534317 25444 net.cpp:127] Top shape: 2 128 112 112 (3211264)
I0418 18:25:24.534334 25444 layer_factory.hpp:74] Creating layer conv2_2_D_bn
I0418 18:25:24.534348 25444 net.cpp:90] Creating Layer conv2_2_D_bn
I0418 18:25:24.534353 25444 net.cpp:410] conv2_2_D_bn <- conv2_2_D
I0418 18:25:24.534360 25444 net.cpp:357] conv2_2_D_bn -> conv2_2_D (in-place)
I0418 18:25:24.534368 25444 net.cpp:120] Setting up conv2_2_D_bn
I0418 18:25:24.534430 25444 net.cpp:127] Top shape: 2 128 112 112 (3211264)
I0418 18:25:24.534440 25444 layer_factory.hpp:74] Creating layer relu2_2_D
I0418 18:25:24.534449 25444 net.cpp:90] Creating Layer relu2_2_D
I0418 18:25:24.534454 25444 net.cpp:410] relu2_2_D <- conv2_2_D
I0418 18:25:24.534461 25444 net.cpp:357] relu2_2_D -> conv2_2_D (in-place)
I0418 18:25:24.534467 25444 net.cpp:120] Setting up relu2_2_D
I0418 18:25:24.545094 25444 net.cpp:127] Top shape: 2 128 112 112 (3211264)
I0418 18:25:24.545109 25444 layer_factory.hpp:74] Creating layer conv2_1_D
I0418 18:25:24.545121 25444 net.cpp:90] Creating Layer conv2_1_D
I0418 18:25:24.545126 25444 net.cpp:410] conv2_1_D <- conv2_2_D
I0418 18:25:24.545136 25444 net.cpp:368] conv2_1_D -> conv2_1_D
I0418 18:25:24.545145 25444 net.cpp:120] Setting up conv2_1_D
I0418 18:25:24.569799 25444 net.cpp:127] Top shape: 2 64 112 112 (1605632)
I0418 18:25:24.569816 25444 layer_factory.hpp:74] Creating layer conv2_1_D_bn
I0418 18:25:24.569828 25444 net.cpp:90] Creating Layer conv2_1_D_bn
I0418 18:25:24.569834 25444 net.cpp:410] conv2_1_D_bn <- conv2_1_D
I0418 18:25:24.569844 25444 net.cpp:357] conv2_1_D_bn -> conv2_1_D (in-place)
I0418 18:25:24.569851 25444 net.cpp:120] Setting up conv2_1_D_bn
I0418 18:25:24.569912 25444 net.cpp:127] Top shape: 2 64 112 112 (1605632)
I0418 18:25:24.569923 25444 layer_factory.hpp:74] Creating layer relu2_1_D
I0418 18:25:24.569931 25444 net.cpp:90] Creating Layer relu2_1_D
I0418 18:25:24.569934 25444 net.cpp:410] relu2_1_D <- conv2_1_D
I0418 18:25:24.569941 25444 net.cpp:357] relu2_1_D -> conv2_1_D (in-place)
I0418 18:25:24.569947 25444 net.cpp:120] Setting up relu2_1_D
I0418 18:25:24.675041 25444 net.cpp:127] Top shape: 2 64 112 112 (1605632)
I0418 18:25:24.675055 25444 layer_factory.hpp:74] Creating layer upsample1_drop
I0418 18:25:24.675063 25444 net.cpp:90] Creating Layer upsample1_drop
I0418 18:25:24.675068 25444 net.cpp:410] upsample1_drop <- conv2_1_D
I0418 18:25:24.675076 25444 net.cpp:357] upsample1_drop -> conv2_1_D (in-place)
I0418 18:25:24.675084 25444 net.cpp:120] Setting up upsample1_drop
I0418 18:25:24.675092 25444 net.cpp:127] Top shape: 2 64 112 112 (1605632)
I0418 18:25:24.675113 25444 layer_factory.hpp:74] Creating layer upsample1
I0418 18:25:24.675122 25444 net.cpp:90] Creating Layer upsample1
I0418 18:25:24.675127 25444 net.cpp:410] upsample1 <- conv2_1_D
I0418 18:25:24.675132 25444 net.cpp:410] upsample1 <- pool1_mask
I0418 18:25:24.675139 25444 net.cpp:368] upsample1 -> pool1_D
I0418 18:25:24.675150 25444 net.cpp:120] Setting up upsample1
I0418 18:25:24.675155 25444 upsample_layer.cpp:31] Params 'pad_out_{}_' are deprecated. Please declare upsample height and width useing the upsample_h, upsample_w parameters.
I0418 18:25:24.675163 25444 net.cpp:127] Top shape: 2 64 224 224 (6422528)
I0418 18:25:24.675169 25444 layer_factory.hpp:74] Creating layer conv1_2_D
I0418 18:25:24.675179 25444 net.cpp:90] Creating Layer conv1_2_D
I0418 18:25:24.675184 25444 net.cpp:410] conv1_2_D <- pool1_D
I0418 18:25:24.675192 25444 net.cpp:368] conv1_2_D -> conv1_2_D
I0418 18:25:24.675201 25444 net.cpp:120] Setting up conv1_2_D
I0418 18:25:24.688539 25444 net.cpp:127] Top shape: 2 64 224 224 (6422528)
I0418 18:25:24.688556 25444 layer_factory.hpp:74] Creating layer conv1_2_D_bn
I0418 18:25:24.688568 25444 net.cpp:90] Creating Layer conv1_2_D_bn
I0418 18:25:24.688575 25444 net.cpp:410] conv1_2_D_bn <- conv1_2_D
I0418 18:25:24.688583 25444 net.cpp:357] conv1_2_D_bn -> conv1_2_D (in-place)
I0418 18:25:24.688591 25444 net.cpp:120] Setting up conv1_2_D_bn
I0418 18:25:24.688783 25444 net.cpp:127] Top shape: 2 64 224 224 (6422528)
I0418 18:25:24.688797 25444 layer_factory.hpp:74] Creating layer relu1_2_D
I0418 18:25:24.688805 25444 net.cpp:90] Creating Layer relu1_2_D
I0418 18:25:24.688810 25444 net.cpp:410] relu1_2_D <- conv1_2_D
I0418 18:25:24.688818 25444 net.cpp:357] relu1_2_D -> conv1_2_D (in-place)
I0418 18:25:24.688825 25444 net.cpp:120] Setting up relu1_2_D
I0418 18:25:24.693586 25444 net.cpp:127] Top shape: 2 64 224 224 (6422528)
I0418 18:25:24.693601 25444 layer_factory.hpp:74] Creating layer conv1_1_D
I0418 18:25:24.693614 25444 net.cpp:90] Creating Layer conv1_1_D
I0418 18:25:24.693620 25444 net.cpp:410] conv1_1_D <- conv1_2_D
I0418 18:25:24.693627 25444 net.cpp:368] conv1_1_D -> conv1_1_D
I0418 18:25:24.693635 25444 net.cpp:120] Setting up conv1_1_D
I0418 18:25:24.709652 25444 net.cpp:127] Top shape: 2 21 224 224 (2107392)
I0418 18:25:24.709671 25444 layer_factory.hpp:74] Creating layer conv1_1_D_conv1_1_D_0_split
I0418 18:25:24.709681 25444 net.cpp:90] Creating Layer conv1_1_D_conv1_1_D_0_split
I0418 18:25:24.709686 25444 net.cpp:410] conv1_1_D_conv1_1_D_0_split <- conv1_1_D
I0418 18:25:24.709693 25444 net.cpp:368] conv1_1_D_conv1_1_D_0_split -> conv1_1_D_conv1_1_D_0_split_0
I0418 18:25:24.709702 25444 net.cpp:368] conv1_1_D_conv1_1_D_0_split -> conv1_1_D_conv1_1_D_0_split_1
I0418 18:25:24.709708 25444 net.cpp:120] Setting up conv1_1_D_conv1_1_D_0_split
I0418 18:25:24.709717 25444 net.cpp:127] Top shape: 2 21 224 224 (2107392)
I0418 18:25:24.709722 25444 net.cpp:127] Top shape: 2 21 224 224 (2107392)
I0418 18:25:24.709728 25444 layer_factory.hpp:74] Creating layer loss
I0418 18:25:24.709743 25444 net.cpp:90] Creating Layer loss
I0418 18:25:24.709748 25444 net.cpp:410] loss <- conv1_1_D_conv1_1_D_0_split_0
I0418 18:25:24.709753 25444 net.cpp:410] loss <- label_data_1_split_0
I0418 18:25:24.709763 25444 net.cpp:368] loss -> loss
I0418 18:25:24.709777 25444 net.cpp:120] Setting up loss
I0418 18:25:24.709786 25444 layer_factory.hpp:74] Creating layer loss
I0418 18:25:24.713230 25444 net.cpp:127] Top shape: (1)
I0418 18:25:24.713268 25444 net.cpp:129]     with loss weight 1
I0418 18:25:24.713320 25444 layer_factory.hpp:74] Creating layer accuracy
I0418 18:25:24.713335 25444 net.cpp:90] Creating Layer accuracy
I0418 18:25:24.713341 25444 net.cpp:410] accuracy <- conv1_1_D_conv1_1_D_0_split_1
I0418 18:25:24.713351 25444 net.cpp:410] accuracy <- label_data_1_split_1
I0418 18:25:24.713362 25444 net.cpp:368] accuracy -> accuracy
I0418 18:25:24.713373 25444 net.cpp:368] accuracy -> per_class_accuracy
I0418 18:25:24.713382 25444 net.cpp:120] Setting up accuracy
I0418 18:25:24.713392 25444 accuracy_layer.cpp:24] Per-class accuracies currently only work on TRAIN phase only.
I0418 18:25:24.713421 25444 net.cpp:127] Top shape: (1)
I0418 18:25:24.713428 25444 net.cpp:127] Top shape: 21 1 1 1 (21)
I0418 18:25:24.713433 25444 net.cpp:194] accuracy does not need backward computation.
I0418 18:25:24.713438 25444 net.cpp:192] loss needs backward computation.
I0418 18:25:24.713444 25444 net.cpp:192] conv1_1_D_conv1_1_D_0_split needs backward computation.
I0418 18:25:24.713449 25444 net.cpp:192] conv1_1_D needs backward computation.
I0418 18:25:24.713454 25444 net.cpp:192] relu1_2_D needs backward computation.
…
