…
I0418 16:23:30.725141  5266 solver.cpp:70] Creating training net from net file: /home/pierre/hgRepos/models/caffeSegNet/train_segnet-pascal/dropout_no_weighting/train_val.prototxt
I0418 16:23:30.728031  5266 net.cpp:42] Initializing net from parameters: 
name: "VGG_ILSVRC_16_layer"
state {
  phase: TRAIN
}
layer {
  name: "data"
  type: "DenseImageData"
  top: "data"
  top: "label"
  dense_image_data_param {
    source: "/home/shared/datasets/VOCdevkit/VOC2012/ImageSets/Segmentation/train_img_lab_224.txt"
    batch_size: 2
    shuffle: true
  }
}
layer {
  name: "conv1_1"
  type: "Convolution"
  bottom: "data"
  top: "conv1_1"
  param {
    lr_mult: 1
    decay_mult: 1
  }
  param {
    lr_mult: 2
    decay_mult: 0
  }
  convolution_param {
    num_output: 64
    pad: 1
    kernel_size: 3
    weight_filler {
      type: "xavier"
    }
    bias_filler {
      type: "constant"
      value: 0
    }
  }
}
layer {
  name: "conv1_1_bn"
  type: "BN"
  bottom: "conv1_1"
  top: "conv1_1"
  param {
    lr_mult: 1
    decay_mult: 1
  }
  param {
    lr_mult: 1
    decay_mult: 0
  }
  bn_param {
    scale_filler {
      type: "constant"
      value: 1
    }
    shift_filler {
      type: "constant"
      value: 0
    }
  }
}
layer {
  name: "relu1_1"
  type: "ReLU"
  bottom: "conv1_1"
  top: "conv1_1"
}
layer {
  name: "conv1_2"
  type: "Convolution"
  bottom: "conv1_1"
  top: "conv1_2"
  param {
    lr_mult: 1
    decay_mult: 1
  }
  param {
    lr_mult: 2
    decay_mult: 0
  }
  convolution_param {
    num_output: 64
    pad: 1
    kernel_size: 3
    weight_filler {
      type: "xavier"
    }
    bias_filler {
      type: "constant"
      value: 0
    }
  }
}
layer {
  name: "conv1_2_bn"
  type: "BN"
  bottom: "conv1_2"
  top: "conv1_2"
  param {
    lr_mult: 1
    decay_mult: 1
  }
  param {
    lr_mult: 1
    decay_mult: 0
  }
  bn_param {
    scale_filler {
      type: "constant"
      value: 1
    }
    shift_filler {
      type: "constant"
      value: 0
    }
  }
}
layer {
  name: "relu1_2"
  type: "ReLU"
  bottom: "conv1_2"
  top: "conv1_2"
}
layer {
  name: "pool1_drop"
  type: "Dropout"
  bottom: "conv1_2"
  top: "conv1_2"
  dropout_param {
    dropout_ratio: 0.5
  }
}
layer {
  name: "pool1"
  type: "Pooling"
  bottom: "conv1_2"
  top: "pool1"
  top: "pool1_mask"
  pooling_param {
    pool: MAX
    kernel_size: 2
    stride: 2
  }
}
layer {
  name: "conv2_1"
  type: "Convolution"
  bottom: "pool1"
  top: "conv2_1"
  param {
    lr_mult: 1
    decay_mult: 1
  }
  param {
    lr_mult: 2
    decay_mult: 0
  }
  convolution_param {
    num_output: 128
    pad: 1
    kernel_size: 3
    weight_filler {
      type: "xavier"
    }
    bias_filler {
      type: "constant"
      value: 0
    }
  }
}
layer {
  name: "conv2_1_bn"
  type: "BN"
  bottom: "conv2_1"
  top: "conv2_1"
  param {
    lr_mult: 1
    decay_mult: 1
  }
  param {
    lr_mult: 1
    decay_mult: 0
  }
  bn_param {
    scale_filler {
      type: "constant"
      value: 1
    }
    shift_filler {
      type: "constant"
      value: 0
    }
  }
}
layer {
  name: "relu2_1"
  type: "ReLU"
  bottom: "conv2_1"
  top: "conv2_1"
}
layer {
  name: "conv2_2"
  type: "Convolution"
  bottom: "conv2_1"
  top: "conv2_2"
  param {
    lr_mult: 1
    decay_mult: 1
  }
  param {
    lr_mult: 2
    decay_mult: 0
  }
  convolution_param {
    num_output: 128
    pad: 1
    kernel_size: 3
    weight_filler {
      type: "xavier"
    }
    bias_filler {
      type: "constant"
      value: 0
    }
  }
}
layer {
  name: "conv2_2_bn"
  type: "BN"
  bottom: "conv2_2"
  top: "conv2_2"
  param {
    lr_mult: 1
    decay_mult: 1
  }
  param {
    lr_mult: 1
    decay_mult: 0
  }
  bn_param {
    scale_filler {
      type: "constant"
      value: 1
    }
    shift_filler {
      type: "constant"
      value: 0
    }
  }
}
layer {
  name: "relu2_2"
  type: "ReLU"
  bottom: "conv2_2"
  top: "conv2_2"
}
layer {
  name: "pool2_drop"
  type: "Dropout"
  bottom: "conv2_2"
  top: "conv2_2"
  dropout_param {
    dropout_ratio: 0.5
  }
}
layer {
  name: "pool2"
  type: "Pooling"
  bottom: "conv2_2"
  top: "pool2"
  top: "pool2_mask"
  pooling_param {
    pool: MAX
    kernel_size: 2
    stride: 2
  }
}
layer {
  name: "conv3_1"
  type: "Convolution"
  bottom: "pool2"
  top: "conv3_1"
  param {
    lr_mult: 1
    decay_mult: 1
  }
  param {
    lr_mult: 2
    decay_mult: 0
  }
  convolution_param {
    num_output: 256
    pad: 1
    kernel_size: 3
    weight_filler {
      type: "xavier"
    }
    bias_filler {
      type: "constant"
      value: 0
    }
  }
}
layer {
  name: "conv3_1_bn"
  type: "BN"
  bottom: "conv3_1"
  top: "conv3_1"
  param {
    lr_mult: 1
    decay_mult: 1
  }
  param {
    lr_mult: 1
    decay_mult: 0
  }
  bn_param {
    scale_filler {
      type: "constant"
      value: 1
    }
    shift_filler {
      type: "constant"
      value: 0
    }
  }
}
layer {
  name: "relu3_1"
  type: "ReLU"
  bottom: "conv3_1"
  top: "conv3_1"
}
layer {
  name: "conv3_2"
  type: "Convolution"
  bottom: "conv3_1"
  top: "conv3_2"
  param {
    lr_mult: 1
    decay_mult: 1
  }
  param {
    lr_mult: 2
    decay_mult: 0
  }
  convolution_param {
    num_output: 256
    pad: 1
    kernel_size: 3
    weight_filler {
      type: "xavier"
    }
    bias_filler {
      type: "constant"
      value: 0
    }
  }
}
layer {
  name: "conv3_2_bn"
  type: "BN"
  bottom: "conv3_2"
  top: "conv3_2"
  param {
    lr_mult: 1
    decay_mult: 1
  }
  param {
    lr_mult: 1
    decay_mult: 0
  }
  bn_param {
    scale_filler {
      type: "constant"
      value: 1
    }
    shift_filler {
      type: "constant"
      value: 0
    }
  }
}
layer {
  name: "relu3_2"
  type: "ReLU"
  bottom: "conv3_2"
  top: "conv3_2"
}
layer {
  name: "conv3_3"
  type: "Convolution"
  bottom: "conv3_2"
  top: "conv3_3"
  param {
    lr_mult: 1
    decay_mult: 1
  }
  param {
    lr_mult: 2
    decay_mult: 0
  }
  convolution_param {
    num_output: 256
    pad: 1
    kernel_size: 3
    weight_filler {
      type: "xavier"
    }
    bias_filler {
      type: "constant"
      value: 0
    }
  }
}
layer {
  name: "conv3_3_bn"
  type: "BN"
  bottom: "conv3_3"
  top: "conv3_3"
  param {
    lr_mult: 1
    decay_mult: 1
  }
  param {
    lr_mult: 1
    decay_mult: 0
  }
  bn_param {
    scale_filler {
      type: "constant"
      value: 1
    }
    shift_filler {
      type: "constant"
      value: 0
    }
  }
}
layer {
  name: "relu3_3"
  type: "ReLU"
  bottom: "conv3_3"
  top: "conv3_3"
}
layer {
  name: "pool3_drop"
  type: "Dropout"
  bottom: "conv3_3"
  top: "conv3_3"
  dropout_param {
    dropout_ratio: 0.5
  }
}
layer {
  name: "pool3"
  type: "Pooling"
  bottom: "conv3_3"
  top: "pool3"
  top: "pool3_mask"
  pooling_param {
    pool: MAX
    kernel_size: 2
    stride: 2
  }
}
layer {
  name: "conv4_1"
  type: "Convolution"
  bottom: "pool3"
  top: "conv4_1"
  param {
    lr_mult: 1
    decay_mult: 1
  }
  param {
    lr_mult: 2
    decay_mult: 0
  }
  convolution_param {
    num_output: 512
    pad: 1
    kernel_size: 3
    weight_filler {
      type: "xavier"
    }
    bias_filler {
      type: "constant"
      value: 0
    }
  }
}
layer {
  name: "conv4_1_bn"
  type: "BN"
  bottom: "conv4_1"
  top: "conv4_1"
  param {
    lr_mult: 1
    decay_mult: 1
  }
  param {
    lr_mult: 1
    decay_mult: 0
  }
  bn_param {
    scale_filler {
      type: "constant"
      value: 1
    }
    shift_filler {
      type: "constant"
      value: 0
    }
  }
}
layer {
  name: "relu4_1"
  type: "ReLU"
  bottom: "conv4_1"
  top: "conv4_1"
}
layer {
  name: "conv4_2"
  type: "Convolution"
  bottom: "conv4_1"
  top: "conv4_2"
  param {
    lr_mult: 1
    decay_mult: 1
  }
  param {
    lr_mult: 2
    decay_mult: 0
  }
  convolution_param {
    num_output: 512
    pad: 1
    kernel_size: 3
    weight_filler {
      type: "xavier"
    }
    bias_filler {
      type: "constant"
      value: 0
    }
  }
}
layer {
  name: "conv4_2_bn"
  type: "BN"
  bottom: "conv4_2"
  top: "conv4_2"
  param {
    lr_mult: 1
    decay_mult: 1
  }
  param {
    lr_mult: 1
    decay_mult: 0
  }
  bn_param {
    scale_filler {
      type: "constant"
      value: 1
    }
    shift_filler {
      type: "constant"
      value: 0
    }
  }
}
layer {
  name: "relu4_2"
  type: "ReLU"
  bottom: "conv4_2"
  top: "conv4_2"
}
layer {
  name: "conv4_3"
  type: "Convolution"
  bottom: "conv4_2"
  top: "conv4_3"
  param {
    lr_mult: 1
    decay_mult: 1
  }
  param {
    lr_mult: 2
    decay_mult: 0
  }
  convolution_param {
    num_output: 512
    pad: 1
    kernel_size: 3
    weight_filler {
      type: "xavier"
    }
    bias_filler {
      type: "constant"
      value: 0
    }
  }
}
layer {
  name: "conv4_3_bn"
  type: "BN"
  bottom: "conv4_3"
  top: "conv4_3"
  param {
    lr_mult: 1
    decay_mult: 1
  }
  param {
    lr_mult: 1
    decay_mult: 0
  }
  bn_param {
    scale_filler {
      type: "constant"
      value: 1
    }
    shift_filler {
      type: "constant"
      value: 0
    }
  }
}
layer {
  name: "relu4_3"
  type: "ReLU"
  bottom: "conv4_3"
  top: "conv4_3"
}
layer {
  name: "pool4_drop"
  type: "Dropout"
  bottom: "conv4_3"
  top: "conv4_3"
  dropout_param {
    dropout_ratio: 0.5
  }
}
layer {
  name: "pool4"
  type: "Pooling"
  bottom: "conv4_3"
  top: "pool4"
  top: "pool4_mask"
  pooling_param {
    pool: MAX
    kernel_size: 2
    stride: 2
  }
}
layer {
  name: "conv5_1"
  type: "Convolution"
  bottom: "pool4"
  top: "conv5_1"
  param {
    lr_mult: 1
    decay_mult: 1
  }
  param {
    lr_mult: 2
    decay_mult: 0
  }
  convolution_param {
    num_output: 512
    pad: 1
    kernel_size: 3
    weight_filler {
      type: "xavier"
    }
    bias_filler {
      type: "constant"
      value: 0
    }
  }
}
layer {
  name: "conv5_1_bn"
  type: "BN"
  bottom: "conv5_1"
  top: "conv5_1"
  param {
    lr_mult: 1
    decay_mult: 1
  }
  param {
    lr_mult: 1
    decay_mult: 0
  }
  bn_param {
    scale_filler {
      type: "constant"
      value: 1
    }
    shift_filler {
      type: "constant"
      value: 0
    }
  }
}
layer {
  name: "relu5_1"
  type: "ReLU"
  bottom: "conv5_1"
  top: "conv5_1"
}
layer {
  name: "conv5_2"
  type: "Convolution"
  bottom: "conv5_1"
  top: "conv5_2"
  param {
    lr_mult: 1
    decay_mult: 1
  }
  param {
    lr_mult: 2
    decay_mult: 0
  }
  convolution_param {
    num_output: 512
    pad: 1
    kernel_size: 3
    weight_filler {
      type: "xavier"
    }
    bias_filler {
      type: "constant"
      value: 0
    }
  }
}
layer {
  name: "conv5_2_bn"
  type: "BN"
  bottom: "conv5_2"
  top: "conv5_2"
  param {
    lr_mult: 1
    decay_mult: 1
  }
  param {
    lr_mult: 1
    decay_mult: 0
  }
  bn_param {
    scale_filler {
      type: "constant"
      value: 1
    }
    shift_filler {
      type: "constant"
      value: 0
    }
  }
}
layer {
  name: "relu5_2"
  type: "ReLU"
  bottom: "conv5_2"
  top: "conv5_2"
}
layer {
  name: "conv5_3"
  type: "Convolution"
  bottom: "conv5_2"
  top: "conv5_3"
  param {
    lr_mult: 1
    decay_mult: 1
  }
  param {
    lr_mult: 2
    decay_mult: 0
  }
  convolution_param {
    num_output: 512
    pad: 1
    kernel_size: 3
    weight_filler {
      type: "xavier"
    }
    bias_filler {
      type: "constant"
      value: 0
    }
  }
}
layer {
  name: "conv5_3_bn"
  type: "BN"
  bottom: "conv5_3"
  top: "conv5_3"
  param {
    lr_mult: 1
    decay_mult: 1
  }
  param {
    lr_mult: 1
    decay_mult: 0
  }
  bn_param {
    scale_filler {
      type: "constant"
      value: 1
    }
    shift_filler {
      type: "constant"
      value: 0
    }
  }
}
layer {
  name: "relu5_3"
  type: "ReLU"
  bottom: "conv5_3"
  top: "conv5_3"
}
layer {
  name: "pool5_drop"
  type: "Dropout"
  bottom: "conv5_3"
  top: "conv5_3"
  dropout_param {
    dropout_ratio: 0.5
  }
}
layer {
  name: "pool5"
  type: "Pooling"
  bottom: "conv5_3"
  top: "pool5"
  top: "pool5_mask"
  pooling_param {
    pool: MAX
    kernel_size: 2
    stride: 2
  }
}
layer {
  name: "upsample5_drop"
  type: "Dropout"
  bottom: "pool5"
  top: "pool5"
  dropout_param {
    dropout_ratio: 0.5
  }
}
layer {
  name: "upsample5"
  type: "Upsample"
  bottom: "pool5"
  bottom: "pool5_mask"
  top: "pool5_D"
  upsample_param {
    scale: 2
  }
}
layer {
  name: "conv5_3_D"
  type: "Convolution"
  bottom: "pool5_D"
  top: "conv5_3_D"
  param {
    lr_mult: 1
    decay_mult: 1
  }
  param {
    lr_mult: 2
    decay_mult: 0
  }
  convolution_param {
    num_output: 512
    pad: 1
    kernel_size: 3
    weight_filler {
      type: "xavier"
    }
    bias_filler {
      type: "constant"
      value: 0
    }
  }
}
layer {
  name: "conv5_3_D_bn"
  type: "BN"
  bottom: "conv5_3_D"
  top: "conv5_3_D"
  param {
    lr_mult: 1
    decay_mult: 1
  }
  param {
    lr_mult: 1
    decay_mult: 0
  }
  bn_param {
    scale_filler {
      type: "constant"
      value: 1
    }
    shift_filler {
      type: "constant"
      value: 0
    }
  }
}
layer {
  name: "relu5_3_D"
  type: "ReLU"
  bottom: "conv5_3_D"
  top: "conv5_3_D"
}
layer {
  name: "conv5_2_D"
  type: "Convolution"
  bottom: "conv5_3_D"
  top: "conv5_2_D"
  param {
    lr_mult: 1
    decay_mult: 1
  }
  param {
    lr_mult: 2
    decay_mult: 0
  }
  convolution_param {
    num_output: 512
    pad: 1
    kernel_size: 3
    weight_filler {
      type: "xavier"
    }
    bias_filler {
      type: "constant"
      value: 0
    }
  }
}
layer {
  name: "conv5_2_D_bn"
  type: "BN"
  bottom: "conv5_2_D"
  top: "conv5_2_D"
  param {
    lr_mult: 1
    decay_mult: 1
  }
  param {
    lr_mult: 1
    decay_mult: 0
  }
  bn_param {
    scale_filler {
      type: "constant"
      value: 1
    }
    shift_filler {
      type: "constant"
      value: 0
    }
  }
}
layer {
  name: "relu5_2_D"
  type: "ReLU"
  bottom: "conv5_2_D"
  top: "conv5_2_D"
}
layer {
  name: "conv5_1_D"
  type: "Convolution"
  bottom: "conv5_2_D"
  top: "conv5_1_D"
  param {
    lr_mult: 1
    decay_mult: 1
  }
  param {
    lr_mult: 2
    decay_mult: 0
  }
  convolution_param {
    num_output: 512
    pad: 1
    kernel_size: 3
    weight_filler {
      type: "xavier"
    }
    bias_filler {
      type: "constant"
      value: 0
    }
  }
}
layer {
  name: "conv5_1_D_bn"
  type: "BN"
  bottom: "conv5_1_D"
  top: "conv5_1_D"
  param {
    lr_mult: 1
    decay_mult: 1
  }
  param {
    lr_mult: 1
    decay_mult: 0
  }
  bn_param {
    scale_filler {
      type: "constant"
      value: 1
    }
    shift_filler {
      type: "constant"
      value: 0
    }
  }
}
layer {
  name: "relu5_1_D"
  type: "ReLU"
  bottom: "conv5_1_D"
  top: "conv5_1_D"
}
layer {
  name: "upsample4_drop"
  type: "Dropout"
  bottom: "conv5_1_D"
  top: "conv5_1_D"
  dropout_param {
    dropout_ratio: 0.5
  }
}
layer {
  name: "upsample4"
  type: "Upsample"
  bottom: "conv5_1_D"
  bottom: "pool4_mask"
  top: "pool4_D"
  upsample_param {
    scale: 2
  }
}
layer {
  name: "conv4_3_D"
  type: "Convolution"
  bottom: "pool4_D"
  top: "conv4_3_D"
  param {
    lr_mult: 1
    decay_mult: 1
  }
  param {
    lr_mult: 2
    decay_mult: 0
  }
  convolution_param {
    num_output: 512
    pad: 1
    kernel_size: 3
    weight_filler {
      type: "xavier"
    }
    bias_filler {
      type: "constant"
      value: 0
    }
  }
}
layer {
  name: "conv4_3_D_bn"
  type: "BN"
  bottom: "conv4_3_D"
  top: "conv4_3_D"
  param {
    lr_mult: 1
    decay_mult: 1
  }
  param {
    lr_mult: 1
    decay_mult: 0
  }
  bn_param {
    scale_filler {
      type: "constant"
      value: 1
    }
    shift_filler {
      type: "constant"
      value: 0
    }
  }
}
layer {
  name: "relu4_3_D"
  type: "ReLU"
  bottom: "conv4_3_D"
  top: "conv4_3_D"
}
layer {
  name: "conv4_2_D"
  type: "Convolution"
  bottom: "conv4_3_D"
  top: "conv4_2_D"
  param {
    lr_mult: 1
    decay_mult: 1
  }
  param {
    lr_mult: 2
    decay_mult: 0
  }
  convolution_param {
    num_output: 512
    pad: 1
    kernel_size: 3
    weight_filler {
      type: "xavier"
    }
    bias_filler {
      type: "constant"
      value: 0
    }
  }
}
layer {
  name: "conv4_2_D_bn"
  type: "BN"
  bottom: "conv4_2_D"
  top: "conv4_2_D"
  param {
    lr_mult: 1
    decay_mult: 1
  }
  param {
    lr_mult: 1
    decay_mult: 0
  }
  bn_param {
    scale_filler {
      type: "constant"
      value: 1
    }
    shift_filler {
      type: "constant"
      value: 0
    }
  }
}
layer {
  name: "relu4_2_D"
  type: "ReLU"
  bottom: "conv4_2_D"
  top: "conv4_2_D"
}
layer {
  name: "conv4_1_D"
  type: "Convolution"
  bottom: "conv4_2_D"
  top: "conv4_1_D"
  param {
    lr_mult: 1
    decay_mult: 1
  }
  param {
    lr_mult: 2
    decay_mult: 0
  }
  convolution_param {
    num_output: 256
    pad: 1
    kernel_size: 3
    weight_filler {
      type: "xavier"
    }
    bias_filler {
      type: "constant"
      value: 0
    }
  }
}
layer {
  name: "conv4_1_D_bn"
  type: "BN"
  bottom: "conv4_1_D"
  top: "conv4_1_D"
  param {
    lr_mult: 1
    decay_mult: 1
  }
  param {
    lr_mult: 1
    decay_mult: 0
  }
  bn_param {
    scale_filler {
      type: "constant"
      value: 1
    }
    shift_filler {
      type: "constant"
      value: 0
    }
  }
}
layer {
  name: "relu4_1_D"
  type: "ReLU"
  bottom: "conv4_1_D"
  top: "conv4_1_D"
}
layer {
  name: "upsample3_drop"
  type: "Dropout"
  bottom: "conv4_1_D"
  top: "conv4_1_D"
  dropout_param {
    dropout_ratio: 0.5
  }
}
layer {
  name: "upsample3"
  type: "Upsample"
  bottom: "conv4_1_D"
  bottom: "pool3_mask"
  top: "pool3_D"
  upsample_param {
    scale: 2
  }
}
layer {
  name: "conv3_3_D"
  type: "Convolution"
  bottom: "pool3_D"
  top: "conv3_3_D"
  param {
    lr_mult: 1
    decay_mult: 1
  }
  param {
    lr_mult: 2
    decay_mult: 0
  }
  convolution_param {
    num_output: 256
    pad: 1
    kernel_size: 3
    weight_filler {
      type: "xavier"
    }
    bias_filler {
      type: "constant"
      value: 0
    }
  }
}
layer {
  name: "conv3_3_D_bn"
  type: "BN"
  bottom: "conv3_3_D"
  top: "conv3_3_D"
  param {
    lr_mult: 1
    decay_mult: 1
  }
  param {
    lr_mult: 1
    decay_mult: 0
  }
  bn_param {
    scale_filler {
      type: "constant"
      value: 1
    }
    shift_filler {
      type: "constant"
      value: 0
    }
  }
}
layer {
  name: "relu3_3_D"
  type: "ReLU"
  bottom: "conv3_3_D"
  top: "conv3_3_D"
}
layer {
  name: "conv3_2_D"
  type: "Convolution"
  bottom: "conv3_3_D"
  top: "conv3_2_D"
  param {
    lr_mult: 1
    decay_mult: 1
  }
  param {
    lr_mult: 2
    decay_mult: 0
  }
  convolution_param {
    num_output: 256
    pad: 1
    kernel_size: 3
    weight_filler {
      type: "xavier"
    }
    bias_filler {
      type: "constant"
      value: 0
    }
  }
}
layer {
  name: "conv3_2_D_bn"
  type: "BN"
  bottom: "conv3_2_D"
  top: "conv3_2_D"
  param {
    lr_mult: 1
    decay_mult: 1
  }
  param {
    lr_mult: 1
    decay_mult: 0
  }
  bn_param {
    scale_filler {
      type: "constant"
      value: 1
    }
    shift_filler {
      type: "constant"
      value: 0
    }
  }
}
layer {
  name: "relu3_2_D"
  type: "ReLU"
  bottom: "conv3_2_D"
  top: "conv3_2_D"
}
layer {
  name: "conv3_1_D"
  type: "Convolution"
  bottom: "conv3_2_D"
  top: "conv3_1_D"
  param {
    lr_mult: 1
    decay_mult: 1
  }
  param {
    lr_mult: 2
    decay_mult: 0
  }
  convolution_param {
    num_output: 128
    pad: 1
    kernel_size: 3
    weight_filler {
      type: "xavier"
    }
    bias_filler {
      type: "constant"
      value: 0
    }
  }
}
layer {
  name: "conv3_1_D_bn"
  type: "BN"
  bottom: "conv3_1_D"
  top: "conv3_1_D"
  param {
    lr_mult: 1
    decay_mult: 1
  }
  param {
    lr_mult: 1
    decay_mult: 0
  }
  bn_param {
    scale_filler {
      type: "constant"
      value: 1
    }
    shift_filler {
      type: "constant"
      value: 0
    }
  }
}
layer {
  name: "relu3_1_D"
  type: "ReLU"
  bottom: "conv3_1_D"
  top: "conv3_1_D"
}
layer {
  name: "upsample2_drop"
  type: "Dropout"
  bottom: "conv3_1_D"
  top: "conv3_1_D"
  dropout_param {
    dropout_ratio: 0.5
  }
}
layer {
  name: "upsample2"
  type: "Upsample"
  bottom: "conv3_1_D"
  bottom: "pool2_mask"
  top: "pool2_D"
  upsample_param {
    scale: 2
  }
}
layer {
  name: "conv2_2_D"
  type: "Convolution"
  bottom: "pool2_D"
  top: "conv2_2_D"
  param {
    lr_mult: 1
    decay_mult: 1
  }
  param {
    lr_mult: 2
    decay_mult: 0
  }
  convolution_param {
    num_output: 128
    pad: 1
    kernel_size: 3
    weight_filler {
      type: "xavier"
    }
    bias_filler {
      type: "constant"
      value: 0
    }
  }
}
layer {
  name: "conv2_2_D_bn"
  type: "BN"
  bottom: "conv2_2_D"
  top: "conv2_2_D"
  param {
    lr_mult: 1
    decay_mult: 1
  }
  param {
    lr_mult: 1
    decay_mult: 0
  }
  bn_param {
    scale_filler {
      type: "constant"
      value: 1
    }
    shift_filler {
      type: "constant"
      value: 0
    }
  }
}
layer {
  name: "relu2_2_D"
  type: "ReLU"
  bottom: "conv2_2_D"
  top: "conv2_2_D"
}
layer {
  name: "conv2_1_D"
  type: "Convolution"
  bottom: "conv2_2_D"
  top: "conv2_1_D"
  param {
    lr_mult: 1
    decay_mult: 1
  }
  param {
    lr_mult: 2
    decay_mult: 0
  }
  convolution_param {
    num_output: 64
    pad: 1
    kernel_size: 3
    weight_filler {
      type: "xavier"
    }
    bias_filler {
      type: "constant"
      value: 0
    }
  }
}
layer {
  name: "conv2_1_D_bn"
  type: "BN"
  bottom: "conv2_1_D"
  top: "conv2_1_D"
  param {
    lr_mult: 1
    decay_mult: 1
  }
  param {
    lr_mult: 1
    decay_mult: 0
  }
  bn_param {
    scale_filler {
      type: "constant"
      value: 1
    }
    shift_filler {
      type: "constant"
      value: 0
    }
  }
}
layer {
  name: "relu2_1_D"
  type: "ReLU"
  bottom: "conv2_1_D"
  top: "conv2_1_D"
}
layer {
  name: "upsample1_drop"
  type: "Dropout"
  bottom: "conv2_1_D"
  top: "conv2_1_D"
  dropout_param {
    dropout_ratio: 0.5
  }
}
layer {
  name: "upsample1"
  type: "Upsample"
  bottom: "conv2_1_D"
  bottom: "pool1_mask"
  top: "pool1_D"
  upsample_param {
    scale: 2
  }
}
layer {
  name: "conv1_2_D"
  type: "Convolution"
  bottom: "pool1_D"
  top: "conv1_2_D"
  param {
    lr_mult: 1
    decay_mult: 1
  }
  param {
    lr_mult: 2
    decay_mult: 0
  }
  convolution_param {
    num_output: 64
    pad: 1
    kernel_size: 3
    weight_filler {
      type: "xavier"
    }
    bias_filler {
      type: "constant"
      value: 0
    }
  }
}
layer {
  name: "conv1_2_D_bn"
  type: "BN"
  bottom: "conv1_2_D"
  top: "conv1_2_D"
  param {
    lr_mult: 1
    decay_mult: 1
  }
  param {
    lr_mult: 1
    decay_mult: 0
  }
  bn_param {
    scale_filler {
      type: "constant"
      value: 1
    }
    shift_filler {
      type: "constant"
      value: 0
    }
  }
}
layer {
  name: "relu1_2_D"
  type: "ReLU"
  bottom: "conv1_2_D"
  top: "conv1_2_D"
}
layer {
  name: "conv1_1_D"
  type: "Convolution"
  bottom: "conv1_2_D"
  top: "conv1_1_D"
  param {
    lr_mult: 1
    decay_mult: 1
  }
  param {
    lr_mult: 2
    decay_mult: 0
  }
  convolution_param {
    num_output: 21
    pad: 1
    kernel_size: 3
    weight_filler {
      type: "xavier"
    }
    bias_filler {
      type: "constant"
      value: 0
    }
  }
}
layer {
  name: "loss"
  type: "SoftmaxWithLoss"
  bottom: "conv1_1_D"
  bottom: "label"
  top: "loss"
  loss_param {
    ignore_label: 255
    weight_by_label_freqs: true
    class_weighting: 0.2719
    class_weighting: 1.583
    class_weighting: 3.012
    class_weighting: 1.6572
    class_weighting: 1.7892
    class_weighting: 1.7815
    class_weighting: 0.5962
    class_weighting: 1.2053
    class_weighting: 0.674
    class_weighting: 1.8299
    class_weighting: 0.9166
    class_weighting: 0.8532
    class_weighting: 0.8935
    class_weighting: 0.9973
    class_weighting: 0.9742
    class_weighting: 1.1778
    class_weighting: 1.9162
    class_weighting: 1
    class_weighting: 0.8758
    class_weighting: 0.7225
    class_weighting: 1.3287
  }
  softmax_param {
    engine: CAFFE
  }
}
layer {
  name: "accuracy"
  type: "Accuracy"
  bottom: "conv1_1_D"
  bottom: "label"
  top: "accuracy"
  top: "per_class_accuracy"
}
I0418 16:23:30.728425  5266 layer_factory.hpp:74] Creating layer data
I0418 16:23:30.728451  5266 net.cpp:90] Creating Layer data
I0418 16:23:30.728459  5266 net.cpp:368] data -> data
I0418 16:23:30.728485  5266 net.cpp:368] data -> label
I0418 16:23:30.728495  5266 net.cpp:120] Setting up data
I0418 16:23:30.728513  5266 dense_image_data_layer.cpp:36] Opening file /home/shared/datasets/VOCdevkit/VOC2012/ImageSets/Segmentation/train_img_lab_224.txt
I0418 16:23:30.730756  5266 dense_image_data_layer.cpp:46] Shuffling data
I0418 16:23:30.731361  5266 dense_image_data_layer.cpp:51] A total of 2913 examples.
I0418 16:23:30.733160  5266 dense_image_data_layer.cpp:97] output data size: 2,3,224,224
I0418 16:23:30.733678  5266 net.cpp:127] Top shape: 2 3 224 224 (301056)
I0418 16:23:30.733692  5266 net.cpp:127] Top shape: 2 1 224 224 (100352)
I0418 16:23:30.733700  5266 layer_factory.hpp:74] Creating layer label_data_1_split
I0418 16:23:30.733711  5266 net.cpp:90] Creating Layer label_data_1_split
I0418 16:23:30.733721  5266 net.cpp:410] label_data_1_split <- label
I0418 16:23:30.733732  5266 net.cpp:368] label_data_1_split -> label_data_1_split_0
I0418 16:23:30.733743  5266 net.cpp:368] label_data_1_split -> label_data_1_split_1
I0418 16:23:30.733752  5266 net.cpp:120] Setting up label_data_1_split
I0418 16:23:30.733767  5266 net.cpp:127] Top shape: 2 1 224 224 (100352)
I0418 16:23:30.733774  5266 net.cpp:127] Top shape: 2 1 224 224 (100352)
I0418 16:23:30.733778  5266 layer_factory.hpp:74] Creating layer conv1_1
I0418 16:23:30.733789  5266 net.cpp:90] Creating Layer conv1_1
I0418 16:23:30.733796  5266 net.cpp:410] conv1_1 <- data
I0418 16:23:30.733805  5266 net.cpp:368] conv1_1 -> conv1_1
I0418 16:23:30.733819  5266 net.cpp:120] Setting up conv1_1
I0418 16:23:31.356459  5266 net.cpp:127] Top shape: 2 64 224 224 (6422528)
I0418 16:23:31.356504  5266 layer_factory.hpp:74] Creating layer conv1_1_bn
I0418 16:23:31.356528  5266 net.cpp:90] Creating Layer conv1_1_bn
I0418 16:23:31.356539  5266 net.cpp:410] conv1_1_bn <- conv1_1
I0418 16:23:31.356554  5266 net.cpp:357] conv1_1_bn -> conv1_1 (in-place)
I0418 16:23:31.356572  5266 net.cpp:120] Setting up conv1_1_bn
I0418 16:23:31.356695  5266 net.cpp:127] Top shape: 2 64 224 224 (6422528)
I0418 16:23:31.356711  5266 layer_factory.hpp:74] Creating layer relu1_1
I0418 16:23:31.356722  5266 net.cpp:90] Creating Layer relu1_1
I0418 16:23:31.356729  5266 net.cpp:410] relu1_1 <- conv1_1
I0418 16:23:31.356735  5266 net.cpp:357] relu1_1 -> conv1_1 (in-place)
I0418 16:23:31.356742  5266 net.cpp:120] Setting up relu1_1
I0418 16:23:31.357069  5266 net.cpp:127] Top shape: 2 64 224 224 (6422528)
I0418 16:23:31.357081  5266 layer_factory.hpp:74] Creating layer conv1_2
I0418 16:23:31.357092  5266 net.cpp:90] Creating Layer conv1_2
I0418 16:23:31.357102  5266 net.cpp:410] conv1_2 <- conv1_1
I0418 16:23:31.357110  5266 net.cpp:368] conv1_2 -> conv1_2
I0418 16:23:31.357121  5266 net.cpp:120] Setting up conv1_2
I0418 16:23:31.358106  5266 net.cpp:127] Top shape: 2 64 224 224 (6422528)
I0418 16:23:31.358124  5266 layer_factory.hpp:74] Creating layer conv1_2_bn
I0418 16:23:31.358136  5266 net.cpp:90] Creating Layer conv1_2_bn
I0418 16:23:31.358145  5266 net.cpp:410] conv1_2_bn <- conv1_2
I0418 16:23:31.358153  5266 net.cpp:357] conv1_2_bn -> conv1_2 (in-place)
I0418 16:23:31.358162  5266 net.cpp:120] Setting up conv1_2_bn
I0418 16:23:31.358278  5266 net.cpp:127] Top shape: 2 64 224 224 (6422528)
I0418 16:23:31.358290  5266 layer_factory.hpp:74] Creating layer relu1_2
I0418 16:23:31.358299  5266 net.cpp:90] Creating Layer relu1_2
I0418 16:23:31.358304  5266 net.cpp:410] relu1_2 <- conv1_2
I0418 16:23:31.358309  5266 net.cpp:357] relu1_2 -> conv1_2 (in-place)
I0418 16:23:31.358316  5266 net.cpp:120] Setting up relu1_2
I0418 16:23:31.358641  5266 net.cpp:127] Top shape: 2 64 224 224 (6422528)
I0418 16:23:31.358654  5266 layer_factory.hpp:74] Creating layer pool1_drop
I0418 16:23:31.358664  5266 net.cpp:90] Creating Layer pool1_drop
I0418 16:23:31.358670  5266 net.cpp:410] pool1_drop <- conv1_2
I0418 16:23:31.358700  5266 net.cpp:357] pool1_drop -> conv1_2 (in-place)
I0418 16:23:31.358711  5266 net.cpp:120] Setting up pool1_drop
I0418 16:23:31.358722  5266 net.cpp:127] Top shape: 2 64 224 224 (6422528)
I0418 16:23:31.358728  5266 layer_factory.hpp:74] Creating layer pool1
I0418 16:23:31.358736  5266 layer_factory.cpp:55] CUDNN does not support padding or multiple tops. Using Caffe's own pooling layer.
I0418 16:23:31.358744  5266 net.cpp:90] Creating Layer pool1
I0418 16:23:31.358752  5266 net.cpp:410] pool1 <- conv1_2
I0418 16:23:31.358758  5266 net.cpp:368] pool1 -> pool1
I0418 16:23:31.358767  5266 net.cpp:368] pool1 -> pool1_mask
I0418 16:23:31.358774  5266 net.cpp:120] Setting up pool1
I0418 16:23:31.358798  5266 net.cpp:127] Top shape: 2 64 112 112 (1605632)
I0418 16:23:31.358805  5266 net.cpp:127] Top shape: 2 64 112 112 (1605632)
I0418 16:23:31.358810  5266 layer_factory.hpp:74] Creating layer conv2_1
I0418 16:23:31.358819  5266 net.cpp:90] Creating Layer conv2_1
I0418 16:23:31.358824  5266 net.cpp:410] conv2_1 <- pool1
I0418 16:23:31.358831  5266 net.cpp:368] conv2_1 -> conv2_1
I0418 16:23:31.358840  5266 net.cpp:120] Setting up conv2_1
I0418 16:23:31.360219  5266 net.cpp:127] Top shape: 2 128 112 112 (3211264)
I0418 16:23:31.360236  5266 layer_factory.hpp:74] Creating layer conv2_1_bn
I0418 16:23:31.360247  5266 net.cpp:90] Creating Layer conv2_1_bn
I0418 16:23:31.360256  5266 net.cpp:410] conv2_1_bn <- conv2_1
I0418 16:23:31.360265  5266 net.cpp:357] conv2_1_bn -> conv2_1 (in-place)
I0418 16:23:31.360275  5266 net.cpp:120] Setting up conv2_1_bn
I0418 16:23:31.360313  5266 net.cpp:127] Top shape: 2 128 112 112 (3211264)
I0418 16:23:31.360324  5266 layer_factory.hpp:74] Creating layer relu2_1
I0418 16:23:31.360332  5266 net.cpp:90] Creating Layer relu2_1
I0418 16:23:31.360337  5266 net.cpp:410] relu2_1 <- conv2_1
I0418 16:23:31.360344  5266 net.cpp:357] relu2_1 -> conv2_1 (in-place)
I0418 16:23:31.360350  5266 net.cpp:120] Setting up relu2_1
I0418 16:23:31.360527  5266 net.cpp:127] Top shape: 2 128 112 112 (3211264)
I0418 16:23:31.360539  5266 layer_factory.hpp:74] Creating layer conv2_2
I0418 16:23:31.360549  5266 net.cpp:90] Creating Layer conv2_2
I0418 16:23:31.360555  5266 net.cpp:410] conv2_2 <- conv2_1
I0418 16:23:31.360563  5266 net.cpp:368] conv2_2 -> conv2_2
I0418 16:23:31.360572  5266 net.cpp:120] Setting up conv2_2
I0418 16:23:31.362498  5266 net.cpp:127] Top shape: 2 128 112 112 (3211264)
I0418 16:23:31.362514  5266 layer_factory.hpp:74] Creating layer conv2_2_bn
I0418 16:23:31.362527  5266 net.cpp:90] Creating Layer conv2_2_bn
I0418 16:23:31.362534  5266 net.cpp:410] conv2_2_bn <- conv2_2
I0418 16:23:31.362542  5266 net.cpp:357] conv2_2_bn -> conv2_2 (in-place)
I0418 16:23:31.362550  5266 net.cpp:120] Setting up conv2_2_bn
I0418 16:23:31.362589  5266 net.cpp:127] Top shape: 2 128 112 112 (3211264)
I0418 16:23:31.362601  5266 layer_factory.hpp:74] Creating layer relu2_2
I0418 16:23:31.362610  5266 net.cpp:90] Creating Layer relu2_2
I0418 16:23:31.362615  5266 net.cpp:410] relu2_2 <- conv2_2
I0418 16:23:31.362622  5266 net.cpp:357] relu2_2 -> conv2_2 (in-place)
I0418 16:23:31.362628  5266 net.cpp:120] Setting up relu2_2
I0418 16:23:31.362952  5266 net.cpp:127] Top shape: 2 128 112 112 (3211264)
I0418 16:23:31.362965  5266 layer_factory.hpp:74] Creating layer pool2_drop
I0418 16:23:31.362975  5266 net.cpp:90] Creating Layer pool2_drop
I0418 16:23:31.362982  5266 net.cpp:410] pool2_drop <- conv2_2
I0418 16:23:31.362993  5266 net.cpp:357] pool2_drop -> conv2_2 (in-place)
I0418 16:23:31.363001  5266 net.cpp:120] Setting up pool2_drop
I0418 16:23:31.363009  5266 net.cpp:127] Top shape: 2 128 112 112 (3211264)
I0418 16:23:31.363016  5266 layer_factory.hpp:74] Creating layer pool2
I0418 16:23:31.363023  5266 layer_factory.cpp:55] CUDNN does not support padding or multiple tops. Using Caffe's own pooling layer.
I0418 16:23:31.363029  5266 net.cpp:90] Creating Layer pool2
I0418 16:23:31.363032  5266 net.cpp:410] pool2 <- conv2_2
I0418 16:23:31.363039  5266 net.cpp:368] pool2 -> pool2
I0418 16:23:31.363061  5266 net.cpp:368] pool2 -> pool2_mask
I0418 16:23:31.363070  5266 net.cpp:120] Setting up pool2
I0418 16:23:31.363080  5266 net.cpp:127] Top shape: 2 128 56 56 (802816)
I0418 16:23:31.363087  5266 net.cpp:127] Top shape: 2 128 56 56 (802816)
I0418 16:23:31.363092  5266 layer_factory.hpp:74] Creating layer conv3_1
I0418 16:23:31.363101  5266 net.cpp:90] Creating Layer conv3_1
I0418 16:23:31.363107  5266 net.cpp:410] conv3_1 <- pool2
I0418 16:23:31.363122  5266 net.cpp:368] conv3_1 -> conv3_1
I0418 16:23:31.363138  5266 net.cpp:120] Setting up conv3_1
I0418 16:23:31.365969  5266 net.cpp:127] Top shape: 2 256 56 56 (1605632)
I0418 16:23:31.365990  5266 layer_factory.hpp:74] Creating layer conv3_1_bn
I0418 16:23:31.366001  5266 net.cpp:90] Creating Layer conv3_1_bn
I0418 16:23:31.366011  5266 net.cpp:410] conv3_1_bn <- conv3_1
I0418 16:23:31.366020  5266 net.cpp:357] conv3_1_bn -> conv3_1 (in-place)
I0418 16:23:31.366030  5266 net.cpp:120] Setting up conv3_1_bn
I0418 16:23:31.366053  5266 net.cpp:127] Top shape: 2 256 56 56 (1605632)
I0418 16:23:31.366063  5266 layer_factory.hpp:74] Creating layer relu3_1
I0418 16:23:31.366071  5266 net.cpp:90] Creating Layer relu3_1
I0418 16:23:31.366077  5266 net.cpp:410] relu3_1 <- conv3_1
I0418 16:23:31.366083  5266 net.cpp:357] relu3_1 -> conv3_1 (in-place)
I0418 16:23:31.366089  5266 net.cpp:120] Setting up relu3_1
I0418 16:23:31.366416  5266 net.cpp:127] Top shape: 2 256 56 56 (1605632)
I0418 16:23:31.366430  5266 layer_factory.hpp:74] Creating layer conv3_2
I0418 16:23:31.366438  5266 net.cpp:90] Creating Layer conv3_2
I0418 16:23:31.366448  5266 net.cpp:410] conv3_2 <- conv3_1
I0418 16:23:31.366457  5266 net.cpp:368] conv3_2 -> conv3_2
I0418 16:23:31.366467  5266 net.cpp:120] Setting up conv3_2
I0418 16:23:31.371578  5266 net.cpp:127] Top shape: 2 256 56 56 (1605632)
I0418 16:23:31.371598  5266 layer_factory.hpp:74] Creating layer conv3_2_bn
I0418 16:23:31.371608  5266 net.cpp:90] Creating Layer conv3_2_bn
I0418 16:23:31.371623  5266 net.cpp:410] conv3_2_bn <- conv3_2
I0418 16:23:31.371631  5266 net.cpp:357] conv3_2_bn -> conv3_2 (in-place)
I0418 16:23:31.371642  5266 net.cpp:120] Setting up conv3_2_bn
I0418 16:23:31.371666  5266 net.cpp:127] Top shape: 2 256 56 56 (1605632)
I0418 16:23:31.371676  5266 layer_factory.hpp:74] Creating layer relu3_2
I0418 16:23:31.371685  5266 net.cpp:90] Creating Layer relu3_2
I0418 16:23:31.371690  5266 net.cpp:410] relu3_2 <- conv3_2
I0418 16:23:31.371697  5266 net.cpp:357] relu3_2 -> conv3_2 (in-place)
I0418 16:23:31.371703  5266 net.cpp:120] Setting up relu3_2
I0418 16:23:31.371882  5266 net.cpp:127] Top shape: 2 256 56 56 (1605632)
I0418 16:23:31.371894  5266 layer_factory.hpp:74] Creating layer conv3_3
I0418 16:23:31.371904  5266 net.cpp:90] Creating Layer conv3_3
I0418 16:23:31.371912  5266 net.cpp:410] conv3_3 <- conv3_2
I0418 16:23:31.371919  5266 net.cpp:368] conv3_3 -> conv3_3
I0418 16:23:31.371927  5266 net.cpp:120] Setting up conv3_3
I0418 16:23:31.377063  5266 net.cpp:127] Top shape: 2 256 56 56 (1605632)
I0418 16:23:31.377082  5266 layer_factory.hpp:74] Creating layer conv3_3_bn
I0418 16:23:31.377094  5266 net.cpp:90] Creating Layer conv3_3_bn
I0418 16:23:31.377099  5266 net.cpp:410] conv3_3_bn <- conv3_3
I0418 16:23:31.377110  5266 net.cpp:357] conv3_3_bn -> conv3_3 (in-place)
I0418 16:23:31.377121  5266 net.cpp:120] Setting up conv3_3_bn
I0418 16:23:31.377146  5266 net.cpp:127] Top shape: 2 256 56 56 (1605632)
I0418 16:23:31.377156  5266 layer_factory.hpp:74] Creating layer relu3_3
I0418 16:23:31.377163  5266 net.cpp:90] Creating Layer relu3_3
I0418 16:23:31.377171  5266 net.cpp:410] relu3_3 <- conv3_3
I0418 16:23:31.377178  5266 net.cpp:357] relu3_3 -> conv3_3 (in-place)
I0418 16:23:31.377185  5266 net.cpp:120] Setting up relu3_3
I0418 16:23:31.377513  5266 net.cpp:127] Top shape: 2 256 56 56 (1605632)
I0418 16:23:31.377526  5266 layer_factory.hpp:74] Creating layer pool3_drop
I0418 16:23:31.377535  5266 net.cpp:90] Creating Layer pool3_drop
I0418 16:23:31.377540  5266 net.cpp:410] pool3_drop <- conv3_3
I0418 16:23:31.377568  5266 net.cpp:357] pool3_drop -> conv3_3 (in-place)
I0418 16:23:31.377578  5266 net.cpp:120] Setting up pool3_drop
I0418 16:23:31.377588  5266 net.cpp:127] Top shape: 2 256 56 56 (1605632)
I0418 16:23:31.377594  5266 layer_factory.hpp:74] Creating layer pool3
I0418 16:23:31.377601  5266 layer_factory.cpp:55] CUDNN does not support padding or multiple tops. Using Caffe's own pooling layer.
I0418 16:23:31.377609  5266 net.cpp:90] Creating Layer pool3
I0418 16:23:31.377614  5266 net.cpp:410] pool3 <- conv3_3
I0418 16:23:31.377620  5266 net.cpp:368] pool3 -> pool3
I0418 16:23:31.377627  5266 net.cpp:368] pool3 -> pool3_mask
I0418 16:23:31.377638  5266 net.cpp:120] Setting up pool3
I0418 16:23:31.377650  5266 net.cpp:127] Top shape: 2 256 28 28 (401408)
I0418 16:23:31.377658  5266 net.cpp:127] Top shape: 2 256 28 28 (401408)
I0418 16:23:31.377663  5266 layer_factory.hpp:74] Creating layer conv4_1
I0418 16:23:31.377671  5266 net.cpp:90] Creating Layer conv4_1
I0418 16:23:31.377677  5266 net.cpp:410] conv4_1 <- pool3
I0418 16:23:31.377686  5266 net.cpp:368] conv4_1 -> conv4_1
I0418 16:23:31.377693  5266 net.cpp:120] Setting up conv4_1
I0418 16:23:31.387734  5266 net.cpp:127] Top shape: 2 512 28 28 (802816)
I0418 16:23:31.387768  5266 layer_factory.hpp:74] Creating layer conv4_1_bn
I0418 16:23:31.387784  5266 net.cpp:90] Creating Layer conv4_1_bn
I0418 16:23:31.387790  5266 net.cpp:410] conv4_1_bn <- conv4_1
I0418 16:23:31.387800  5266 net.cpp:357] conv4_1_bn -> conv4_1 (in-place)
I0418 16:23:31.387815  5266 net.cpp:120] Setting up conv4_1_bn
I0418 16:23:31.387837  5266 net.cpp:127] Top shape: 2 512 28 28 (802816)
I0418 16:23:31.387846  5266 layer_factory.hpp:74] Creating layer relu4_1
I0418 16:23:31.387857  5266 net.cpp:90] Creating Layer relu4_1
I0418 16:23:31.387866  5266 net.cpp:410] relu4_1 <- conv4_1
I0418 16:23:31.387872  5266 net.cpp:357] relu4_1 -> conv4_1 (in-place)
I0418 16:23:31.387878  5266 net.cpp:120] Setting up relu4_1
I0418 16:23:31.388345  5266 net.cpp:127] Top shape: 2 512 28 28 (802816)
I0418 16:23:31.388358  5266 layer_factory.hpp:74] Creating layer conv4_2
I0418 16:23:31.388375  5266 net.cpp:90] Creating Layer conv4_2
I0418 16:23:31.388386  5266 net.cpp:410] conv4_2 <- conv4_1
I0418 16:23:31.388393  5266 net.cpp:368] conv4_2 -> conv4_2
I0418 16:23:31.388404  5266 net.cpp:120] Setting up conv4_2
I0418 16:23:31.407469  5266 net.cpp:127] Top shape: 2 512 28 28 (802816)
I0418 16:23:31.407526  5266 layer_factory.hpp:74] Creating layer conv4_2_bn
I0418 16:23:31.407547  5266 net.cpp:90] Creating Layer conv4_2_bn
I0418 16:23:31.407557  5266 net.cpp:410] conv4_2_bn <- conv4_2
I0418 16:23:31.407569  5266 net.cpp:357] conv4_2_bn -> conv4_2 (in-place)
I0418 16:23:31.407585  5266 net.cpp:120] Setting up conv4_2_bn
I0418 16:23:31.407608  5266 net.cpp:127] Top shape: 2 512 28 28 (802816)
I0418 16:23:31.407618  5266 layer_factory.hpp:74] Creating layer relu4_2
I0418 16:23:31.407626  5266 net.cpp:90] Creating Layer relu4_2
I0418 16:23:31.407634  5266 net.cpp:410] relu4_2 <- conv4_2
I0418 16:23:31.407639  5266 net.cpp:357] relu4_2 -> conv4_2 (in-place)
I0418 16:23:31.407646  5266 net.cpp:120] Setting up relu4_2
I0418 16:23:31.407825  5266 net.cpp:127] Top shape: 2 512 28 28 (802816)
I0418 16:23:31.407837  5266 layer_factory.hpp:74] Creating layer conv4_3
I0418 16:23:31.407850  5266 net.cpp:90] Creating Layer conv4_3
I0418 16:23:31.407855  5266 net.cpp:410] conv4_3 <- conv4_2
I0418 16:23:31.407866  5266 net.cpp:368] conv4_3 -> conv4_3
I0418 16:23:31.407876  5266 net.cpp:120] Setting up conv4_3
I0418 16:23:31.427095  5266 net.cpp:127] Top shape: 2 512 28 28 (802816)
I0418 16:23:31.427160  5266 layer_factory.hpp:74] Creating layer conv4_3_bn
I0418 16:23:31.427177  5266 net.cpp:90] Creating Layer conv4_3_bn
I0418 16:23:31.427188  5266 net.cpp:410] conv4_3_bn <- conv4_3
I0418 16:23:31.427201  5266 net.cpp:357] conv4_3_bn -> conv4_3 (in-place)
I0418 16:23:31.427219  5266 net.cpp:120] Setting up conv4_3_bn
I0418 16:23:31.427242  5266 net.cpp:127] Top shape: 2 512 28 28 (802816)
I0418 16:23:31.427251  5266 layer_factory.hpp:74] Creating layer relu4_3
I0418 16:23:31.427278  5266 net.cpp:90] Creating Layer relu4_3
I0418 16:23:31.427285  5266 net.cpp:410] relu4_3 <- conv4_3
I0418 16:23:31.427292  5266 net.cpp:357] relu4_3 -> conv4_3 (in-place)
I0418 16:23:31.427299  5266 net.cpp:120] Setting up relu4_3
I0418 16:23:31.427629  5266 net.cpp:127] Top shape: 2 512 28 28 (802816)
I0418 16:23:31.427642  5266 layer_factory.hpp:74] Creating layer pool4_drop
I0418 16:23:31.427652  5266 net.cpp:90] Creating Layer pool4_drop
I0418 16:23:31.427659  5266 net.cpp:410] pool4_drop <- conv4_3
I0418 16:23:31.427670  5266 net.cpp:357] pool4_drop -> conv4_3 (in-place)
I0418 16:23:31.427678  5266 net.cpp:120] Setting up pool4_drop
I0418 16:23:31.427688  5266 net.cpp:127] Top shape: 2 512 28 28 (802816)
I0418 16:23:31.427695  5266 layer_factory.hpp:74] Creating layer pool4
I0418 16:23:31.427701  5266 layer_factory.cpp:55] CUDNN does not support padding or multiple tops. Using Caffe's own pooling layer.
I0418 16:23:31.427708  5266 net.cpp:90] Creating Layer pool4
I0418 16:23:31.427713  5266 net.cpp:410] pool4 <- conv4_3
I0418 16:23:31.427721  5266 net.cpp:368] pool4 -> pool4
I0418 16:23:31.427729  5266 net.cpp:368] pool4 -> pool4_mask
I0418 16:23:31.427737  5266 net.cpp:120] Setting up pool4
I0418 16:23:31.427747  5266 net.cpp:127] Top shape: 2 512 14 14 (200704)
I0418 16:23:31.427754  5266 net.cpp:127] Top shape: 2 512 14 14 (200704)
I0418 16:23:31.427759  5266 layer_factory.hpp:74] Creating layer conv5_1
I0418 16:23:31.427770  5266 net.cpp:90] Creating Layer conv5_1
I0418 16:23:31.427777  5266 net.cpp:410] conv5_1 <- pool4
I0418 16:23:31.427784  5266 net.cpp:368] conv5_1 -> conv5_1
I0418 16:23:31.427793  5266 net.cpp:120] Setting up conv5_1
I0418 16:23:31.446645  5266 net.cpp:127] Top shape: 2 512 14 14 (200704)
I0418 16:23:31.446694  5266 layer_factory.hpp:74] Creating layer conv5_1_bn
I0418 16:23:31.446717  5266 net.cpp:90] Creating Layer conv5_1_bn
I0418 16:23:31.446725  5266 net.cpp:410] conv5_1_bn <- conv5_1
I0418 16:23:31.446735  5266 net.cpp:357] conv5_1_bn -> conv5_1 (in-place)
I0418 16:23:31.446751  5266 net.cpp:120] Setting up conv5_1_bn
I0418 16:23:31.446774  5266 net.cpp:127] Top shape: 2 512 14 14 (200704)
I0418 16:23:31.446784  5266 layer_factory.hpp:74] Creating layer relu5_1
I0418 16:23:31.446796  5266 net.cpp:90] Creating Layer relu5_1
I0418 16:23:31.446804  5266 net.cpp:410] relu5_1 <- conv5_1
I0418 16:23:31.446811  5266 net.cpp:357] relu5_1 -> conv5_1 (in-place)
I0418 16:23:31.446818  5266 net.cpp:120] Setting up relu5_1
I0418 16:23:31.447175  5266 net.cpp:127] Top shape: 2 512 14 14 (200704)
I0418 16:23:31.447188  5266 layer_factory.hpp:74] Creating layer conv5_2
I0418 16:23:31.447202  5266 net.cpp:90] Creating Layer conv5_2
I0418 16:23:31.447214  5266 net.cpp:410] conv5_2 <- conv5_1
I0418 16:23:31.447224  5266 net.cpp:368] conv5_2 -> conv5_2
I0418 16:23:31.447237  5266 net.cpp:120] Setting up conv5_2
I0418 16:23:31.466461  5266 net.cpp:127] Top shape: 2 512 14 14 (200704)
I0418 16:23:31.466511  5266 layer_factory.hpp:74] Creating layer conv5_2_bn
I0418 16:23:31.466533  5266 net.cpp:90] Creating Layer conv5_2_bn
I0418 16:23:31.466542  5266 net.cpp:410] conv5_2_bn <- conv5_2
I0418 16:23:31.466560  5266 net.cpp:357] conv5_2_bn -> conv5_2 (in-place)
I0418 16:23:31.466577  5266 net.cpp:120] Setting up conv5_2_bn
I0418 16:23:31.466604  5266 net.cpp:127] Top shape: 2 512 14 14 (200704)
I0418 16:23:31.466614  5266 layer_factory.hpp:74] Creating layer relu5_2
I0418 16:23:31.466625  5266 net.cpp:90] Creating Layer relu5_2
I0418 16:23:31.466631  5266 net.cpp:410] relu5_2 <- conv5_2
I0418 16:23:31.466639  5266 net.cpp:357] relu5_2 -> conv5_2 (in-place)
I0418 16:23:31.466645  5266 net.cpp:120] Setting up relu5_2
I0418 16:23:31.466832  5266 net.cpp:127] Top shape: 2 512 14 14 (200704)
I0418 16:23:31.466845  5266 layer_factory.hpp:74] Creating layer conv5_3
I0418 16:23:31.466857  5266 net.cpp:90] Creating Layer conv5_3
I0418 16:23:31.466864  5266 net.cpp:410] conv5_3 <- conv5_2
I0418 16:23:31.466874  5266 net.cpp:368] conv5_3 -> conv5_3
I0418 16:23:31.466900  5266 net.cpp:120] Setting up conv5_3
I0418 16:23:31.485930  5266 net.cpp:127] Top shape: 2 512 14 14 (200704)
I0418 16:23:31.485980  5266 layer_factory.hpp:74] Creating layer conv5_3_bn
I0418 16:23:31.486001  5266 net.cpp:90] Creating Layer conv5_3_bn
I0418 16:23:31.486011  5266 net.cpp:410] conv5_3_bn <- conv5_3
I0418 16:23:31.486029  5266 net.cpp:357] conv5_3_bn -> conv5_3 (in-place)
I0418 16:23:31.486044  5266 net.cpp:120] Setting up conv5_3_bn
I0418 16:23:31.486068  5266 net.cpp:127] Top shape: 2 512 14 14 (200704)
I0418 16:23:31.486076  5266 layer_factory.hpp:74] Creating layer relu5_3
I0418 16:23:31.486085  5266 net.cpp:90] Creating Layer relu5_3
I0418 16:23:31.486093  5266 net.cpp:410] relu5_3 <- conv5_3
I0418 16:23:31.486101  5266 net.cpp:357] relu5_3 -> conv5_3 (in-place)
I0418 16:23:31.486109  5266 net.cpp:120] Setting up relu5_3
I0418 16:23:31.486449  5266 net.cpp:127] Top shape: 2 512 14 14 (200704)
I0418 16:23:31.486462  5266 layer_factory.hpp:74] Creating layer pool5_drop
I0418 16:23:31.486472  5266 net.cpp:90] Creating Layer pool5_drop
I0418 16:23:31.486479  5266 net.cpp:410] pool5_drop <- conv5_3
I0418 16:23:31.486490  5266 net.cpp:357] pool5_drop -> conv5_3 (in-place)
I0418 16:23:31.486497  5266 net.cpp:120] Setting up pool5_drop
I0418 16:23:31.486506  5266 net.cpp:127] Top shape: 2 512 14 14 (200704)
I0418 16:23:31.486513  5266 layer_factory.hpp:74] Creating layer pool5
I0418 16:23:31.486521  5266 layer_factory.cpp:55] CUDNN does not support padding or multiple tops. Using Caffe's own pooling layer.
I0418 16:23:31.486528  5266 net.cpp:90] Creating Layer pool5
I0418 16:23:31.486536  5266 net.cpp:410] pool5 <- conv5_3
I0418 16:23:31.486542  5266 net.cpp:368] pool5 -> pool5
I0418 16:23:31.486552  5266 net.cpp:368] pool5 -> pool5_mask
I0418 16:23:31.486558  5266 net.cpp:120] Setting up pool5
I0418 16:23:31.486567  5266 net.cpp:127] Top shape: 2 512 7 7 (50176)
I0418 16:23:31.486575  5266 net.cpp:127] Top shape: 2 512 7 7 (50176)
I0418 16:23:31.486580  5266 layer_factory.hpp:74] Creating layer upsample5_drop
I0418 16:23:31.486587  5266 net.cpp:90] Creating Layer upsample5_drop
I0418 16:23:31.486590  5266 net.cpp:410] upsample5_drop <- pool5
I0418 16:23:31.486598  5266 net.cpp:357] upsample5_drop -> pool5 (in-place)
I0418 16:23:31.486605  5266 net.cpp:120] Setting up upsample5_drop
I0418 16:23:31.486613  5266 net.cpp:127] Top shape: 2 512 7 7 (50176)
I0418 16:23:31.486619  5266 layer_factory.hpp:74] Creating layer upsample5
I0418 16:23:31.486627  5266 net.cpp:90] Creating Layer upsample5
I0418 16:23:31.486631  5266 net.cpp:410] upsample5 <- pool5
I0418 16:23:31.486637  5266 net.cpp:410] upsample5 <- pool5_mask
I0418 16:23:31.486646  5266 net.cpp:368] upsample5 -> pool5_D
I0418 16:23:31.486661  5266 net.cpp:120] Setting up upsample5
I0418 16:23:31.486670  5266 upsample_layer.cpp:31] Params 'pad_out_{}_' are deprecated. Please declare upsample height and width useing the upsample_h, upsample_w parameters.
I0418 16:23:31.486678  5266 net.cpp:127] Top shape: 2 512 14 14 (200704)
I0418 16:23:31.486685  5266 layer_factory.hpp:74] Creating layer conv5_3_D
I0418 16:23:31.486696  5266 net.cpp:90] Creating Layer conv5_3_D
I0418 16:23:31.486701  5266 net.cpp:410] conv5_3_D <- pool5_D
I0418 16:23:31.486711  5266 net.cpp:368] conv5_3_D -> conv5_3_D
I0418 16:23:31.486721  5266 net.cpp:120] Setting up conv5_3_D
I0418 16:23:31.505823  5266 net.cpp:127] Top shape: 2 512 14 14 (200704)
I0418 16:23:31.505875  5266 layer_factory.hpp:74] Creating layer conv5_3_D_bn
I0418 16:23:31.505895  5266 net.cpp:90] Creating Layer conv5_3_D_bn
I0418 16:23:31.505904  5266 net.cpp:410] conv5_3_D_bn <- conv5_3_D
I0418 16:23:31.505916  5266 net.cpp:357] conv5_3_D_bn -> conv5_3_D (in-place)
I0418 16:23:31.505934  5266 net.cpp:120] Setting up conv5_3_D_bn
I0418 16:23:31.505956  5266 net.cpp:127] Top shape: 2 512 14 14 (200704)
I0418 16:23:31.505966  5266 layer_factory.hpp:74] Creating layer relu5_3_D
I0418 16:23:31.505980  5266 net.cpp:90] Creating Layer relu5_3_D
I0418 16:23:31.505986  5266 net.cpp:410] relu5_3_D <- conv5_3_D
I0418 16:23:31.506009  5266 net.cpp:357] relu5_3_D -> conv5_3_D (in-place)
I0418 16:23:31.506017  5266 net.cpp:120] Setting up relu5_3_D
I0418 16:23:31.506356  5266 net.cpp:127] Top shape: 2 512 14 14 (200704)
I0418 16:23:31.506368  5266 layer_factory.hpp:74] Creating layer conv5_2_D
I0418 16:23:31.506381  5266 net.cpp:90] Creating Layer conv5_2_D
I0418 16:23:31.506392  5266 net.cpp:410] conv5_2_D <- conv5_3_D
I0418 16:23:31.506402  5266 net.cpp:368] conv5_2_D -> conv5_2_D
I0418 16:23:31.506412  5266 net.cpp:120] Setting up conv5_2_D
I0418 16:23:31.525434  5266 net.cpp:127] Top shape: 2 512 14 14 (200704)
I0418 16:23:31.525485  5266 layer_factory.hpp:74] Creating layer conv5_2_D_bn
I0418 16:23:31.525506  5266 net.cpp:90] Creating Layer conv5_2_D_bn
I0418 16:23:31.525518  5266 net.cpp:410] conv5_2_D_bn <- conv5_2_D
I0418 16:23:31.525530  5266 net.cpp:357] conv5_2_D_bn -> conv5_2_D (in-place)
I0418 16:23:31.525547  5266 net.cpp:120] Setting up conv5_2_D_bn
I0418 16:23:31.525569  5266 net.cpp:127] Top shape: 2 512 14 14 (200704)
I0418 16:23:31.525579  5266 layer_factory.hpp:74] Creating layer relu5_2_D
I0418 16:23:31.525588  5266 net.cpp:90] Creating Layer relu5_2_D
I0418 16:23:31.525595  5266 net.cpp:410] relu5_2_D <- conv5_2_D
I0418 16:23:31.525601  5266 net.cpp:357] relu5_2_D -> conv5_2_D (in-place)
I0418 16:23:31.525609  5266 net.cpp:120] Setting up relu5_2_D
I0418 16:23:31.525801  5266 net.cpp:127] Top shape: 2 512 14 14 (200704)
I0418 16:23:31.525813  5266 layer_factory.hpp:74] Creating layer conv5_1_D
I0418 16:23:31.525826  5266 net.cpp:90] Creating Layer conv5_1_D
I0418 16:23:31.525836  5266 net.cpp:410] conv5_1_D <- conv5_2_D
I0418 16:23:31.525845  5266 net.cpp:368] conv5_1_D -> conv5_1_D
I0418 16:23:31.525854  5266 net.cpp:120] Setting up conv5_1_D
I0418 16:23:31.545140  5266 net.cpp:127] Top shape: 2 512 14 14 (200704)
I0418 16:23:31.545189  5266 layer_factory.hpp:74] Creating layer conv5_1_D_bn
I0418 16:23:31.545209  5266 net.cpp:90] Creating Layer conv5_1_D_bn
I0418 16:23:31.545222  5266 net.cpp:410] conv5_1_D_bn <- conv5_1_D
I0418 16:23:31.545234  5266 net.cpp:357] conv5_1_D_bn -> conv5_1_D (in-place)
I0418 16:23:31.545254  5266 net.cpp:120] Setting up conv5_1_D_bn
I0418 16:23:31.545277  5266 net.cpp:127] Top shape: 2 512 14 14 (200704)
I0418 16:23:31.545287  5266 layer_factory.hpp:74] Creating layer relu5_1_D
I0418 16:23:31.545298  5266 net.cpp:90] Creating Layer relu5_1_D
I0418 16:23:31.545305  5266 net.cpp:410] relu5_1_D <- conv5_1_D
I0418 16:23:31.545310  5266 net.cpp:357] relu5_1_D -> conv5_1_D (in-place)
I0418 16:23:31.545317  5266 net.cpp:120] Setting up relu5_1_D
I0418 16:23:31.545799  5266 net.cpp:127] Top shape: 2 512 14 14 (200704)
I0418 16:23:31.545811  5266 layer_factory.hpp:74] Creating layer upsample4_drop
I0418 16:23:31.545822  5266 net.cpp:90] Creating Layer upsample4_drop
I0418 16:23:31.545835  5266 net.cpp:410] upsample4_drop <- conv5_1_D
I0418 16:23:31.545841  5266 net.cpp:357] upsample4_drop -> conv5_1_D (in-place)
I0418 16:23:31.545850  5266 net.cpp:120] Setting up upsample4_drop
I0418 16:23:31.545861  5266 net.cpp:127] Top shape: 2 512 14 14 (200704)
I0418 16:23:31.545867  5266 layer_factory.hpp:74] Creating layer upsample4
I0418 16:23:31.545876  5266 net.cpp:90] Creating Layer upsample4
I0418 16:23:31.545881  5266 net.cpp:410] upsample4 <- conv5_1_D
I0418 16:23:31.545886  5266 net.cpp:410] upsample4 <- pool4_mask
I0418 16:23:31.545895  5266 net.cpp:368] upsample4 -> pool4_D
I0418 16:23:31.545905  5266 net.cpp:120] Setting up upsample4
I0418 16:23:31.545912  5266 upsample_layer.cpp:31] Params 'pad_out_{}_' are deprecated. Please declare upsample height and width useing the upsample_h, upsample_w parameters.
I0418 16:23:31.545919  5266 net.cpp:127] Top shape: 2 512 28 28 (802816)
I0418 16:23:31.545924  5266 layer_factory.hpp:74] Creating layer conv4_3_D
I0418 16:23:31.545946  5266 net.cpp:90] Creating Layer conv4_3_D
I0418 16:23:31.545953  5266 net.cpp:410] conv4_3_D <- pool4_D
I0418 16:23:31.545963  5266 net.cpp:368] conv4_3_D -> conv4_3_D
I0418 16:23:31.545975  5266 net.cpp:120] Setting up conv4_3_D
I0418 16:23:31.564838  5266 net.cpp:127] Top shape: 2 512 28 28 (802816)
I0418 16:23:31.564905  5266 layer_factory.hpp:74] Creating layer conv4_3_D_bn
I0418 16:23:31.564934  5266 net.cpp:90] Creating Layer conv4_3_D_bn
I0418 16:23:31.564942  5266 net.cpp:410] conv4_3_D_bn <- conv4_3_D
I0418 16:23:31.564961  5266 net.cpp:357] conv4_3_D_bn -> conv4_3_D (in-place)
I0418 16:23:31.564976  5266 net.cpp:120] Setting up conv4_3_D_bn
I0418 16:23:31.565001  5266 net.cpp:127] Top shape: 2 512 28 28 (802816)
I0418 16:23:31.565011  5266 layer_factory.hpp:74] Creating layer relu4_3_D
I0418 16:23:31.565024  5266 net.cpp:90] Creating Layer relu4_3_D
I0418 16:23:31.565031  5266 net.cpp:410] relu4_3_D <- conv4_3_D
I0418 16:23:31.565038  5266 net.cpp:357] relu4_3_D -> conv4_3_D (in-place)
I0418 16:23:31.565045  5266 net.cpp:120] Setting up relu4_3_D
I0418 16:23:31.565384  5266 net.cpp:127] Top shape: 2 512 28 28 (802816)
I0418 16:23:31.565397  5266 layer_factory.hpp:74] Creating layer conv4_2_D
I0418 16:23:31.565409  5266 net.cpp:90] Creating Layer conv4_2_D
I0418 16:23:31.565423  5266 net.cpp:410] conv4_2_D <- conv4_3_D
I0418 16:23:31.565430  5266 net.cpp:368] conv4_2_D -> conv4_2_D
I0418 16:23:31.565441  5266 net.cpp:120] Setting up conv4_2_D
I0418 16:23:31.584774  5266 net.cpp:127] Top shape: 2 512 28 28 (802816)
I0418 16:23:31.584823  5266 layer_factory.hpp:74] Creating layer conv4_2_D_bn
I0418 16:23:31.584846  5266 net.cpp:90] Creating Layer conv4_2_D_bn
I0418 16:23:31.584854  5266 net.cpp:410] conv4_2_D_bn <- conv4_2_D
I0418 16:23:31.584866  5266 net.cpp:357] conv4_2_D_bn -> conv4_2_D (in-place)
I0418 16:23:31.584883  5266 net.cpp:120] Setting up conv4_2_D_bn
I0418 16:23:31.584908  5266 net.cpp:127] Top shape: 2 512 28 28 (802816)
I0418 16:23:31.584918  5266 layer_factory.hpp:74] Creating layer relu4_2_D
I0418 16:23:31.584929  5266 net.cpp:90] Creating Layer relu4_2_D
I0418 16:23:31.584936  5266 net.cpp:410] relu4_2_D <- conv4_2_D
I0418 16:23:31.584945  5266 net.cpp:357] relu4_2_D -> conv4_2_D (in-place)
I0418 16:23:31.584955  5266 net.cpp:120] Setting up relu4_2_D
I0418 16:23:31.585150  5266 net.cpp:127] Top shape: 2 512 28 28 (802816)
I0418 16:23:31.585161  5266 layer_factory.hpp:74] Creating layer conv4_1_D
I0418 16:23:31.585172  5266 net.cpp:90] Creating Layer conv4_1_D
I0418 16:23:31.585182  5266 net.cpp:410] conv4_1_D <- conv4_2_D
I0418 16:23:31.585193  5266 net.cpp:368] conv4_1_D -> conv4_1_D
I0418 16:23:31.585204  5266 net.cpp:120] Setting up conv4_1_D
I0418 16:23:31.595304  5266 net.cpp:127] Top shape: 2 256 28 28 (401408)
I0418 16:23:31.595327  5266 layer_factory.hpp:74] Creating layer conv4_1_D_bn
I0418 16:23:31.595340  5266 net.cpp:90] Creating Layer conv4_1_D_bn
I0418 16:23:31.595348  5266 net.cpp:410] conv4_1_D_bn <- conv4_1_D
I0418 16:23:31.595357  5266 net.cpp:357] conv4_1_D_bn -> conv4_1_D (in-place)
I0418 16:23:31.595372  5266 net.cpp:120] Setting up conv4_1_D_bn
I0418 16:23:31.595396  5266 net.cpp:127] Top shape: 2 256 28 28 (401408)
I0418 16:23:31.595405  5266 layer_factory.hpp:74] Creating layer relu4_1_D
I0418 16:23:31.595412  5266 net.cpp:90] Creating Layer relu4_1_D
I0418 16:23:31.595422  5266 net.cpp:410] relu4_1_D <- conv4_1_D
I0418 16:23:31.595429  5266 net.cpp:357] relu4_1_D -> conv4_1_D (in-place)
I0418 16:23:31.595437  5266 net.cpp:120] Setting up relu4_1_D
I0418 16:23:31.595774  5266 net.cpp:127] Top shape: 2 256 28 28 (401408)
I0418 16:23:31.595788  5266 layer_factory.hpp:74] Creating layer upsample3_drop
I0418 16:23:31.595798  5266 net.cpp:90] Creating Layer upsample3_drop
I0418 16:23:31.595810  5266 net.cpp:410] upsample3_drop <- conv4_1_D
I0418 16:23:31.595818  5266 net.cpp:357] upsample3_drop -> conv4_1_D (in-place)
I0418 16:23:31.595825  5266 net.cpp:120] Setting up upsample3_drop
I0418 16:23:31.595835  5266 net.cpp:127] Top shape: 2 256 28 28 (401408)
I0418 16:23:31.595842  5266 layer_factory.hpp:74] Creating layer upsample3
I0418 16:23:31.595850  5266 net.cpp:90] Creating Layer upsample3
I0418 16:23:31.595856  5266 net.cpp:410] upsample3 <- conv4_1_D
I0418 16:23:31.595862  5266 net.cpp:410] upsample3 <- pool3_mask
I0418 16:23:31.595886  5266 net.cpp:368] upsample3 -> pool3_D
I0418 16:23:31.595896  5266 net.cpp:120] Setting up upsample3
I0418 16:23:31.595901  5266 upsample_layer.cpp:31] Params 'pad_out_{}_' are deprecated. Please declare upsample height and width useing the upsample_h, upsample_w parameters.
I0418 16:23:31.595909  5266 net.cpp:127] Top shape: 2 256 56 56 (1605632)
I0418 16:23:31.595916  5266 layer_factory.hpp:74] Creating layer conv3_3_D
I0418 16:23:31.595927  5266 net.cpp:90] Creating Layer conv3_3_D
I0418 16:23:31.595933  5266 net.cpp:410] conv3_3_D <- pool3_D
I0418 16:23:31.595942  5266 net.cpp:368] conv3_3_D -> conv3_3_D
I0418 16:23:31.595950  5266 net.cpp:120] Setting up conv3_3_D
I0418 16:23:31.601475  5266 net.cpp:127] Top shape: 2 256 56 56 (1605632)
I0418 16:23:31.601502  5266 layer_factory.hpp:74] Creating layer conv3_3_D_bn
I0418 16:23:31.601516  5266 net.cpp:90] Creating Layer conv3_3_D_bn
I0418 16:23:31.601526  5266 net.cpp:410] conv3_3_D_bn <- conv3_3_D
I0418 16:23:31.601536  5266 net.cpp:357] conv3_3_D_bn -> conv3_3_D (in-place)
I0418 16:23:31.601548  5266 net.cpp:120] Setting up conv3_3_D_bn
I0418 16:23:31.601578  5266 net.cpp:127] Top shape: 2 256 56 56 (1605632)
I0418 16:23:31.601590  5266 layer_factory.hpp:74] Creating layer relu3_3_D
I0418 16:23:31.601603  5266 net.cpp:90] Creating Layer relu3_3_D
I0418 16:23:31.601609  5266 net.cpp:410] relu3_3_D <- conv3_3_D
I0418 16:23:31.601615  5266 net.cpp:357] relu3_3_D -> conv3_3_D (in-place)
I0418 16:23:31.601622  5266 net.cpp:120] Setting up relu3_3_D
I0418 16:23:31.601963  5266 net.cpp:127] Top shape: 2 256 56 56 (1605632)
I0418 16:23:31.601977  5266 layer_factory.hpp:74] Creating layer conv3_2_D
I0418 16:23:31.601989  5266 net.cpp:90] Creating Layer conv3_2_D
I0418 16:23:31.601999  5266 net.cpp:410] conv3_2_D <- conv3_3_D
I0418 16:23:31.602007  5266 net.cpp:368] conv3_2_D -> conv3_2_D
I0418 16:23:31.602016  5266 net.cpp:120] Setting up conv3_2_D
I0418 16:23:31.607367  5266 net.cpp:127] Top shape: 2 256 56 56 (1605632)
I0418 16:23:31.607383  5266 layer_factory.hpp:74] Creating layer conv3_2_D_bn
I0418 16:23:31.607394  5266 net.cpp:90] Creating Layer conv3_2_D_bn
I0418 16:23:31.607406  5266 net.cpp:410] conv3_2_D_bn <- conv3_2_D
I0418 16:23:31.607414  5266 net.cpp:357] conv3_2_D_bn -> conv3_2_D (in-place)
I0418 16:23:31.607426  5266 net.cpp:120] Setting up conv3_2_D_bn
I0418 16:23:31.607456  5266 net.cpp:127] Top shape: 2 256 56 56 (1605632)
I0418 16:23:31.607466  5266 layer_factory.hpp:74] Creating layer relu3_2_D
I0418 16:23:31.607475  5266 net.cpp:90] Creating Layer relu3_2_D
I0418 16:23:31.607478  5266 net.cpp:410] relu3_2_D <- conv3_2_D
I0418 16:23:31.607487  5266 net.cpp:357] relu3_2_D -> conv3_2_D (in-place)
I0418 16:23:31.607497  5266 net.cpp:120] Setting up relu3_2_D
I0418 16:23:31.607692  5266 net.cpp:127] Top shape: 2 256 56 56 (1605632)
I0418 16:23:31.607703  5266 layer_factory.hpp:74] Creating layer conv3_1_D
I0418 16:23:31.607712  5266 net.cpp:90] Creating Layer conv3_1_D
I0418 16:23:31.607717  5266 net.cpp:410] conv3_1_D <- conv3_2_D
I0418 16:23:31.607729  5266 net.cpp:368] conv3_1_D -> conv3_1_D
I0418 16:23:31.607739  5266 net.cpp:120] Setting up conv3_1_D
I0418 16:23:31.610980  5266 net.cpp:127] Top shape: 2 128 56 56 (802816)
I0418 16:23:31.610996  5266 layer_factory.hpp:74] Creating layer conv3_1_D_bn
I0418 16:23:31.611007  5266 net.cpp:90] Creating Layer conv3_1_D_bn
I0418 16:23:31.611017  5266 net.cpp:410] conv3_1_D_bn <- conv3_1_D
I0418 16:23:31.611027  5266 net.cpp:357] conv3_1_D_bn -> conv3_1_D (in-place)
I0418 16:23:31.611037  5266 net.cpp:120] Setting up conv3_1_D_bn
I0418 16:23:31.611068  5266 net.cpp:127] Top shape: 2 128 56 56 (802816)
I0418 16:23:31.611078  5266 layer_factory.hpp:74] Creating layer relu3_1_D
I0418 16:23:31.611084  5266 net.cpp:90] Creating Layer relu3_1_D
I0418 16:23:31.611089  5266 net.cpp:410] relu3_1_D <- conv3_1_D
I0418 16:23:31.611098  5266 net.cpp:357] relu3_1_D -> conv3_1_D (in-place)
I0418 16:23:31.611104  5266 net.cpp:120] Setting up relu3_1_D
I0418 16:23:31.611520  5266 net.cpp:127] Top shape: 2 128 56 56 (802816)
I0418 16:23:31.611532  5266 layer_factory.hpp:74] Creating layer upsample2_drop
I0418 16:23:31.611541  5266 net.cpp:90] Creating Layer upsample2_drop
I0418 16:23:31.611546  5266 net.cpp:410] upsample2_drop <- conv3_1_D
I0418 16:23:31.611557  5266 net.cpp:357] upsample2_drop -> conv3_1_D (in-place)
I0418 16:23:31.611567  5266 net.cpp:120] Setting up upsample2_drop
I0418 16:23:31.611577  5266 net.cpp:127] Top shape: 2 128 56 56 (802816)
I0418 16:23:31.611584  5266 layer_factory.hpp:74] Creating layer upsample2
I0418 16:23:31.611593  5266 net.cpp:90] Creating Layer upsample2
I0418 16:23:31.611596  5266 net.cpp:410] upsample2 <- conv3_1_D
I0418 16:23:31.611603  5266 net.cpp:410] upsample2 <- pool2_mask
I0418 16:23:31.611610  5266 net.cpp:368] upsample2 -> pool2_D
I0418 16:23:31.611620  5266 net.cpp:120] Setting up upsample2
I0418 16:23:31.611626  5266 upsample_layer.cpp:31] Params 'pad_out_{}_' are deprecated. Please declare upsample height and width useing the upsample_h, upsample_w parameters.
I0418 16:23:31.611635  5266 net.cpp:127] Top shape: 2 128 112 112 (3211264)
I0418 16:23:31.611641  5266 layer_factory.hpp:74] Creating layer conv2_2_D
I0418 16:23:31.611650  5266 net.cpp:90] Creating Layer conv2_2_D
I0418 16:23:31.611656  5266 net.cpp:410] conv2_2_D <- pool2_D
I0418 16:23:31.611665  5266 net.cpp:368] conv2_2_D -> conv2_2_D
I0418 16:23:31.611675  5266 net.cpp:120] Setting up conv2_2_D
I0418 16:23:31.613621  5266 net.cpp:127] Top shape: 2 128 112 112 (3211264)
I0418 16:23:31.613637  5266 layer_factory.hpp:74] Creating layer conv2_2_D_bn
I0418 16:23:31.613648  5266 net.cpp:90] Creating Layer conv2_2_D_bn
I0418 16:23:31.613659  5266 net.cpp:410] conv2_2_D_bn <- conv2_2_D
I0418 16:23:31.613668  5266 net.cpp:357] conv2_2_D_bn -> conv2_2_D (in-place)
I0418 16:23:31.613677  5266 net.cpp:120] Setting up conv2_2_D_bn
I0418 16:23:31.613739  5266 net.cpp:127] Top shape: 2 128 112 112 (3211264)
I0418 16:23:31.613750  5266 layer_factory.hpp:74] Creating layer relu2_2_D
I0418 16:23:31.613759  5266 net.cpp:90] Creating Layer relu2_2_D
I0418 16:23:31.613766  5266 net.cpp:410] relu2_2_D <- conv2_2_D
I0418 16:23:31.613772  5266 net.cpp:357] relu2_2_D -> conv2_2_D (in-place)
I0418 16:23:31.613780  5266 net.cpp:120] Setting up relu2_2_D
I0418 16:23:31.614125  5266 net.cpp:127] Top shape: 2 128 112 112 (3211264)
I0418 16:23:31.614138  5266 layer_factory.hpp:74] Creating layer conv2_1_D
I0418 16:23:31.614148  5266 net.cpp:90] Creating Layer conv2_1_D
I0418 16:23:31.614158  5266 net.cpp:410] conv2_1_D <- conv2_2_D
I0418 16:23:31.614168  5266 net.cpp:368] conv2_1_D -> conv2_1_D
I0418 16:23:31.614177  5266 net.cpp:120] Setting up conv2_1_D
I0418 16:23:31.615691  5266 net.cpp:127] Top shape: 2 64 112 112 (1605632)
I0418 16:23:31.615708  5266 layer_factory.hpp:74] Creating layer conv2_1_D_bn
I0418 16:23:31.615721  5266 net.cpp:90] Creating Layer conv2_1_D_bn
I0418 16:23:31.615730  5266 net.cpp:410] conv2_1_D_bn <- conv2_1_D
I0418 16:23:31.615737  5266 net.cpp:357] conv2_1_D_bn -> conv2_1_D (in-place)
I0418 16:23:31.615746  5266 net.cpp:120] Setting up conv2_1_D_bn
I0418 16:23:31.615808  5266 net.cpp:127] Top shape: 2 64 112 112 (1605632)
I0418 16:23:31.615821  5266 layer_factory.hpp:74] Creating layer relu2_1_D
I0418 16:23:31.615829  5266 net.cpp:90] Creating Layer relu2_1_D
I0418 16:23:31.615834  5266 net.cpp:410] relu2_1_D <- conv2_1_D
I0418 16:23:31.615840  5266 net.cpp:357] relu2_1_D -> conv2_1_D (in-place)
I0418 16:23:31.615847  5266 net.cpp:120] Setting up relu2_1_D
I0418 16:23:31.616194  5266 net.cpp:127] Top shape: 2 64 112 112 (1605632)
I0418 16:23:31.616205  5266 layer_factory.hpp:74] Creating layer upsample1_drop
I0418 16:23:31.616214  5266 net.cpp:90] Creating Layer upsample1_drop
I0418 16:23:31.616219  5266 net.cpp:410] upsample1_drop <- conv2_1_D
I0418 16:23:31.616227  5266 net.cpp:357] upsample1_drop -> conv2_1_D (in-place)
I0418 16:23:31.616235  5266 net.cpp:120] Setting up upsample1_drop
I0418 16:23:31.616242  5266 net.cpp:127] Top shape: 2 64 112 112 (1605632)
I0418 16:23:31.616261  5266 layer_factory.hpp:74] Creating layer upsample1
I0418 16:23:31.616271  5266 net.cpp:90] Creating Layer upsample1
I0418 16:23:31.616276  5266 net.cpp:410] upsample1 <- conv2_1_D
I0418 16:23:31.616282  5266 net.cpp:410] upsample1 <- pool1_mask
I0418 16:23:31.616289  5266 net.cpp:368] upsample1 -> pool1_D
I0418 16:23:31.616297  5266 net.cpp:120] Setting up upsample1
I0418 16:23:31.616302  5266 upsample_layer.cpp:31] Params 'pad_out_{}_' are deprecated. Please declare upsample height and width useing the upsample_h, upsample_w parameters.
I0418 16:23:31.616308  5266 net.cpp:127] Top shape: 2 64 224 224 (6422528)
I0418 16:23:31.616313  5266 layer_factory.hpp:74] Creating layer conv1_2_D
I0418 16:23:31.616323  5266 net.cpp:90] Creating Layer conv1_2_D
I0418 16:23:31.616330  5266 net.cpp:410] conv1_2_D <- pool1_D
I0418 16:23:31.616338  5266 net.cpp:368] conv1_2_D -> conv1_2_D
I0418 16:23:31.616345  5266 net.cpp:120] Setting up conv1_2_D
I0418 16:23:31.617636  5266 net.cpp:127] Top shape: 2 64 224 224 (6422528)
I0418 16:23:31.617652  5266 layer_factory.hpp:74] Creating layer conv1_2_D_bn
I0418 16:23:31.617665  5266 net.cpp:90] Creating Layer conv1_2_D_bn
I0418 16:23:31.617674  5266 net.cpp:410] conv1_2_D_bn <- conv1_2_D
I0418 16:23:31.617684  5266 net.cpp:357] conv1_2_D_bn -> conv1_2_D (in-place)
I0418 16:23:31.617693  5266 net.cpp:120] Setting up conv1_2_D_bn
I0418 16:23:31.617888  5266 net.cpp:127] Top shape: 2 64 224 224 (6422528)
I0418 16:23:31.617902  5266 layer_factory.hpp:74] Creating layer relu1_2_D
I0418 16:23:31.617913  5266 net.cpp:90] Creating Layer relu1_2_D
I0418 16:23:31.617923  5266 net.cpp:410] relu1_2_D <- conv1_2_D
I0418 16:23:31.617929  5266 net.cpp:357] relu1_2_D -> conv1_2_D (in-place)
I0418 16:23:31.617936  5266 net.cpp:120] Setting up relu1_2_D
I0418 16:23:31.618283  5266 net.cpp:127] Top shape: 2 64 224 224 (6422528)
I0418 16:23:31.618295  5266 layer_factory.hpp:74] Creating layer conv1_1_D
I0418 16:23:31.618306  5266 net.cpp:90] Creating Layer conv1_1_D
I0418 16:23:31.618316  5266 net.cpp:410] conv1_1_D <- conv1_2_D
I0418 16:23:31.618327  5266 net.cpp:368] conv1_1_D -> conv1_1_D
I0418 16:23:31.618337  5266 net.cpp:120] Setting up conv1_1_D
I0418 16:23:31.619295  5266 net.cpp:127] Top shape: 2 21 224 224 (2107392)
I0418 16:23:31.619312  5266 layer_factory.hpp:74] Creating layer conv1_1_D_conv1_1_D_0_split
I0418 16:23:31.619320  5266 net.cpp:90] Creating Layer conv1_1_D_conv1_1_D_0_split
I0418 16:23:31.619330  5266 net.cpp:410] conv1_1_D_conv1_1_D_0_split <- conv1_1_D
I0418 16:23:31.619339  5266 net.cpp:368] conv1_1_D_conv1_1_D_0_split -> conv1_1_D_conv1_1_D_0_split_0
I0418 16:23:31.619349  5266 net.cpp:368] conv1_1_D_conv1_1_D_0_split -> conv1_1_D_conv1_1_D_0_split_1
I0418 16:23:31.619359  5266 net.cpp:120] Setting up conv1_1_D_conv1_1_D_0_split
I0418 16:23:31.619367  5266 net.cpp:127] Top shape: 2 21 224 224 (2107392)
I0418 16:23:31.619374  5266 net.cpp:127] Top shape: 2 21 224 224 (2107392)
I0418 16:23:31.619379  5266 layer_factory.hpp:74] Creating layer loss
I0418 16:23:31.619395  5266 net.cpp:90] Creating Layer loss
I0418 16:23:31.619401  5266 net.cpp:410] loss <- conv1_1_D_conv1_1_D_0_split_0
I0418 16:23:31.619407  5266 net.cpp:410] loss <- label_data_1_split_0
I0418 16:23:31.619415  5266 net.cpp:368] loss -> loss
I0418 16:23:31.619431  5266 net.cpp:120] Setting up loss
I0418 16:23:31.619442  5266 layer_factory.hpp:74] Creating layer loss
I0418 16:23:31.622634  5266 net.cpp:127] Top shape: (1)
I0418 16:23:31.622676  5266 net.cpp:129]     with loss weight 1
I0418 16:23:31.622707  5266 layer_factory.hpp:74] Creating layer accuracy
I0418 16:23:31.622726  5266 net.cpp:90] Creating Layer accuracy
I0418 16:23:31.622736  5266 net.cpp:410] accuracy <- conv1_1_D_conv1_1_D_0_split_1
I0418 16:23:31.622747  5266 net.cpp:410] accuracy <- label_data_1_split_1
I0418 16:23:31.622766  5266 net.cpp:368] accuracy -> accuracy
I0418 16:23:31.622778  5266 net.cpp:368] accuracy -> per_class_accuracy
I0418 16:23:31.622788  5266 net.cpp:120] Setting up accuracy
I0418 16:23:31.622795  5266 accuracy_layer.cpp:24] Per-class accuracies currently only work on TRAIN phase only.
I0418 16:23:31.622824  5266 net.cpp:127] Top shape: (1)
I0418 16:23:31.622833  5266 net.cpp:127] Top shape: 21 1 1 1 (21)
I0418 16:23:31.622838  5266 net.cpp:194] accuracy does not need backward computation.
I0418 16:23:31.622843  5266 net.cpp:192] loss needs backward computation.
I0418 16:23:31.622848  5266 net.cpp:192] conv1_1_D_conv1_1_D_0_split needs backward computation.
I0418 16:23:31.622853  5266 net.cpp:192] conv1_1_D needs backward computation.
I0418 16:23:31.622859  5266 net.cpp:192] relu1_2_D needs backward computation.
…
