…
test_initialization: false
average_loss: 20
iter_size: 1
I0419 15:31:58.183550 30606 solver.cpp:81] Creating training net from train_net file: train.prototxt
I0419 15:31:58.186295 30606 net.cpp:49] Initializing net from parameters: 
state {
  phase: TRAIN
}
layer {
  name: "data"
  type: "Python"
  top: "data"
  top: "label"
  python_param {
    module: "layers"
    layer: "SBDDSegDataLayer"
    param_str: "{\'sbdd_dir\': \'/home/shared/datasets/benchmark_RELEASE/dataset\', \'seed\': 1337, \'split\': \'train\', \'mean\': (104.00699, 116.66877, 122.67892)}"
  }
}
layer {
  name: "conv1/7x7_s2"
  type: "Convolution"
  bottom: "data"
  top: "conv1/7x7_s2"
  param {
    lr_mult: 1
    decay_mult: 1
  }
  param {
    lr_mult: 2
    decay_mult: 0
  }
  convolution_param {
    num_output: 64
    pad: 3
    kernel_size: 7
    stride: 2
    weight_filler {
      type: "xavier"
    }
    bias_filler {
      type: "constant"
      value: 0.2
    }
  }
}
layer {
  name: "conv1/relu_7x7"
  type: "ReLU"
  bottom: "conv1/7x7_s2"
  top: "conv1/7x7_s2"
}
layer {
  name: "pool1/3x3_s2"
  type: "Pooling"
  bottom: "conv1/7x7_s2"
  top: "pool1/3x3_s2"
  pooling_param {
    pool: MAX
    kernel_size: 3
    stride: 2
  }
}
layer {
  name: "pool1/norm1"
  type: "LRN"
  bottom: "pool1/3x3_s2"
  top: "pool1/norm1"
  lrn_param {
    local_size: 5
    alpha: 0.0001
    beta: 0.75
  }
}
layer {
  name: "conv2/3x3_reduce"
  type: "Convolution"
  bottom: "pool1/norm1"
  top: "conv2/3x3_reduce"
  param {
    lr_mult: 1
    decay_mult: 1
  }
  param {
    lr_mult: 2
    decay_mult: 0
  }
  convolution_param {
    num_output: 64
    kernel_size: 1
    weight_filler {
      type: "xavier"
    }
    bias_filler {
      type: "constant"
      value: 0.2
    }
  }
}
layer {
  name: "conv2/relu_3x3_reduce"
  type: "ReLU"
  bottom: "conv2/3x3_reduce"
  top: "conv2/3x3_reduce"
}
layer {
  name: "conv2/3x3"
  type: "Convolution"
  bottom: "conv2/3x3_reduce"
  top: "conv2/3x3"
  param {
    lr_mult: 1
    decay_mult: 1
  }
  param {
    lr_mult: 2
    decay_mult: 0
  }
  convolution_param {
    num_output: 192
    pad: 1
    kernel_size: 3
    weight_filler {
      type: "xavier"
    }
    bias_filler {
      type: "constant"
      value: 0.2
    }
  }
}
layer {
  name: "conv2/relu_3x3"
  type: "ReLU"
  bottom: "conv2/3x3"
  top: "conv2/3x3"
}
layer {
  name: "conv2/norm2"
  type: "LRN"
  bottom: "conv2/3x3"
  top: "conv2/norm2"
  lrn_param {
    local_size: 5
    alpha: 0.0001
    beta: 0.75
  }
}
layer {
  name: "pool2/3x3_s2"
  type: "Pooling"
  bottom: "conv2/norm2"
  top: "pool2/3x3_s2"
  pooling_param {
    pool: MAX
    kernel_size: 3
    stride: 2
  }
}
layer {
  name: "inception_3a/1x1"
  type: "Convolution"
  bottom: "pool2/3x3_s2"
  top: "inception_3a/1x1"
  param {
    lr_mult: 1
    decay_mult: 1
  }
  param {
    lr_mult: 2
    decay_mult: 0
  }
  convolution_param {
    num_output: 64
    kernel_size: 1
    weight_filler {
      type: "xavier"
    }
    bias_filler {
      type: "constant"
      value: 0.2
    }
  }
}
layer {
  name: "inception_3a/relu_1x1"
  type: "ReLU"
  bottom: "inception_3a/1x1"
  top: "inception_3a/1x1"
}
layer {
  name: "inception_3a/3x3_reduce"
  type: "Convolution"
  bottom: "pool2/3x3_s2"
  top: "inception_3a/3x3_reduce"
  param {
    lr_mult: 1
    decay_mult: 1
  }
  param {
    lr_mult: 2
    decay_mult: 0
  }
  convolution_param {
    num_output: 96
    kernel_size: 1
    weight_filler {
      type: "xavier"
    }
    bias_filler {
      type: "constant"
      value: 0.2
    }
  }
}
layer {
  name: "inception_3a/relu_3x3_reduce"
  type: "ReLU"
  bottom: "inception_3a/3x3_reduce"
  top: "inception_3a/3x3_reduce"
}
layer {
  name: "inception_3a/3x3"
  type: "Convolution"
  bottom: "inception_3a/3x3_reduce"
  top: "inception_3a/3x3"
  param {
    lr_mult: 1
    decay_mult: 1
  }
  param {
    lr_mult: 2
    decay_mult: 0
  }
  convolution_param {
    num_output: 128
    pad: 1
    kernel_size: 3
    weight_filler {
      type: "xavier"
    }
    bias_filler {
      type: "constant"
      value: 0.2
    }
  }
}
layer {
  name: "inception_3a/relu_3x3"
  type: "ReLU"
  bottom: "inception_3a/3x3"
  top: "inception_3a/3x3"
}
layer {
  name: "inception_3a/5x5_reduce"
  type: "Convolution"
  bottom: "pool2/3x3_s2"
  top: "inception_3a/5x5_reduce"
  param {
    lr_mult: 1
    decay_mult: 1
  }
  param {
    lr_mult: 2
    decay_mult: 0
  }
  convolution_param {
    num_output: 16
    kernel_size: 1
    weight_filler {
      type: "xavier"
    }
    bias_filler {
      type: "constant"
      value: 0.2
    }
  }
}
layer {
  name: "inception_3a/relu_5x5_reduce"
  type: "ReLU"
  bottom: "inception_3a/5x5_reduce"
  top: "inception_3a/5x5_reduce"
}
layer {
  name: "inception_3a/5x5"
  type: "Convolution"
  bottom: "inception_3a/5x5_reduce"
  top: "inception_3a/5x5"
  param {
    lr_mult: 1
    decay_mult: 1
  }
  param {
    lr_mult: 2
    decay_mult: 0
  }
  convolution_param {
    num_output: 32
    pad: 2
    kernel_size: 5
    weight_filler {
      type: "xavier"
    }
    bias_filler {
      type: "constant"
      value: 0.2
    }
  }
}
layer {
  name: "inception_3a/relu_5x5"
  type: "ReLU"
  bottom: "inception_3a/5x5"
  top: "inception_3a/5x5"
}
layer {
  name: "inception_3a/pool"
  type: "Pooling"
  bottom: "pool2/3x3_s2"
  top: "inception_3a/pool"
  pooling_param {
    pool: MAX
    kernel_size: 3
    stride: 1
    pad: 1
  }
}
layer {
  name: "inception_3a/pool_proj"
  type: "Convolution"
  bottom: "inception_3a/pool"
  top: "inception_3a/pool_proj"
  param {
    lr_mult: 1
    decay_mult: 1
  }
  param {
    lr_mult: 2
    decay_mult: 0
  }
  convolution_param {
    num_output: 32
    kernel_size: 1
    weight_filler {
      type: "xavier"
    }
    bias_filler {
      type: "constant"
      value: 0.2
    }
  }
}
layer {
  name: "inception_3a/relu_pool_proj"
  type: "ReLU"
  bottom: "inception_3a/pool_proj"
  top: "inception_3a/pool_proj"
}
layer {
  name: "inception_3a/output"
  type: "Concat"
  bottom: "inception_3a/1x1"
  bottom: "inception_3a/3x3"
  bottom: "inception_3a/5x5"
  bottom: "inception_3a/pool_proj"
  top: "inception_3a/output"
}
layer {
  name: "inception_3b/1x1"
  type: "Convolution"
  bottom: "inception_3a/output"
  top: "inception_3b/1x1"
  param {
    lr_mult: 1
    decay_mult: 1
  }
  param {
    lr_mult: 2
    decay_mult: 0
  }
  convolution_param {
    num_output: 128
    kernel_size: 1
    weight_filler {
      type: "xavier"
    }
    bias_filler {
      type: "constant"
      value: 0.2
    }
  }
}
layer {
  name: "inception_3b/relu_1x1"
  type: "ReLU"
  bottom: "inception_3b/1x1"
  top: "inception_3b/1x1"
}
layer {
  name: "inception_3b/3x3_reduce"
  type: "Convolution"
  bottom: "inception_3a/output"
  top: "inception_3b/3x3_reduce"
  param {
    lr_mult: 1
    decay_mult: 1
  }
  param {
    lr_mult: 2
    decay_mult: 0
  }
  convolution_param {
    num_output: 128
    kernel_size: 1
    weight_filler {
      type: "xavier"
    }
    bias_filler {
      type: "constant"
      value: 0.2
    }
  }
}
layer {
  name: "inception_3b/relu_3x3_reduce"
  type: "ReLU"
  bottom: "inception_3b/3x3_reduce"
  top: "inception_3b/3x3_reduce"
}
layer {
  name: "inception_3b/3x3"
  type: "Convolution"
  bottom: "inception_3b/3x3_reduce"
  top: "inception_3b/3x3"
  param {
    lr_mult: 1
    decay_mult: 1
  }
  param {
    lr_mult: 2
    decay_mult: 0
  }
  convolution_param {
    num_output: 192
    pad: 1
    kernel_size: 3
    weight_filler {
      type: "xavier"
    }
    bias_filler {
      type: "constant"
      value: 0.2
    }
  }
}
layer {
  name: "inception_3b/relu_3x3"
  type: "ReLU"
  bottom: "inception_3b/3x3"
  top: "inception_3b/3x3"
}
layer {
  name: "inception_3b/5x5_reduce"
  type: "Convolution"
  bottom: "inception_3a/output"
  top: "inception_3b/5x5_reduce"
  param {
    lr_mult: 1
    decay_mult: 1
  }
  param {
    lr_mult: 2
    decay_mult: 0
  }
  convolution_param {
    num_output: 32
    kernel_size: 1
    weight_filler {
      type: "xavier"
    }
    bias_filler {
      type: "constant"
      value: 0.2
    }
  }
}
layer {
  name: "inception_3b/relu_5x5_reduce"
  type: "ReLU"
  bottom: "inception_3b/5x5_reduce"
  top: "inception_3b/5x5_reduce"
}
layer {
  name: "inception_3b/5x5"
  type: "Convolution"
  bottom: "inception_3b/5x5_reduce"
  top: "inception_3b/5x5"
  param {
    lr_mult: 1
    decay_mult: 1
  }
  param {
    lr_mult: 2
    decay_mult: 0
  }
  convolution_param {
    num_output: 96
    pad: 2
    kernel_size: 5
    weight_filler {
      type: "xavier"
    }
    bias_filler {
      type: "constant"
      value: 0.2
    }
  }
}
layer {
  name: "inception_3b/relu_5x5"
  type: "ReLU"
  bottom: "inception_3b/5x5"
  top: "inception_3b/5x5"
}
layer {
  name: "inception_3b/pool"
  type: "Pooling"
  bottom: "inception_3a/output"
  top: "inception_3b/pool"
  pooling_param {
    pool: MAX
    kernel_size: 3
    stride: 1
    pad: 1
  }
}
layer {
  name: "inception_3b/pool_proj"
  type: "Convolution"
  bottom: "inception_3b/pool"
  top: "inception_3b/pool_proj"
  param {
    lr_mult: 1
    decay_mult: 1
  }
  param {
    lr_mult: 2
    decay_mult: 0
  }
  convolution_param {
    num_output: 64
    kernel_size: 1
    weight_filler {
      type: "xavier"
    }
    bias_filler {
      type: "constant"
      value: 0.2
    }
  }
}
layer {
  name: "inception_3b/relu_pool_proj"
  type: "ReLU"
  bottom: "inception_3b/pool_proj"
  top: "inception_3b/pool_proj"
}
layer {
  name: "inception_3b/output"
  type: "Concat"
  bottom: "inception_3b/1x1"
  bottom: "inception_3b/3x3"
  bottom: "inception_3b/5x5"
  bottom: "inception_3b/pool_proj"
  top: "inception_3b/output"
}
layer {
  name: "pool3/3x3_s2"
  type: "Pooling"
  bottom: "inception_3b/output"
  top: "pool3/3x3_s2"
  pooling_param {
    pool: MAX
    kernel_size: 3
    stride: 2
  }
}
layer {
  name: "inception_4a/1x1"
  type: "Convolution"
  bottom: "pool3/3x3_s2"
  top: "inception_4a/1x1"
  param {
    lr_mult: 1
    decay_mult: 1
  }
  param {
    lr_mult: 2
    decay_mult: 0
  }
  convolution_param {
    num_output: 192
    kernel_size: 1
    weight_filler {
      type: "xavier"
    }
    bias_filler {
      type: "constant"
      value: 0.2
    }
  }
}
layer {
  name: "inception_4a/relu_1x1"
  type: "ReLU"
  bottom: "inception_4a/1x1"
  top: "inception_4a/1x1"
}
layer {
  name: "inception_4a/3x3_reduce"
  type: "Convolution"
  bottom: "pool3/3x3_s2"
  top: "inception_4a/3x3_reduce"
  param {
    lr_mult: 1
    decay_mult: 1
  }
  param {
    lr_mult: 2
    decay_mult: 0
  }
  convolution_param {
    num_output: 96
    kernel_size: 1
    weight_filler {
      type: "xavier"
    }
    bias_filler {
      type: "constant"
      value: 0.2
    }
  }
}
layer {
  name: "inception_4a/relu_3x3_reduce"
  type: "ReLU"
  bottom: "inception_4a/3x3_reduce"
  top: "inception_4a/3x3_reduce"
}
layer {
  name: "inception_4a/3x3"
  type: "Convolution"
  bottom: "inception_4a/3x3_reduce"
  top: "inception_4a/3x3"
  param {
    lr_mult: 1
    decay_mult: 1
  }
  param {
    lr_mult: 2
    decay_mult: 0
  }
  convolution_param {
    num_output: 208
    pad: 1
    kernel_size: 3
    weight_filler {
      type: "xavier"
    }
    bias_filler {
      type: "constant"
      value: 0.2
    }
  }
}
layer {
  name: "inception_4a/relu_3x3"
  type: "ReLU"
  bottom: "inception_4a/3x3"
  top: "inception_4a/3x3"
}
layer {
  name: "inception_4a/5x5_reduce"
  type: "Convolution"
  bottom: "pool3/3x3_s2"
  top: "inception_4a/5x5_reduce"
  param {
    lr_mult: 1
    decay_mult: 1
  }
  param {
    lr_mult: 2
    decay_mult: 0
  }
  convolution_param {
    num_output: 16
    kernel_size: 1
    weight_filler {
      type: "xavier"
    }
    bias_filler {
      type: "constant"
      value: 0.2
    }
  }
}
layer {
  name: "inception_4a/relu_5x5_reduce"
  type: "ReLU"
  bottom: "inception_4a/5x5_reduce"
  top: "inception_4a/5x5_reduce"
}
layer {
  name: "inception_4a/5x5"
  type: "Convolution"
  bottom: "inception_4a/5x5_reduce"
  top: "inception_4a/5x5"
  param {
    lr_mult: 1
    decay_mult: 1
  }
  param {
    lr_mult: 2
    decay_mult: 0
  }
  convolution_param {
    num_output: 48
    pad: 2
    kernel_size: 5
    weight_filler {
      type: "xavier"
    }
    bias_filler {
      type: "constant"
      value: 0.2
    }
  }
}
layer {
  name: "inception_4a/relu_5x5"
  type: "ReLU"
  bottom: "inception_4a/5x5"
  top: "inception_4a/5x5"
}
layer {
  name: "inception_4a/pool"
  type: "Pooling"
  bottom: "pool3/3x3_s2"
  top: "inception_4a/pool"
  pooling_param {
    pool: MAX
    kernel_size: 3
    stride: 1
    pad: 1
  }
}
layer {
  name: "inception_4a/pool_proj"
  type: "Convolution"
  bottom: "inception_4a/pool"
  top: "inception_4a/pool_proj"
  param {
    lr_mult: 1
    decay_mult: 1
  }
  param {
    lr_mult: 2
    decay_mult: 0
  }
  convolution_param {
    num_output: 64
    kernel_size: 1
    weight_filler {
      type: "xavier"
    }
    bias_filler {
      type: "constant"
      value: 0.2
    }
  }
}
layer {
  name: "inception_4a/relu_pool_proj"
  type: "ReLU"
  bottom: "inception_4a/pool_proj"
  top: "inception_4a/pool_proj"
}
layer {
  name: "inception_4a/output"
  type: "Concat"
  bottom: "inception_4a/1x1"
  bottom: "inception_4a/3x3"
  bottom: "inception_4a/5x5"
  bottom: "inception_4a/pool_proj"
  top: "inception_4a/output"
}
layer {
  name: "inception_4b/1x1"
  type: "Convolution"
  bottom: "inception_4a/output"
  top: "inception_4b/1x1"
  param {
    lr_mult: 1
    decay_mult: 1
  }
  param {
    lr_mult: 2
    decay_mult: 0
  }
  convolution_param {
    num_output: 160
    kernel_size: 1
    weight_filler {
      type: "xavier"
    }
    bias_filler {
      type: "constant"
      value: 0.2
    }
  }
}
layer {
  name: "inception_4b/relu_1x1"
  type: "ReLU"
  bottom: "inception_4b/1x1"
  top: "inception_4b/1x1"
}
layer {
  name: "inception_4b/3x3_reduce"
  type: "Convolution"
  bottom: "inception_4a/output"
  top: "inception_4b/3x3_reduce"
  param {
    lr_mult: 1
    decay_mult: 1
  }
  param {
    lr_mult: 2
    decay_mult: 0
  }
  convolution_param {
    num_output: 112
    kernel_size: 1
    weight_filler {
      type: "xavier"
    }
    bias_filler {
      type: "constant"
      value: 0.2
    }
  }
}
layer {
  name: "inception_4b/relu_3x3_reduce"
  type: "ReLU"
  bottom: "inception_4b/3x3_reduce"
  top: "inception_4b/3x3_reduce"
}
layer {
  name: "inception_4b/3x3"
  type: "Convolution"
  bottom: "inception_4b/3x3_reduce"
  top: "inception_4b/3x3"
  param {
    lr_mult: 1
    decay_mult: 1
  }
  param {
    lr_mult: 2
    decay_mult: 0
  }
  convolution_param {
    num_output: 224
    pad: 1
    kernel_size: 3
    weight_filler {
      type: "xavier"
    }
    bias_filler {
      type: "constant"
      value: 0.2
    }
  }
}
layer {
  name: "inception_4b/relu_3x3"
  type: "ReLU"
  bottom: "inception_4b/3x3"
  top: "inception_4b/3x3"
}
layer {
  name: "inception_4b/5x5_reduce"
  type: "Convolution"
  bottom: "inception_4a/output"
  top: "inception_4b/5x5_reduce"
  param {
    lr_mult: 1
    decay_mult: 1
  }
  param {
    lr_mult: 2
    decay_mult: 0
  }
  convolution_param {
    num_output: 24
    kernel_size: 1
    weight_filler {
      type: "xavier"
    }
    bias_filler {
      type: "constant"
      value: 0.2
    }
  }
}
layer {
  name: "inception_4b/relu_5x5_reduce"
  type: "ReLU"
  bottom: "inception_4b/5x5_reduce"
  top: "inception_4b/5x5_reduce"
}
layer {
  name: "inception_4b/5x5"
  type: "Convolution"
  bottom: "inception_4b/5x5_reduce"
  top: "inception_4b/5x5"
  param {
    lr_mult: 1
    decay_mult: 1
  }
  param {
    lr_mult: 2
    decay_mult: 0
  }
  convolution_param {
    num_output: 64
    pad: 2
    kernel_size: 5
    weight_filler {
      type: "xavier"
    }
    bias_filler {
      type: "constant"
      value: 0.2
    }
  }
}
layer {
  name: "inception_4b/relu_5x5"
  type: "ReLU"
  bottom: "inception_4b/5x5"
  top: "inception_4b/5x5"
}
layer {
  name: "inception_4b/pool"
  type: "Pooling"
  bottom: "inception_4a/output"
  top: "inception_4b/pool"
  pooling_param {
    pool: MAX
    kernel_size: 3
    stride: 1
    pad: 1
  }
}
layer {
  name: "inception_4b/pool_proj"
  type: "Convolution"
  bottom: "inception_4b/pool"
  top: "inception_4b/pool_proj"
  param {
    lr_mult: 1
    decay_mult: 1
  }
  param {
    lr_mult: 2
    decay_mult: 0
  }
  convolution_param {
    num_output: 64
    kernel_size: 1
    weight_filler {
      type: "xavier"
    }
    bias_filler {
      type: "constant"
      value: 0.2
    }
  }
}
layer {
  name: "inception_4b/relu_pool_proj"
  type: "ReLU"
  bottom: "inception_4b/pool_proj"
  top: "inception_4b/pool_proj"
}
layer {
  name: "inception_4b/output"
  type: "Concat"
  bottom: "inception_4b/1x1"
  bottom: "inception_4b/3x3"
  bottom: "inception_4b/5x5"
  bottom: "inception_4b/pool_proj"
  top: "inception_4b/output"
}
layer {
  name: "inception_4c/1x1"
  type: "Convolution"
  bottom: "inception_4b/output"
  top: "inception_4c/1x1"
  param {
    lr_mult: 1
    decay_mult: 1
  }
  param {
    lr_mult: 2
    decay_mult: 0
  }
  convolution_param {
    num_output: 128
    kernel_size: 1
    weight_filler {
      type: "xavier"
    }
    bias_filler {
      type: "constant"
      value: 0.2
    }
  }
}
layer {
  name: "inception_4c/relu_1x1"
  type: "ReLU"
  bottom: "inception_4c/1x1"
  top: "inception_4c/1x1"
}
layer {
  name: "inception_4c/3x3_reduce"
  type: "Convolution"
  bottom: "inception_4b/output"
  top: "inception_4c/3x3_reduce"
  param {
    lr_mult: 1
    decay_mult: 1
  }
  param {
    lr_mult: 2
    decay_mult: 0
  }
  convolution_param {
    num_output: 128
    kernel_size: 1
    weight_filler {
      type: "xavier"
    }
    bias_filler {
      type: "constant"
      value: 0.2
    }
  }
}
layer {
  name: "inception_4c/relu_3x3_reduce"
  type: "ReLU"
  bottom: "inception_4c/3x3_reduce"
  top: "inception_4c/3x3_reduce"
}
layer {
  name: "inception_4c/3x3"
  type: "Convolution"
  bottom: "inception_4c/3x3_reduce"
  top: "inception_4c/3x3"
  param {
    lr_mult: 1
    decay_mult: 1
  }
  param {
    lr_mult: 2
    decay_mult: 0
  }
  convolution_param {
    num_output: 256
    pad: 1
    kernel_size: 3
    weight_filler {
      type: "xavier"
    }
    bias_filler {
      type: "constant"
      value: 0.2
    }
  }
}
layer {
  name: "inception_4c/relu_3x3"
  type: "ReLU"
  bottom: "inception_4c/3x3"
  top: "inception_4c/3x3"
}
layer {
  name: "inception_4c/5x5_reduce"
  type: "Convolution"
  bottom: "inception_4b/output"
  top: "inception_4c/5x5_reduce"
  param {
    lr_mult: 1
    decay_mult: 1
  }
  param {
    lr_mult: 2
    decay_mult: 0
  }
  convolution_param {
    num_output: 24
    kernel_size: 1
    weight_filler {
      type: "xavier"
    }
    bias_filler {
      type: "constant"
      value: 0.2
    }
  }
}
layer {
  name: "inception_4c/relu_5x5_reduce"
  type: "ReLU"
  bottom: "inception_4c/5x5_reduce"
  top: "inception_4c/5x5_reduce"
}
layer {
  name: "inception_4c/5x5"
  type: "Convolution"
  bottom: "inception_4c/5x5_reduce"
  top: "inception_4c/5x5"
  param {
    lr_mult: 1
    decay_mult: 1
  }
  param {
    lr_mult: 2
    decay_mult: 0
  }
  convolution_param {
    num_output: 64
    pad: 2
    kernel_size: 5
    weight_filler {
      type: "xavier"
    }
    bias_filler {
      type: "constant"
      value: 0.2
    }
  }
}
layer {
  name: "inception_4c/relu_5x5"
  type: "ReLU"
  bottom: "inception_4c/5x5"
  top: "inception_4c/5x5"
}
layer {
  name: "inception_4c/pool"
  type: "Pooling"
  bottom: "inception_4b/output"
  top: "inception_4c/pool"
  pooling_param {
    pool: MAX
    kernel_size: 3
    stride: 1
    pad: 1
  }
}
layer {
  name: "inception_4c/pool_proj"
  type: "Convolution"
  bottom: "inception_4c/pool"
  top: "inception_4c/pool_proj"
  param {
    lr_mult: 1
    decay_mult: 1
  }
  param {
    lr_mult: 2
    decay_mult: 0
  }
  convolution_param {
    num_output: 64
    kernel_size: 1
    weight_filler {
      type: "xavier"
    }
    bias_filler {
      type: "constant"
      value: 0.2
    }
  }
}
layer {
  name: "inception_4c/relu_pool_proj"
  type: "ReLU"
  bottom: "inception_4c/pool_proj"
  top: "inception_4c/pool_proj"
}
layer {
  name: "inception_4c/output"
  type: "Concat"
  bottom: "inception_4c/1x1"
  bottom: "inception_4c/3x3"
  bottom: "inception_4c/5x5"
  bottom: "inception_4c/pool_proj"
  top: "inception_4c/output"
}
layer {
  name: "inception_4d/1x1"
  type: "Convolution"
  bottom: "inception_4c/output"
  top: "inception_4d/1x1"
  param {
    lr_mult: 1
    decay_mult: 1
  }
  param {
    lr_mult: 2
    decay_mult: 0
  }
  convolution_param {
    num_output: 112
    kernel_size: 1
    weight_filler {
      type: "xavier"
    }
    bias_filler {
      type: "constant"
      value: 0.2
    }
  }
}
layer {
  name: "inception_4d/relu_1x1"
  type: "ReLU"
  bottom: "inception_4d/1x1"
  top: "inception_4d/1x1"
}
layer {
  name: "inception_4d/3x3_reduce"
  type: "Convolution"
  bottom: "inception_4c/output"
  top: "inception_4d/3x3_reduce"
  param {
    lr_mult: 1
    decay_mult: 1
  }
  param {
    lr_mult: 2
    decay_mult: 0
  }
  convolution_param {
    num_output: 144
    kernel_size: 1
    weight_filler {
      type: "xavier"
    }
    bias_filler {
      type: "constant"
      value: 0.2
    }
  }
}
layer {
  name: "inception_4d/relu_3x3_reduce"
  type: "ReLU"
  bottom: "inception_4d/3x3_reduce"
  top: "inception_4d/3x3_reduce"
}
layer {
  name: "inception_4d/3x3"
  type: "Convolution"
  bottom: "inception_4d/3x3_reduce"
  top: "inception_4d/3x3"
  param {
    lr_mult: 1
    decay_mult: 1
  }
  param {
    lr_mult: 2
    decay_mult: 0
  }
  convolution_param {
    num_output: 288
    pad: 1
    kernel_size: 3
    weight_filler {
      type: "xavier"
    }
    bias_filler {
      type: "constant"
      value: 0.2
    }
  }
}
layer {
  name: "inception_4d/relu_3x3"
  type: "ReLU"
  bottom: "inception_4d/3x3"
  top: "inception_4d/3x3"
}
layer {
  name: "inception_4d/5x5_reduce"
  type: "Convolution"
  bottom: "inception_4c/output"
  top: "inception_4d/5x5_reduce"
  param {
    lr_mult: 1
    decay_mult: 1
  }
  param {
    lr_mult: 2
    decay_mult: 0
  }
  convolution_param {
    num_output: 32
    kernel_size: 1
    weight_filler {
      type: "xavier"
    }
    bias_filler {
      type: "constant"
      value: 0.2
    }
  }
}
layer {
  name: "inception_4d/relu_5x5_reduce"
  type: "ReLU"
  bottom: "inception_4d/5x5_reduce"
  top: "inception_4d/5x5_reduce"
}
layer {
  name: "inception_4d/5x5"
  type: "Convolution"
  bottom: "inception_4d/5x5_reduce"
  top: "inception_4d/5x5"
  param {
    lr_mult: 1
    decay_mult: 1
  }
  param {
    lr_mult: 2
    decay_mult: 0
  }
  convolution_param {
    num_output: 64
    pad: 2
    kernel_size: 5
    weight_filler {
      type: "xavier"
    }
    bias_filler {
      type: "constant"
      value: 0.2
    }
  }
}
layer {
  name: "inception_4d/relu_5x5"
  type: "ReLU"
  bottom: "inception_4d/5x5"
  top: "inception_4d/5x5"
}
layer {
  name: "inception_4d/pool"
  type: "Pooling"
  bottom: "inception_4c/output"
  top: "inception_4d/pool"
  pooling_param {
    pool: MAX
    kernel_size: 3
    stride: 1
    pad: 1
  }
}
layer {
  name: "inception_4d/pool_proj"
  type: "Convolution"
  bottom: "inception_4d/pool"
  top: "inception_4d/pool_proj"
  param {
    lr_mult: 1
    decay_mult: 1
  }
  param {
    lr_mult: 2
    decay_mult: 0
  }
  convolution_param {
    num_output: 64
    kernel_size: 1
    weight_filler {
      type: "xavier"
    }
    bias_filler {
      type: "constant"
      value: 0.2
    }
  }
}
layer {
  name: "inception_4d/relu_pool_proj"
  type: "ReLU"
  bottom: "inception_4d/pool_proj"
  top: "inception_4d/pool_proj"
}
layer {
  name: "inception_4d/output"
  type: "Concat"
  bottom: "inception_4d/1x1"
  bottom: "inception_4d/3x3"
  bottom: "inception_4d/5x5"
  bottom: "inception_4d/pool_proj"
  top: "inception_4d/output"
}
layer {
  name: "inception_4e/1x1"
  type: "Convolution"
  bottom: "inception_4d/output"
  top: "inception_4e/1x1"
  param {
    lr_mult: 1
    decay_mult: 1
  }
  param {
    lr_mult: 2
    decay_mult: 0
  }
  convolution_param {
    num_output: 256
    kernel_size: 1
    weight_filler {
      type: "xavier"
    }
    bias_filler {
      type: "constant"
      value: 0.2
    }
  }
}
layer {
  name: "inception_4e/relu_1x1"
  type: "ReLU"
  bottom: "inception_4e/1x1"
  top: "inception_4e/1x1"
}
layer {
  name: "inception_4e/3x3_reduce"
  type: "Convolution"
  bottom: "inception_4d/output"
  top: "inception_4e/3x3_reduce"
  param {
    lr_mult: 1
    decay_mult: 1
  }
  param {
    lr_mult: 2
    decay_mult: 0
  }
  convolution_param {
    num_output: 160
    kernel_size: 1
    weight_filler {
      type: "xavier"
    }
    bias_filler {
      type: "constant"
      value: 0.2
    }
  }
}
layer {
  name: "inception_4e/relu_3x3_reduce"
  type: "ReLU"
  bottom: "inception_4e/3x3_reduce"
  top: "inception_4e/3x3_reduce"
}
layer {
  name: "inception_4e/3x3"
  type: "Convolution"
  bottom: "inception_4e/3x3_reduce"
  top: "inception_4e/3x3"
  param {
    lr_mult: 1
    decay_mult: 1
  }
  param {
    lr_mult: 2
    decay_mult: 0
  }
  convolution_param {
    num_output: 320
    pad: 1
    kernel_size: 3
    weight_filler {
      type: "xavier"
    }
    bias_filler {
      type: "constant"
      value: 0.2
    }
  }
}
layer {
  name: "inception_4e/relu_3x3"
  type: "ReLU"
  bottom: "inception_4e/3x3"
  top: "inception_4e/3x3"
}
layer {
  name: "inception_4e/5x5_reduce"
  type: "Convolution"
  bottom: "inception_4d/output"
  top: "inception_4e/5x5_reduce"
  param {
    lr_mult: 1
    decay_mult: 1
  }
  param {
    lr_mult: 2
    decay_mult: 0
  }
  convolution_param {
    num_output: 32
    kernel_size: 1
    weight_filler {
      type: "xavier"
    }
    bias_filler {
      type: "constant"
      value: 0.2
    }
  }
}
layer {
  name: "inception_4e/relu_5x5_reduce"
  type: "ReLU"
  bottom: "inception_4e/5x5_reduce"
  top: "inception_4e/5x5_reduce"
}
layer {
  name: "inception_4e/5x5"
  type: "Convolution"
  bottom: "inception_4e/5x5_reduce"
  top: "inception_4e/5x5"
  param {
    lr_mult: 1
    decay_mult: 1
  }
  param {
    lr_mult: 2
    decay_mult: 0
  }
  convolution_param {
    num_output: 128
    pad: 2
    kernel_size: 5
    weight_filler {
      type: "xavier"
    }
    bias_filler {
      type: "constant"
      value: 0.2
    }
  }
}
layer {
  name: "inception_4e/relu_5x5"
  type: "ReLU"
  bottom: "inception_4e/5x5"
  top: "inception_4e/5x5"
}
layer {
  name: "inception_4e/pool"
  type: "Pooling"
  bottom: "inception_4d/output"
  top: "inception_4e/pool"
  pooling_param {
    pool: MAX
    kernel_size: 3
    stride: 1
    pad: 1
  }
}
layer {
  name: "inception_4e/pool_proj"
  type: "Convolution"
  bottom: "inception_4e/pool"
  top: "inception_4e/pool_proj"
  param {
    lr_mult: 1
    decay_mult: 1
  }
  param {
    lr_mult: 2
    decay_mult: 0
  }
  convolution_param {
    num_output: 128
    kernel_size: 1
    weight_filler {
      type: "xavier"
    }
    bias_filler {
      type: "constant"
      value: 0.2
    }
  }
}
layer {
  name: "inception_4e/relu_pool_proj"
  type: "ReLU"
  bottom: "inception_4e/pool_proj"
  top: "inception_4e/pool_proj"
}
layer {
  name: "inception_4e/output"
  type: "Concat"
  bottom: "inception_4e/1x1"
  bottom: "inception_4e/3x3"
  bottom: "inception_4e/5x5"
  bottom: "inception_4e/pool_proj"
  top: "inception_4e/output"
}
layer {
  name: "pool4/3x3_s2"
  type: "Pooling"
  bottom: "inception_4e/output"
  top: "pool4/3x3_s2"
  pooling_param {
    pool: MAX
    kernel_size: 3
    stride: 2
  }
}
layer {
  name: "inception_5a/1x1"
  type: "Convolution"
  bottom: "pool4/3x3_s2"
  top: "inception_5a/1x1"
  param {
    lr_mult: 1
    decay_mult: 1
  }
  param {
    lr_mult: 2
    decay_mult: 0
  }
  convolution_param {
    num_output: 256
    kernel_size: 1
    weight_filler {
      type: "xavier"
    }
    bias_filler {
      type: "constant"
      value: 0.2
    }
  }
}
layer {
  name: "inception_5a/relu_1x1"
  type: "ReLU"
  bottom: "inception_5a/1x1"
  top: "inception_5a/1x1"
}
layer {
  name: "inception_5a/3x3_reduce"
  type: "Convolution"
  bottom: "pool4/3x3_s2"
  top: "inception_5a/3x3_reduce"
  param {
    lr_mult: 1
    decay_mult: 1
  }
  param {
    lr_mult: 2
    decay_mult: 0
  }
  convolution_param {
    num_output: 160
    kernel_size: 1
    weight_filler {
      type: "xavier"
    }
    bias_filler {
      type: "constant"
      value: 0.2
    }
  }
}
layer {
  name: "inception_5a/relu_3x3_reduce"
  type: "ReLU"
  bottom: "inception_5a/3x3_reduce"
  top: "inception_5a/3x3_reduce"
}
layer {
  name: "inception_5a/3x3"
  type: "Convolution"
  bottom: "inception_5a/3x3_reduce"
  top: "inception_5a/3x3"
  param {
    lr_mult: 1
    decay_mult: 1
  }
  param {
    lr_mult: 2
    decay_mult: 0
  }
  convolution_param {
    num_output: 320
    pad: 1
    kernel_size: 3
    weight_filler {
      type: "xavier"
    }
    bias_filler {
      type: "constant"
      value: 0.2
    }
  }
}
layer {
  name: "inception_5a/relu_3x3"
  type: "ReLU"
  bottom: "inception_5a/3x3"
  top: "inception_5a/3x3"
}
layer {
  name: "inception_5a/5x5_reduce"
  type: "Convolution"
  bottom: "pool4/3x3_s2"
  top: "inception_5a/5x5_reduce"
  param {
    lr_mult: 1
    decay_mult: 1
  }
  param {
    lr_mult: 2
    decay_mult: 0
  }
  convolution_param {
    num_output: 32
    kernel_size: 1
    weight_filler {
      type: "xavier"
    }
    bias_filler {
      type: "constant"
      value: 0.2
    }
  }
}
layer {
  name: "inception_5a/relu_5x5_reduce"
  type: "ReLU"
  bottom: "inception_5a/5x5_reduce"
  top: "inception_5a/5x5_reduce"
}
layer {
  name: "inception_5a/5x5"
  type: "Convolution"
  bottom: "inception_5a/5x5_reduce"
  top: "inception_5a/5x5"
  param {
    lr_mult: 1
    decay_mult: 1
  }
  param {
    lr_mult: 2
    decay_mult: 0
  }
  convolution_param {
    num_output: 128
    pad: 2
    kernel_size: 5
    weight_filler {
      type: "xavier"
    }
    bias_filler {
      type: "constant"
      value: 0.2
    }
  }
}
layer {
  name: "inception_5a/relu_5x5"
  type: "ReLU"
  bottom: "inception_5a/5x5
I0419 15:31:58.186760 30606 layer_factory.hpp:77] Creating layer data
I0419 15:31:58.186940 30606 net.cpp:91] Creating Layer data
I0419 15:31:58.186949 30606 net.cpp:399] data -> data
I0419 15:31:58.186956 30606 net.cpp:399] data -> label
/usr/local/lib/python2.7/dist-packages/numpy/core/fromnumeric.py:2652: VisibleDeprecationWarning: `rank` is deprecated; use the `ndim` attribute or function instead. To find the rank of a matrix see `numpy.linalg.matrix_rank`.
  VisibleDeprecationWarning)
I0419 15:31:58.423405 30606 net.cpp:141] Setting up data
I0419 15:31:58.423430 30606 net.cpp:148] Top shape: 1 3 500 330 (495000)
I0419 15:31:58.423435 30606 net.cpp:148] Top shape: 1 1 500 330 (165000)
I0419 15:31:58.423437 30606 net.cpp:156] Memory required for data: 2640000
I0419 15:31:58.423444 30606 layer_factory.hpp:77] Creating layer data_data_0_split
I0419 15:31:58.423456 30606 net.cpp:91] Creating Layer data_data_0_split
I0419 15:31:58.423460 30606 net.cpp:425] data_data_0_split <- data
I0419 15:31:58.423465 30606 net.cpp:399] data_data_0_split -> data_data_0_split_0
I0419 15:31:58.423475 30606 net.cpp:399] data_data_0_split -> data_data_0_split_1
I0419 15:31:58.423503 30606 net.cpp:141] Setting up data_data_0_split
I0419 15:31:58.423514 30606 net.cpp:148] Top shape: 1 3 500 330 (495000)
I0419 15:31:58.423521 30606 net.cpp:148] Top shape: 1 3 500 330 (495000)
I0419 15:31:58.423524 30606 net.cpp:156] Memory required for data: 6600000
I0419 15:31:58.423529 30606 layer_factory.hpp:77] Creating layer conv1/7x7_s2
I0419 15:31:58.423547 30606 net.cpp:91] Creating Layer conv1/7x7_s2
I0419 15:31:58.423553 30606 net.cpp:425] conv1/7x7_s2 <- data_data_0_split_0
I0419 15:31:58.423562 30606 net.cpp:399] conv1/7x7_s2 -> conv1/7x7_s2
I0419 15:31:59.049438 30606 net.cpp:141] Setting up conv1/7x7_s2
I0419 15:31:59.049468 30606 net.cpp:148] Top shape: 1 64 250 165 (2640000)
I0419 15:31:59.049474 30606 net.cpp:156] Memory required for data: 17160000
I0419 15:31:59.049492 30606 layer_factory.hpp:77] Creating layer conv1/relu_7x7
I0419 15:31:59.049506 30606 net.cpp:91] Creating Layer conv1/relu_7x7
I0419 15:31:59.049513 30606 net.cpp:425] conv1/relu_7x7 <- conv1/7x7_s2
I0419 15:31:59.049521 30606 net.cpp:386] conv1/relu_7x7 -> conv1/7x7_s2 (in-place)
I0419 15:31:59.050484 30606 net.cpp:141] Setting up conv1/relu_7x7
I0419 15:31:59.050498 30606 net.cpp:148] Top shape: 1 64 250 165 (2640000)
I0419 15:31:59.050503 30606 net.cpp:156] Memory required for data: 27720000
I0419 15:31:59.050509 30606 layer_factory.hpp:77] Creating layer pool1/3x3_s2
I0419 15:31:59.050520 30606 net.cpp:91] Creating Layer pool1/3x3_s2
I0419 15:31:59.050526 30606 net.cpp:425] pool1/3x3_s2 <- conv1/7x7_s2
I0419 15:31:59.050534 30606 net.cpp:399] pool1/3x3_s2 -> pool1/3x3_s2
I0419 15:31:59.050577 30606 net.cpp:141] Setting up pool1/3x3_s2
I0419 15:31:59.050587 30606 net.cpp:148] Top shape: 1 64 125 82 (656000)
I0419 15:31:59.050592 30606 net.cpp:156] Memory required for data: 30344000
I0419 15:31:59.050597 30606 layer_factory.hpp:77] Creating layer pool1/norm1
I0419 15:31:59.050611 30606 net.cpp:91] Creating Layer pool1/norm1
I0419 15:31:59.050618 30606 net.cpp:425] pool1/norm1 <- pool1/3x3_s2
I0419 15:31:59.050626 30606 net.cpp:399] pool1/norm1 -> pool1/norm1
I0419 15:31:59.051910 30606 net.cpp:141] Setting up pool1/norm1
I0419 15:31:59.051923 30606 net.cpp:148] Top shape: 1 64 125 82 (656000)
I0419 15:31:59.051928 30606 net.cpp:156] Memory required for data: 32968000
I0419 15:31:59.051933 30606 layer_factory.hpp:77] Creating layer conv2/3x3_reduce
I0419 15:31:59.051947 30606 net.cpp:91] Creating Layer conv2/3x3_reduce
I0419 15:31:59.051957 30606 net.cpp:425] conv2/3x3_reduce <- pool1/norm1
I0419 15:31:59.051966 30606 net.cpp:399] conv2/3x3_reduce -> conv2/3x3_reduce
I0419 15:31:59.060009 30606 net.cpp:141] Setting up conv2/3x3_reduce
I0419 15:31:59.060025 30606 net.cpp:148] Top shape: 1 64 125 82 (656000)
I0419 15:31:59.060031 30606 net.cpp:156] Memory required for data: 35592000
I0419 15:31:59.060046 30606 layer_factory.hpp:77] Creating layer conv2/relu_3x3_reduce
I0419 15:31:59.060062 30606 net.cpp:91] Creating Layer conv2/relu_3x3_reduce
I0419 15:31:59.060070 30606 net.cpp:425] conv2/relu_3x3_reduce <- conv2/3x3_reduce
I0419 15:31:59.060078 30606 net.cpp:386] conv2/relu_3x3_reduce -> conv2/3x3_reduce (in-place)
I0419 15:31:59.062355 30606 net.cpp:141] Setting up conv2/relu_3x3_reduce
I0419 15:31:59.062367 30606 net.cpp:148] Top shape: 1 64 125 82 (656000)
I0419 15:31:59.062373 30606 net.cpp:156] Memory required for data: 38216000
I0419 15:31:59.062378 30606 layer_factory.hpp:77] Creating layer conv2/3x3
I0419 15:31:59.062393 30606 net.cpp:91] Creating Layer conv2/3x3
I0419 15:31:59.062402 30606 net.cpp:425] conv2/3x3 <- conv2/3x3_reduce
I0419 15:31:59.062410 30606 net.cpp:399] conv2/3x3 -> conv2/3x3
I0419 15:31:59.070745 30606 net.cpp:141] Setting up conv2/3x3
I0419 15:31:59.070762 30606 net.cpp:148] Top shape: 1 192 125 82 (1968000)
I0419 15:31:59.070768 30606 net.cpp:156] Memory required for data: 46088000
I0419 15:31:59.070780 30606 layer_factory.hpp:77] Creating layer conv2/relu_3x3
I0419 15:31:59.070790 30606 net.cpp:91] Creating Layer conv2/relu_3x3
I0419 15:31:59.070799 30606 net.cpp:425] conv2/relu_3x3 <- conv2/3x3
I0419 15:31:59.070807 30606 net.cpp:386] conv2/relu_3x3 -> conv2/3x3 (in-place)
I0419 15:31:59.074317 30606 net.cpp:141] Setting up conv2/relu_3x3
I0419 15:31:59.074331 30606 net.cpp:148] Top shape: 1 192 125 82 (1968000)
I0419 15:31:59.074337 30606 net.cpp:156] Memory required for data: 53960000
I0419 15:31:59.074343 30606 layer_factory.hpp:77] Creating layer conv2/norm2
I0419 15:31:59.074353 30606 net.cpp:91] Creating Layer conv2/norm2
I0419 15:31:59.074358 30606 net.cpp:425] conv2/norm2 <- conv2/3x3
I0419 15:31:59.074367 30606 net.cpp:399] conv2/norm2 -> conv2/norm2
I0419 15:31:59.076663 30606 net.cpp:141] Setting up conv2/norm2
I0419 15:31:59.076676 30606 net.cpp:148] Top shape: 1 192 125 82 (1968000)
I0419 15:31:59.076681 30606 net.cpp:156] Memory required for data: 61832000
I0419 15:31:59.076686 30606 layer_factory.hpp:77] Creating layer pool2/3x3_s2
I0419 15:31:59.076695 30606 net.cpp:91] Creating Layer pool2/3x3_s2
I0419 15:31:59.076701 30606 net.cpp:425] pool2/3x3_s2 <- conv2/norm2
I0419 15:31:59.076709 30606 net.cpp:399] pool2/3x3_s2 -> pool2/3x3_s2
I0419 15:31:59.076746 30606 net.cpp:141] Setting up pool2/3x3_s2
I0419 15:31:59.076756 30606 net.cpp:148] Top shape: 1 192 62 41 (488064)
I0419 15:31:59.076761 30606 net.cpp:156] Memory required for data: 63784256
I0419 15:31:59.076766 30606 layer_factory.hpp:77] Creating layer pool2/3x3_s2_pool2/3x3_s2_0_split
I0419 15:31:59.076774 30606 net.cpp:91] Creating Layer pool2/3x3_s2_pool2/3x3_s2_0_split
I0419 15:31:59.076781 30606 net.cpp:425] pool2/3x3_s2_pool2/3x3_s2_0_split <- pool2/3x3_s2
I0419 15:31:59.076787 30606 net.cpp:399] pool2/3x3_s2_pool2/3x3_s2_0_split -> pool2/3x3_s2_pool2/3x3_s2_0_split_0
I0419 15:31:59.076799 30606 net.cpp:399] pool2/3x3_s2_pool2/3x3_s2_0_split -> pool2/3x3_s2_pool2/3x3_s2_0_split_1
I0419 15:31:59.076807 30606 net.cpp:399] pool2/3x3_s2_pool2/3x3_s2_0_split -> pool2/3x3_s2_pool2/3x3_s2_0_split_2
I0419 15:31:59.076815 30606 net.cpp:399] pool2/3x3_s2_pool2/3x3_s2_0_split -> pool2/3x3_s2_pool2/3x3_s2_0_split_3
I0419 15:31:59.076869 30606 net.cpp:141] Setting up pool2/3x3_s2_pool2/3x3_s2_0_split
I0419 15:31:59.076879 30606 net.cpp:148] Top shape: 1 192 62 41 (488064)
I0419 15:31:59.076885 30606 net.cpp:148] Top shape: 1 192 62 41 (488064)
I0419 15:31:59.076891 30606 net.cpp:148] Top shape: 1 192 62 41 (488064)
I0419 15:31:59.076897 30606 net.cpp:148] Top shape: 1 192 62 41 (488064)
I0419 15:31:59.076901 30606 net.cpp:156] Memory required for data: 71593280
I0419 15:31:59.076906 30606 layer_factory.hpp:77] Creating layer inception_3a/1x1
I0419 15:31:59.076918 30606 net.cpp:91] Creating Layer inception_3a/1x1
I0419 15:31:59.076928 30606 net.cpp:425] inception_3a/1x1 <- pool2/3x3_s2_pool2/3x3_s2_0_split_0
I0419 15:31:59.076936 30606 net.cpp:399] inception_3a/1x1 -> inception_3a/1x1
I0419 15:31:59.084604 30606 net.cpp:141] Setting up inception_3a/1x1
I0419 15:31:59.084619 30606 net.cpp:148] Top shape: 1 64 62 41 (162688)
I0419 15:31:59.084625 30606 net.cpp:156] Memory required for data: 72244032
I0419 15:31:59.084635 30606 layer_factory.hpp:77] Creating layer inception_3a/relu_1x1
I0419 15:31:59.084645 30606 net.cpp:91] Creating Layer inception_3a/relu_1x1
I0419 15:31:59.084650 30606 net.cpp:425] inception_3a/relu_1x1 <- inception_3a/1x1
I0419 15:31:59.084658 30606 net.cpp:386] inception_3a/relu_1x1 -> inception_3a/1x1 (in-place)
I0419 15:31:59.086886 30606 net.cpp:141] Setting up inception_3a/relu_1x1
I0419 15:31:59.086900 30606 net.cpp:148] Top shape: 1 64 62 41 (162688)
I0419 15:31:59.086906 30606 net.cpp:156] Memory required for data: 72894784
I0419 15:31:59.086911 30606 layer_factory.hpp:77] Creating layer inception_3a/3x3_reduce
I0419 15:31:59.086925 30606 net.cpp:91] Creating Layer inception_3a/3x3_reduce
I0419 15:31:59.086930 30606 net.cpp:425] inception_3a/3x3_reduce <- pool2/3x3_s2_pool2/3x3_s2_0_split_1
I0419 15:31:59.086940 30606 net.cpp:399] inception_3a/3x3_reduce -> inception_3a/3x3_reduce
I0419 15:31:59.094449 30606 net.cpp:141] Setting up inception_3a/3x3_reduce
I0419 15:31:59.094463 30606 net.cpp:148] Top shape: 1 96 62 41 (244032)
I0419 15:31:59.094470 30606 net.cpp:156] Memory required for data: 73870912
I0419 15:31:59.094483 30606 layer_factory.hpp:77] Creating layer inception_3a/relu_3x3_reduce
I0419 15:31:59.094493 30606 net.cpp:91] Creating Layer inception_3a/relu_3x3_reduce
I0419 15:31:59.094504 30606 net.cpp:425] inception_3a/relu_3x3_reduce <- inception_3a/3x3_reduce
I0419 15:31:59.094511 30606 net.cpp:386] inception_3a/relu_3x3_reduce -> inception_3a/3x3_reduce (in-place)
I0419 15:31:59.096943 30606 net.cpp:141] Setting up inception_3a/relu_3x3_reduce
I0419 15:31:59.096957 30606 net.cpp:148] Top shape: 1 96 62 41 (244032)
I0419 15:31:59.096962 30606 net.cpp:156] Memory required for data: 74847040
I0419 15:31:59.096967 30606 layer_factory.hpp:77] Creating layer inception_3a/3x3
I0419 15:31:59.096981 30606 net.cpp:91] Creating Layer inception_3a/3x3
I0419 15:31:59.096987 30606 net.cpp:425] inception_3a/3x3 <- inception_3a/3x3_reduce
I0419 15:31:59.096994 30606 net.cpp:399] inception_3a/3x3 -> inception_3a/3x3
I0419 15:31:59.105082 30606 net.cpp:141] Setting up inception_3a/3x3
I0419 15:31:59.105098 30606 net.cpp:148] Top shape: 1 128 62 41 (325376)
I0419 15:31:59.105103 30606 net.cpp:156] Memory required for data: 76148544
I0419 15:31:59.105113 30606 layer_factory.hpp:77] Creating layer inception_3a/relu_3x3
I0419 15:31:59.105123 30606 net.cpp:91] Creating Layer inception_3a/relu_3x3
I0419 15:31:59.105129 30606 net.cpp:425] inception_3a/relu_3x3 <- inception_3a/3x3
I0419 15:31:59.105136 30606 net.cpp:386] inception_3a/relu_3x3 -> inception_3a/3x3 (in-place)
I0419 15:31:59.107641 30606 net.cpp:141] Setting up inception_3a/relu_3x3
I0419 15:31:59.107653 30606 net.cpp:148] Top shape: 1 128 62 41 (325376)
I0419 15:31:59.107658 30606 net.cpp:156] Memory required for data: 77450048
I0419 15:31:59.107663 30606 layer_factory.hpp:77] Creating layer inception_3a/5x5_reduce
I0419 15:31:59.107678 30606 net.cpp:91] Creating Layer inception_3a/5x5_reduce
I0419 15:31:59.107691 30606 net.cpp:425] inception_3a/5x5_reduce <- pool2/3x3_s2_pool2/3x3_s2_0_split_2
I0419 15:31:59.107702 30606 net.cpp:399] inception_3a/5x5_reduce -> inception_3a/5x5_reduce
I0419 15:31:59.115216 30606 net.cpp:141] Setting up inception_3a/5x5_reduce
I0419 15:31:59.115231 30606 net.cpp:148] Top shape: 1 16 62 41 (40672)
I0419 15:31:59.115236 30606 net.cpp:156] Memory required for data: 77612736
I0419 15:31:59.115247 30606 layer_factory.hpp:77] Creating layer inception_3a/relu_5x5_reduce
I0419 15:31:59.115257 30606 net.cpp:91] Creating Layer inception_3a/relu_5x5_reduce
I0419 15:31:59.115262 30606 net.cpp:425] inception_3a/relu_5x5_reduce <- inception_3a/5x5_reduce
I0419 15:31:59.115270 30606 net.cpp:386] inception_3a/relu_5x5_reduce -> inception_3a/5x5_reduce (in-place)
I0419 15:31:59.117557 30606 net.cpp:141] Setting up inception_3a/relu_5x5_reduce
I0419 15:31:59.117571 30606 net.cpp:148] Top shape: 1 16 62 41 (40672)
I0419 15:31:59.117578 30606 net.cpp:156] Memory required for data: 77775424
I0419 15:31:59.117583 30606 layer_factory.hpp:77] Creating layer inception_3a/5x5
I0419 15:31:59.117596 30606 net.cpp:91] Creating Layer inception_3a/5x5
I0419 15:31:59.117602 30606 net.cpp:425] inception_3a/5x5 <- inception_3a/5x5_reduce
I0419 15:31:59.117611 30606 net.cpp:399] inception_3a/5x5 -> inception_3a/5x5
I0419 15:31:59.127002 30606 net.cpp:141] Setting up inception_3a/5x5
I0419 15:31:59.127017 30606 net.cpp:148] Top shape: 1 32 62 41 (81344)
I0419 15:31:59.127023 30606 net.cpp:156] Memory required for data: 78100800
I0419 15:31:59.127032 30606 layer_factory.hpp:77] Creating layer inception_3a/relu_5x5
I0419 15:31:59.127041 30606 net.cpp:91] Creating Layer inception_3a/relu_5x5
I0419 15:31:59.127048 30606 net.cpp:425] inception_3a/relu_5x5 <- inception_3a/5x5
I0419 15:31:59.127054 30606 net.cpp:386] inception_3a/relu_5x5 -> inception_3a/5x5 (in-place)
I0419 15:31:59.130517 30606 net.cpp:141] Setting up inception_3a/relu_5x5
I0419 15:31:59.130530 30606 net.cpp:148] Top shape: 1 32 62 41 (81344)
I0419 15:31:59.130535 30606 net.cpp:156] Memory required for data: 78426176
I0419 15:31:59.130542 30606 layer_factory.hpp:77] Creating layer inception_3a/pool
I0419 15:31:59.130549 30606 net.cpp:91] Creating Layer inception_3a/pool
I0419 15:31:59.130555 30606 net.cpp:425] inception_3a/pool <- pool2/3x3_s2_pool2/3x3_s2_0_split_3
I0419 15:31:59.130565 30606 net.cpp:399] inception_3a/pool -> inception_3a/pool
I0419 15:31:59.130611 30606 net.cpp:141] Setting up inception_3a/pool
I0419 15:31:59.130621 30606 net.cpp:148] Top shape: 1 192 62 41 (488064)
I0419 15:31:59.130626 30606 net.cpp:156] Memory required for data: 80378432
I0419 15:31:59.130631 30606 layer_factory.hpp:77] Creating layer inception_3a/pool_proj
I0419 15:31:59.130645 30606 net.cpp:91] Creating Layer inception_3a/pool_proj
I0419 15:31:59.130653 30606 net.cpp:425] inception_3a/pool_proj <- inception_3a/pool
I0419 15:31:59.130661 30606 net.cpp:399] inception_3a/pool_proj -> inception_3a/pool_proj
I0419 15:31:59.301028 30606 net.cpp:141] Setting up inception_3a/pool_proj
I0419 15:31:59.301043 30606 net.cpp:148] Top shape: 1 32 62 41 (81344)
I0419 15:31:59.301050 30606 net.cpp:156] Memory required for data: 80703808
I0419 15:31:59.301064 30606 layer_factory.hpp:77] Creating layer inception_3a/relu_pool_proj
I0419 15:31:59.301079 30606 net.cpp:91] Creating Layer inception_3a/relu_pool_proj
I0419 15:31:59.301090 30606 net.cpp:425] inception_3a/relu_pool_proj <- inception_3a/pool_proj
I0419 15:31:59.301097 30606 net.cpp:386] inception_3a/relu_pool_proj -> inception_3a/pool_proj (in-place)
I0419 15:31:59.303670 30606 net.cpp:141] Setting up inception_3a/relu_pool_proj
I0419 15:31:59.303683 30606 net.cpp:148] Top shape: 1 32 62 41 (81344)
I0419 15:31:59.303688 30606 net.cpp:156] Memory required for data: 81029184
I0419 15:31:59.303692 30606 layer_factory.hpp:77] Creating layer inception_3a/output
I0419 15:31:59.303705 30606 net.cpp:91] Creating Layer inception_3a/output
I0419 15:31:59.303711 30606 net.cpp:425] inception_3a/output <- inception_3a/1x1
I0419 15:31:59.303717 30606 net.cpp:425] inception_3a/output <- inception_3a/3x3
I0419 15:31:59.303724 30606 net.cpp:425] inception_3a/output <- inception_3a/5x5
I0419 15:31:59.303728 30606 net.cpp:425] inception_3a/output <- inception_3a/pool_proj
I0419 15:31:59.303737 30606 net.cpp:399] inception_3a/output -> inception_3a/output
I0419 15:31:59.303768 30606 net.cpp:141] Setting up inception_3a/output
I0419 15:31:59.303778 30606 net.cpp:148] Top shape: 1 256 62 41 (650752)
I0419 15:31:59.303783 30606 net.cpp:156] Memory required for data: 83632192
I0419 15:31:59.303788 30606 layer_factory.hpp:77] Creating layer inception_3a/output_inception_3a/output_0_split
I0419 15:31:59.303798 30606 net.cpp:91] Creating Layer inception_3a/output_inception_3a/output_0_split
I0419 15:31:59.303804 30606 net.cpp:425] inception_3a/output_inception_3a/output_0_split <- inception_3a/output
I0419 15:31:59.303812 30606 net.cpp:399] inception_3a/output_inception_3a/output_0_split -> inception_3a/output_inception_3a/output_0_split_0
I0419 15:31:59.303822 30606 net.cpp:399] inception_3a/output_inception_3a/output_0_split -> inception_3a/output_inception_3a/output_0_split_1
I0419 15:31:59.303833 30606 net.cpp:399] inception_3a/output_inception_3a/output_0_split -> inception_3a/output_inception_3a/output_0_split_2
I0419 15:31:59.303840 30606 net.cpp:399] inception_3a/output_inception_3a/output_0_split -> inception_3a/output_inception_3a/output_0_split_3
I0419 15:31:59.303899 30606 net.cpp:141] Setting up inception_3a/output_inception_3a/output_0_split
I0419 15:31:59.303908 30606 net.cpp:148] Top shape: 1 256 62 41 (650752)
I0419 15:31:59.303915 30606 net.cpp:148] Top shape: 1 256 62 41 (650752)
I0419 15:31:59.303920 30606 net.cpp:148] Top shape: 1 256 62 41 (650752)
I0419 15:31:59.303926 30606 net.cpp:148] Top shape: 1 256 62 41 (650752)
I0419 15:31:59.303930 30606 net.cpp:156] Memory required for data: 94044224
I0419 15:31:59.303936 30606 layer_factory.hpp:77] Creating layer inception_3b/1x1
I0419 15:31:59.303947 30606 net.cpp:91] Creating Layer inception_3b/1x1
I0419 15:31:59.303956 30606 net.cpp:425] inception_3b/1x1 <- inception_3a/output_inception_3a/output_0_split_0
I0419 15:31:59.303966 30606 net.cpp:399] inception_3b/1x1 -> inception_3b/1x1
I0419 15:31:59.447526 30606 net.cpp:141] Setting up inception_3b/1x1
I0419 15:31:59.447543 30606 net.cpp:148] Top shape: 1 128 62 41 (325376)
I0419 15:31:59.447549 30606 net.cpp:156] Memory required for data: 95345728
I0419 15:31:59.447558 30606 layer_factory.hpp:77] Creating layer inception_3b/relu_1x1
I0419 15:31:59.447567 30606 net.cpp:91] Creating Layer inception_3b/relu_1x1
I0419 15:31:59.447573 30606 net.cpp:425] inception_3b/relu_1x1 <- inception_3b/1x1
I0419 15:31:59.447581 30606 net.cpp:386] inception_3b/relu_1x1 -> inception_3b/1x1 (in-place)
I0419 15:31:59.449712 30606 net.cpp:141] Setting up inception_3b/relu_1x1
I0419 15:31:59.449726 30606 net.cpp:148] Top shape: 1 128 62 41 (325376)
I0419 15:31:59.449731 30606 net.cpp:156] Memory required for data: 96647232
I0419 15:31:59.449738 30606 layer_factory.hpp:77] Creating layer inception_3b/3x3_reduce
I0419 15:31:59.449751 30606 net.cpp:91] Creating Layer inception_3b/3x3_reduce
I0419 15:31:59.449759 30606 net.cpp:425] inception_3b/3x3_reduce <- inception_3a/output_inception_3a/output_0_split_1
I0419 15:31:59.449769 30606 net.cpp:399] inception_3b/3x3_reduce -> inception_3b/3x3_reduce
I0419 15:31:59.458499 30606 net.cpp:141] Setting up inception_3b/3x3_reduce
I0419 15:31:59.458513 30606 net.cpp:148] Top shape: 1 128 62 41 (325376)
I0419 15:31:59.458518 30606 net.cpp:156] Memory required for data: 97948736
I0419 15:31:59.458528 30606 layer_factory.hpp:77] Creating layer inception_3b/relu_3x3_reduce
I0419 15:31:59.458536 30606 net.cpp:91] Creating Layer inception_3b/relu_3x3_reduce
I0419 15:31:59.458542 30606 net.cpp:425] inception_3b/relu_3x3_reduce <- inception_3b/3x3_reduce
I0419 15:31:59.458550 30606 net.cpp:386] inception_3b/relu_3x3_reduce -> inception_3b/3x3_reduce (in-place)
I0419 15:31:59.460697 30606 net.cpp:141] Setting up inception_3b/relu_3x3_reduce
I0419 15:31:59.460711 30606 net.cpp:148] Top shape: 1 128 62 41 (325376)
I0419 15:31:59.460716 30606 net.cpp:156] Memory required for data: 99250240
I0419 15:31:59.460721 30606 layer_factory.hpp:77] Creating layer inception_3b/3x3
I0419 15:31:59.460739 30606 net.cpp:91] Creating Layer inception_3b/3x3
I0419 15:31:59.460748 30606 net.cpp:425] inception_3b/3x3 <- inception_3b/3x3_reduce
I0419 15:31:59.460757 30606 net.cpp:399] inception_3b/3x3 -> inception_3b/3x3
I0419 15:31:59.469576 30606 net.cpp:141] Setting up inception_3b/3x3
I0419 15:31:59.469591 30606 net.cpp:148] Top shape: 1 192 62 41 (488064)
I0419 15:31:59.469597 30606 net.cpp:156] Memory required for data: 101202496
I0419 15:31:59.469607 30606 layer_factory.hpp:77] Creating layer inception_3b/relu_3x3
I0419 15:31:59.469619 30606 net.cpp:91] Creating Layer inception_3b/relu_3x3
I0419 15:31:59.469624 30606 net.cpp:425] inception_3b/relu_3x3 <- inception_3b/3x3
I0419 15:31:59.469632 30606 net.cpp:386] inception_3b/relu_3x3 -> inception_3b/3x3 (in-place)
I0419 15:31:59.471647 30606 net.cpp:141] Setting up inception_3b/relu_3x3
I0419 15:31:59.471659 30606 net.cpp:148] Top shape: 1 192 62 41 (488064)
I0419 15:31:59.471664 30606 net.cpp:156] Memory required for data: 103154752
I0419 15:31:59.471669 30606 layer_factory.hpp:77] Creating layer inception_3b/5x5_reduce
I0419 15:31:59.471683 30606 net.cpp:91] Creating Layer inception_3b/5x5_reduce
I0419 15:31:59.471688 30606 net.cpp:425] inception_3b/5x5_reduce <- inception_3a/output_inception_3a/output_0_split_2
I0419 15:31:59.471699 30606 net.cpp:399] inception_3b/5x5_reduce -> inception_3b/5x5_reduce
I0419 15:31:59.479630 30606 net.cpp:141] Setting up inception_3b/5x5_reduce
I0419 15:31:59.479645 30606 net.cpp:148] Top shape: 1 32 62 41 (81344)
I0419 15:31:59.479650 30606 net.cpp:156] Memory required for data: 103480128
I0419 15:31:59.479660 30606 layer_factory.hpp:77] Creating layer inception_3b/relu_5x5_reduce
I0419 15:31:59.479670 30606 net.cpp:91] Creating Layer inception_3b/relu_5x5_reduce
I0419 15:31:59.479676 30606 net.cpp:425] inception_3b/relu_5x5_reduce <- inception_3b/5x5_reduce
I0419 15:31:59.479686 30606 net.cpp:386] inception_3b/relu_5x5_reduce -> inception_3b/5x5_reduce (in-place)
I0419 15:31:59.481837 30606 net.cpp:141] Setting up inception_3b/relu_5x5_reduce
I0419 15:31:59.481850 30606 net.cpp:148] Top shape: 1 32 62 41 (81344)
I0419 15:31:59.481855 30606 net.cpp:156] Memory required for data: 103805504
I0419 15:31:59.481860 30606 layer_factory.hpp:77] Creating layer inception_3b/5x5
I0419 15:31:59.481874 30606 net.cpp:91] Creating Layer inception_3b/5x5
I0419 15:31:59.481881 30606 net.cpp:425] inception_3b/5x5 <- inception_3b/5x5_reduce
I0419 15:31:59.481891 30606 net.cpp:399] inception_3b/5x5 -> inception_3b/5x5
I0419 15:31:59.488715 30606 net.cpp:141] Setting up inception_3b/5x5
I0419 15:31:59.488730 30606 net.cpp:148] Top shape: 1 96 62 41 (244032)
I0419 15:31:59.488735 30606 net.cpp:156] Memory required for data: 104781632
I0419 15:31:59.488745 30606 layer_factory.hpp:77] Creating layer inception_3b/relu_5x5
I0419 15:31:59.488754 30606 net.cpp:91] Creating Layer inception_3b/relu_5x5
I0419 15:31:59.488760 30606 net.cpp:425] inception_3b/relu_5x5 <- inception_3b/5x5
I0419 15:31:59.488770 30606 net.cpp:386] inception_3b/relu_5x5 -> inception_3b/5x5 (in-place)
I0419 15:31:59.490914 30606 net.cpp:141] Setting up inception_3b/relu_5x5
I0419 15:31:59.490928 30606 net.cpp:148] Top shape: 1 96 62 41 (244032)
I0419 15:31:59.490933 30606 net.cpp:156] Memory required for data: 105757760
I0419 15:31:59.490938 30606 layer_factory.hpp:77] Creating layer inception_3b/pool
I0419 15:31:59.490949 30606 net.cpp:91] Creating Layer inception_3b/pool
I0419 15:31:59.490955 30606 net.cpp:425] inception_3b/pool <- inception_3a/output_inception_3a/output_0_split_3
I0419 15:31:59.490964 30606 net.cpp:399] inception_3b/pool -> inception_3b/pool
I0419 15:31:59.491014 30606 net.cpp:141] Setting up inception_3b/pool
I0419 15:31:59.491025 30606 net.cpp:148] Top shape: 1 256 62 41 (650752)
I0419 15:31:59.491030 30606 net.cpp:156] Memory required for data: 108360768
I0419 15:31:59.491035 30606 layer_factory.hpp:77] Creating layer inception_3b/pool_proj
I0419 15:31:59.491049 30606 net.cpp:91] Creating Layer inception_3b/pool_proj
I0419 15:31:59.491055 30606 net.cpp:425] inception_3b/pool_proj <- inception_3b/pool
I0419 15:31:59.491065 30606 net.cpp:399] inception_3b/pool_proj -> inception_3b/pool_proj
I0419 15:31:59.498217 30606 net.cpp:141] Setting up inception_3b/pool_proj
I0419 15:31:59.498232 30606 net.cpp:148] Top shape: 1 64 62 41 (162688)
I0419 15:31:59.498237 30606 net.cpp:156] Memory required for data: 109011520
I0419 15:31:59.498246 30606 layer_factory.hpp:77] Creating layer inception_3b/relu_pool_proj
I0419 15:31:59.498255 30606 net.cpp:91] Creating Layer inception_3b/relu_pool_proj
I0419 15:31:59.498261 30606 net.cpp:425] inception_3b/relu_pool_proj <- inception_3b/pool_proj
I0419 15:31:59.498268 30606 net.cpp:386] inception_3b/relu_pool_proj -> inception_3b/pool_proj (in-place)
I0419 15:31:59.500624 30606 net.cpp:141] Setting up inception_3b/relu_pool_proj
I0419 15:31:59.500638 30606 net.cpp:148] Top shape: 1 64 62 41 (162688)
I0419 15:31:59.500643 30606 net.cpp:156] Memory required for data: 109662272
I0419 15:31:59.500648 30606 layer_factory.hpp:77] Creating layer inception_3b/output
I0419 15:31:59.500656 30606 net.cpp:91] Creating Layer inception_3b/output
I0419 15:31:59.500661 30606 net.cpp:425] inception_3b/output <- inception_3b/1x1
I0419 15:31:59.500669 30606 net.cpp:425] inception_3b/output <- inception_3b/3x3
I0419 15:31:59.500674 30606 net.cpp:425] inception_3b/output <- inception_3b/5x5
I0419 15:31:59.500679 30606 net.cpp:425] inception_3b/output <- inception_3b/pool_proj
I0419 15:31:59.500685 30606 net.cpp:399] inception_3b/output -> inception_3b/output
I0419 15:31:59.500720 30606 net.cpp:141] Setting up inception_3b/output
I0419 15:31:59.500730 30606 net.cpp:148] Top shape: 1 480 62 41 (1220160)
I0419 15:31:59.500735 30606 net.cpp:156] Memory required for data: 114542912
I0419 15:31:59.500740 30606 layer_factory.hpp:77] Creating layer pool3/3x3_s2
I0419 15:31:59.500748 30606 net.cpp:91] Creating Layer pool3/3x3_s2
I0419 15:31:59.500754 30606 net.cpp:425] pool3/3x3_s2 <- inception_3b/output
I0419 15:31:59.500761 30606 net.cpp:399] pool3/3x3_s2 -> pool3/3x3_s2
I0419 15:31:59.500802 30606 net.cpp:141] Setting up pool3/3x3_s2
I0419 15:31:59.500813 30606 net.cpp:148] Top shape: 1 480 31 20 (297600)
I0419 15:31:59.500816 30606 net.cpp:156] Memory required for data: 115733312
I0419 15:31:59.500821 30606 layer_factory.hpp:77] Creating layer pool3/3x3_s2_pool3/3x3_s2_0_split
I0419 15:31:59.500829 30606 net.cpp:91] Creating Layer pool3/3x3_s2_pool3/3x3_s2_0_split
I0419 15:31:59.500834 30606 net.cpp:425] pool3/3x3_s2_pool3/3x3_s2_0_split <- pool3/3x3_s2
I0419 15:31:59.500841 30606 net.cpp:399] pool3/3x3_s2_pool3/3x3_s2_0_split -> pool3/3x3_s2_pool3/3x3_s2_0_split_0
I0419 15:31:59.500851 30606 net.cpp:399] pool3/3x3_s2_pool3/3x3_s2_0_split -> pool3/3x3_s2_pool3/3x3_s2_0_split_1
I0419 15:31:59.500865 30606 net.cpp:399] pool3/3x3_s2_pool3/3x3_s2_0_split -> pool3/3x3_s2_pool3/3x3_s2_0_split_2
I0419 15:31:59.500877 30606 net.cpp:399] pool3/3x3_s2_pool3/3x3_s2_0_split -> pool3/3x3_s2_pool3/3x3_s2_0_split_3
I0419 15:31:59.500936 30606 net.cpp:141] Setting up pool3/3x3_s2_pool3/3x3_s2_0_split
I0419 15:31:59.500946 30606 net.cpp:148] Top shape: 1 480 31 20 (297600)
I0419 15:31:59.500952 30606 net.cpp:148] Top shape: 1 480 31 20 (297600)
I0419 15:31:59.500957 30606 net.cpp:148] Top shape: 1 480 31 20 (297600)
I0419 15:31:59.500963 30606 net.cpp:148] Top shape: 1 480 31 20 (297600)
I0419 15:31:59.500968 30606 net.cpp:156] Memory required for data: 120494912
I0419 15:31:59.500973 30606 layer_factory.hpp:77] Creating layer inception_4a/1x1
I0419 15:31:59.500989 30606 net.cpp:91] Creating Layer inception_4a/1x1
I0419 15:31:59.500998 30606 net.cpp:425] inception_4a/1x1 <- pool3/3x3_s2_pool3/3x3_s2_0_split_0
I0419 15:31:59.501006 30606 net.cpp:399] inception_4a/1x1 -> inception_4a/1x1
I0419 15:31:59.508457 30606 net.cpp:141] Setting up inception_4a/1x1
I0419 15:31:59.508472 30606 net.cpp:148] Top shape: 1 192 31 20 (119040)
I0419 15:31:59.508477 30606 net.cpp:156] Memory required for data: 120971072
I0419 15:31:59.508487 30606 layer_factory.hpp:77] Creating layer inception_4a/relu_1x1
I0419 15:31:59.508496 30606 net.cpp:91] Creating Layer inception_4a/relu_1x1
I0419 15:31:59.508502 30606 net.cpp:425] inception_4a/relu_1x1 <- inception_4a/1x1
I0419 15:31:59.508509 30606 net.cpp:386] inception_4a/relu_1x1 -> inception_4a/1x1 (in-place)
I0419 15:31:59.510462 30606 net.cpp:141] Setting up inception_4a/relu_1x1
I0419 15:31:59.510476 30606 net.cpp:148] Top shape: 1 192 31 20 (119040)
I0419 15:31:59.510481 30606 net.cpp:156] Memory required for data: 121447232
I0419 15:31:59.510488 30606 layer_factory.hpp:77] Creating layer inception_4a/3x3_reduce
I0419 15:31:59.510500 30606 net.cpp:91] Creating Layer inception_4a/3x3_reduce
I0419 15:31:59.510507 30606 net.cpp:425] inception_4a/3x3_reduce <- pool3/3x3_s2_pool3/3x3_s2_0_split_1
I0419 15:31:59.510517 30606 net.cpp:399] inception_4a/3x3_reduce -> inception_4a/3x3_reduce
I0419 15:31:59.517705 30606 net.cpp:141] Setting up inception_4a/3x3_reduce
I0419 15:31:59.517720 30606 net.cpp:148] Top shape: 1 96 31 20 (59520)
I0419 15:31:59.517726 30606 net.cpp:156] Memory required for data: 121685312
I0419 15:31:59.517743 30606 layer_factory.hpp:77] Creating layer inception_4a/relu_3x3_reduce
I0419 15:31:59.517756 30606 net.cpp:91] Creating Layer inception_4a/relu_3x3_reduce
I0419 15:31:59.517766 30606 net.cpp:425] inception_4a/relu_3x3_reduce <- inception_4a/3x3_reduce
I0419 15:31:59.517773 30606 net.cpp:386] inception_4a/relu_3x3_reduce -> inception_4a/3x3_reduce (in-place)
I0419 15:31:59.520071 30606 net.cpp:141] Setting up inception_4a/relu_3x3_reduce
I0419 15:31:59.520086 30606 net.cpp:148] Top shape: 1 96 31 20 (59520)
I0419 15:31:59.520090 30606 net.cpp:156] Memory required for data: 121923392
I0419 15:31:59.520095 30606 layer_factory.hpp:77] Creating layer inception_4a/3x3
I0419 15:31:59.520109 30606 net.cpp:91] Creating Layer inception_4a/3x3
I0419 15:31:59.520115 30606 net.cpp:425] inception_4a/3x3 <- inception_4a/3x3_reduce
I0419 15:31:59.520125 30606 net.cpp:399] inception_4a/3x3 -> inception_4a/3x3
I0419 15:31:59.528545 30606 net.cpp:141] Setting up inception_4a/3x3
I0419 15:31:59.528560 30606 net.cpp:148] Top shape: 1 208 31 20 (128960)
I0419 15:31:59.528565 30606 net.cpp:156] Memory required for data: 122439232
I0419 15:31:59.528578 30606 layer_factory.hpp:77] Creating layer inception_4a/relu_3x3
I0419 15:31:59.528586 30606 net.cpp:91] Creating Layer inception_4a/relu_3x3
I0419 15:31:59.528594 30606 net.cpp:425] inception_4a/relu_3x3 <- inception_4a/3x3
I0419 15:31:59.528600 30606 net.cpp:386] inception_4a/relu_3x3 -> inception_4a/3x3 (in-place)
I0419 15:31:59.530855 30606 net.cpp:141] Setting up inception_4a/relu_3x3
I0419 15:31:59.530869 30606 net.cpp:148] Top shape: 1 208 31 20 (128960)
I0419 15:31:59.530874 30606 net.cpp:156] Memory required for data: 122955072
I0419 15:31:59.530879 30606 layer_factory.hpp:77] Creating layer inception_4a/5x5_reduce
I0419 15:31:59.530891 30606 net.cpp:91] Creating Layer inception_4a/5x5_reduce
I0419 15:31:59.530897 30606 net.cpp:425] inception_4a/5x5_reduce <- pool3/3x3_s2_pool3/3x3_s2_0_split_2
I0419 15:31:59.530906 30606 net.cpp:399] inception_4a/5x5_reduce -> inception_4a/5x5_reduce
I0419 15:31:59.539193 30606 net.cpp:141] Setting up inception_4a/5x5_reduce
I0419 15:31:59.539207 30606 net.cpp:148] Top shape: 1 16 31 20 (9920)
I0419 15:31:59.539213 30606 net.cpp:156] Memory required for data: 122994752
I0419 15:31:59.539222 30606 layer_factory.hpp:77] Creating layer inception_4a/relu_5x5_reduce
I0419 15:31:59.539232 30606 net.cpp:91] Creating Layer inception_4a/relu_5x5_reduce
I0419 15:31:59.539238 30606 net.cpp:425] inception_4a/relu_5x5_reduce <- inception_4a/5x5_reduce
I0419 15:31:59.539247 30606 net.cpp:386] inception_4a/relu_5x5_reduce -> inception_4a/5x5_reduce (in-place)
I0419 15:31:59.542842 30606 net.cpp:141] Setting up inception_4a/relu_5x5_reduce
I0419 15:31:59.542857 30606 net.cpp:148] Top shape: 1 16 31 20 (9920)
I0419 15:31:59.542862 30606 net.cpp:156] Memory required for data: 123034432
I0419 15:31:59.542867 30606 layer_factory.hpp:77] Creating layer inception_4a/5x5
I0419 15:31:59.542882 30606 net.cpp:91] Creating Layer inception_4a/5x5
I0419 15:31:59.542888 30606 net.cpp:425] inception_4a/5x5 <- inception_4a/5x5_reduce
I0419 15:31:59.542897 30606 net.cpp:399] inception_4a/5x5 -> inception_4a/5x5
I0419 15:31:59.550652 30606 net.cpp:141] Setting up inception_4a/5x5
I0419 15:31:59.550667 30606 net.cpp:148] Top shape: 1 48 31 20 (29760)
I0419 15:31:59.550673 30606 net.cpp:156] Memory required for data: 123153472
I0419 15:31:59.550681 30606 layer_factory.hpp:77] Creating layer inception_4a/relu_5x5
I0419 15:31:59.550694 30606 net.cpp:91] Creating Layer inception_4a/relu_5x5
I0419 15:31:59.550706 30606 net.cpp:425] inception_4a/relu_5x5 <- inception_4a/5x5
I0419 15:31:59.550714 30606 net.cpp:386] inception_4a/relu_5x5 -> inception_4a/5x5 (in-place)
I0419 15:31:59.553071 30606 net.cpp:141] Setting up inception_4a/relu_5x5
I0419 15:31:59.553084 30606 net.cpp:148] Top shape: 1 48 31 20 (29760)
I0419 15:31:59.553091 30606 net.cpp:156] Memory required for data: 123272512
I0419 15:31:59.553095 30606 layer_factory.hpp:77] Creating layer inception_4a/pool
I0419 15:31:59.553105 30606 net.cpp:91] Creating Layer inception_4a/pool
I0419 15:31:59.553112 30606 net.cpp:425] inception_4a/pool <- pool3/3x3_s2_pool3/3x3_s2_0_split_3
I0419 15:31:59.553122 30606 net.cpp:399] inception_4a/pool -> inception_4a/pool
I0419 15:31:59.553169 30606 net.cpp:141] Setting up inception_4a/pool
I0419 15:31:59.553179 30606 net.cpp:148] Top shape: 1 480 31 20 (297600)
I0419 15:31:59.553184 30606 net.cpp:156] Memory required for data: 124462912
I0419 15:31:59.553189 30606 layer_factory.hpp:77] Creating layer inception_4a/pool_proj
I0419 15:31:59.553200 30606 net.cpp:91] Creating Layer inception_4a/pool_proj
I0419 15:31:59.553210 30606 net.cpp:425] inception_4a/pool_proj <- inception_4a/pool
I0419 15:31:59.553220 30606 net.cpp:399] inception_4a/pool_proj -> inception_4a/pool_proj
I0419 15:31:59.563587 30606 net.cpp:141] Setting up inception_4a/pool_proj
I0419 15:31:59.563602 30606 net.cpp:148] Top shape: 1 64 31 20 (39680)
I0419 15:31:59.563607 30606 net.cpp:156] Memory required for data: 124621632
I0419 15:31:59.563616 30606 layer_factory.hpp:77] Creating layer inception_4a/relu_pool_proj
I0419 15:31:59.563626 30606 net.cpp:91] Creating Layer inception_4a/relu_pool_proj
I0419 15:31:59.563632 30606 net.cpp:425] inception_4a/relu_pool_proj <- inception_4a/pool_proj
I0419 15:31:59.563640 30606 net.cpp:386] inception_4a/relu_pool_proj -> inception_4a/pool_proj (in-place)
I0419 15:31:59.566335 30606 net.cpp:141] Setting up inception_4a/relu_pool_proj
I0419 15:31:59.566349 30606 net.cpp:148] Top shape: 1 64 31 20 (39680)
I0419 15:31:59.566354 30606 net.cpp:156] Memory required for data: 124780352
I0419 15:31:59.566359 30606 layer_factory.hpp:77] Creating layer inception_4a/output
I0419 15:31:59.566366 30606 net.cpp:91] Creating Layer inception_4a/output
I0419 15:31:59.566371 30606 net.cpp:425] inception_4a/output <- inception_4a/1x1
I0419 15:31:59.566378 30606 net.cpp:425] inception_4a/output <- inception_4a/3x3
I0419 15:31:59.566385 30606 net.cpp:425] inception_4a/output <- inception_4a/5x5
I0419 15:31:59.566390 30606 net.cpp:425] inception_4a/output <- inception_4a/pool_proj
I0419 15:31:59.566396 30606 net.cpp:399] inception_4a/output -> inception_4a/output
I0419 15:31:59.566432 30606 net.cpp:141] Setting up inception_4a/output
I0419 15:31:59.566442 30606 net.cpp:148] Top shape: 1 512 31 20 (317440)
I0419 15:31:59.566447 30606 net.cpp:156] Memory required for data: 126050112
I0419 15:31:59.566452 30606 layer_factory.hpp:77] Creating layer inception_4a/output_inception_4a/output_0_split
I0419 15:31:59.566462 30606 net.cpp:91] Creating Layer inception_4a/output_inception_4a/output_0_split
I0419 15:31:59.566468 30606 net.cpp:425] inception_4a/output_inception_4a/output_0_split <- inception_4a/output
I0419 15:31:59.566474 30606 net.cpp:399] inception_4a/output_inception_4a/output_0_split -> inception_4a/output_inception_4a/output_0_split_0
I0419 15:31:59.566483 30606 net.cpp:399] inception_4a/output_inception_4a/output_0_split -> inception_4a/output_inception_4a/output_0_split_1
I0419 15:31:59.566496 30606 net.cpp:399] inception_4a/output_inception_4a/output_0_split -> inception_4a/output_inception_4a/output_0_split_2
I0419 15:31:59.566509 30606 net.cpp:399] inception_4a/output_inception_4a/output_0_split -> inception_4a/output_inception_4a/output_0_split_3
I0419 15:31:59.566572 30606 net.cpp:141] Setting up inception_4a/output_inception_4a/output_0_split
I0419 15:31:59.566581 30606 net.cpp:148] Top shape: 1 512 31 20 (317440)
I0419 15:31:59.566587 30606 net.cpp:148] Top shape: 1 512 31 20 (317440)
I0419 15:31:59.566593 30606 net.cpp:148] Top shape: 1 512 31 20 (317440)
I0419 15:31:59.566599 30606 net.cpp:148] Top shape: 1 512 31 20 (317440)
I0419 15:31:59.566603 30606 net.cpp:156] Memory required for data: 131129152
I0419 15:31:59.566609 30606 layer_factory.hpp:77] Creating layer inception_4b/1x1
I0419 15:31:59.566622 30606 net.cpp:91] Creating Layer inception_4b/1x1
I0419 15:31:59.566627 30606 net.cpp:425] inception_4b/1x1 <- inception_4a/output_inception_4a/output_0_split_0
I0419 15:31:59.566638 30606 net.cpp:399] inception_4b/1x1 -> inception_4b/1x1
I0419 15:31:59.575289 30606 net.cpp:141] Setting up inception_4b/1x1
I0419 15:31:59.575304 30606 net.cpp:148] Top shape: 1 160 31 20 (99200)
I0419 15:31:59.575310 30606 net.cpp:156] Memory required for data: 131525952
I0419 15:31:59.575320 30606 layer_factory.hpp:77] Creating layer inception_4b/relu_1x1
I0419 15:31:59.575330 30606 net.cpp:91] Creating Layer inception_4b/relu_1x1
I0419 15:31:59.575336 30606 net.cpp:425] inception_4b/relu_1x1 <- inception_4b/1x1
I0419 15:31:59.575345 30606 net.cpp:386] inception_4b/relu_1x1 -> inception_4b/1x1 (in-place)
I0419 15:31:59.577957 30606 net.cpp:141] Setting up inception_4b/relu_1x1
I0419 15:31:59.577971 30606 net.cpp:148] Top shape: 1 160 31 20 (99200)
I0419 15:31:59.577976 30606 net.cpp:156] Memory required for data: 131922752
I0419 15:31:59.577982 30606 layer_factory.hpp:77] Creating layer inception_4b/3x3_reduce
I0419 15:31:59.577996 30606 net.cpp:91] Creating Layer inception_4b/3x3_reduce
I0419 15:31:59.578001 30606 net.cpp:425] inception_4b/3x3_reduce <- inception_4a/output_inception_4a/output_0_split_1
I0419 15:31:59.578012 30606 net.cpp:399] inception_4b/3x3_reduce -> inception_4b/3x3_reduce
I0419 15:31:59.587167 30606 net.cpp:141] Setting up inception_4b/3x3_reduce
I0419 15:31:59.587182 30606 net.cpp:148] Top shape: 1 112 31 20 (69440)
I0419 15:31:59.587188 30606 net.cpp:156] Memory required for data: 132200512
I0419 15:31:59.587198 30606 layer_factory.hpp:77] Creating layer inception_4b/relu_3x3_reduce
I0419 15:31:59.587206 30606 net.cpp:91] Creating Layer inception_4b/relu_3x3_reduce
I0419 15:31:59.587213 30606 net.cpp:425] inception_4b/relu_3x3_reduce <- inception_4b/3x3_reduce
I0419 15:31:59.587220 30606 net.cpp:386] inception_4b/relu_3x3_reduce -> inception_4b/3x3_reduce (in-place)
I0419 15:31:59.595305 30606 net.cpp:141] Setting up inception_4b/relu_3x3_reduce
I0419 15:31:59.595319 30606 net.cpp:148] Top shape: 1 112 31 20 (69440)
I0419 15:31:59.595325 30606 net.cpp:156] Memory required for data: 132478272
I0419 15:31:59.595330 30606 layer_factory.hpp:77] Creating layer inception_4b/3x3
I0419 15:31:59.595345 30606 net.cpp:91] Creating Layer inception_4b/3x3
I0419 15:31:59.595351 30606 net.cpp:425] inception_4b/3x3 <- inception_4b/3x3_reduce
I0419 15:31:59.595361 30606 net.cpp:399] inception_4b/3x3 -> inception_4b/3x3
I0419 15:31:59.606947 30606 net.cpp:141] Setting up inception_4b/3x3
I0419 15:31:59.606962 30606 net.cpp:148] Top shape: 1 224 31 20 (138880)
I0419 15:31:59.606967 30606 net.cpp:156] Memory required for data: 133033792
I0419 15:31:59.606977 30606 layer_factory.hpp:77] Creating layer inception_4b/relu_3x3
I0419 15:31:59.606993 30606 net.cpp:91] Creating Layer inception_4b/relu_3x3
I0419 15:31:59.607003 30606 net.cpp:425] inception_4b/relu_3x3 <- inception_4b/3x3
I0419 15:31:59.607012 30606 net.cpp:386] inception_4b/relu_3x3 -> inception_4b/3x3 (in-place)
I0419 15:31:59.609135 30606 net.cpp:141] Setting up inception_4b/relu_3x3
I0419 15:31:59.609148 30606 net.cpp:148] Top shape: 1 224 31 20 (138880)
I0419 15:31:59.609153 30606 net.cpp:156] Memory required for data: 133589312
I0419 15:31:59.609158 30606 layer_factory.hpp:77] Creating layer inception_4b/5x5_reduce
I0419 15:31:59.609172 30606 net.cpp:91] Creating Layer inception_4b/5x5_reduce
I0419 15:31:59.609184 30606 net.cpp:425] inception_4b/5x5_reduce <- inception_4a/output_inception_4a/output_0_split_2
I0419 15:31:59.609194 30606 net.cpp:399] inception_4b/5x5_reduce -> inception_4b/5x5_reduce
I0419 15:31:59.616808 30606 net.cpp:141] Setting up inception_4b/5x5_reduce
I0419 15:31:59.616822 30606 net.cpp:148] Top shape: 1 24 31 20 (14880)
I0419 15:31:59.616828 30606 net.cpp:156] Memory required for data: 133648832
I0419 15:31:59.616837 30606 layer_factory.hpp:77] Creating layer inception_4b/relu_5x5_reduce
I0419 15:31:59.616847 30606 net.cpp:91] Creating Layer inception_4b/relu_5x5_reduce
I0419 15:31:59.616852 30606 net.cpp:425] inception_4b/relu_5x5_reduce <- inception_4b/5x5_reduce
I0419 15:31:59.616861 30606 net.cpp:386] inception_4b/relu_5x5_reduce -> inception_4b/5x5_reduce (in-place)
I0419 15:31:59.619206 30606 net.cpp:141] Setting up inception_4b/relu_5x5_reduce
I0419 15:31:59.619220 30606 net.cpp:148] Top shape: 1 24 31 20 (14880)
I0419 15:31:59.619225 30606 net.cpp:156] Memory required for data: 133708352
I0419 15:31:59.619230 30606 layer_factory.hpp:77] Creating layer inception_4b/5x5
I0419 15:31:59.619246 30606 net.cpp:91] Creating Layer inception_4b/5x5
I0419 15:31:59.619252 30606 net.cpp:425] inception_4b/5x5 <- inception_4b/5x5_reduce
I0419 15:31:59.619261 30606 net.cpp:399] inception_4b/5x5 -> inception_4b/5x5
I0419 15:31:59.694821 30606 net.cpp:141] Setting up inception_4b/5x5
I0419 15:31:59.694838 30606 net.cpp:148] Top shape: 1 64 31 20 (39680)
I0419 15:31:59.694844 30606 net.cpp:156] Memory required for data: 133867072
I0419 15:31:59.694852 30606 layer_factory.hpp:77] Creating layer inception_4b/relu_5x5
I0419 15:31:59.694862 30606 net.cpp:91] Creating Layer inception_4b/relu_5x5
I0419 15:31:59.694869 30606 net.cpp:425] inception_4b/relu_5x5 <- inception_4b/5x5
I0419 15:31:59.694877 30606 net.cpp:386] inception_4b/relu_5x5 -> inception_4b/5x5 (in-place)
I0419 15:31:59.696295 30606 net.cpp:141] Setting up inception_4b/relu_5x5
I0419 15:31:59.696308 30606 net.cpp:148] Top shape: 1 64 31 20 (39680)
I0419 15:31:59.696313 30606 net.cpp:156] Memory required for data: 134025792
I0419 15:31:59.696318 30606 layer_factory.hpp:77] Creating layer inception_4b/pool
I0419 15:31:59.696327 30606 net.cpp:91] Creating Layer inception_4b/pool
I0419 15:31:59.696332 30606 net.cpp:425] inception_4b/pool <- inception_4a/output_inception_4a/output_0_split_3
I0419 15:31:59.696341 30606 net.cpp:399] inception_4b/pool -> inception_4b/pool
I0419 15:31:59.696393 30606 net.cpp:141] Setting up inception_4b/pool
I0419 15:31:59.696403 30606 net.cpp:148] Top shape: 1 512 31 20 (317440)
I0419 15:31:59.696408 30606 net.cpp:156] Memory required for data: 135295552
I0419 15:31:59.696413 30606 layer_factory.hpp:77] Creating layer inception_4b/pool_proj
I0419 15:31:59.696427 30606 net.cpp:91] Creating Layer inception_4b/pool_proj
I0419 15:31:59.696434 30606 net.cpp:425] inception_4b/pool_proj <- inception_4b/pool
I0419 15:31:59.696444 30606 net.cpp:399] inception_4b/pool_proj -> inception_4b/pool_proj
I0419 15:31:59.700265 30606 net.cpp:141] Setting up inception_4b/pool_proj
I0419 15:31:59.700280 30606 net.cpp:148] Top shape: 1 64 31 20 (39680)
I0419 15:31:59.700286 30606 net.cpp:156] Memory required for data: 135454272
I0419 15:31:59.700295 30606 layer_factory.hpp:77] Creating layer inception_4b/relu_pool_proj
I0419 15:31:59.700304 30606 net.cpp:91] Creating Layer inception_4b/relu_pool_proj
I0419 15:31:59.700312 30606 net.cpp:425] inception_4b/relu_pool_proj <- inception_4b/pool_proj
I0419 15:31:59.700320 30606 net.cpp:386] inception_4b/relu_pool_proj -> inception_4b/pool_proj (in-place)
I0419 15:31:59.702755 30606 net.cpp:141] Setting up inception_4b/relu_pool_proj
I0419 15:31:59.702769 30606 net.cpp:148] Top shape: 1 64 31 20 (39680)
I0419 15:31:59.702775 30606 net.cpp:156] Memory required for data: 135612992
I0419 15:31:59.702780 30606 layer_factory.hpp:77] Creating layer inception_4b/output
I0419 15:31:59.702788 30606 net.cpp:91] Creating Layer inception_4b/output
I0419 15:31:59.702795 30606 net.cpp:425] inception_4b/output <- inception_4b/1x1
I0419 15:31:59.702801 30606 net.cpp:425] inception_4b/output <- inception_4b/3x3
I0419 15:31:59.702807 30606 net.cpp:425] inception_4b/output <- inception_4b/5x5
I0419 15:31:59.702812 30606 net.cpp:425] inception_4b/output <- inception_4b/pool_proj
I0419 15:31:59.702821 30606 net.cpp:399] inception_4b/output -> inception_4b/output
I0419 15:31:59.702855 30606 net.cpp:141] Setting up inception_4b/output
I0419 15:31:59.702865 30606 net.cpp:148] Top shape: 1 512 31 20 (317440)
I0419 15:31:59.702870 30606 net.cpp:156] Memory required for data: 136882752
I0419 15:31:59.702875 30606 layer_factory.hpp:77] Creating layer inception_4b/output_inception_4b/output_0_split
I0419 15:31:59.702883 30606 net.cpp:91] Creating Layer inception_4b/output_inception_4b/output_0_split
I0419 15:31:59.702888 30606 net.cpp:425] inception_4b/output_inception_4b/output_0_split <- inception_4b/output
I0419 15:31:59.702898 30606 net.cpp:399] inception_4b/output_inception_4b/output_0_split -> inception_4b/output_inception_4b/output_0_split_0
I0419 15:31:59.702908 30606 net.cpp:399] inception_4b/output_inception_4b/output_0_split -> inception_4b/output_inception_4b/output_0_split_1
I0419 15:31:59.702919 30606 net.cpp:399] inception_4b/output_inception_4b/output_0_split -> inception_4b/output_inception_4b/output_0_split_2
I0419 15:31:59.702932 30606 net.cpp:399] inception_4b/output_inception_4b/output_0_split -> inception_4b/output_inception_4b/output_0_split_3
I0419 15:31:59.702998 30606 net.cpp:141] Setting up inception_4b/output_inception_4b/output_0_split
I0419 15:31:59.703007 30606 net.cpp:148] Top shape: 1 512 31 20 (317440)
I0419 15:31:59.703014 30606 net.cpp:148] Top shape: 1 512 31 20 (317440)
I0419 15:31:59.703021 30606 net.cpp:148] Top shape: 1 512 31 20 (317440)
I0419 15:31:59.703025 30606 net.cpp:148] Top shape: 1 512 31 20 (317440)
I0419 15:31:59.703030 30606 net.cpp:156] Memory required for data: 141961792
I0419 15:31:59.703035 30606 layer_factory.hpp:77] Creating layer inception_4c/1x1
I0419 15:31:59.703047 30606 net.cpp:91] Creating Layer inception_4c/1x1
I0419 15:31:59.703054 30606 net.cpp:425] inception_4c/1x1 <- inception_4b/output_inception_4b/output_0_split_0
I0419 15:31:59.703064 30606 net.cpp:399] inception_4c/1x1 -> inception_4c/1x1
I0419 15:31:59.710847 30606 net.cpp:141] Setting up inception_4c/1x1
I0419 15:31:59.710865 30606 net.cpp:148] Top shape: 1 128 31 20 (79360)
I0419 15:31:59.710870 30606 net.cpp:156] Memory required for data: 142279232
I0419 15:31:59.710880 30606 layer_factory.hpp:77] Creating layer inception_4c/relu_1x1
I0419 15:31:59.710888 30606 net.cpp:91] Creating Layer inception_4c/relu_1x1
I0419 15:31:59.710894 30606 net.cpp:425] inception_4c/relu_1x1 <- inception_4c/1x1
I0419 15:31:59.710901 30606 net.cpp:386] inception_4c/relu_1x1 -> inception_4c/1x1 (in-place)
I0419 15:31:59.713443 30606 net.cpp:141] Setting up inception_4c/relu_1x1
I0419 15:31:59.713456 30606 net.cpp:148] Top shape: 1 128 31 20 (79360)
I0419 15:31:59.713462 30606 net.cpp:156] Memory required for data: 142596672
I0419 15:31:59.713467 30606 layer_factory.hpp:77] Creating layer inception_4c/3x3_reduce
I0419 15:31:59.713481 30606 net.cpp:91] Creating Layer inception_4c/3x3_reduce
I0419 15:31:59.713493 30606 net.cpp:425] inception_4c/3x3_reduce <- inception_4b/output_inception_4b/output_0_split_1
I0419 15:31:59.713505 30606 net.cpp:399] inception_4c/3x3_reduce -> inception_4c/3x3_reduce
I0419 15:31:59.721822 30606 net.cpp:141] Setting up inception_4c/3x3_reduce
I0419 15:31:59.721837 30606 net.cpp:148] Top shape: 1 128 31 20 (79360)
I0419 15:31:59.721843 30606 net.cpp:156] Memory required for data: 142914112
I0419 15:31:59.721853 30606 layer_factory.hpp:77] Creating layer inception_4c/relu_3x3_reduce
I0419 15:31:59.721861 30606 net.cpp:91] Creating Layer inception_4c/relu_3x3_reduce
I0419 15:31:59.721868 30606 net.cpp:425] inception_4c/relu_3x3_reduce <- inception_4c/3x3_reduce
I0419 15:31:59.721878 30606 net.cpp:386] inception_4c/relu_3x3_reduce -> inception_4c/3x3_reduce (in-place)
I0419 15:31:59.724102 30606 net.cpp:141] Setting up inception_4c/relu_3x3_reduce
I0419 15:31:59.724115 30606 net.cpp:148] Top shape: 1 128 31 20 (79360)
I0419 15:31:59.724120 30606 net.cpp:156] Memory required for data: 143231552
I0419 15:31:59.724125 30606 layer_factory.hpp:77] Creating layer inception_4c/3x3
I0419 15:31:59.724140 30606 net.cpp:91] Creating Layer inception_4c/3x3
I0419 15:31:59.724151 30606 net.cpp:425] inception_4c/3x3 <- inception_4c/3x3_reduce
I0419 15:31:59.724162 30606 net.cpp:399] inception_4c/3x3 -> inception_4c/3x3
I0419 15:31:59.732506 30606 net.cpp:141] Setting up inception_4c/3x3
I0419 15:31:59.732522 30606 net.cpp:148] Top shape: 1 256 31 20 (158720)
I0419 15:31:59.732527 30606 net.cpp:156] Memory required for data: 143866432
I0419 15:31:59.732537 30606 layer_factory.hpp:77] Creating layer inception_4c/relu_3x3
I0419 15:31:59.732545 30606 net.cpp:91] Creating Layer inception_4c/relu_3x3
I0419 15:31:59.732552 30606 net.cpp:425] inception_4c/relu_3x3 <- inception_4c/3x3
I0419 15:31:59.732558 30606 net.cpp:386] inception_4c/relu_3x3 -> inception_4c/3x3 (in-place)
I0419 15:31:59.734715 30606 net.cpp:141] Setting up inception_4c/relu_3x3
I0419 15:31:59.734729 30606 net.cpp:148] Top shape: 1 256 31 20 (158720)
I0419 15:31:59.734735 30606 net.cpp:156] Memory required for data: 144501312
I0419 15:31:59.734740 30606 layer_factory.hpp:77] Creating layer inception_4c/5x5_reduce
I0419 15:31:59.734752 30606 net.cpp:91] Creating Layer inception_4c/5x5_reduce
I0419 15:31:59.734758 30606 net.cpp:425] inception_4c/5x5_reduce <- inception_4b/output_inception_4b/output_0_split_2
I0419 15:31:59.734769 30606 net.cpp:399] inception_4c/5x5_reduce -> inception_4c/5x5_reduce
I0419 15:31:59.886011 30606 net.cpp:141] Setting up inception_4c/5x5_reduce
I0419 15:31:59.886026 30606 net.cpp:148] Top shape: 1 24 31 20 (14880)
I0419 15:31:59.886034 30606 net.cpp:156] Memory required for data: 144560832
I0419 15:31:59.886044 30606 layer_factory.hpp:77] Creating layer inception_4c/relu_5x5_reduce
I0419 15:31:59.886054 30606 net.cpp:91] Creating Layer inception_4c/relu_5x5_reduce
I0419 15:31:59.886059 30606 net.cpp:425] inception_4c/relu_5x5_reduce <- inception_4c/5x5_reduce
I0419 15:31:59.886066 30606 net.cpp:386] inception_4c/relu_5x5_reduce -> inception_4c/5x5_reduce (in-place)
I0419 15:31:59.888346 30606 net.cpp:141] Setting up inception_4c/relu_5x5_reduce
I0419 15:31:59.888360 30606 net.cpp:148] Top shape: 1 24 31 20 (14880)
I0419 15:31:59.888365 30606 net.cpp:156] Memory required for data: 144620352
I0419 15:31:59.888371 30606 layer_factory.hpp:77] Creating layer inception_4c/5x5
I0419 15:31:59.888384 30606 net.cpp:91] Creating Layer inception_4c/5x5
I0419 15:31:59.888391 30606 net.cpp:425] inception_4c/5x5 <- inception_4c/5x5_reduce
I0419 15:31:59.888401 30606 net.cpp:399] inception_4c/5x5 -> inception_4c/5x5
I0419 15:31:59.895777 30606 net.cpp:141] Setting up inception_4c/5x5
I0419 15:31:59.895792 30606 net.cpp:148] Top shape: 1 64 31 20 (39680)
I0419 15:31:59.895797 30606 net.cpp:156] Memory required for data: 144779072
I0419 15:31:59.895807 30606 layer_factory.hpp:77] Creating layer inception_4c/relu_5x5
I0419 15:31:59.895817 30606 net.cpp:91] Creating Layer inception_4c/relu_5x5
I0419 15:31:59.895823 30606 net.cpp:425] inception_4c/relu_5x5 <- inception_4c/5x5
I0419 15:31:59.895829 30606 net.cpp:386] inception_4c/relu_5x5 -> inception_4c/5x5 (in-place)
I0419 15:32:00.025024 30606 net.cpp:141] Setting up inception_4c/relu_5x5
I0419 15:32:00.025039 30606 net.cpp:148] Top shape: 1 64 31 20 (39680)
I0419 15:32:00.025044 30606 net.cpp:156] Memory required for data: 144937792
I0419 15:32:00.025050 30606 layer_factory.hpp:77] Creating layer inception_4c/pool
I0419 15:32:00.025059 30606 net.cpp:91] Creating Layer inception_4c/pool
I0419 15:32:00.025065 30606 net.cpp:425] inception_4c/pool <- inception_4b/output_inception_4b/output_0_split_3
I0419 15:32:00.025075 30606 net.cpp:399] inception_4c/pool -> inception_4c/pool
I0419 15:32:00.025130 30606 net.cpp:141] Setting up inception_4c/pool
I0419 15:32:00.025140 30606 net.cpp:148] Top shape: 1 512 31 20 (317440)
I0419 15:32:00.025144 30606 net.cpp:156] Memory required for data: 146207552
I0419 15:32:00.025149 30606 layer_factory.hpp:77] Creating layer inception_4c/pool_proj
I0419 15:32:00.025162 30606 net.cpp:91] Creating Layer inception_4c/pool_proj
I0419 15:32:00.025171 30606 net.cpp:425] inception_4c/pool_proj <- inception_4c/pool
I0419 15:32:00.025179 30606 net.cpp:399] inception_4c/pool_proj -> inception_4c/pool_proj
I0419 15:32:00.031991 30606 net.cpp:141] Setting up inception_4c/pool_proj
I0419 15:32:00.032006 30606 net.cpp:148] Top shape: 1 64 31 20 (39680)
I0419 15:32:00.032012 30606 net.cpp:156] Memory required for data: 146366272
I0419 15:32:00.032035 30606 layer_factory.hpp:77] Creating layer inception_4c/relu_pool_proj
I0419 15:32:00.032047 30606 net.cpp:91] Creating Layer inception_4c/relu_pool_proj
I0419 15:32:00.032054 30606 net.cpp:425] inception_4c/relu_pool_proj <- inception_4c/pool_proj
I0419 15:32:00.032061 30606 net.cpp:386] inception_4c/relu_pool_proj -> inception_4c/pool_proj (in-place)
I0419 15:32:00.035254 30606 net.cpp:141] Setting up inception_4c/relu_pool_proj
I0419 15:32:00.035267 30606 net.cpp:148] Top shape: 1 64 31 20 (39680)
I0419 15:32:00.035272 30606 net.cpp:156] Memory required for data: 146524992
I0419 15:32:00.035277 30606 layer_factory.hpp:77] Creating layer inception_4c/output
I0419 15:32:00.035285 30606 net.cpp:91] Creating Layer inception_4c/output
I0419 15:32:00.035291 30606 net.cpp:425] inception_4c/output <- inception_4c/1x1
I0419 15:32:00.035298 30606 net.cpp:425] inception_4c/output <- inception_4c/3x3
I0419 15:32:00.035305 30606 net.cpp:425] inception_4c/output <- inception_4c/5x5
I0419 15:32:00.035310 30606 net.cpp:425] inception_4c/output <- inception_4c/pool_proj
I0419 15:32:00.035318 30606 net.cpp:399] inception_4c/output -> inception_4c/output
I0419 15:32:00.035354 30606 net.cpp:141] Setting up inception_4c/output
I0419 15:32:00.035367 30606 net.cpp:148] Top shape: 1 512 31 20 (317440)
I0419 15:32:00.035372 30606 net.cpp:156] Memory required for data: 147794752
I0419 15:32:00.035377 30606 layer_factory.hpp:77] Creating layer inception_4c/output_inception_4c/output_0_split
I0419 15:32:00.035385 30606 net.cpp:91] Creating Layer inception_4c/output_inception_4c/output_0_split
I0419 15:32:00.035390 30606 net.cpp:425] inception_4c/output_inception_4c/output_0_split <- inception_4c/output
I0419 15:32:00.035398 30606 net.cpp:399] inception_4c/output_inception_4c/output_0_split -> inception_4c/output_inception_4c/output_0_split_0
I0419 15:32:00.035406 30606 net.cpp:399] inception_4c/output_inception_4c/output_0_split -> inception_4c/output_inception_4c/output_0_split_1
I0419 15:32:00.035418 30606 net.cpp:399] inception_4c/output_inception_4c/output_0_split -> inception_4c/output_inception_4c/output_0_split_2
I0419 15:32:00.035429 30606 net.cpp:399] inception_4c/output_inception_4c/output_0_split -> inception_4c/output_inception_4c/output_0_split_3
I0419 15:32:00.035496 30606 net.cpp:141] Setting up inception_4c/output_inception_4c/output_0_split
I0419 15:32:00.035506 30606 net.cpp:148] Top shape: 1 512 31 20 (317440)
I0419 15:32:00.035512 30606 net.cpp:148] Top shape: 1 512 31 20 (317440)
I0419 15:32:00.035518 30606 net.cpp:148] Top shape: 1 512 31 20 (317440)
I0419 15:32:00.035524 30606 net.cpp:148] Top shape: 1 512 31 20 (317440)
I0419 15:32:00.035529 30606 net.cpp:156] Memory required for data: 152873792
I0419 15:32:00.035534 30606 layer_factory.hpp:77] Creating layer inception_4d/1x1
I0419 15:32:00.035547 30606 net.cpp:91] Creating Layer inception_4d/1x1
I0419 15:32:00.035557 30606 net.cpp:425] inception_4d/1x1 <- inception_4c/output_inception_4c/output_0_split_0
I0419 15:32:00.035565 30606 net.cpp:399] inception_4d/1x1 -> inception_4d/1x1
I0419 15:32:00.043130 30606 net.cpp:141] Setting up inception_4d/1x1
I0419 15:32:00.043145 30606 net.cpp:148] Top shape: 1 112 31 20 (69440)
I0419 15:32:00.043151 30606 net.cpp:156] Memory required for data: 153151552
I0419 15:32:00.043161 30606 layer_factory.hpp:77] Creating layer inception_4d/relu_1x1
I0419 15:32:00.043169 30606 net.cpp:91] Creating Layer inception_4d/relu_1x1
I0419 15:32:00.043176 30606 net.cpp:425] inception_4d/relu_1x1 <- inception_4d/1x1
I0419 15:32:00.043185 30606 net.cpp:386] inception_4d/relu_1x1 -> inception_4d/1x1 (in-place)
I0419 15:32:00.045614 30606 net.cpp:141] Setting up inception_4d/relu_1x1
I0419 15:32:00.045629 30606 net.cpp:148] Top shape: 1 112 31 20 (69440)
I0419 15:32:00.045634 30606 net.cpp:156] Memory required for data: 153429312
I0419 15:32:00.045639 30606 layer_factory.hpp:77] Creating layer inception_4d/3x3_reduce
I0419 15:32:00.045652 30606 net.cpp:91] Creating Layer inception_4d/3x3_reduce
I0419 15:32:00.045660 30606 net.cpp:425] inception_4d/3x3_reduce <- inception_4c/output_inception_4c/output_0_split_1
I0419 15:32:00.045670 30606 net.cpp:399] inception_4d/3x3_reduce -> inception_4d/3x3_reduce
I0419 15:32:00.054782 30606 net.cpp:141] Setting up inception_4d/3x3_reduce
I0419 15:32:00.054797 30606 net.cpp:148] Top shape: 1 144 31 20 (89280)
I0419 15:32:00.054802 30606 net.cpp:156] Memory required for data: 153786432
I0419 15:32:00.054812 30606 layer_factory.hpp:77] Creating layer inception_4d/relu_3x3_reduce
I0419 15:32:00.054823 30606 net.cpp:91] Creating Layer inception_4d/relu_3x3_reduce
I0419 15:32:00.054829 30606 net.cpp:425] inception_4d/relu_3x3_reduce <- inception_4d/3x3_reduce
I0419 15:32:00.054837 30606 net.cpp:386] inception_4d/relu_3x3_reduce -> inception_4d/3x3_reduce (in-place)
I0419 15:32:00.056933 30606 net.cpp:141] Setting up inception_4d/relu_3x3_reduce
I0419 15:32:00.056946 30606 net.cpp:148] Top shape: 1 144 31 20 (89280)
I0419 15:32:00.056951 30606 net.cpp:156] Memory required for data: 154143552
I0419 15:32:00.056957 30606 layer_factory.hpp:77] Creating layer inception_4d/3x3
I0419 15:32:00.056970 30606 net.cpp:91] Creating Layer inception_4d/3x3
I0419 15:32:00.056977 30606 net.cpp:425] inception_4d/3x3 <- inception_4d/3x3_reduce
I0419 15:32:00.056987 30606 net.cpp:399] inception_4d/3x3 -> inception_4d/3x3
I0419 15:32:00.066807 30606 net.cpp:141] Setting up inception_4d/3x3
I0419 15:32:00.066823 30606 net.cpp:148] Top shape: 1 288 31 20 (178560)
I0419 15:32:00.066828 30606 net.cpp:156] Memory required for data: 154857792
I0419 15:32:00.066838 30606 layer_factory.hpp:77] Creating layer inception_4d/relu_3x3
I0419 15:32:00.066848 30606 net.cpp:91] Creating Layer inception_4d/relu_3x3
I0419 15:32:00.066855 30606 net.cpp:425] inception_4d/relu_3x3 <- inception_4d/3x3
I0419 15:32:00.066864 30606 net.cpp:386] inception_4d/relu_3x3 -> inception_4d/3x3 (in-place)
I0419 15:32:00.069152 30606 net.cpp:141] Setting up inception_4d/relu_3x3
I0419 15:32:00.069164 30606 net.cpp:148] Top shape: 1 288 31 20 (178560)
I0419 15:32:00.069169 30606 net.cpp:156] Memory required for data: 155572032
I0419 15:32:00.069175 30606 layer_factory.hpp:77] Creating layer inception_4d/5x5_reduce
I0419 15:32:00.069190 30606 net.cpp:91] Creating Layer inception_4d/5x5_reduce
I0419 15:32:00.069200 30606 net.cpp:425] inception_4d/5x5_reduce <- inception_4c/output_inception_4c/output_0_split_2
I0419 15:32:00.069211 30606 net.cpp:399] inception_4d/5x5_reduce -> inception_4d/5x5_reduce
I0419 15:32:00.077761 30606 net.cpp:141] Setting up inception_4d/5x5_reduce
I0419 15:32:00.077776 30606 net.cpp:148] Top shape: 1 32 31 20 (19840)
I0419 15:32:00.077782 30606 net.cpp:156] Memory required for data: 155651392
I0419 15:32:00.077791 30606 layer_factory.hpp:77] Creating layer inception_4d/relu_5x5_reduce
I0419 15:32:00.077802 30606 net.cpp:91] Creating Layer inception_4d/relu_5x5_reduce
I0419 15:32:00.077810 30606 net.cpp:425] inception_4d/relu_5x5_reduce <- inception_4d/5x5_reduce
I0419 15:32:00.077816 30606 net.cpp:386] inception_4d/relu_5x5_reduce -> inception_4d/5x5_reduce (in-place)
I0419 15:32:00.080101 30606 net.cpp:141] Setting up inception_4d/relu_5x5_reduce
I0419 15:32:00.080116 30606 net.cpp:148] Top shape: 1 32 31 20 (19840)
I0419 15:32:00.080122 30606 net.cpp:156] Memory required for data: 155730752
I0419 15:32:00.080128 30606 layer_factory.hpp:77] Creating layer inception_4d/5x5
I0419 15:32:00.080142 30606 net.cpp:91] Creating Layer inception_4d/5x5
I0419 15:32:00.080148 30606 net.cpp:425] inception_4d/5x5 <- inception_4d/5x5_reduce
I0419 15:32:00.080157 30606 net.cpp:399] inception_4d/5x5 -> inception_4d/5x5
I0419 15:32:00.087972 30606 net.cpp:141] Setting up inception_4d/5x5
I0419 15:32:00.087988 30606 net.cpp:148] Top shape: 1 64 31 20 (39680)
I0419 15:32:00.087996 30606 net.cpp:156] Memory required for data: 155889472
I0419 15:32:00.088004 30606 layer_factory.hpp:77] Creating layer inception_4d/relu_5x5
I0419 15:32:00.088013 30606 net.cpp:91] Creating Layer inception_4d/relu_5x5
I0419 15:32:00.088019 30606 net.cpp:425] inception_4d/relu_5x5 <- inception_4d/5x5
I0419 15:32:00.088027 30606 net.cpp:386] inception_4d/relu_5x5 -> inception_4d/5x5 (in-place)
I0419 15:32:00.090298 30606 net.cpp:141] Setting up inception_4d/relu_5x5
I0419 15:32:00.090312 30606 net.cpp:148] Top shape: 1 64 31 20 (39680)
I0419 15:32:00.090317 30606 net.cpp:156] Memory required for data: 156048192
I0419 15:32:00.090323 30606 layer_factory.hpp:77] Creating layer inception_4d/pool
I0419 15:32:00.090332 30606 net.cpp:91] Creating Layer inception_4d/pool
I0419 15:32:00.090337 30606 net.cpp:425] inception_4d/pool <- inception_4c/output_inception_4c/output_0_split_3
I0419 15:32:00.090348 30606 net.cpp:399] inception_4d/pool -> inception_4d/pool
I0419 15:32:00.090405 30606 net.cpp:141] Setting up inception_4d/pool
I0419 15:32:00.090416 30606 net.cpp:148] Top shape: 1 512 31 20 (317440)
I0419 15:32:00.090420 30606 net.cpp:156] Memory required for data: 157317952
I0419 15:32:00.090425 30606 layer_factory.hpp:77] Creating layer inception_4d/pool_proj
I0419 15:32:00.090440 30606 net.cpp:91] Creating Layer inception_4d/pool_proj
I0419 15:32:00.090447 30606 net.cpp:425] inception_4d/pool_proj <- inception_4d/pool
I0419 15:32:00.090456 30606 net.cpp:399] inception_4d/pool_proj -> inception_4d/pool_proj
I0419 15:32:00.097784 30606 net.cpp:141] Setting up inception_4d/pool_proj
I0419 15:32:00.097800 30606 net.cpp:148] Top shape: 1 64 31 20 (39680)
I0419 15:32:00.097807 30606 net.cpp:156] Memory required for data: 157476672
I0419 15:32:00.097816 30606 layer_factory.hpp:77] Creating layer inception_4d/relu_pool_proj
I0419 15:32:00.097826 30606 net.cpp:91] Creating Layer inception_4d/relu_pool_proj
I0419 15:32:00.097831 30606 net.cpp:425] inception_4d/relu_pool_proj <- inception_4d/pool_proj
I0419 15:32:00.097841 30606 net.cpp:386] inception_4d/relu_pool_proj -> inception_4d/pool_proj (in-place)
I0419 15:32:00.100075 30606 net.cpp:141] Setting up inception_4d/relu_pool_proj
I0419 15:32:00.100087 30606 net.cpp:148] Top shape: 1 64 31 20 (39680)
I0419 15:32:00.100092 30606 net.cpp:156] Memory required for data: 157635392
I0419 15:32:00.100097 30606 layer_factory.hpp:77] Creating layer inception_4d/output
I0419 15:32:00.100107 30606 net.cpp:91] Creating Layer inception_4d/output
I0419 15:32:00.100112 30606 net.cpp:425] inception_4d/output <- inception_4d/1x1
I0419 15:32:00.100119 30606 net.cpp:425] inception_4d/output <- inception_4d/3x3
I0419 15:32:00.100126 30606 net.cpp:425] inception_4d/output <- inception_4d/5x5
I0419 15:32:00.100131 30606 net.cpp:425] inception_4d/output <- inception_4d/pool_proj
I0419 15:32:00.100137 30606 net.cpp:399] inception_4d/output -> inception_4d/output
I0419 15:32:00.100175 30606 net.cpp:141] Setting up inception_4d/output
I0419 15:32:00.100185 30606 net.cpp:148] Top shape: 1 528 31 20 (327360)
I0419 15:32:00.100190 30606 net.cpp:156] Memory required for data: 158944832
I0419 15:32:00.100195 30606 layer_factory.hpp:77] Creating layer inception_4d/output_inception_4d/output_0_split
I0419 15:32:00.100203 30606 net.cpp:91] Creating Layer inception_4d/output_inception_4d/output_0_split
I0419 15:32:00.100208 30606 net.cpp:425] inception_4d/output_inception_4d/output_0_split <- inception_4d/output
I0419 15:32:00.100217 30606 net.cpp:399] inception_4d/output_inception_4d/output_0_split -> inception_4d/output_inception_4d/output_0_split_0
I0419 15:32:00.100227 30606 net.cpp:399] inception_4d/output_inception_4d/output_0_split -> inception_4d/output_inception_4d/output_0_split_1
I0419 15:32:00.100235 30606 net.cpp:399] inception_4d/output_inception_4d/output_0_split -> inception_4d/output_inception_4d/output_0_split_2
I0419 15:32:00.100247 30606 net.cpp:399] inception_4d/output_inception_4d/output_0_split -> inception_4d/output_inception_4d/output_0_split_3
I0419 15:32:00.100316 30606 net.cpp:141] Setting up inception_4d/output_inception_4d/output_0_split
I0419 15:32:00.100325 30606 net.cpp:148] Top shape: 1 528 31 20 (327360)
I0419 15:32:00.100332 30606 net.cpp:148] Top shape: 1 528 31 20 (327360)
I0419 15:32:00.100337 30606 net.cpp:148] Top shape: 1 528 31 20 (327360)
I0419 15:32:00.100343 30606 net.cpp:148] Top shape: 1 528 31 20 (327360)
I0419 15:32:00.100348 30606 net.cpp:156] Memory required for data: 164182592
I0419 15:32:00.100353 30606 layer_factory.hpp:77] Creating layer inception_4e/1x1
I0419 15:32:00.100366 30606 net.cpp:91] Creating Layer inception_4e/1x1
I0419 15:32:00.100374 30606 net.cpp:425] inception_4e/1x1 <- inception_4d/output_inception_4d/output_0_split_0
I0419 15:32:00.100383 30606 net.cpp:399] inception_4e/1x1 -> inception_4e/1x1
I0419 15:32:00.108144 30606 net.cpp:141] Setting up inception_4e/1x1
I0419 15:32:00.108160 30606 net.cpp:148] Top shape: 1 256 31 20 (158720)
I0419 15:32:00.108165 30606 net.cpp:156] Memory required for data: 164817472
I0419 15:32:00.108175 30606 layer_factory.hpp:77] Creating layer inception_4e/relu_1x1
I0419 15:32:00.108183 30606 net.cpp:91] Creating Layer inception_4e/relu_1x1
I0419 15:32:00.108189 30606 net.cpp:425] inception_4e/relu_1x1 <- inception_4e/1x1
I0419 15:32:00.108199 30606 net.cpp:386] inception_4e/relu_1x1 -> inception_4e/1x1 (in-place)
I0419 15:32:00.110347 30606 net.cpp:141] Setting up inception_4e/relu_1x1
I0419 15:32:00.110362 30606 net.cpp:148] Top shape: 1 256 31 20 (158720)
I0419 15:32:00.110366 30606 net.cpp:156] Memory required for data: 165452352
I0419 15:32:00.110373 30606 layer_factory.hpp:77] Creating layer inception_4e/3x3_reduce
I0419 15:32:00.110386 30606 net.cpp:91] Creating Layer inception_4e/3x3_reduce
I0419 15:32:00.110393 30606 net.cpp:425] inception_4e/3x3_reduce <- inception_4d/output_inception_4d/output_0_split_1
I0419 15:32:00.110404 30606 net.cpp:399] inception_4e/3x3_reduce -> inception_4e/3x3_reduce
I0419 15:32:00.118685 30606 net.cpp:141] Setting up inception_4e/3x3_reduce
I0419 15:32:00.118700 30606 net.cpp:148] Top shape: 1 160 31 20 (99200)
I0419 15:32:00.118705 30606 net.cpp:156] Memory required for data: 165849152
I0419 15:32:00.118715 30606 layer_factory.hpp:77] Creating layer inception_4e/relu_3x3_reduce
I0419 15:32:00.118723 30606 net.cpp:91] Creating Layer inception_4e/relu_3x3_reduce
I0419 15:32:00.118729 30606 net.cpp:425] inception_4e/relu_3x3_reduce <- inception_4e/3x3_reduce
I0419 15:32:00.118738 30606 net.cpp:386] inception_4e/relu_3x3_reduce -> inception_4e/3x3_reduce (in-place)
I0419 15:32:00.121088 30606 net.cpp:141] Setting up inception_4e/relu_3x3_reduce
I0419 15:32:00.121101 30606 net.cpp:148] Top shape: 1 160 31 20 (99200)
I0419 15:32:00.121106 30606 net.cpp:156] Memory required for data: 166245952
I0419 15:32:00.121111 30606 layer_factory.hpp:77] Creating layer inception_4e/3x3
I0419 15:32:00.121125 30606 net.cpp:91] Creating Layer inception_4e/3x3
I0419 15:32:00.121131 30606 net.cpp:425] inception_4e/3x3 <- inception_4e/3x3_reduce
I0419 15:32:00.121142 30606 net.cpp:399] inception_4e/3x3 -> inception_4e/3x3
I0419 15:32:00.128311 30606 net.cpp:141] Setting up inception_4e/3x3
I0419 15:32:00.128325 30606 net.cpp:148] Top shape: 1 320 31 20 (198400)
I0419 15:32:00.128331 30606 net.cpp:156] Memory required for data: 167039552
I0419 15:32:00.128340 30606 layer_factory.hpp:77] Creating layer inception_4e/relu_3x3
I0419 15:32:00.128350 30606 net.cpp:91] Creating Layer inception_4e/relu_3x3
I0419 15:32:00.128356 30606 net.cpp:425] inception_4e/relu_3x3 <- inception_4e/3x3
I0419 15:32:00.128365 30606 net.cpp:386] inception_4e/relu_3x3 -> inception_4e/3x3 (in-place)
I0419 15:32:00.131127 30606 net.cpp:141] Setting up inception_4e/relu_3x3
I0419 15:32:00.131140 30606 net.cpp:148] Top shape: 1 320 31 20 (198400)
I0419 15:32:00.131145 30606 net.cpp:156] Memory required for data: 167833152
I0419 15:32:00.131150 30606 layer_factory.hpp:77] Creating layer inception_4e/5x5_reduce
I0419 15:32:00.131166 30606 net.cpp:91] Creating Layer inception_4e/5x5_reduce
I0419 15:32:00.131177 30606 net.cpp:425] inception_4e/5x5_reduce <- inception_4d/output_inception_4d/output_0_split_2
I0419 15:32:00.131187 30606 net.cpp:399] inception_4e/5x5_reduce -> inception_4e/5x5_reduce
I0419 15:32:00.138825 30606 net.cpp:141] Setting up inception_4e/5x5_reduce
I0419 15:32:00.138840 30606 net.cpp:148] Top shape: 1 32 31 20 (19840)
I0419 15:32:00.138845 30606 net.cpp:156] Memory required for data: 167912512
I0419 15:32:00.138855 30606 layer_factory.hpp:77] Creating layer inception_4e/relu_5x5_reduce
I0419 15:32:00.138866 30606 net.cpp:91] Creating Layer inception_4e/relu_5x5_reduce
I0419 15:32:00.138873 30606 net.cpp:425] inception_4e/relu_5x5_reduce <- inception_4e/5x5_reduce
I0419 15:32:00.138880 30606 net.cpp:386] inception_4e/relu_5x5_reduce -> inception_4e/5x5_reduce (in-place)
I0419 15:32:00.141165 30606 net.cpp:141] Setting up inception_4e/relu_5x5_reduce
I0419 15:32:00.141180 30606 net.cpp:148] Top shape: 1 32 31 20 (19840)
I0419 15:32:00.141186 30606 net.cpp:156] Memory required for data: 167991872
I0419 15:32:00.141191 30606 layer_factory.hpp:77] Creating layer inception_4e/5x5
I0419 15:32:00.141206 30606 net.cpp:91] Creating Layer inception_4e/5x5
I0419 15:32:00.141212 30606 net.cpp:425] inception_4e/5x5 <- inception_4e/5x5_reduce
I0419 15:32:00.141222 30606 net.cpp:399] inception_4e/5x5 -> inception_4e/5x5
I0419 15:32:00.148576 30606 net.cpp:141] Setting up inception_4e/5x5
I0419 15:32:00.148591 30606 net.cpp:148] Top shape: 1 128 31 20 (79360)
I0419 15:32:00.148597 30606 net.cpp:156] Memory required for data: 168309312
I0419 15:32:00.148607 30606 layer_factory.hpp:77] Creating layer inception_4e/relu_5x5
I0419 15:32:00.148615 30606 net.cpp:91] Creating Layer inception_4e/relu_5x5
I0419 15:32:00.148622 30606 net.cpp:425] inception_4e/relu_5x5 <- inception_4e/5x5
I0419 15:32:00.148629 30606 net.cpp:386] inception_4e/relu_5x5 -> inception_4e/5x5 (in-place)
I0419 15:32:00.151360 30606 net.cpp:141] Setting up inception_4e/relu_5x5
I0419 15:32:00.151374 30606 net.cpp:148] Top shape: 1 128 31 20 (79360)
I0419 15:32:00.151379 30606 net.cpp:156] Memory required for data: 168626752
I0419 15:32:00.151386 30606 layer_factory.hpp:77] Creating layer inception_4e/pool
I0419 15:32:00.151393 30606 net.cpp:91] Creating Layer inception_4e/pool
I0419 15:32:00.151399 30606 net.cpp:425] inception_4e/pool <- inception_4d/output_inception_4d/output_0_split_3
I0419 15:32:00.151409 30606 net.cpp:399] inception_4e/pool -> inception_4e/pool
I0419 15:32:00.151464 30606 net.cpp:141] Setting up inception_4e/pool
I0419 15:32:00.151475 30606 net.cpp:148] Top shape: 1 528 31 20 (327360)
I0419 15:32:00.151480 30606 net.cpp:156] Memory required for data: 169936192
I0419 15:32:00.151485 30606 layer_factory.hpp:77] Creating layer inception_4e/pool_proj
I0419 15:32:00.151499 30606 net.cpp:91] Creating Layer inception_4e/pool_proj
I0419 15:32:00.151509 30606 net.cpp:425] inception_4e/pool_proj <- inception_4e/pool
I0419 15:32:00.151517 30606 net.cpp:399] inception_4e/pool_proj -> inception_4e/pool_proj
I0419 15:32:00.161063 30606 net.cpp:141] Setting up inception_4e/pool_proj
I0419 15:32:00.161077 30606 net.cpp:148] Top shape: 1 128 31 20 (79360)
I0419 15:32:00.161083 30606 net.cpp:156] Memory required for data: 170253632
I0419 15:32:00.161093 30606 layer_factory.hpp:77] Creating layer inception_4e/relu_pool_proj
I0419 15:32:00.161103 30606 net.cpp:91] Creating Layer inception_4e/relu_pool_proj
I0419 15:32:00.161110 30606 net.cpp:425] inception_4e/relu_pool_proj <- inception_4e/pool_proj
I0419 15:32:00.161118 30606 net.cpp:386] inception_4e/relu_pool_proj -> inception_4e/pool_proj (in-place)
I0419 15:32:00.163449 30606 net.cpp:141] Setting up inception_4e/relu_pool_proj
I0419 15:32:00.163462 30606 net.cpp:148] Top shape: 1 128 31 20 (79360)
I0419 15:32:00.163468 30606 net.cpp:156] Memory required for data: 170571072
I0419 15:32:00.163473 30606 layer_factory.hpp:77] Creating layer inception_4e/output
I0419 15:32:00.163481 30606 net.cpp:91] Creating Layer inception_4e/output
I0419 15:32:00.163486 30606 net.cpp:425] inception_4e/output <- inception_4e/1x1
I0419 15:32:00.163493 30606 net.cpp:425] inception_4e/output <- inception_4e/3x3
I0419 15:32:00.163499 30606 net.cpp:425] inception_4e/output <- inception_4e/5x5
I0419 15:32:00.163506 30606 net.cpp:425] inception_4e/output <- inception_4e/pool_proj
I0419 15:32:00.163513 30606 net.cpp:399] inception_4e/output -> inception_4e/output
I0419 15:32:00.163552 30606 net.cpp:141] Setting up inception_4e/output
I0419 15:32:00.163561 30606 net.cpp:148] Top shape: 1 832 31 20 (515840)
I0419 15:32:00.163566 30606 net.cpp:156] Memory required for data: 172634432
I0419 15:32:00.163571 30606 layer_factory.hpp:77] Creating layer pool4/3x3_s2
I0419 15:32:00.163581 30606 net.cpp:91] Creating Layer pool4/3x3_s2
I0419 15:32:00.163588 30606 net.cpp:425] pool4/3x3_s2 <- inception_4e/output
I0419 15:32:00.163594 30606 net.cpp:399] pool4/3x3_s2 -> pool4/3x3_s2
I0419 15:32:00.163645 30606 net.cpp:141] Setting up pool4/3x3_s2
I0419 15:32:00.163655 30606 net.cpp:148] Top shape: 1 832 15 10 (124800)
I0419 15:32:00.163658 30606 net.cpp:156] Memory required for data: 173133632
I0419 15:32:00.163663 30606 layer_factory.hpp:77] Creating layer pool4/3x3_s2_pool4/3x3_s2_0_split
I0419 15:32:00.163671 30606 net.cpp:91] Creating Layer pool4/3x3_s2_pool4/3x3_s2_0_split
I0419 15:32:00.163676 30606 net.cpp:425] pool4/3x3_s2_pool4/3x3_s2_0_split <- pool4/3x3_s2
I0419 15:32:00.163684 30606 net.cpp:399] pool4/3x3_s2_pool4/3x3_s2_0_split -> pool4/3x3_s2_pool4/3x3_s2_0_split_0
I0419 15:32:00.163692 30606 net.cpp:399] pool4/3x3_s2_pool4/3x3_s2_0_split -> pool4/3x3_s2_pool4/3x3_s2_0_split_1
I0419 15:32:00.163707 30606 net.cpp:399] pool4/3x3_s2_pool4/3x3_s2_0_split -> pool4/3x3_s2_pool4/3x3_s2_0_split_2
I0419 15:32:00.163717 30606 net.cpp:399] pool4/3x3_s2_pool4/3x3_s2_0_split -> pool4/3x3_s2_pool4/3x3_s2_0_split_3
I0419 15:32:00.163789 30606 net.cpp:141] Setting up pool4/3x3_s2_pool4/3x3_s2_0_split
I0419 15:32:00.163800 30606 net.cpp:148] Top shape: 1 832 15 10 (124800)
I0419 15:32:00.163805 30606 net.cpp:148] Top shape: 1 832 15 10 (124800)
I0419 15:32:00.163811 30606 net.cpp:148] Top shape: 1 832 15 10 (124800)
I0419 15:32:00.163817 30606 net.cpp:148] Top shape: 1 832 15 10 (124800)
I0419 15:32:00.163822 30606 net.cpp:156] Memory required for data: 175130432
I0419 15:32:00.163827 30606 layer_factory.hpp:77] Creating layer inception_5a/1x1
I0419 15:32:00.163841 30606 net.cpp:91] Creating Layer inception_5a/1x1
I0419 15:32:00.163848 30606 net.cpp:425] inception_5a/1x1 <- pool4/3x3_s2_pool4/3x3_s2_0_split_0
I0419 15:32:00.163857 30606 net.cpp:399] inception_5a/1x1 -> inception_5a/1x1
I0419 15:32:00.171226 30606 net.cpp:141] Setting up inception_5a/1x1
I0419 15:32:00.171241 30606 net.cpp:148] Top shape: 1 256 15 10 (38400)
I0419 15:32:00.171247 30606 net.cpp:156] Memory required for data: 175284032
I0419 15:32:00.171255 30606 layer_factory.hpp:77] Creating layer inception_5a/relu_1x1
I0419 15:32:00.171267 30606 net.cpp:91] Creating Layer inception_5a/relu_1x1
I0419 15:32:00.171273 30606 net.cpp:425] inception_5a/relu_1x1 <- inception_5a/1x1
I0419 15:32:00.171280 30606 net.cpp:386] inception_5a/relu_1x1 -> inception_5a/1x1 (in-place)
I0419 15:32:00.173730 30606 net.cpp:141] Setting up inception_5a/relu_1x1
I0419 15:32:00.173744 30606 net.cpp:148] Top shape: 1 256 15 10 (38400)
I0419 15:32:00.173753 30606 net.cpp:156] Memory required for data: 175437632
I0419 15:32:00.173758 30606 layer_factory.hpp:77] Creating layer inception_5a/3x3_reduce
I0419 15:32:00.173770 30606 net.cpp:91] Creating Layer inception_5a/3x3_reduce
I0419 15:32:00.173776 30606 net.cpp:425] inception_5a/3x3_reduce <- pool4/3x3_s2_pool4/3x3_s2_0_split_1
I0419 15:32:00.173787 30606 net.cpp:399] inception_5a/3x3_reduce -> inception_5a/3x3_reduce
I0419 15:32:00.182025 30606 net.cpp:141] Setting up inception_5a/3x3_reduce
I0419 15:32:00.182040 30606 net.cpp:148] Top shape: 1 160 15 10 (24000)
I0419 15:32:00.182046 30606 net.cpp:156] Memory required for data: 175533632
I0419 15:32:00.182055 30606 layer_factory.hpp:77] Creating layer inception_5a/relu_3x3_reduce
I0419 15:32:00.182065 30606 net.cpp:91] Creating Layer inception_5a/relu_3x3_reduce
I0419 15:32:00.182072 30606 net.cpp:425] inception_5a/relu_3x3_reduce <- inception_5a/3x3_reduce
I0419 15:32:00.182080 30606 net.cpp:386] inception_5a/relu_3x3_reduce -> inception_5a/3x3_reduce (in-place)
I0419 15:32:00.185041 30606 net.cpp:141] Setting up inception_5a/relu_3x3_reduce
I0419 15:32:00.185055 30606 net.cpp:148] Top shape: 1 160 15 10 (24000)
I0419 15:32:00.185060 30606 net.cpp:156] Memory required for data: 175629632
I0419 15:32:00.185065 30606 layer_factory.hpp:77] Creating layer inception_5a/3x3
I0419 15:32:00.185078 30606 net.cpp:91] Creating Layer inception_5a/3x3
I0419 15:32:00.185086 30606 net.cpp:425] inception_5a/3x3 <- inception_5a/3x3_reduce
I0419 15:32:00.185096 30606 net.cpp:399] inception_5a/3x3 -> inception_5a/3x3
I0419 15:32:00.201401 30606 net.cpp:141] Setting up inception_5a/3x3
I0419 15:32:00.201417 30606 net.cpp:148] Top shape: 1 320 15 10 (48000)
I0419 15:32:00.201423 30606 net.cpp:156] Memory required for data: 175821632
I0419 15:32:00.201433 30606 layer_factory.hpp:77] Creating layer inception_5a/relu_3x3
I0419 15:32:00.201443 30606 net.cpp:91] Creating Layer inception_5a/relu_3x3
I0419 15:32:00.201449 30606 net.cpp:425] inception_5a/relu_3x3 <- inception_5a/3x3
I0419 15:32:00.201457 30606 net.cpp:386] inception_5a/relu_3x3 -> inception_5a/3x3 (in-place)
I0419 15:32:00.203718 30606 net.cpp:141] Setting up inception_5a/relu_3x3
I0419 15:32:00.203730 30606 net.cpp:148] Top shape: 1 320 15 10 (48000)
I0419 15:32:00.203735 30606 net.cpp:156] Memory required for data: 176013632
I0419 15:32:00.203742 30606 layer_factory.hpp:77] Creating layer inception_5a/5x5_reduce
I0419 15:32:00.203754 30606 net.cpp:91] Creating Layer inception_5a/5x5_reduce
I0419 15:32:00.203760 30606 net.cpp:425] inception_5a/5x5_reduce <- pool4/3x3_s2_pool4/3x3_s2_0_split_2
I0419 15:32:00.203771 30606 net.cpp:399] inception_5a/5x5_reduce -> inception_5a/5x5_reduce
I0419 15:32:00.211596 30606 net.cpp:141] Setting up inception_5a/5x5_reduce
I0419 15:32:00.211611 30606 net.cpp:148] Top shape: 1 32 15 10 (4800)
I0419 15:32:00.211618 30606 net.cpp:156] Memory required for data: 176032832
I0419 15:32:00.211627 30606 layer_factory.hpp:77] Creating layer inception_5a/relu_5x5_reduce
I0419 15:32:00.211637 30606 net.cpp:91] Creating Layer inception_5a/relu_5x5_reduce
I0419 15:32:00.211642 30606 net.cpp:425] inception_5a/relu_5x5_reduce <- inception_5a/5x5_reduce
I0419 15:32:00.211650 30606 net.cpp:386] inception_5a/relu_5x5_reduce -> inception_5a/5x5_reduce (in-place)
I0419 15:32:00.214133 30606 net.cpp:141] Setting up inception_5a/relu_5x5_reduce
I0419 15:32:00.214148 30606 net.cpp:148] Top shape: 1 32 15 10 (4800)
I0419 15:32:00.214154 30606 net.cpp:156] Memory required for data: 176052032
I0419 15:32:00.214159 30606 layer_factory.hpp:77] Creating layer inception_5a/5x5
I0419 15:32:00.214185 30606 net.cpp:91] Creating Layer inception_5a/5x5
I0419 15:32:00.214195 30606 net.cpp:425] inception_5a/5x5 <- inception_5a/5x5_reduce
I0419 15:32:00.214205 30606 net.cpp:399] inception_5a/5x5 -> inception_5a/5x5
I0419 15:32:00.222909 30606 net.cpp:141] Setting up inception_5a/5x5
I0419 15:32:00.222926 30606 net.cpp:148] Top shape: 1 128 15 10 (19200)
I0419 15:32:00.222932 30606 net.cpp:156] Memory required for data: 176128832
I0419 15:32:00.222942 30606 layer_factory.hpp:77] Creating layer inception_5a/relu_5x5
I0419 15:32:00.222951 30606 net.cpp:91] Creating Layer inception_5a/relu_5x5
I0419 15:32:00.222957 30606 net.cpp:425] inception_5a/relu_5x5 <- inception_5a/5x5
I0419 15:32:00.222965 30606 net.cpp:386] inception_5a/relu_5x5 -> inception_5a/5x5 (in-place)
I0419 15:32:00.225350 30606 net.cpp:141] Setting up inception_5a/relu_5x5
I0419 15:32:00.225364 30606 net.cpp:148] Top shape: 1 128 15 10 (19200)
I0419 15:32:00.225369 30606 net.cpp:156] Memory required for data: 176205632
I0419 15:32:00.225375 30606 layer_factory.hpp:77] Creating layer inception_5a/pool
I0419 15:32:00.225383 30606 net.cpp:91] Creating Layer inception_5a/pool
I0419 15:32:00.225389 30606 net.cpp:425] inception_5a/pool <- pool4/3x3_s2_pool4/3x3_s2_0_split_3
I0419 15:32:00.225399 30606 net.cpp:399] inception_5a/pool -> inception_5a/pool
I0419 15:32:00.225456 30606 net.cpp:141] Setting up inception_5a/pool
I0419 15:32:00.225466 30606 net.cpp:148] Top shape: 1 832 15 10 (124800)
I0419 15:32:00.225471 30606 net.cpp:156] Memory required for data: 176704832
I0419 15:32:00.225476 30606 layer_factory.hpp:77] Creating layer inception_5a/pool_proj
I0419 15:32:00.225491 30606 net.cpp:91] Creating Layer inception_5a/pool_proj
I0419 15:32:00.225499 30606 net.cpp:425] inception_5a/pool_proj <- inception_5a/pool
I0419 15:32:00.225507 30606 net.cpp:399] inception_5a/pool_proj -> inception_5a/pool_proj
I0419 15:32:00.324273 30606 net.cpp:141] Setting up inception_5a/pool_proj
I0419 15:32:00.324290 30606 net.cpp:148] Top shape: 1 128 15 10 (19200)
I0419 15:32:00.324295 30606 net.cpp:156] Memory required for data: 176781632
I0419 15:32:00.324306 30606 layer_factory.hpp:77] Creating layer inception_5a/relu_pool_proj
I0419 15:32:00.324314 30606 net.cpp:91] Creating Layer inception_5a/relu_pool_proj
I0419 15:32:00.324321 30606 net.cpp:425] inception_5a/relu_pool_proj <- inception_5a/pool_proj
I0419 15:32:00.324331 30606 net.cpp:386] inception_5a/relu_pool_proj -> inception_5a/pool_proj (in-place)
I0419 15:32:00.325506 30606 net.cpp:141] Setting up inception_5a/relu_pool_proj
I0419 15:32:00.325521 30606 net.cpp:148] Top shape: 1 128 15 10 (19200)
I0419 15:32:00.325527 30606 net.cpp:156] Memory required for data: 176858432
I0419 15:32:00.325532 30606 layer_factory.hpp:77] Creating layer inception_5a/output
I0419 15:32:00.325541 30606 net.cpp:91] Creating Layer inception_5a/output
I0419 15:32:00.325546 30606 net.cpp:425] inception_5a/output <- inception_5a/1x1
I0419 15:32:00.325553 30606 net.cpp:425] inception_5a/output <- inception_5a/3x3
I0419 15:32:00.325559 30606 net.cpp:425] inception_5a/output <- inception_5a/5x5
I0419 15:32:00.325565 30606 net.cpp:425] inception_5a/output <- inception_5a/pool_proj
I0419 15:32:00.325572 30606 net.cpp:399] inception_5a/output -> inception_5a/output
I0419 15:32:00.325613 30606 net.cpp:141] Setting up inception_5a/output
I0419 15:32:00.325623 30606 net.cpp:148] Top shape: 1 832 15 10 (124800)
I0419 15:32:00.325628 30606 net.cpp:156] Memory required for data: 177357632
I0419 15:32:00.325634 30606 layer_factory.hpp:77] Creating layer inception_5a/output_inception_5a/output_0_split
I0419 15:32:00.325641 30606 net.cpp:91] Creating Layer inception_5a/output_inception_5a/output_0_split
I0419 15:32:00.325646 30606 net.cpp:425] inception_5a/output_inception_5a/output_0_split <- inception_5a/output
I0419 15:32:00.325655 30606 net.cpp:399] inception_5a/output_inception_5a/output_0_split -> inception_5a/output_inception_5a/output_0_split_0
I0419 15:32:00.325665 30606 net.cpp:399] inception_5a/output_inception_5a/output_0_split -> inception_5a/output_inception_5a/output_0_split_1
I0419 15:32:00.325673 30606 net.cpp:399] inception_5a/output_inception_5a/output_0_split -> inception_5a/output_inception_5a/output_0_split_2
I0419 15:32:00.325686 30606 net.cpp:399] inception_5a/output_inception_5a/output_0_split -> inception_5a/output_inception_5a/output_0_split_3
I0419 15:32:00.325764 30606 net.cpp:141] Setting up inception_5a/output_inception_5a/output_0_split
I0419 15:32:00.325774 30606 net.cpp:148] Top shape: 1 832 15 10 (124800)
I0419 15:32:00.325780 30606 net.cpp:148] Top shape: 1 832 15 10 (124800)
I0419 15:32:00.325786 30606 net.cpp:148] Top shape: 1 832 15 10 (124800)
I0419 15:32:00.325793 30606 net.cpp:148] Top shape: 1 832 15 10 (124800)
I0419 15:32:00.325796 30606 net.cpp:156] Memory required for data: 179354432
I0419 15:32:00.325801 30606 layer_factory.hpp:77] Creating layer inception_5b/1x1
I0419 15:32:00.325814 30606 net.cpp:91] Creating Layer inception_5b/1x1
I0419 15:32:00.325822 30606 net.cpp:425] inception_5b/1x1 <- inception_5a/output_inception_5a/output_0_split_0
I0419 15:32:00.325832 30606 net.cpp:399] inception_5b/1x1 -> inception_5b/1x1
I0419 15:32:00.333323 30606 net.cpp:141] Setting up inception_5b/1x1
I0419 15:32:00.333338 30606 net.cpp:148] Top shape: 1 384 15 10 (57600)
I0419 15:32:00.333344 30606 net.cpp:156] Memory required for data: 179584832
I0419 15:32:00.333359 30606 layer_factory.hpp:77] Creating layer inception_5b/relu_1x1
I0419 15:32:00.333369 30606 net.cpp:91] Creating Layer inception_5b/relu_1x1
I0419 15:32:00.333375 30606 net.cpp:425] inception_5b/relu_1x1 <- inception_5b/1x1
I0419 15:32:00.333384 30606 net.cpp:386] inception_5b/relu_1x1 -> inception_5b/1x1 (in-place)
I0419 15:32:00.335825 30606 net.cpp:141] Setting up inception_5b/relu_1x1
I0419 15:32:00.335839 30606 net.cpp:148] Top shape: 1 384 15 10 (57600)
I0419 15:32:00.335844 30606 net.cpp:156] Memory required for data: 179815232
I0419 15:32:00.335850 30606 layer_factory.hpp:77] Creating layer inception_5b/3x3_reduce
I0419 15:32:00.335863 30606 net.cpp:91] Creating Layer inception_5b/3x3_reduce
I0419 15:32:00.335870 30606 net.cpp:425] inception_5b/3x3_reduce <- inception_5a/output_inception_5a/output_0_split_1
I0419 15:32:00.335880 30606 net.cpp:399] inception_5b/3x3_reduce -> inception_5b/3x3_reduce
I0419 15:32:00.457334 30606 net.cpp:141] Setting up inception_5b/3x3_reduce
I0419 15:32:00.457352 30606 net.cpp:148] Top shape: 1 192 15 10 (28800)
I0419 15:32:00.457358 30606 net.cpp:156] Memory required for data: 179930432
I0419 15:32:00.457368 30606 layer_factory.hpp:77] Creating layer inception_5b/relu_3x3_reduce
I0419 15:32:00.457379 30606 net.cpp:91] Creating Layer inception_5b/relu_3x3_reduce
I0419 15:32:00.457386 30606 net.cpp:425] inception_5b/relu_3x3_reduce <- inception_5b/3x3_reduce
I0419 15:32:00.457393 30606 net.cpp:386] inception_5b/relu_3x3_reduce -> inception_5b/3x3_reduce (in-place)
I0419 15:32:00.558434 30606 net.cpp:141] Setting up inception_5b/relu_3x3_reduce
I0419 15:32:00.558449 30606 net.cpp:148] Top shape: 1 192 15 10 (28800)
I0419 15:32:00.558454 30606 net.cpp:156] Memory required for data: 180045632
I0419 15:32:00.558459 30606 layer_factory.hpp:77] Creating layer inception_5b/3x3
I0419 15:32:00.558473 30606 net.cpp:91] Creating Layer inception_5b/3x3
I0419 15:32:00.558480 30606 net.cpp:425] inception_5b/3x3 <- inception_5b/3x3_reduce
I0419 15:32:00.558490 30606 net.cpp:399] inception_5b/3x3 -> inception_5b/3x3
I0419 15:32:00.567006 30606 net.cpp:141] Setting up inception_5b/3x3
I0419 15:32:00.567021 30606 net.cpp:148] Top shape: 1 384 15 10 (57600)
I0419 15:32:00.567026 30606 net.cpp:156] Memory required for data: 180276032
I0419 15:32:00.567037 30606 layer_factory.hpp:77] Creating layer inception_5b/relu_3x3
I0419 15:32:00.567047 30606 net.cpp:91] Creating Layer inception_5b/relu_3x3
I0419 15:32:00.567054 30606 net.cpp:425] inception_5b/relu_3x3 <- inception_5b/3x3
I0419 15:32:00.567062 30606 net.cpp:386] inception_5b/relu_3x3 -> inception_5b/3x3 (in-place)
I0419 15:32:00.570152 30606 net.cpp:141] Setting up inception_5b/relu_3x3
I0419 15:32:00.570164 30606 net.cpp:148] Top shape: 1 384 15 10 (57600)
I0419 15:32:00.570169 30606 net.cpp:156] Memory required for data: 180506432
I0419 15:32:00.570174 30606 layer_factory.hpp:77] Creating layer inception_5b/5x5_reduce
I0419 15:32:00.570188 30606 net.cpp:91] Creating Layer inception_5b/5x5_reduce
I0419 15:32:00.570194 30606 net.cpp:425] inception_5b/5x5_reduce <- inception_5a/output_inception_5a/output_0_split_2
I0419 15:32:00.570204 30606 net.cpp:399] inception_5b/5x5_reduce -> inception_5b/5x5_reduce
I0419 15:32:00.578796 30606 net.cpp:141] Setting up inception_5b/5x5_reduce
I0419 15:32:00.578811 30606 net.cpp:148] Top shape: 1 48 15 10 (7200)
I0419 15:32:00.578816 30606 net.cpp:156] Memory required for data: 180535232
I0419 15:32:00.578826 30606 layer_factory.hpp:77] Creating layer inception_5b/relu_5x5_reduce
I0419 15:32:00.578837 30606 net.cpp:91] Creating Layer inception_5b/relu_5x5_reduce
I0419 15:32:00.578845 30606 net.cpp:425] inception_5b/relu_5x5_reduce <- inception_5b/5x5_reduce
I0419 15:32:00.578851 30606 net.cpp:386] inception_5b/relu_5x5_reduce -> inception_5b/5x5_reduce (in-place)
I0419 15:32:00.582072 30606 net.cpp:141] Setting up inception_5b/relu_5x5_reduce
I0419 15:32:00.582087 30606 net.cpp:148] Top shape: 1 48 15 10 (7200)
I0419 15:32:00.582092 30606 net.cpp:156] Memory required for data: 180564032
I0419 15:32:00.582096 30606 layer_factory.hpp:77] Creating layer inception_5b/5x5
I0419 15:32:00.582110 30606 net.cpp:91] Creating Layer inception_5b/5x5
I0419 15:32:00.582118 30606 net.cpp:425] inception_5b/5x5 <- inception_5b/5x5_reduce
I0419 15:32:00.582129 30606 net.cpp:399] inception_5b/5x5 -> inception_5b/5x5
I0419 15:32:00.589277 30606 net.cpp:141] Setting up inception_5b/5x5
I0419 15:32:00.589292 30606 net.cpp:148] Top shape: 1 128 15 10 (19200)
I0419 15:32:00.589296 30606 net.cpp:156] Memory required for data: 180640832
I0419 15:32:00.589306 30606 layer_factory.hpp:77] Creating layer inception_5b/relu_5x5
I0419 15:32:00.589314 30606 net.cpp:91] Creating Layer inception_5b/relu_5x5
I0419 15:32:00.589321 30606 net.cpp:425] inception_5b/relu_5x5 <- inception_5b/5x5
I0419 15:32:00.589329 30606 net.cpp:386] inception_5b/relu_5x5 -> inception_5b/5x5 (in-place)
I0419 15:32:00.591387 30606 net.cpp:141] Setting up inception_5b/relu_5x5
I0419 15:32:00.591400 30606 net.cpp:148] Top shape: 1 128 15 10 (19200)
I0419 15:32:00.591405 30606 net.cpp:156] Memory required for data: 180717632
I0419 15:32:00.591411 30606 layer_factory.hpp:77] Creating layer inception_5b/pool
I0419 15:32:00.591420 30606 net.cpp:91] Creating Layer inception_5b/pool
I0419 15:32:00.591428 30606 net.cpp:425] inception_5b/pool <- inception_5a/output_inception_5a/output_0_split_3
I0419 15:32:00.591437 30606 net.cpp:399] inception_5b/pool -> inception_5b/pool
I0419 15:32:00.591497 30606 net.cpp:141] Setting up inception_5b/pool
I0419 15:32:00.591507 30606 net.cpp:148] Top shape: 1 832 15 10 (124800)
I0419 15:32:00.591512 30606 net.cpp:156] Memory required for data: 181216832
I0419 15:32:00.591517 30606 layer_factory.hpp:77] Creating layer inception_5b/pool_proj
I0419 15:32:00.591531 30606 net.cpp:91] Creating Layer inception_5b/pool_proj
I0419 15:32:00.591542 30606 net.cpp:425] inception_5b/pool_proj <- inception_5b/pool
I0419 15:32:00.591552 30606 net.cpp:399] inception_5b/pool_proj -> inception_5b/pool_proj
I0419 15:32:00.599520 30606 net.cpp:141] Setting up inception_5b/pool_proj
I0419 15:32:00.599536 30606 net.cpp:148] Top shape: 1 128 15 10 (19200)
I0419 15:32:00.599542 30606 net.cpp:156] Memory required for data: 181293632
I0419 15:32:00.599552 30606 layer_factory.hpp:77] Creating layer inception_5b/relu_pool_proj
I0419 15:32:00.599561 30606 net.cpp:91] Creating Layer inception_5b/relu_pool_proj
I0419 15:32:00.599568 30606 net.cpp:425] inception_5b/relu_pool_proj <- inception_5b/pool_proj
I0419 15:32:00.599576 30606 net.cpp:386] inception_5b/relu_pool_proj -> inception_5b/pool_proj (in-place)
I0419 15:32:00.601747 30606 net.cpp:141] Setting up inception_5b/relu_pool_proj
I0419 15:32:00.601760 30606 net.cpp:148] Top shape: 1 128 15 10 (19200)
I0419 15:32:00.601765 30606 net.cpp:156] Memory required for data: 181370432
I0419 15:32:00.601770 30606 layer_factory.hpp:77] Creating layer inception_5b/output
I0419 15:32:00.601779 30606 net.cpp:91] Creating Layer inception_5b/output
I0419 15:32:00.601786 30606 net.cpp:425] inception_5b/output <- inception_5b/1x1
I0419 15:32:00.601794 30606 net.cpp:425] inception_5b/output <- inception_5b/3x3
I0419 15:32:00.601799 30606 net.cpp:425] inception_5b/output <- inception_5b/5x5
I0419 15:32:00.601805 30606 net.cpp:425] inception_5b/output <- inception_5b/pool_proj
I0419 15:32:00.601811 30606 net.cpp:399] inception_5b/output -> inception_5b/output
I0419 15:32:00.601853 30606 net.cpp:141] Setting up inception_5b/output
I0419 15:32:00.601863 30606 net.cpp:148] Top shape: 1 1024 15 10 (153600)
I0419 15:32:00.601867 30606 net.cpp:156] Memory required for data: 181984832
I0419 15:32:00.601872 30606 layer_factory.hpp:77] Creating layer loss3/classifier-v2
I0419 15:32:00.601887 30606 net.cpp:91] Creating Layer loss3/classifier-v2
I0419 15:32:00.601894 30606 net.cpp:425] loss3/classifier-v2 <- inception_5b/output
I0419 15:32:00.601903 30606 net.cpp:399] loss3/classifier-v2 -> loss3/classifier
I0419 15:32:00.614500 30606 net.cpp:141] Setting up loss3/classifier-v2
I0419 15:32:00.614516 30606 net.cpp:148] Top shape: 1 1000 15 10 (150000)
I0419 15:32:00.614521 30606 net.cpp:156] Memory required for data: 182584832
I0419 15:32:00.614533 30606 layer_factory.hpp:77] Creating layer extra_conv
I0419 15:32:00.614548 30606 net.cpp:91] Creating Layer extra_conv
I0419 15:32:00.614557 30606 net.cpp:425] extra_conv <- loss3/classifier
I0419 15:32:00.614567 30606 net.cpp:399] extra_conv -> score_fr
I0419 15:32:00.622699 30606 net.cpp:141] Setting up extra_conv
I0419 15:32:00.622714 30606 net.cpp:148] Top shape: 1 21 15 10 (3150)
I0419 15:32:00.622720 30606 net.cpp:156] Memory required for data: 182597432
I0419 15:32:00.622730 30606 layer_factory.hpp:77] Creating layer upscore
I0419 15:32:00.622742 30606 net.cpp:91] Creating Layer upscore
I0419 15:32:00.622756 30606 net.cpp:425] upscore <- score_fr
I0419 15:32:00.622763 30606 net.cpp:399] upscore -> upscore
I0419 15:32:00.625176 30606 net.cpp:141] Setting up upscore
I0419 15:32:00.625191 30606 net.cpp:148] Top shape: 1 21 540 370 (4195800)
I0419 15:32:00.625196 30606 net.cpp:156] Memory required for data: 199380632
I0419 15:32:00.625203 30606 layer_factory.hpp:77] Creating layer score
I0419 15:32:00.625218 30606 net.cpp:91] Creating Layer score
I0419 15:32:00.625229 30606 net.cpp:425] score <- upscore
I0419 15:32:00.625236 30606 net.cpp:425] score <- data_data_0_split_1
I0419 15:32:00.625244 30606 net.cpp:399] score -> score
I0419 15:32:00.625286 30606 net.cpp:141] Setting up score
I0419 15:32:00.625296 30606 net.cpp:148] Top shape: 1 21 500 330 (3465000)
I0419 15:32:00.625301 30606 net.cpp:156] Memory required for data: 213240632
I0419 15:32:00.625306 30606 layer_factory.hpp:77] Creating layer loss
I0419 15:32:00.625316 30606 net.cpp:91] Creating Layer loss
I0419 15:32:00.625322 30606 net.cpp:425] loss <- score
I0419 15:32:00.625329 30606 net.cpp:425] loss <- label
I0419 15:32:00.625336 30606 net.cpp:399] loss -> loss
I0419 15:32:00.625352 30606 layer_factory.hpp:77] Creating layer loss
…
I0419 15:32:00.630722 30606 net.cpp:274] Network initialization done.
I0419 15:32:00.633047 30606 solver.cpp:181] Creating test net (#0) specified by test_net file: val.prototxt
I0419 15:32:00.633818 30606 net.cpp:49] Initializing net from parameters: 
state {
  phase: TEST
}
layer {
  name: "data"
  type: "Python"
  top: "data"
  top: "label"
  python_param {
    module: "layers"
    layer: "VOCSegDataLayer"
    param_str: "{\'voc_dir\': \'/home/shared/datasets/VOCdevkit/VOC2012\', \'seed\': 1337, \'split\': \'seg11valid\', \'mean\': (104.00699, 116.66877, 122.67892)}"
  }
}
layer {
  name: "conv1/7x7_s2"
  type: "Convolution"
  bottom: "data"
  top: "conv1/7x7_s2"
  param {
    lr_mult: 1
    decay_mult: 1
  }
  param {
    lr_mult: 2
    decay_mult: 0
  }
  convolution_param {
    num_output: 64
    pad: 3
    kernel_size: 7
    stride: 2
    weight_filler {
      type: "xavier"
    }
    bias_filler {
      type: "constant"
      value: 0.2
    }
  }
}
layer {
  name: "conv1/relu_7x7"
  type: "ReLU"
  bottom: "conv1/7x7_s2"
  top: "conv1/7x7_s2"
}
layer {
  name: "pool1/3x3_s2"
  type: "Pooling"
  bottom: "conv1/7x7_s2"
  top: "pool1/3x3_s2"
  pooling_param {
    pool: MAX
    kernel_size: 3
    stride: 2
  }
}
layer {
  name: "pool1/norm1"
  type: "LRN"
  bottom: "pool1/3x3_s2"
  top: "pool1/norm1"
  lrn_param {
    local_size: 5
    alpha: 0.0001
    beta: 0.75
  }
}
layer {
  name: "conv2/3x3_reduce"
  type: "Convolution"
  bottom: "pool1/norm1"
  top: "conv2/3x3_reduce"
  param {
    lr_mult: 1
    decay_mult: 1
  }
  param {
    lr_mult: 2
    decay_mult: 0
  }
  convolution_param {
    num_output: 64
    kernel_size: 1
    weight_filler {
      type: "xavier"
    }
    bias_filler {
      type: "constant"
      value: 0.2
    }
  }
}
layer {
  name: "conv2/relu_3x3_reduce"
  type: "ReLU"
  bottom: "conv2/3x3_reduce"
  top: "conv2/3x3_reduce"
}
layer {
  name: "conv2/3x3"
  type: "Convolution"
  bottom: "conv2/3x3_reduce"
  top: "conv2/3x3"
  param {
    lr_mult: 1
    decay_mult: 1
  }
  param {
    lr_mult: 2
    decay_mult: 0
  }
  convolution_param {
    num_output: 192
    pad: 1
    kernel_size: 3
    weight_filler {
      type: "xavier"
    }
    bias_filler {
      type: "constant"
      value: 0.2
    }
  }
}
layer {
  name: "conv2/relu_3x3"
  type: "ReLU"
  bottom: "conv2/3x3"
  top: "conv2/3x3"
}
layer {
  name: "conv2/norm2"
  type: "LRN"
  bottom: "conv2/3x3"
  top: "conv2/norm2"
  lrn_param {
    local_size: 5
    alpha: 0.0001
    beta: 0.75
  }
}
layer {
  name: "pool2/3x3_s2"
  type: "Pooling"
  bottom: "conv2/norm2"
  top: "pool2/3x3_s2"
  pooling_param {
    pool: MAX
    kernel_size: 3
    stride: 2
  }
}
layer {
  name: "inception_3a/1x1"
  type: "Convolution"
  bottom: "pool2/3x3_s2"
  top: "inception_3a/1x1"
  param {
    lr_mult: 1
    decay_mult: 1
  }
  param {
    lr_mult: 2
    decay_mult: 0
  }
  convolution_param {
    num_output: 64
    kernel_size: 1
    weight_filler {
      type: "xavier"
    }
    bias_filler {
      type: "constant"
      value: 0.2
    }
  }
}
layer {
  name: "inception_3a/relu_1x1"
  type: "ReLU"
  bottom: "inception_3a/1x1"
  top: "inception_3a/1x1"
}
layer {
  name: "inception_3a/3x3_reduce"
  type: "Convolution"
  bottom: "pool2/3x3_s2"
  top: "inception_3a/3x3_reduce"
  param {
    lr_mult: 1
    decay_mult: 1
  }
  param {
    lr_mult: 2
    decay_mult: 0
  }
  convolution_param {
    num_output: 96
    kernel_size: 1
    weight_filler {
      type: "xavier"
    }
    bias_filler {
      type: "constant"
      value: 0.2
    }
  }
}
layer {
  name: "inception_3a/relu_3x3_reduce"
  type: "ReLU"
  bottom: "inception_3a/3x3_reduce"
  top: "inception_3a/3x3_reduce"
}
layer {
  name: "inception_3a/3x3"
  type: "Convolution"
  bottom: "inception_3a/3x3_reduce"
  top: "inception_3a/3x3"
  param {
    lr_mult: 1
    decay_mult: 1
  }
  param {
    lr_mult: 2
    decay_mult: 0
  }
  convolution_param {
    num_output: 128
    pad: 1
    kernel_size: 3
    weight_filler {
      type: "xavier"
    }
    bias_filler {
      type: "constant"
      value: 0.2
    }
  }
}
layer {
  name: "inception_3a/relu_3x3"
  type: "ReLU"
  bottom: "inception_3a/3x3"
  top: "inception_3a/3x3"
}
layer {
  name: "inception_3a/5x5_reduce"
  type: "Convolution"
  bottom: "pool2/3x3_s2"
  top: "inception_3a/5x5_reduce"
  param {
    lr_mult: 1
    decay_mult: 1
  }
  param {
    lr_mult: 2
    decay_mult: 0
  }
  convolution_param {
    num_output: 16
    kernel_size: 1
    weight_filler {
      type: "xavier"
    }
    bias_filler {
      type: "constant"
      value: 0.2
    }
  }
}
layer {
  name: "inception_3a/relu_5x5_reduce"
  type: "ReLU"
  bottom: "inception_3a/5x5_reduce"
  top: "inception_3a/5x5_reduce"
}
layer {
  name: "inception_3a/5x5"
  type: "Convolution"
  bottom: "inception_3a/5x5_reduce"
  top: "inception_3a/5x5"
  param {
    lr_mult: 1
    decay_mult: 1
  }
  param {
    lr_mult: 2
    decay_mult: 0
  }
  convolution_param {
    num_output: 32
    pad: 2
    kernel_size: 5
    weight_filler {
      type: "xavier"
    }
    bias_filler {
      type: "constant"
      value: 0.2
    }
  }
}
layer {
  name: "inception_3a/relu_5x5"
  type: "ReLU"
  bottom: "inception_3a/5x5"
  top: "inception_3a/5x5"
}
layer {
  name: "inception_3a/pool"
  type: "Pooling"
  bottom: "pool2/3x3_s2"
  top: "inception_3a/pool"
  pooling_param {
    pool: MAX
    kernel_size: 3
    stride: 1
    pad: 1
  }
}
layer {
  name: "inception_3a/pool_proj"
  type: "Convolution"
  bottom: "inception_3a/pool"
  top: "inception_3a/pool_proj"
  param {
    lr_mult: 1
    decay_mult: 1
  }
  param {
    lr_mult: 2
    decay_mult: 0
  }
  convolution_param {
    num_output: 32
    kernel_size: 1
    weight_filler {
      type: "xavier"
    }
    bias_filler {
      type: "constant"
      value: 0.2
    }
  }
}
layer {
  name: "inception_3a/relu_pool_proj"
  type: "ReLU"
  bottom: "inception_3a/pool_proj"
  top: "inception_3a/pool_proj"
}
layer {
  name: "inception_3a/output"
  type: "Concat"
  bottom: "inception_3a/1x1"
  bottom: "inception_3a/3x3"
  bottom: "inception_3a/5x5"
  bottom: "inception_3a/pool_proj"
  top: "inception_3a/output"
}
layer {
  name: "inception_3b/1x1"
  type: "Convolution"
  bottom: "inception_3a/output"
  top: "inception_3b/1x1"
  param {
    lr_mult: 1
    decay_mult: 1
  }
  param {
    lr_mult: 2
    decay_mult: 0
  }
  convolution_param {
    num_output: 128
    kernel_size: 1
    weight_filler {
      type: "xavier"
    }
    bias_filler {
      type: "constant"
      value: 0.2
    }
  }
}
layer {
  name: "inception_3b/relu_1x1"
  type: "ReLU"
  bottom: "inception_3b/1x1"
  top: "inception_3b/1x1"
}
layer {
  name: "inception_3b/3x3_reduce"
  type: "Convolution"
  bottom: "inception_3a/output"
  top: "inception_3b/3x3_reduce"
  param {
    lr_mult: 1
    decay_mult: 1
  }
  param {
    lr_mult: 2
    decay_mult: 0
  }
  convolution_param {
    num_output: 128
    kernel_size: 1
    weight_filler {
      type: "xavier"
    }
    bias_filler {
      type: "constant"
      value: 0.2
    }
  }
}
layer {
  name: "inception_3b/relu_3x3_reduce"
  type: "ReLU"
  bottom: "inception_3b/3x3_reduce"
  top: "inception_3b/3x3_reduce"
}
layer {
  name: "inception_3b/3x3"
  type: "Convolution"
  bottom: "inception_3b/3x3_reduce"
  top: "inception_3b/3x3"
  param {
    lr_mult: 1
    decay_mult: 1
  }
  param {
    lr_mult: 2
    decay_mult: 0
  }
  convolution_param {
    num_output: 192
    pad: 1
    kernel_size: 3
    weight_filler {
      type: "xavier"
    }
    bias_filler {
      type: "constant"
      value: 0.2
    }
  }
}
layer {
  name: "inception_3b/relu_3x3"
  type: "ReLU"
  bottom: "inception_3b/3x3"
  top: "inception_3b/3x3"
}
layer {
  name: "inception_3b/5x5_reduce"
  type: "Convolution"
  bottom: "inception_3a/output"
  top: "inception_3b/5x5_reduce"
  param {
    lr_mult: 1
    decay_mult: 1
  }
  param {
    lr_mult: 2
    decay_mult: 0
  }
  convolution_param {
    num_output: 32
    kernel_size: 1
    weight_filler {
      type: "xavier"
    }
    bias_filler {
      type: "constant"
      value: 0.2
    }
  }
}
layer {
  name: "inception_3b/relu_5x5_reduce"
  type: "ReLU"
  bottom: "inception_3b/5x5_reduce"
  top: "inception_3b/5x5_reduce"
}
layer {
  name: "inception_3b/5x5"
  type: "Convolution"
  bottom: "inception_3b/5x5_reduce"
  top: "inception_3b/5x5"
  param {
    lr_mult: 1
    decay_mult: 1
  }
  param {
    lr_mult: 2
    decay_mult: 0
  }
  convolution_param {
    num_output: 96
    pad: 2
    kernel_size: 5
    weight_filler {
      type: "xavier"
    }
    bias_filler {
      type: "constant"
      value: 0.2
    }
  }
}
layer {
  name: "inception_3b/relu_5x5"
  type: "ReLU"
  bottom: "inception_3b/5x5"
  top: "inception_3b/5x5"
}
layer {
  name: "inception_3b/pool"
  type: "Pooling"
  bottom: "inception_3a/output"
  top: "inception_3b/pool"
  pooling_param {
    pool: MAX
    kernel_size: 3
    stride: 1
    pad: 1
  }
}
layer {
  name: "inception_3b/pool_proj"
  type: "Convolution"
  bottom: "inception_3b/pool"
  top: "inception_3b/pool_proj"
  param {
    lr_mult: 1
    decay_mult: 1
  }
  param {
    lr_mult: 2
    decay_mult: 0
  }
  convolution_param {
    num_output: 64
    kernel_size: 1
    weight_filler {
      type: "xavier"
    }
    bias_filler {
      type: "constant"
      value: 0.2
    }
  }
}
layer {
  name: "inception_3b/relu_pool_proj"
  type: "ReLU"
  bottom: "inception_3b/pool_proj"
  top: "inception_3b/pool_proj"
}
layer {
  name: "inception_3b/output"
  type: "Concat"
  bottom: "inception_3b/1x1"
  bottom: "inception_3b/3x3"
  bottom: "inception_3b/5x5"
  bottom: "inception_3b/pool_proj"
  top: "inception_3b/output"
}
layer {
  name: "pool3/3x3_s2"
  type: "Pooling"
  bottom: "inception_3b/output"
  top: "pool3/3x3_s2"
  pooling_param {
    pool: MAX
    kernel_size: 3
    stride: 2
  }
}
layer {
  name: "inception_4a/1x1"
  type: "Convolution"
  bottom: "pool3/3x3_s2"
  top: "inception_4a/1x1"
  param {
    lr_mult: 1
    decay_mult: 1
  }
  param {
    lr_mult: 2
    decay_mult: 0
  }
  convolution_param {
    num_output: 192
    kernel_size: 1
    weight_filler {
      type: "xavier"
    }
    bias_filler {
      type: "constant"
      value: 0.2
    }
  }
}
layer {
  name: "inception_4a/relu_1x1"
  type: "ReLU"
  bottom: "inception_4a/1x1"
  top: "inception_4a/1x1"
}
layer {
  name: "inception_4a/3x3_reduce"
  type: "Convolution"
  bottom: "pool3/3x3_s2"
  top: "inception_4a/3x3_reduce"
  param {
    lr_mult: 1
    decay_mult: 1
  }
  param {
    lr_mult: 2
    decay_mult: 0
  }
  convolution_param {
    num_output: 96
    kernel_size: 1
    weight_filler {
      type: "xavier"
    }
    bias_filler {
      type: "constant"
      value: 0.2
    }
  }
}
layer {
  name: "inception_4a/relu_3x3_reduce"
  type: "ReLU"
  bottom: "inception_4a/3x3_reduce"
  top: "inception_4a/3x3_reduce"
}
layer {
  name: "inception_4a/3x3"
  type: "Convolution"
  bottom: "inception_4a/3x3_reduce"
  top: "inception_4a/3x3"
  param {
    lr_mult: 1
    decay_mult: 1
  }
  param {
    lr_mult: 2
    decay_mult: 0
  }
  convolution_param {
    num_output: 208
    pad: 1
    kernel_size: 3
    weight_filler {
      type: "xavier"
    }
    bias_filler {
      type: "constant"
      value: 0.2
    }
  }
}
layer {
  name: "inception_4a/relu_3x3"
  type: "ReLU"
  bottom: "inception_4a/3x3"
  top: "inception_4a/3x3"
}
layer {
  name: "inception_4a/5x5_reduce"
  type: "Convolution"
  bottom: "pool3/3x3_s2"
  top: "inception_4a/5x5_reduce"
  param {
    lr_mult: 1
    decay_mult: 1
  }
  param {
    lr_mult: 2
    decay_mult: 0
  }
  convolution_param {
    num_output: 16
    kernel_size: 1
    weight_filler {
      type: "xavier"
    }
    bias_filler {
      type: "constant"
      value: 0.2
    }
  }
}
layer {
  name: "inception_4a/relu_5x5_reduce"
  type: "ReLU"
  bottom: "inception_4a/5x5_reduce"
  top: "inception_4a/5x5_reduce"
}
layer {
  name: "inception_4a/5x5"
  type: "Convolution"
  bottom: "inception_4a/5x5_reduce"
  top: "inception_4a/5x5"
  param {
    lr_mult: 1
    decay_mult: 1
  }
  param {
    lr_mult: 2
    decay_mult: 0
  }
  convolution_param {
    num_output: 48
    pad: 2
    kernel_size: 5
    weight_filler {
      type: "xavier"
    }
    bias_filler {
      type: "constant"
      value: 0.2
    }
  }
}
layer {
  name: "inception_4a/relu_5x5"
  type: "ReLU"
  bottom: "inception_4a/5x5"
  top: "inception_4a/5x5"
}
layer {
  name: "inception_4a/pool"
  type: "Pooling"
  bottom: "pool3/3x3_s2"
  top: "inception_4a/pool"
  pooling_param {
    pool: MAX
    kernel_size: 3
    stride: 1
    pad: 1
  }
}
layer {
  name: "inception_4a/pool_proj"
  type: "Convolution"
  bottom: "inception_4a/pool"
  top: "inception_4a/pool_proj"
  param {
    lr_mult: 1
    decay_mult: 1
  }
  param {
    lr_mult: 2
    decay_mult: 0
  }
  convolution_param {
    num_output: 64
    kernel_size: 1
    weight_filler {
      type: "xavier"
    }
    bias_filler {
      type: "constant"
      value: 0.2
    }
  }
}
layer {
  name: "inception_4a/relu_pool_proj"
  type: "ReLU"
  bottom: "inception_4a/pool_proj"
  top: "inception_4a/pool_proj"
}
layer {
  name: "inception_4a/output"
  type: "Concat"
  bottom: "inception_4a/1x1"
  bottom: "inception_4a/3x3"
  bottom: "inception_4a/5x5"
  bottom: "inception_4a/pool_proj"
  top: "inception_4a/output"
}
layer {
  name: "inception_4b/1x1"
  type: "Convolution"
  bottom: "inception_4a/output"
  top: "inception_4b/1x1"
  param {
    lr_mult: 1
    decay_mult: 1
  }
  param {
    lr_mult: 2
    decay_mult: 0
  }
  convolution_param {
    num_output: 160
    kernel_size: 1
    weight_filler {
      type: "xavier"
    }
    bias_filler {
      type: "constant"
      value: 0.2
    }
  }
}
layer {
  name: "inception_4b/relu_1x1"
  type: "ReLU"
  bottom: "inception_4b/1x1"
  top: "inception_4b/1x1"
}
layer {
  name: "inception_4b/3x3_reduce"
  type: "Convolution"
  bottom: "inception_4a/output"
  top: "inception_4b/3x3_reduce"
  param {
    lr_mult: 1
    decay_mult: 1
  }
  param {
    lr_mult: 2
    decay_mult: 0
  }
  convolution_param {
    num_output: 112
    kernel_size: 1
    weight_filler {
      type: "xavier"
    }
    bias_filler {
      type: "constant"
      value: 0.2
    }
  }
}
layer {
  name: "inception_4b/relu_3x3_reduce"
  type: "ReLU"
  bottom: "inception_4b/3x3_reduce"
  top: "inception_4b/3x3_reduce"
}
layer {
  name: "inception_4b/3x3"
  type: "Convolution"
  bottom: "inception_4b/3x3_reduce"
  top: "inception_4b/3x3"
  param {
    lr_mult: 1
    decay_mult: 1
  }
  param {
    lr_mult: 2
    decay_mult: 0
  }
  convolution_param {
    num_output: 224
    pad: 1
    kernel_size: 3
    weight_filler {
      type: "xavier"
    }
    bias_filler {
      type: "constant"
      value: 0.2
    }
  }
}
layer {
  name: "inception_4b/relu_3x3"
  type: "ReLU"
  bottom: "inception_4b/3x3"
  top: "inception_4b/3x3"
}
layer {
  name: "inception_4b/5x5_reduce"
  type: "Convolution"
  bottom: "inception_4a/output"
  top: "inception_4b/5x5_reduce"
  param {
    lr_mult: 1
    decay_mult: 1
  }
  param {
    lr_mult: 2
    decay_mult: 0
  }
  convolution_param {
    num_output: 24
    kernel_size: 1
    weight_filler {
      type: "xavier"
    }
    bias_filler {
      type: "constant"
      value: 0.2
    }
  }
}
layer {
  name: "inception_4b/relu_5x5_reduce"
  type: "ReLU"
  bottom: "inception_4b/5x5_reduce"
  top: "inception_4b/5x5_reduce"
}
layer {
  name: "inception_4b/5x5"
  type: "Convolution"
  bottom: "inception_4b/5x5_reduce"
  top: "inception_4b/5x5"
  param {
    lr_mult: 1
    decay_mult: 1
  }
  param {
    lr_mult: 2
    decay_mult: 0
  }
  convolution_param {
    num_output: 64
    pad: 2
    kernel_size: 5
    weight_filler {
      type: "xavier"
    }
    bias_filler {
      type: "constant"
      value: 0.2
    }
  }
}
layer {
  name: "inception_4b/relu_5x5"
  type: "ReLU"
  bottom: "inception_4b/5x5"
  top: "inception_4b/5x5"
}
layer {
  name: "inception_4b/pool"
  type: "Pooling"
  bottom: "inception_4a/output"
  top: "inception_4b/pool"
  pooling_param {
    pool: MAX
    kernel_size: 3
    stride: 1
    pad: 1
  }
}
layer {
  name: "inception_4b/pool_proj"
  type: "Convolution"
  bottom: "inception_4b/pool"
  top: "inception_4b/pool_proj"
  param {
    lr_mult: 1
    decay_mult: 1
  }
  param {
    lr_mult: 2
    decay_mult: 0
  }
  convolution_param {
    num_output: 64
    kernel_size: 1
    weight_filler {
      type: "xavier"
    }
    bias_filler {
      type: "constant"
      value: 0.2
    }
  }
}
layer {
  name: "inception_4b/relu_pool_proj"
  type: "ReLU"
  bottom: "inception_4b/pool_proj"
  top: "inception_4b/pool_proj"
}
layer {
  name: "inception_4b/output"
  type: "Concat"
  bottom: "inception_4b/1x1"
  bottom: "inception_4b/3x3"
  bottom: "inception_4b/5x5"
  bottom: "inception_4b/pool_proj"
  top: "inception_4b/output"
}
layer {
  name: "inception_4c/1x1"
  type: "Convolution"
  bottom: "inception_4b/output"
  top: "inception_4c/1x1"
  param {
    lr_mult: 1
    decay_mult: 1
  }
  param {
    lr_mult: 2
    decay_mult: 0
  }
  convolution_param {
    num_output: 128
    kernel_size: 1
    weight_filler {
      type: "xavier"
    }
    bias_filler {
      type: "constant"
      value: 0.2
    }
  }
}
layer {
  name: "inception_4c/relu_1x1"
  type: "ReLU"
  bottom: "inception_4c/1x1"
  top: "inception_4c/1x1"
}
layer {
  name: "inception_4c/3x3_reduce"
  type: "Convolution"
  bottom: "inception_4b/output"
  top: "inception_4c/3x3_reduce"
  param {
    lr_mult: 1
    decay_mult: 1
  }
  param {
    lr_mult: 2
    decay_mult: 0
  }
  convolution_param {
    num_output: 128
    kernel_size: 1
    weight_filler {
      type: "xavier"
    }
    bias_filler {
      type: "constant"
      value: 0.2
    }
  }
}
layer {
  name: "inception_4c/relu_3x3_reduce"
  type: "ReLU"
  bottom: "inception_4c/3x3_reduce"
  top: "inception_4c/3x3_reduce"
}
layer {
  name: "inception_4c/3x3"
  type: "Convolution"
  bottom: "inception_4c/3x3_reduce"
  top: "inception_4c/3x3"
  param {
    lr_mult: 1
    decay_mult: 1
  }
  param {
    lr_mult: 2
    decay_mult: 0
  }
  convolution_param {
    num_output: 256
    pad: 1
    kernel_size: 3
    weight_filler {
      type: "xavier"
    }
    bias_filler {
      type: "constant"
      value: 0.2
    }
  }
}
layer {
  name: "inception_4c/relu_3x3"
  type: "ReLU"
  bottom: "inception_4c/3x3"
  top: "inception_4c/3x3"
}
layer {
  name: "inception_4c/5x5_reduce"
  type: "Convolution"
  bottom: "inception_4b/output"
  top: "inception_4c/5x5_reduce"
  param {
    lr_mult: 1
    decay_mult: 1
  }
  param {
    lr_mult: 2
    decay_mult: 0
  }
  convolution_param {
    num_output: 24
    kernel_size: 1
    weight_filler {
      type: "xavier"
    }
    bias_filler {
      type: "constant"
      value: 0.2
    }
  }
}
layer {
  name: "inception_4c/relu_5x5_reduce"
  type: "ReLU"
  bottom: "inception_4c/5x5_reduce"
  top: "inception_4c/5x5_reduce"
}
layer {
  name: "inception_4c/5x5"
  type: "Convolution"
  bottom: "inception_4c/5x5_reduce"
  top: "inception_4c/5x5"
  param {
    lr_mult: 1
    decay_mult: 1
  }
  param {
    lr_mult: 2
    decay_mult: 0
  }
  convolution_param {
    num_output: 64
    pad: 2
    kernel_size: 5
    weight_filler {
      type: "xavier"
    }
    bias_filler {
      type: "constant"
      value: 0.2
    }
  }
}
layer {
  name: "inception_4c/relu_5x5"
  type: "ReLU"
  bottom: "inception_4c/5x5"
  top: "inception_4c/5x5"
}
layer {
  name: "inception_4c/pool"
  type: "Pooling"
  bottom: "inception_4b/output"
  top: "inception_4c/pool"
  pooling_param {
    pool: MAX
    kernel_size: 3
    stride: 1
    pad: 1
  }
}
layer {
  name: "inception_4c/pool_proj"
  type: "Convolution"
  bottom: "inception_4c/pool"
  top: "inception_4c/pool_proj"
  param {
    lr_mult: 1
    decay_mult: 1
  }
  param {
    lr_mult: 2
    decay_mult: 0
  }
  convolution_param {
    num_output: 64
    kernel_size: 1
    weight_filler {
      type: "xavier"
    }
    bias_filler {
      type: "constant"
      value: 0.2
    }
  }
}
layer {
  name: "inception_4c/relu_pool_proj"
  type: "ReLU"
  bottom: "inception_4c/pool_proj"
  top: "inception_4c/pool_proj"
}
layer {
  name: "inception_4c/output"
  type: "Concat"
  bottom: "inception_4c/1x1"
  bottom: "inception_4c/3x3"
  bottom: "inception_4c/5x5"
  bottom: "inception_4c/pool_proj"
  top: "inception_4c/output"
}
layer {
  name: "inception_4d/1x1"
  type: "Convolution"
  bottom: "inception_4c/output"
  top: "inception_4d/1x1"
  param {
    lr_mult: 1
    decay_mult: 1
  }
  param {
    lr_mult: 2
    decay_mult: 0
  }
  convolution_param {
    num_output: 112
    kernel_size: 1
    weight_filler {
      type: "xavier"
    }
    bias_filler {
      type: "constant"
      value: 0.2
    }
  }
}
layer {
  name: "inception_4d/relu_1x1"
  type: "ReLU"
  bottom: "inception_4d/1x1"
  top: "inception_4d/1x1"
}
layer {
  name: "inception_4d/3x3_reduce"
  type: "Convolution"
  bottom: "inception_4c/output"
  top: "inception_4d/3x3_reduce"
  param {
    lr_mult: 1
    decay_mult: 1
  }
  param {
    lr_mult: 2
    decay_mult: 0
  }
  convolution_param {
    num_output: 144
    kernel_size: 1
    weight_filler {
      type: "xavier"
    }
    bias_filler {
      type: "constant"
      value: 0.2
    }
  }
}
layer {
  name: "inception_4d/relu_3x3_reduce"
  type: "ReLU"
  bottom: "inception_4d/3x3_reduce"
  top: "inception_4d/3x3_reduce"
}
layer {
  name: "inception_4d/3x3"
  type: "Convolution"
  bottom: "inception_4d/3x3_reduce"
  top: "inception_4d/3x3"
  param {
    lr_mult: 1
    decay_mult: 1
  }
  param {
    lr_mult: 2
    decay_mult: 0
  }
  convolution_param {
    num_output: 288
    pad: 1
    kernel_size: 3
    weight_filler {
      type: "xavier"
    }
    bias_filler {
      type: "constant"
      value: 0.2
    }
  }
}
layer {
  name: "inception_4d/relu_3x3"
  type: "ReLU"
  bottom: "inception_4d/3x3"
  top: "inception_4d/3x3"
}
layer {
  name: "inception_4d/5x5_reduce"
  type: "Convolution"
  bottom: "inception_4c/output"
  top: "inception_4d/5x5_reduce"
  param {
    lr_mult: 1
    decay_mult: 1
  }
  param {
    lr_mult: 2
    decay_mult: 0
  }
  convolution_param {
    num_output: 32
    kernel_size: 1
    weight_filler {
      type: "xavier"
    }
    bias_filler {
      type: "constant"
      value: 0.2
    }
  }
}
layer {
  name: "inception_4d/relu_5x5_reduce"
  type: "ReLU"
  bottom: "inception_4d/5x5_reduce"
  top: "inception_4d/5x5_reduce"
}
layer {
  name: "inception_4d/5x5"
  type: "Convolution"
  bottom: "inception_4d/5x5_reduce"
  top: "inception_4d/5x5"
  param {
    lr_mult: 1
    decay_mult: 1
  }
  param {
    lr_mult: 2
    decay_mult: 0
  }
  convolution_param {
    num_output: 64
    pad: 2
    kernel_size: 5
    weight_filler {
      type: "xavier"
    }
    bias_filler {
      type: "constant"
      value: 0.2
    }
  }
}
layer {
  name: "inception_4d/relu_5x5"
  type: "ReLU"
  bottom: "inception_4d/5x5"
  top: "inception_4d/5x5"
}
layer {
  name: "inception_4d/pool"
  type: "Pooling"
  bottom: "inception_4c/output"
  top: "inception_4d/pool"
  pooling_param {
    pool: MAX
    kernel_size: 3
    stride: 1
    pad: 1
  }
}
layer {
  name: "inception_4d/pool_proj"
  type: "Convolution"
  bottom: "inception_4d/pool"
  top: "inception_4d/pool_proj"
  param {
    lr_mult: 1
    decay_mult: 1
  }
  param {
    lr_mult: 2
    decay_mult: 0
  }
  convolution_param {
    num_output: 64
    kernel_size: 1
    weight_filler {
      type: "xavier"
    }
    bias_filler {
      type: "constant"
      value: 0.2
    }
  }
}
layer {
  name: "inception_4d/relu_pool_proj"
  type: "ReLU"
  bottom: "inception_4d/pool_proj"
…
I0419 15:32:01.314960 30606 net.cpp:141] Setting up inception_4b/output_inception_4b/output_0_split
I0419 15:32:01.314970 30606 net.cpp:148] Top shape: 1 512 22 31 (349184)
I0419 15:32:01.314976 30606 net.cpp:148] Top shape: 1 512 22 31 (349184)
I0419 15:32:01.314982 30606 net.cpp:148] Top shape: 1 512 22 31 (349184)
I0419 15:32:01.314988 30606 net.cpp:148] Top shape: 1 512 22 31 (349184)
I0419 15:32:01.314992 30606 net.cpp:156] Memory required for data: 156614208
I0419 15:32:01.314997 30606 layer_factory.hpp:77] Creating layer inception_4c/1x1
I0419 15:32:01.315011 30606 net.cpp:91] Creating Layer inception_4c/1x1
I0419 15:32:01.315017 30606 net.cpp:425] inception_4c/1x1 <- inception_4b/output_inception_4b/output_0_split_0
I0419 15:32:01.315027 30606 net.cpp:399] inception_4c/1x1 -> inception_4c/1x1
I0419 15:32:01.322526 30606 net.cpp:141] Setting up inception_4c/1x1
I0419 15:32:01.322541 30606 net.cpp:148] Top shape: 1 128 22 31 (87296)
I0419 15:32:01.322547 30606 net.cpp:156] Memory required for data: 156963392
I0419 15:32:01.322557 30606 layer_factory.hpp:77] Creating layer inception_4c/relu_1x1
I0419 15:32:01.322566 30606 net.cpp:91] Creating Layer inception_4c/relu_1x1
I0419 15:32:01.322571 30606 net.cpp:425] inception_4c/relu_1x1 <- inception_4c/1x1
I0419 15:32:01.322582 30606 net.cpp:386] inception_4c/relu_1x1 -> inception_4c/1x1 (in-place)
I0419 15:32:01.324247 30606 net.cpp:141] Setting up inception_4c/relu_1x1
I0419 15:32:01.324260 30606 net.cpp:148] Top shape: 1 128 22 31 (87296)
I0419 15:32:01.324266 30606 net.cpp:156] Memory required for data: 157312576
I0419 15:32:01.324271 30606 layer_factory.hpp:77] Creating layer inception_4c/3x3_reduce
I0419 15:32:01.324285 30606 net.cpp:91] Creating Layer inception_4c/3x3_reduce
I0419 15:32:01.324291 30606 net.cpp:425] inception_4c/3x3_reduce <- inception_4b/output_inception_4b/output_0_split_1
I0419 15:32:01.324301 30606 net.cpp:399] inception_4c/3x3_reduce -> inception_4c/3x3_reduce
I0419 15:32:01.331748 30606 net.cpp:141] Setting up inception_4c/3x3_reduce
I0419 15:32:01.331764 30606 net.cpp:148] Top shape: 1 128 22 31 (87296)
I0419 15:32:01.331770 30606 net.cpp:156] Memory required for data: 157661760
I0419 15:32:01.331779 30606 layer_factory.hpp:77] Creating layer inception_4c/relu_3x3_reduce
I0419 15:32:01.331789 30606 net.cpp:91] Creating Layer inception_4c/relu_3x3_reduce
I0419 15:32:01.331794 30606 net.cpp:425] inception_4c/relu_3x3_reduce <- inception_4c/3x3_reduce
I0419 15:32:01.331802 30606 net.cpp:386] inception_4c/relu_3x3_reduce -> inception_4c/3x3_reduce (in-place)
I0419 15:32:01.335083 30606 net.cpp:141] Setting up inception_4c/relu_3x3_reduce
I0419 15:32:01.335096 30606 net.cpp:148] Top shape: 1 128 22 31 (87296)
I0419 15:32:01.335101 30606 net.cpp:156] Memory required for data: 158010944
I0419 15:32:01.335108 30606 layer_factory.hpp:77] Creating layer inception_4c/3x3
I0419 15:32:01.335120 30606 net.cpp:91] Creating Layer inception_4c/3x3
I0419 15:32:01.335126 30606 net.cpp:425] inception_4c/3x3 <- inception_4c/3x3_reduce
I0419 15:32:01.335136 30606 net.cpp:399] inception_4c/3x3 -> inception_4c/3x3
I0419 15:32:01.343454 30606 net.cpp:141] Setting up inception_4c/3x3
I0419 15:32:01.343471 30606 net.cpp:148] Top shape: 1 256 22 31 (174592)
I0419 15:32:01.343475 30606 net.cpp:156] Memory required for data: 158709312
I0419 15:32:01.343485 30606 layer_factory.hpp:77] Creating layer inception_4c/relu_3x3
I0419 15:32:01.343497 30606 net.cpp:91] Creating Layer inception_4c/relu_3x3
I0419 15:32:01.343503 30606 net.cpp:425] inception_4c/relu_3x3 <- inception_4c/3x3
I0419 15:32:01.343510 30606 net.cpp:386] inception_4c/relu_3x3 -> inception_4c/3x3 (in-place)
I0419 15:32:01.345721 30606 net.cpp:141] Setting up inception_4c/relu_3x3
I0419 15:32:01.345734 30606 net.cpp:148] Top shape: 1 256 22 31 (174592)
I0419 15:32:01.345738 30606 net.cpp:156] Memory required for data: 159407680
I0419 15:32:01.345744 30606 layer_factory.hpp:77] Creating layer inception_4c/5x5_reduce
I0419 15:32:01.345757 30606 net.cpp:91] Creating Layer inception_4c/5x5_reduce
I0419 15:32:01.345764 30606 net.cpp:425] inception_4c/5x5_reduce <- inception_4b/output_inception_4b/output_0_split_2
I0419 15:32:01.345774 30606 net.cpp:399] inception_4c/5x5_reduce -> inception_4c/5x5_reduce
I0419 15:32:01.354351 30606 net.cpp:141] Setting up inception_4c/5x5_reduce
I0419 15:32:01.354365 30606 net.cpp:148] Top shape: 1 24 22 31 (16368)
I0419 15:32:01.354372 30606 net.cpp:156] Memory required for data: 159473152
I0419 15:32:01.354380 30606 layer_factory.hpp:77] Creating layer inception_4c/relu_5x5_reduce
I0419 15:32:01.354392 30606 net.cpp:91] Creating Layer inception_4c/relu_5x5_reduce
I0419 15:32:01.354398 30606 net.cpp:425] inception_4c/relu_5x5_reduce <- inception_4c/5x5_reduce
I0419 15:32:01.354405 30606 net.cpp:386] inception_4c/relu_5x5_reduce -> inception_4c/5x5_reduce (in-place)
I0419 15:32:01.356889 30606 net.cpp:141] Setting up inception_4c/relu_5x5_reduce
I0419 15:32:01.356904 30606 net.cpp:148] Top shape: 1 24 22 31 (16368)
I0419 15:32:01.356909 30606 net.cpp:156] Memory required for data: 159538624
I0419 15:32:01.356914 30606 layer_factory.hpp:77] Creating layer inception_4c/5x5
I0419 15:32:01.356930 30606 net.cpp:91] Creating Layer inception_4c/5x5
I0419 15:32:01.356941 30606 net.cpp:425] inception_4c/5x5 <- inception_4c/5x5_reduce
I0419 15:32:01.356950 30606 net.cpp:399] inception_4c/5x5 -> inception_4c/5x5
I0419 15:32:01.364403 30606 net.cpp:141] Setting up inception_4c/5x5
I0419 15:32:01.364418 30606 net.cpp:148] Top shape: 1 64 22 31 (43648)
I0419 15:32:01.364424 30606 net.cpp:156] Memory required for data: 159713216
I0419 15:32:01.364434 30606 layer_factory.hpp:77] Creating layer inception_4c/relu_5x5
I0419 15:32:01.364442 30606 net.cpp:91] Creating Layer inception_4c/relu_5x5
I0419 15:32:01.364449 30606 net.cpp:425] inception_4c/relu_5x5 <- inception_4c/5x5
I0419 15:32:01.364459 30606 net.cpp:386] inception_4c/relu_5x5 -> inception_4c/5x5 (in-place)
I0419 15:32:01.366801 30606 net.cpp:141] Setting up inception_4c/relu_5x5
I0419 15:32:01.366813 30606 net.cpp:148] Top shape: 1 64 22 31 (43648)
I0419 15:32:01.366818 30606 net.cpp:156] Memory required for data: 159887808
I0419 15:32:01.366824 30606 layer_factory.hpp:77] Creating layer inception_4c/pool
I0419 15:32:01.366832 30606 net.cpp:91] Creating Layer inception_4c/pool
I0419 15:32:01.366838 30606 net.cpp:425] inception_4c/pool <- inception_4b/output_inception_4b/output_0_split_3
I0419 15:32:01.366848 30606 net.cpp:399] inception_4c/pool -> inception_4c/pool
I0419 15:32:01.366919 30606 net.cpp:141] Setting up inception_4c/pool
I0419 15:32:01.366930 30606 net.cpp:148] Top shape: 1 512 22 31 (349184)
I0419 15:32:01.366935 30606 net.cpp:156] Memory required for data: 161284544
I0419 15:32:01.366940 30606 layer_factory.hpp:77] Creating layer inception_4c/pool_proj
I0419 15:32:01.366953 30606 net.cpp:91] Creating Layer inception_4c/pool_proj
I0419 15:32:01.366961 30606 net.cpp:425] inception_4c/pool_proj <- inception_4c/pool
I0419 15:32:01.366971 30606 net.cpp:399] inception_4c/pool_proj -> inception_4c/pool_proj
I0419 15:32:01.375332 30606 net.cpp:141] Setting up inception_4c/pool_proj
I0419 15:32:01.375347 30606 net.cpp:148] Top shape: 1 64 22 31 (43648)
I0419 15:32:01.375354 30606 net.cpp:156] Memory required for data: 161459136
I0419 15:32:01.375376 30606 layer_factory.hpp:77] Creating layer inception_4c/relu_pool_proj
I0419 15:32:01.375391 30606 net.cpp:91] Creating Layer inception_4c/relu_pool_proj
I0419 15:32:01.375397 30606 net.cpp:425] inception_4c/relu_pool_proj <- inception_4c/pool_proj
I0419 15:32:01.375406 30606 net.cpp:386] inception_4c/relu_pool_proj -> inception_4c/pool_proj (in-place)
I0419 15:32:01.377677 30606 net.cpp:141] Setting up inception_4c/relu_pool_proj
I0419 15:32:01.377689 30606 net.cpp:148] Top shape: 1 64 22 31 (43648)
I0419 15:32:01.377694 30606 net.cpp:156] Memory required for data: 161633728
I0419 15:32:01.377701 30606 layer_factory.hpp:77] Creating layer inception_4c/output
I0419 15:32:01.377708 30606 net.cpp:91] Creating Layer inception_4c/output
I0419 15:32:01.377713 30606 net.cpp:425] inception_4c/output <- inception_4c/1x1
I0419 15:32:01.377720 30606 net.cpp:425] inception_4c/output <- inception_4c/3x3
I0419 15:32:01.377727 30606 net.cpp:425] inception_4c/output <- inception_4c/5x5
I0419 15:32:01.377732 30606 net.cpp:425] inception_4c/output <- inception_4c/pool_proj
I0419 15:32:01.377742 30606 net.cpp:399] inception_4c/output -> inception_4c/output
I0419 15:32:01.377789 30606 net.cpp:141] Setting up inception_4c/output
I0419 15:32:01.377800 30606 net.cpp:148] Top shape: 1 512 22 31 (349184)
I0419 15:32:01.377804 30606 net.cpp:156] Memory required for data: 163030464
I0419 15:32:01.377810 30606 layer_factory.hpp:77] Creating layer inception_4c/output_inception_4c/output_0_split
I0419 15:32:01.377817 30606 net.cpp:91] Creating Layer inception_4c/output_inception_4c/output_0_split
I0419 15:32:01.377822 30606 net.cpp:425] inception_4c/output_inception_4c/output_0_split <- inception_4c/output
I0419 15:32:01.377830 30606 net.cpp:399] inception_4c/output_inception_4c/output_0_split -> inception_4c/output_inception_4c/output_0_split_0
I0419 15:32:01.377840 30606 net.cpp:399] inception_4c/output_inception_4c/output_0_split -> inception_4c/output_inception_4c/output_0_split_1
I0419 15:32:01.377849 30606 net.cpp:399] inception_4c/output_inception_4c/output_0_split -> inception_4c/output_inception_4c/output_0_split_2
I0419 15:32:01.377862 30606 net.cpp:399] inception_4c/output_inception_4c/output_0_split -> inception_4c/output_inception_4c/output_0_split_3
I0419 15:32:01.377961 30606 net.cpp:141] Setting up inception_4c/output_inception_4c/output_0_split
I0419 15:32:01.377972 30606 net.cpp:148] Top shape: 1 512 22 31 (349184)
I0419 15:32:01.377979 30606 net.cpp:148] Top shape: 1 512 22 31 (349184)
I0419 15:32:01.377985 30606 net.cpp:148] Top shape: 1 512 22 31 (349184)
I0419 15:32:01.377990 30606 net.cpp:148] Top shape: 1 512 22 31 (349184)
I0419 15:32:01.377995 30606 net.cpp:156] Memory required for data: 168617408
I0419 15:32:01.378000 30606 layer_factory.hpp:77] Creating layer inception_4d/1x1
I0419 15:32:01.378015 30606 net.cpp:91] Creating Layer inception_4d/1x1
I0419 15:32:01.378022 30606 net.cpp:425] inception_4d/1x1 <- inception_4c/output_inception_4c/output_0_split_0
I0419 15:32:01.378031 30606 net.cpp:399] inception_4d/1x1 -> inception_4d/1x1
I0419 15:32:01.385931 30606 net.cpp:141] Setting up inception_4d/1x1
I0419 15:32:01.385946 30606 net.cpp:148] Top shape: 1 112 22 31 (76384)
I0419 15:32:01.385951 30606 net.cpp:156] Memory required for data: 168922944
I0419 15:32:01.385960 30606 layer_factory.hpp:77] Creating layer inception_4d/relu_1x1
I0419 15:32:01.385972 30606 net.cpp:91] Creating Layer inception_4d/relu_1x1
I0419 15:32:01.385978 30606 net.cpp:425] inception_4d/relu_1x1 <- inception_4d/1x1
I0419 15:32:01.385985 30606 net.cpp:386] inception_4d/relu_1x1 -> inception_4d/1x1 (in-place)
I0419 15:32:01.388458 30606 net.cpp:141] Setting up inception_4d/relu_1x1
I0419 15:32:01.388473 30606 net.cpp:148] Top shape: 1 112 22 31 (76384)
I0419 15:32:01.388479 30606 net.cpp:156] Memory required for data: 169228480
I0419 15:32:01.388485 30606 layer_factory.hpp:77] Creating layer inception_4d/3x3_reduce
I0419 15:32:01.388497 30606 net.cpp:91] Creating Layer inception_4d/3x3_reduce
I0419 15:32:01.388504 30606 net.cpp:425] inception_4d/3x3_reduce <- inception_4c/output_inception_4c/output_0_split_1
I0419 15:32:01.388514 30606 net.cpp:399] inception_4d/3x3_reduce -> inception_4d/3x3_reduce
I0419 15:32:01.397485 30606 net.cpp:141] Setting up inception_4d/3x3_reduce
I0419 15:32:01.397500 30606 net.cpp:148] Top shape: 1 144 22 31 (98208)
I0419 15:32:01.397505 30606 net.cpp:156] Memory required for data: 169621312
I0419 15:32:01.397516 30606 layer_factory.hpp:77] Creating layer inception_4d/relu_3x3_reduce
I0419 15:32:01.397523 30606 net.cpp:91] Creating Layer inception_4d/relu_3x3_reduce
I0419 15:32:01.397531 30606 net.cpp:425] inception_4d/relu_3x3_reduce <- inception_4d/3x3_reduce
I0419 15:32:01.397539 30606 net.cpp:386] inception_4d/relu_3x3_reduce -> inception_4d/3x3_reduce (in-place)
I0419 15:32:01.401088 30606 net.cpp:141] Setting up inception_4d/relu_3x3_reduce
I0419 15:32:01.401103 30606 net.cpp:148] Top shape: 1 144 22 31 (98208)
I0419 15:32:01.401108 30606 net.cpp:156] Memory required for data: 170014144
I0419 15:32:01.401113 30606 layer_factory.hpp:77] Creating layer inception_4d/3x3
I0419 15:32:01.401127 30606 net.cpp:91] Creating Layer inception_4d/3x3
I0419 15:32:01.401134 30606 net.cpp:425] inception_4d/3x3 <- inception_4d/3x3_reduce
I0419 15:32:01.401144 30606 net.cpp:399] inception_4d/3x3 -> inception_4d/3x3
I0419 15:32:01.408740 30606 net.cpp:141] Setting up inception_4d/3x3
I0419 15:32:01.408756 30606 net.cpp:148] Top shape: 1 288 22 31 (196416)
I0419 15:32:01.408761 30606 net.cpp:156] Memory required for data: 170799808
I0419 15:32:01.408771 30606 layer_factory.hpp:77] Creating layer inception_4d/relu_3x3
I0419 15:32:01.408781 30606 net.cpp:91] Creating Layer inception_4d/relu_3x3
I0419 15:32:01.408787 30606 net.cpp:425] inception_4d/relu_3x3 <- inception_4d/3x3
I0419 15:32:01.408795 30606 net.cpp:386] inception_4d/relu_3x3 -> inception_4d/3x3 (in-place)
I0419 15:32:01.411135 30606 net.cpp:141] Setting up inception_4d/relu_3x3
I0419 15:32:01.411149 30606 net.cpp:148] Top shape: 1 288 22 31 (196416)
I0419 15:32:01.411154 30606 net.cpp:156] Memory required for data: 171585472
I0419 15:32:01.411159 30606 layer_factory.hpp:77] Creating layer inception_4d/5x5_reduce
I0419 15:32:01.411172 30606 net.cpp:91] Creating Layer inception_4d/5x5_reduce
I0419 15:32:01.411180 30606 net.cpp:425] inception_4d/5x5_reduce <- inception_4c/output_inception_4c/output_0_split_2
I0419 15:32:01.411190 30606 net.cpp:399] inception_4d/5x5_reduce -> inception_4d/5x5_reduce
I0419 15:32:01.419747 30606 net.cpp:141] Setting up inception_4d/5x5_reduce
I0419 15:32:01.419764 30606 net.cpp:148] Top shape: 1 32 22 31 (21824)
I0419 15:32:01.419769 30606 net.cpp:156] Memory required for data: 171672768
I0419 15:32:01.419778 30606 layer_factory.hpp:77] Creating layer inception_4d/relu_5x5_reduce
I0419 15:32:01.419786 30606 net.cpp:91] Creating Layer inception_4d/relu_5x5_reduce
I0419 15:32:01.419793 30606 net.cpp:425] inception_4d/relu_5x5_reduce <- inception_4d/5x5_reduce
I0419 15:32:01.419802 30606 net.cpp:386] inception_4d/relu_5x5_reduce -> inception_4d/5x5_reduce (in-place)
I0419 15:32:01.422106 30606 net.cpp:141] Setting up inception_4d/relu_5x5_reduce
I0419 15:32:01.422119 30606 net.cpp:148] Top shape: 1 32 22 31 (21824)
I0419 15:32:01.422124 30606 net.cpp:156] Memory required for data: 171760064
I0419 15:32:01.422129 30606 layer_factory.hpp:77] Creating layer inception_4d/5x5
I0419 15:32:01.422143 30606 net.cpp:91] Creating Layer inception_4d/5x5
I0419 15:32:01.422150 30606 net.cpp:425] inception_4d/5x5 <- inception_4d/5x5_reduce
I0419 15:32:01.422161 30606 net.cpp:399] inception_4d/5x5 -> inception_4d/5x5
I0419 15:32:01.432400 30606 net.cpp:141] Setting up inception_4d/5x5
I0419 15:32:01.432416 30606 net.cpp:148] Top shape: 1 64 22 31 (43648)
I0419 15:32:01.432422 30606 net.cpp:156] Memory required for data: 171934656
I0419 15:32:01.432432 30606 layer_factory.hpp:77] Creating layer inception_4d/relu_5x5
I0419 15:32:01.432440 30606 net.cpp:91] Creating Layer inception_4d/relu_5x5
I0419 15:32:01.432447 30606 net.cpp:425] inception_4d/relu_5x5 <- inception_4d/5x5
I0419 15:32:01.432454 30606 net.cpp:386] inception_4d/relu_5x5 -> inception_4d/5x5 (in-place)
I0419 15:32:01.434937 30606 net.cpp:141] Setting up inception_4d/relu_5x5
I0419 15:32:01.434950 30606 net.cpp:148] Top shape: 1 64 22 31 (43648)
I0419 15:32:01.434955 30606 net.cpp:156] Memory required for data: 172109248
I0419 15:32:01.434960 30606 layer_factory.hpp:77] Creating layer inception_4d/pool
I0419 15:32:01.434970 30606 net.cpp:91] Creating Layer inception_4d/pool
I0419 15:32:01.434978 30606 net.cpp:425] inception_4d/pool <- inception_4c/output_inception_4c/output_0_split_3
I0419 15:32:01.434985 30606 net.cpp:399] inception_4d/pool -> inception_4d/pool
I0419 15:32:01.435058 30606 net.cpp:141] Setting up inception_4d/pool
I0419 15:32:01.435070 30606 net.cpp:148] Top shape: 1 512 22 31 (349184)
I0419 15:32:01.435073 30606 net.cpp:156] Memory required for data: 173505984
I0419 15:32:01.435078 30606 layer_factory.hpp:77] Creating layer inception_4d/pool_proj
I0419 15:32:01.435091 30606 net.cpp:91] Creating Layer inception_4d/pool_proj
I0419 15:32:01.435101 30606 net.cpp:425] inception_4d/pool_proj <- inception_4d/pool
I0419 15:32:01.435111 30606 net.cpp:399] inception_4d/pool_proj -> inception_4d/pool_proj
I0419 15:32:01.451717 30606 net.cpp:141] Setting up inception_4d/pool_proj
I0419 15:32:01.451732 30606 net.cpp:148] Top shape: 1 64 22 31 (43648)
I0419 15:32:01.451737 30606 net.cpp:156] Memory required for data: 173680576
I0419 15:32:01.451747 30606 layer_factory.hpp:77] Creating layer inception_4d/relu_pool_proj
I0419 15:32:01.451758 30606 net.cpp:91] Creating Layer inception_4d/relu_pool_proj
I0419 15:32:01.451764 30606 net.cpp:425] inception_4d/relu_pool_proj <- inception_4d/pool_proj
I0419 15:32:01.451772 30606 net.cpp:386] inception_4d/relu_pool_proj -> inception_4d/pool_proj (in-place)
I0419 15:32:01.457080 30606 net.cpp:141] Setting up inception_4d/relu_pool_proj
I0419 15:32:01.457093 30606 net.cpp:148] Top shape: 1 64 22 31 (43648)
I0419 15:32:01.457098 30606 net.cpp:156] Memory required for data: 173855168
I0419 15:32:01.457103 30606 layer_factory.hpp:77] Creating layer inception_4d/output
I0419 15:32:01.457111 30606 net.cpp:91] Creating Layer inception_4d/output
I0419 15:32:01.457118 30606 net.cpp:425] inception_4d/output <- inception_4d/1x1
I0419 15:32:01.457124 30606 net.cpp:425] inception_4d/output <- inception_4d/3x3
I0419 15:32:01.457130 30606 net.cpp:425] inception_4d/output <- inception_4d/5x5
I0419 15:32:01.457135 30606 net.cpp:425] inception_4d/output <- inception_4d/pool_proj
I0419 15:32:01.457144 30606 net.cpp:399] inception_4d/output -> inception_4d/output
I0419 15:32:01.457195 30606 net.cpp:141] Setting up inception_4d/output
I0419 15:32:01.457206 30606 net.cpp:148] Top shape: 1 528 22 31 (360096)
I0419 15:32:01.457211 30606 net.cpp:156] Memory required for data: 175295552
I0419 15:32:01.457216 30606 layer_factory.hpp:77] Creating layer inception_4d/output_inception_4d/output_0_split
I0419 15:32:01.457222 30606 net.cpp:91] Creating Layer inception_4d/output_inception_4d/output_0_split
I0419 15:32:01.457228 30606 net.cpp:425] inception_4d/output_inception_4d/output_0_split <- inception_4d/output
I0419 15:32:01.457236 30606 net.cpp:399] inception_4d/output_inception_4d/output_0_split -> inception_4d/output_inception_4d/output_0_split_0
I0419 15:32:01.457245 30606 net.cpp:399] inception_4d/output_inception_4d/output_0_split -> inception_4d/output_inception_4d/output_0_split_1
I0419 15:32:01.457254 30606 net.cpp:399] inception_4d/output_inception_4d/output_0_split -> inception_4d/output_inception_4d/output_0_split_2
I0419 15:32:01.457267 30606 net.cpp:399] inception_4d/output_inception_4d/output_0_split -> inception_4d/output_inception_4d/output_0_split_3
I0419 15:32:01.457375 30606 net.cpp:141] Setting up inception_4d/output_inception_4d/output_0_split
I0419 15:32:01.457386 30606 net.cpp:148] Top shape: 1 528 22 31 (360096)
I0419 15:32:01.457391 30606 net.cpp:148] Top shape: 1 528 22 31 (360096)
I0419 15:32:01.457397 30606 net.cpp:148] Top shape: 1 528 22 31 (360096)
I0419 15:32:01.457403 30606 net.cpp:148] Top shape: 1 528 22 31 (360096)
I0419 15:32:01.457407 30606 net.cpp:156] Memory required for data: 181057088
I0419 15:32:01.457412 30606 layer_factory.hpp:77] Creating layer inception_4e/1x1
I0419 15:32:01.457427 30606 net.cpp:91] Creating Layer inception_4e/1x1
I0419 15:32:01.457433 30606 net.cpp:425] inception_4e/1x1 <- inception_4d/output_inception_4d/output_0_split_0
I0419 15:32:01.457442 30606 net.cpp:399] inception_4e/1x1 -> inception_4e/1x1
I0419 15:32:01.465747 30606 net.cpp:141] Setting up inception_4e/1x1
I0419 15:32:01.465762 30606 net.cpp:148] Top shape: 1 256 22 31 (174592)
I0419 15:32:01.465767 30606 net.cpp:156] Memory required for data: 181755456
I0419 15:32:01.465777 30606 layer_factory.hpp:77] Creating layer inception_4e/relu_1x1
I0419 15:32:01.465786 30606 net.cpp:91] Creating Layer inception_4e/relu_1x1
I0419 15:32:01.465792 30606 net.cpp:425] inception_4e/relu_1x1 <- inception_4e/1x1
I0419 15:32:01.465800 30606 net.cpp:386] inception_4e/relu_1x1 -> inception_4e/1x1 (in-place)
I0419 15:32:01.468812 30606 net.cpp:141] Setting up inception_4e/relu_1x1
I0419 15:32:01.468827 30606 net.cpp:148] Top shape: 1 256 22 31 (174592)
I0419 15:32:01.468832 30606 net.cpp:156] Memory required for data: 182453824
I0419 15:32:01.468837 30606 layer_factory.hpp:77] Creating layer inception_4e/3x3_reduce
I0419 15:32:01.468850 30606 net.cpp:91] Creating Layer inception_4e/3x3_reduce
I0419 15:32:01.468858 30606 net.cpp:425] inception_4e/3x3_reduce <- inception_4d/output_inception_4d/output_0_split_1
I0419 15:32:01.468868 30606 net.cpp:399] inception_4e/3x3_reduce -> inception_4e/3x3_reduce
I0419 15:32:01.477370 30606 net.cpp:141] Setting up inception_4e/3x3_reduce
I0419 15:32:01.477385 30606 net.cpp:148] Top shape: 1 160 22 31 (109120)
I0419 15:32:01.477391 30606 net.cpp:156] Memory required for data: 182890304
I0419 15:32:01.477401 30606 layer_factory.hpp:77] Creating layer inception_4e/relu_3x3_reduce
I0419 15:32:01.477411 30606 net.cpp:91] Creating Layer inception_4e/relu_3x3_reduce
I0419 15:32:01.477417 30606 net.cpp:425] inception_4e/relu_3x3_reduce <- inception_4e/3x3_reduce
I0419 15:32:01.477426 30606 net.cpp:386] inception_4e/relu_3x3_reduce -> inception_4e/3x3_reduce (in-place)
I0419 15:32:01.479846 30606 net.cpp:141] Setting up inception_4e/relu_3x3_reduce
I0419 15:32:01.479857 30606 net.cpp:148] Top shape: 1 160 22 31 (109120)
I0419 15:32:01.479862 30606 net.cpp:156] Memory required for data: 183326784
I0419 15:32:01.479867 30606 layer_factory.hpp:77] Creating layer inception_4e/3x3
I0419 15:32:01.479881 30606 net.cpp:91] Creating Layer inception_4e/3x3
I0419 15:32:01.479887 30606 net.cpp:425] inception_4e/3x3 <- inception_4e/3x3_reduce
I0419 15:32:01.479897 30606 net.cpp:399] inception_4e/3x3 -> inception_4e/3x3
I0419 15:32:01.596328 30606 net.cpp:141] Setting up inception_4e/3x3
I0419 15:32:01.596348 30606 net.cpp:148] Top shape: 1 320 22 31 (218240)
I0419 15:32:01.596352 30606 net.cpp:156] Memory required for data: 184199744
I0419 15:32:01.596364 30606 layer_factory.hpp:77] Creating layer inception_4e/relu_3x3
I0419 15:32:01.596372 30606 net.cpp:91] Creating Layer inception_4e/relu_3x3
I0419 15:32:01.596380 30606 net.cpp:425] inception_4e/relu_3x3 <- inception_4e/3x3
I0419 15:32:01.596390 30606 net.cpp:386] inception_4e/relu_3x3 -> inception_4e/3x3 (in-place)
I0419 15:32:01.597661 30606 net.cpp:141] Setting up inception_4e/relu_3x3
I0419 15:32:01.597674 30606 net.cpp:148] Top shape: 1 320 22 31 (218240)
I0419 15:32:01.597679 30606 net.cpp:156] Memory required for data: 185072704
I0419 15:32:01.597684 30606 layer_factory.hpp:77] Creating layer inception_4e/5x5_reduce
I0419 15:32:01.597698 30606 net.cpp:91] Creating Layer inception_4e/5x5_reduce
I0419 15:32:01.597705 30606 net.cpp:425] inception_4e/5x5_reduce <- inception_4d/output_inception_4d/output_0_split_2
I0419 15:32:01.597717 30606 net.cpp:399] inception_4e/5x5_reduce -> inception_4e/5x5_reduce
I0419 15:32:01.601980 30606 net.cpp:141] Setting up inception_4e/5x5_reduce
I0419 15:32:01.601995 30606 net.cpp:148] Top shape: 1 32 22 31 (21824)
I0419 15:32:01.602001 30606 net.cpp:156] Memory required for data: 185160000
I0419 15:32:01.602010 30606 layer_factory.hpp:77] Creating layer inception_4e/relu_5x5_reduce
I0419 15:32:01.602020 30606 net.cpp:91] Creating Layer inception_4e/relu_5x5_reduce
I0419 15:32:01.602025 30606 net.cpp:425] inception_4e/relu_5x5_reduce <- inception_4e/5x5_reduce
I0419 15:32:01.602035 30606 net.cpp:386] inception_4e/relu_5x5_reduce -> inception_4e/5x5_reduce (in-place)
I0419 15:32:01.604575 30606 net.cpp:141] Setting up inception_4e/relu_5x5_reduce
I0419 15:32:01.604589 30606 net.cpp:148] Top shape: 1 32 22 31 (21824)
I0419 15:32:01.604594 30606 net.cpp:156] Memory required for data: 185247296
I0419 15:32:01.604600 30606 layer_factory.hpp:77] Creating layer inception_4e/5x5
I0419 15:32:01.604614 30606 net.cpp:91] Creating Layer inception_4e/5x5
I0419 15:32:01.604621 30606 net.cpp:425] inception_4e/5x5 <- inception_4e/5x5_reduce
I0419 15:32:01.604631 30606 net.cpp:399] inception_4e/5x5 -> inception_4e/5x5
I0419 15:32:01.613226 30606 net.cpp:141] Setting up inception_4e/5x5
I0419 15:32:01.613241 30606 net.cpp:148] Top shape: 1 128 22 31 (87296)
I0419 15:32:01.613247 30606 net.cpp:156] Memory required for data: 185596480
I0419 15:32:01.613257 30606 layer_factory.hpp:77] Creating layer inception_4e/relu_5x5
I0419 15:32:01.613266 30606 net.cpp:91] Creating Layer inception_4e/relu_5x5
I0419 15:32:01.613272 30606 net.cpp:425] inception_4e/relu_5x5 <- inception_4e/5x5
I0419 15:32:01.613282 30606 net.cpp:386] inception_4e/relu_5x5 -> inception_4e/5x5 (in-place)
I0419 15:32:01.615759 30606 net.cpp:141] Setting up inception_4e/relu_5x5
I0419 15:32:01.615772 30606 net.cpp:148] Top shape: 1 128 22 31 (87296)
I0419 15:32:01.615777 30606 net.cpp:156] Memory required for data: 185945664
I0419 15:32:01.615782 30606 layer_factory.hpp:77] Creating layer inception_4e/pool
I0419 15:32:01.615792 30606 net.cpp:91] Creating Layer inception_4e/pool
I0419 15:32:01.615798 30606 net.cpp:425] inception_4e/pool <- inception_4d/output_inception_4d/output_0_split_3
I0419 15:32:01.615808 30606 net.cpp:399] inception_4e/pool -> inception_4e/pool
I0419 15:32:01.615881 30606 net.cpp:141] Setting up inception_4e/pool
I0419 15:32:01.615892 30606 net.cpp:148] Top shape: 1 528 22 31 (360096)
I0419 15:32:01.615897 30606 net.cpp:156] Memory required for data: 187386048
I0419 15:32:01.615902 30606 layer_factory.hpp:77] Creating layer inception_4e/pool_proj
I0419 15:32:01.615916 30606 net.cpp:91] Creating Layer inception_4e/pool_proj
I0419 15:32:01.615926 30606 net.cpp:425] inception_4e/pool_proj <- inception_4e/pool
I0419 15:32:01.615934 30606 net.cpp:399] inception_4e/pool_proj -> inception_4e/pool_proj
I0419 15:32:01.625160 30606 net.cpp:141] Setting up inception_4e/pool_proj
I0419 15:32:01.625174 30606 net.cpp:148] Top shape: 1 128 22 31 (87296)
I0419 15:32:01.625180 30606 net.cpp:156] Memory required for data: 187735232
I0419 15:32:01.625190 30606 layer_factory.hpp:77] Creating layer inception_4e/relu_pool_proj
I0419 15:32:01.625200 30606 net.cpp:91] Creating Layer inception_4e/relu_pool_proj
I0419 15:32:01.625205 30606 net.cpp:425] inception_4e/relu_pool_proj <- inception_4e/pool_proj
I0419 15:32:01.625216 30606 net.cpp:386] inception_4e/relu_pool_proj -> inception_4e/pool_proj (in-place)
I0419 15:32:01.627470 30606 net.cpp:141] Setting up inception_4e/relu_pool_proj
I0419 15:32:01.627482 30606 net.cpp:148] Top shape: 1 128 22 31 (87296)
I0419 15:32:01.627487 30606 net.cpp:156] Memory required for data: 188084416
I0419 15:32:01.627492 30606 layer_factory.hpp:77] Creating layer inception_4e/output
I0419 15:32:01.627503 30606 net.cpp:91] Creating Layer inception_4e/output
I0419 15:32:01.627509 30606 net.cpp:425] inception_4e/output <- inception_4e/1x1
I0419 15:32:01.627516 30606 net.cpp:425] inception_4e/output <- inception_4e/3x3
I0419 15:32:01.627522 30606 net.cpp:425] inception_4e/output <- inception_4e/5x5
I0419 15:32:01.627528 30606 net.cpp:425] inception_4e/output <- inception_4e/pool_proj
I0419 15:32:01.627534 30606 net.cpp:399] inception_4e/output -> inception_4e/output
I0419 15:32:01.627585 30606 net.cpp:141] Setting up inception_4e/output
I0419 15:32:01.627596 30606 net.cpp:148] Top shape: 1 832 22 31 (567424)
I0419 15:32:01.627601 30606 net.cpp:156] Memory required for data: 190354112
I0419 15:32:01.627605 30606 layer_factory.hpp:77] Creating layer pool4/3x3_s2
I0419 15:32:01.627614 30606 net.cpp:91] Creating Layer pool4/3x3_s2
I0419 15:32:01.627619 30606 net.cpp:425] pool4/3x3_s2 <- inception_4e/output
I0419 15:32:01.627629 30606 net.cpp:399] pool4/3x3_s2 -> pool4/3x3_s2
I0419 15:32:01.627698 30606 net.cpp:141] Setting up pool4/3x3_s2
I0419 15:32:01.627708 30606 net.cpp:148] Top shape: 1 832 11 15 (137280)
I0419 15:32:01.627713 30606 net.cpp:156] Memory required for data: 190903232
I0419 15:32:01.627718 30606 layer_factory.hpp:77] Creating layer pool4/3x3_s2_pool4/3x3_s2_0_split
I0419 15:32:01.627728 30606 net.cpp:91] Creating Layer pool4/3x3_s2_pool4/3x3_s2_0_split
I0419 15:32:01.627733 30606 net.cpp:425] pool4/3x3_s2_pool4/3x3_s2_0_split <- pool4/3x3_s2
I0419 15:32:01.627742 30606 net.cpp:399] pool4/3x3_s2_pool4/3x3_s2_0_split -> pool4/3x3_s2_pool4/3x3_s2_0_split_0
I0419 15:32:01.627750 30606 net.cpp:399] pool4/3x3_s2_pool4/3x3_s2_0_split -> pool4/3x3_s2_pool4/3x3_s2_0_split_1
I0419 15:32:01.627763 30606 net.cpp:399] pool4/3x3_s2_pool4/3x3_s2_0_split -> pool4/3x3_s2_pool4/3x3_s2_0_split_2
I0419 15:32:01.627774 30606 net.cpp:399] pool4/3x3_s2_pool4/3x3_s2_0_split -> pool4/3x3_s2_pool4/3x3_s2_0_split_3
I0419 15:32:01.627878 30606 net.cpp:141] Setting up pool4/3x3_s2_pool4/3x3_s2_0_split
I0419 15:32:01.627889 30606 net.cpp:148] Top shape: 1 832 11 15 (137280)
I0419 15:32:01.627895 30606 net.cpp:148] Top shape: 1 832 11 15 (137280)
I0419 15:32:01.627902 30606 net.cpp:148] Top shape: 1 832 11 15 (137280)
I0419 15:32:01.627907 30606 net.cpp:148] Top shape: 1 832 11 15 (137280)
I0419 15:32:01.627912 30606 net.cpp:156] Memory required for data: 193099712
I0419 15:32:01.627918 30606 layer_factory.hpp:77] Creating layer inception_5a/1x1
I0419 15:32:01.627928 30606 net.cpp:91] Creating Layer inception_5a/1x1
I0419 15:32:01.627933 30606 net.cpp:425] inception_5a/1x1 <- pool4/3x3_s2_pool4/3x3_s2_0_split_0
I0419 15:32:01.627944 30606 net.cpp:399] inception_5a/1x1 -> inception_5a/1x1
I0419 15:32:01.635725 30606 net.cpp:141] Setting up inception_5a/1x1
I0419 15:32:01.635740 30606 net.cpp:148] Top shape: 1 256 11 15 (42240)
I0419 15:32:01.635746 30606 net.cpp:156] Memory required for data: 193268672
I0419 15:32:01.635756 30606 layer_factory.hpp:77] Creating layer inception_5a/relu_1x1
I0419 15:32:01.635766 30606 net.cpp:91] Creating Layer inception_5a/relu_1x1
I0419 15:32:01.635773 30606 net.cpp:425] inception_5a/relu_1x1 <- inception_5a/1x1
I0419 15:32:01.635781 30606 net.cpp:386] inception_5a/relu_1x1 -> inception_5a/1x1 (in-place)
I0419 15:32:01.637905 30606 net.cpp:141] Setting up inception_5a/relu_1x1
I0419 15:32:01.637919 30606 net.cpp:148] Top shape: 1 256 11 15 (42240)
I0419 15:32:01.637924 30606 net.cpp:156] Memory required for data: 193437632
I0419 15:32:01.637930 30606 layer_factory.hpp:77] Creating layer inception_5a/3x3_reduce
I0419 15:32:01.637944 30606 net.cpp:91] Creating Layer inception_5a/3x3_reduce
I0419 15:32:01.637951 30606 net.cpp:425] inception_5a/3x3_reduce <- pool4/3x3_s2_pool4/3x3_s2_0_split_1
I0419 15:32:01.637960 30606 net.cpp:399] inception_5a/3x3_reduce -> inception_5a/3x3_reduce
I0419 15:32:01.645427 30606 net.cpp:141] Setting up inception_5a/3x3_reduce
I0419 15:32:01.645443 30606 net.cpp:148] Top shape: 1 160 11 15 (26400)
I0419 15:32:01.645448 30606 net.cpp:156] Memory required for data: 193543232
I0419 15:32:01.645458 30606 layer_factory.hpp:77] Creating layer inception_5a/relu_3x3_reduce
I0419 15:32:01.645468 30606 net.cpp:91] Creating Layer inception_5a/relu_3x3_reduce
I0419 15:32:01.645475 30606 net.cpp:425] inception_5a/relu_3x3_reduce <- inception_5a/3x3_reduce
I0419 15:32:01.645483 30606 net.cpp:386] inception_5a/relu_3x3_reduce -> inception_5a/3x3_reduce (in-place)
I0419 15:32:01.647924 30606 net.cpp:141] Setting up inception_5a/relu_3x3_reduce
I0419 15:32:01.647938 30606 net.cpp:148] Top shape: 1 160 11 15 (26400)
I0419 15:32:01.647943 30606 net.cpp:156] Memory required for data: 193648832
I0419 15:32:01.647948 30606 layer_factory.hpp:77] Creating layer inception_5a/3x3
I0419 15:32:01.647963 30606 net.cpp:91] Creating Layer inception_5a/3x3
I0419 15:32:01.647969 30606 net.cpp:425] inception_5a/3x3 <- inception_5a/3x3_reduce
I0419 15:32:01.647979 30606 net.cpp:399] inception_5a/3x3 -> inception_5a/3x3
I0419 15:32:01.655405 30606 net.cpp:141] Setting up inception_5a/3x3
I0419 15:32:01.655419 30606 net.cpp:148] Top shape: 1 320 11 15 (52800)
I0419 15:32:01.655424 30606 net.cpp:156] Memory required for data: 193860032
I0419 15:32:01.655434 30606 layer_factory.hpp:77] Creating layer inception_5a/relu_3x3
I0419 15:32:01.655446 30606 net.cpp:91] Creating Layer inception_5a/relu_3x3
I0419 15:32:01.655452 30606 net.cpp:425] inception_5a/relu_3x3 <- inception_5a/3x3
I0419 15:32:01.655459 30606 net.cpp:386] inception_5a/relu_3x3 -> inception_5a/3x3 (in-place)
I0419 15:32:01.657893 30606 net.cpp:141] Setting up inception_5a/relu_3x3
I0419 15:32:01.657907 30606 net.cpp:148] Top shape: 1 320 11 15 (52800)
I0419 15:32:01.657912 30606 net.cpp:156] Memory required for data: 194071232
I0419 15:32:01.657917 30606 layer_factory.hpp:77] Creating layer inception_5a/5x5_reduce
I0419 15:32:01.657933 30606 net.cpp:91] Creating Layer inception_5a/5x5_reduce
I0419 15:32:01.657945 30606 net.cpp:425] inception_5a/5x5_reduce <- pool4/3x3_s2_pool4/3x3_s2_0_split_2
I0419 15:32:01.657956 30606 net.cpp:399] inception_5a/5x5_reduce -> inception_5a/5x5_reduce
I0419 15:32:01.665649 30606 net.cpp:141] Setting up inception_5a/5x5_reduce
I0419 15:32:01.665664 30606 net.cpp:148] Top shape: 1 32 11 15 (5280)
I0419 15:32:01.665670 30606 net.cpp:156] Memory required for data: 194092352
I0419 15:32:01.665679 30606 layer_factory.hpp:77] Creating layer inception_5a/relu_5x5_reduce
I0419 15:32:01.665690 30606 net.cpp:91] Creating Layer inception_5a/relu_5x5_reduce
I0419 15:32:01.665696 30606 net.cpp:425] inception_5a/relu_5x5_reduce <- inception_5a/5x5_reduce
I0419 15:32:01.665704 30606 net.cpp:386] inception_5a/relu_5x5_reduce -> inception_5a/5x5_reduce (in-place)
I0419 15:32:01.667904 30606 net.cpp:141] Setting up inception_5a/relu_5x5_reduce
I0419 15:32:01.667918 30606 net.cpp:148] Top shape: 1 32 11 15 (5280)
I0419 15:32:01.667923 30606 net.cpp:156] Memory required for data: 194113472
I0419 15:32:01.667929 30606 layer_factory.hpp:77] Creating layer inception_5a/5x5
I0419 15:32:01.667960 30606 net.cpp:91] Creating Layer inception_5a/5x5
I0419 15:32:01.667968 30606 net.cpp:425] inception_5a/5x5 <- inception_5a/5x5_reduce
I0419 15:32:01.667978 30606 net.cpp:399] inception_5a/5x5 -> inception_5a/5x5
I0419 15:32:01.862939 30606 net.cpp:141] Setting up inception_5a/5x5
I0419 15:32:01.862956 30606 net.cpp:148] Top shape: 1 128 11 15 (21120)
I0419 15:32:01.862960 30606 net.cpp:156] Memory required for data: 194197952
I0419 15:32:01.862972 30606 layer_factory.hpp:77] Creating layer inception_5a/relu_5x5
I0419 15:32:01.862982 30606 net.cpp:91] Creating Layer inception_5a/relu_5x5
I0419 15:32:01.862988 30606 net.cpp:425] inception_5a/relu_5x5 <- inception_5a/5x5
I0419 15:32:01.862995 30606 net.cpp:386] inception_5a/relu_5x5 -> inception_5a/5x5 (in-place)
I0419 15:32:02.013969 30606 net.cpp:141] Setting up inception_5a/relu_5x5
I0419 15:32:02.013983 30606 net.cpp:148] Top shape: 1 128 11 15 (21120)
I0419 15:32:02.013988 30606 net.cpp:156] Memory required for data: 194282432
I0419 15:32:02.013994 30606 layer_factory.hpp:77] Creating layer inception_5a/pool
I0419 15:32:02.014003 30606 net.cpp:91] Creating Layer inception_5a/pool
I0419 15:32:02.014008 30606 net.cpp:425] inception_5a/pool <- pool4/3x3_s2_pool4/3x3_s2_0_split_3
I0419 15:32:02.014020 30606 net.cpp:399] inception_5a/pool -> inception_5a/pool
I0419 15:32:02.014096 30606 net.cpp:141] Setting up inception_5a/pool
I0419 15:32:02.014108 30606 net.cpp:148] Top shape: 1 832 11 15 (137280)
I0419 15:32:02.014113 30606 net.cpp:156] Memory required for data: 194831552
I0419 15:32:02.014118 30606 layer_factory.hpp:77] Creating layer inception_5a/pool_proj
I0419 15:32:02.014132 30606 net.cpp:91] Creating Layer inception_5a/pool_proj
I0419 15:32:02.014137 30606 net.cpp:425] inception_5a/pool_proj <- inception_5a/pool
I0419 15:32:02.014147 30606 net.cpp:399] inception_5a/pool_proj -> inception_5a/pool_proj
I0419 15:32:02.022343 30606 net.cpp:141] Setting up inception_5a/pool_proj
I0419 15:32:02.022358 30606 net.cpp:148] Top shape: 1 128 11 15 (21120)
I0419 15:32:02.022364 30606 net.cpp:156] Memory required for data: 194916032
I0419 15:32:02.022373 30606 layer_factory.hpp:77] Creating layer inception_5a/relu_pool_proj
I0419 15:32:02.022384 30606 net.cpp:91] Creating Layer inception_5a/relu_pool_proj
I0419 15:32:02.022390 30606 net.cpp:425] inception_5a/relu_pool_proj <- inception_5a/pool_proj
I0419 15:32:02.022398 30606 net.cpp:386] inception_5a/relu_pool_proj -> inception_5a/pool_proj (in-place)
I0419 15:32:02.024763 30606 net.cpp:141] Setting up inception_5a/relu_pool_proj
I0419 15:32:02.024776 30606 net.cpp:148] Top shape: 1 128 11 15 (21120)
I0419 15:32:02.024781 30606 net.cpp:156] Memory required for data: 195000512
I0419 15:32:02.024786 30606 layer_factory.hpp:77] Creating layer inception_5a/output
I0419 15:32:02.024797 30606 net.cpp:91] Creating Layer inception_5a/output
I0419 15:32:02.024803 30606 net.cpp:425] inception_5a/output <- inception_5a/1x1
I0419 15:32:02.024811 30606 net.cpp:425] inception_5a/output <- inception_5a/3x3
I0419 15:32:02.024816 30606 net.cpp:425] inception_5a/output <- inception_5a/5x5
I0419 15:32:02.024821 30606 net.cpp:425] inception_5a/output <- inception_5a/pool_proj
I0419 15:32:02.024828 30606 net.cpp:399] inception_5a/output -> inception_5a/output
I0419 15:32:02.024880 30606 net.cpp:141] Setting up inception_5a/output
I0419 15:32:02.024891 30606 net.cpp:148] Top shape: 1 832 11 15 (137280)
I0419 15:32:02.024896 30606 net.cpp:156] Memory required for data: 195549632
I0419 15:32:02.024901 30606 layer_factory.hpp:77] Creating layer inception_5a/output_inception_5a/output_0_split
I0419 15:32:02.024910 30606 net.cpp:91] Creating Layer inception_5a/output_inception_5a/output_0_split
I0419 15:32:02.024916 30606 net.cpp:425] inception_5a/output_inception_5a/output_0_split <- inception_5a/output
I0419 15:32:02.024924 30606 net.cpp:399] inception_5a/output_inception_5a/output_0_split -> inception_5a/output_inception_5a/output_0_split_0
I0419 15:32:02.024935 30606 net.cpp:399] inception_5a/output_inception_5a/output_0_split -> inception_5a/output_inception_5a/output_0_split_1
I0419 15:32:02.024947 30606 net.cpp:399] inception_5a/output_inception_5a/output_0_split -> inception_5a/output_inception_5a/output_0_split_2
I0419 15:32:02.024958 30606 net.cpp:399] inception_5a/output_inception_5a/output_0_split -> inception_5a/output_inception_5a/output_0_split_3
I0419 15:32:02.025074 30606 net.cpp:141] Setting up inception_5a/output_inception_5a/output_0_split
I0419 15:32:02.025084 30606 net.cpp:148] Top shape: 1 832 11 15 (137280)
I0419 15:32:02.025090 30606 net.cpp:148] Top shape: 1 832 11 15 (137280)
I0419 15:32:02.025096 30606 net.cpp:148] Top shape: 1 832 11 15 (137280)
I0419 15:32:02.025102 30606 net.cpp:148] Top shape: 1 832 11 15 (137280)
I0419 15:32:02.025107 30606 net.cpp:156] Memory required for data: 197746112
I0419 15:32:02.025111 30606 layer_factory.hpp:77] Creating layer inception_5b/1x1
I0419 15:32:02.025125 30606 net.cpp:91] Creating Layer inception_5b/1x1
I0419 15:32:02.025133 30606 net.cpp:425] inception_5b/1x1 <- inception_5a/output_inception_5a/output_0_split_0
I0419 15:32:02.025142 30606 net.cpp:399] inception_5b/1x1 -> inception_5b/1x1
I0419 15:32:02.032701 30606 net.cpp:141] Setting up inception_5b/1x1
I0419 15:32:02.032717 30606 net.cpp:148] Top shape: 1 384 11 15 (63360)
I0419 15:32:02.032723 30606 net.cpp:156] Memory required for data: 197999552
I0419 15:32:02.032733 30606 layer_factory.hpp:77] Creating layer inception_5b/relu_1x1
I0419 15:32:02.032742 30606 net.cpp:91] Creating Layer inception_5b/relu_1x1
I0419 15:32:02.032748 30606 net.cpp:425] inception_5b/relu_1x1 <- inception_5b/1x1
I0419 15:32:02.032757 30606 net.cpp:386] inception_5b/relu_1x1 -> inception_5b/1x1 (in-place)
I0419 15:32:02.035130 30606 net.cpp:141] Setting up inception_5b/relu_1x1
I0419 15:32:02.035145 30606 net.cpp:148] Top shape: 1 384 11 15 (63360)
I0419 15:32:02.035150 30606 net.cpp:156] Memory required for data: 198252992
I0419 15:32:02.035156 30606 layer_factory.hpp:77] Creating layer inception_5b/3x3_reduce
I0419 15:32:02.035168 30606 net.cpp:91] Creating Layer inception_5b/3x3_reduce
I0419 15:32:02.035176 30606 net.cpp:425] inception_5b/3x3_reduce <- inception_5a/output_inception_5a/output_0_split_1
I0419 15:32:02.035187 30606 net.cpp:399] inception_5b/3x3_reduce -> inception_5b/3x3_reduce
I0419 15:32:02.042559 30606 net.cpp:141] Setting up inception_5b/3x3_reduce
I0419 15:32:02.042574 30606 net.cpp:148] Top shape: 1 192 11 15 (31680)
I0419 15:32:02.042579 30606 net.cpp:156] Memory required for data: 198379712
I0419 15:32:02.042589 30606 layer_factory.hpp:77] Creating layer inception_5b/relu_3x3_reduce
I0419 15:32:02.042598 30606 net.cpp:91] Creating Layer inception_5b/relu_3x3_reduce
I0419 15:32:02.042604 30606 net.cpp:425] inception_5b/relu_3x3_reduce <- inception_5b/3x3_reduce
I0419 15:32:02.042613 30606 net.cpp:386] inception_5b/relu_3x3_reduce -> inception_5b/3x3_reduce (in-place)
I0419 15:32:02.044652 30606 net.cpp:141] Setting up inception_5b/relu_3x3_reduce
I0419 15:32:02.044666 30606 net.cpp:148] Top shape: 1 192 11 15 (31680)
I0419 15:32:02.044672 30606 net.cpp:156] Memory required for data: 198506432
I0419 15:32:02.044677 30606 layer_factory.hpp:77] Creating layer inception_5b/3x3
I0419 15:32:02.044688 30606 net.cpp:91] Creating Layer inception_5b/3x3
I0419 15:32:02.044695 30606 net.cpp:425] inception_5b/3x3 <- inception_5b/3x3_reduce
I0419 15:32:02.044704 30606 net.cpp:399] inception_5b/3x3 -> inception_5b/3x3
I0419 15:32:02.054870 30606 net.cpp:141] Setting up inception_5b/3x3
I0419 15:32:02.054885 30606 net.cpp:148] Top shape: 1 384 11 15 (63360)
I0419 15:32:02.054891 30606 net.cpp:156] Memory required for data: 198759872
I0419 15:32:02.054903 30606 layer_factory.hpp:77] Creating layer inception_5b/relu_3x3
I0419 15:32:02.054913 30606 net.cpp:91] Creating Layer inception_5b/relu_3x3
I0419 15:32:02.054919 30606 net.cpp:425] inception_5b/relu_3x3 <- inception_5b/3x3
I0419 15:32:02.054926 30606 net.cpp:386] inception_5b/relu_3x3 -> inception_5b/3x3 (in-place)
I0419 15:32:02.057898 30606 net.cpp:141] Setting up inception_5b/relu_3x3
I0419 15:32:02.057909 30606 net.cpp:148] Top shape: 1 384 11 15 (63360)
I0419 15:32:02.057914 30606 net.cpp:156] Memory required for data: 199013312
I0419 15:32:02.057920 30606 layer_factory.hpp:77] Creating layer inception_5b/5x5_reduce
I0419 15:32:02.057934 30606 net.cpp:91] Creating Layer inception_5b/5x5_reduce
I0419 15:32:02.057940 30606 net.cpp:425] inception_5b/5x5_reduce <- inception_5a/output_inception_5a/output_0_split_2
I0419 15:32:02.057950 30606 net.cpp:399] inception_5b/5x5_reduce -> inception_5b/5x5_reduce
I0419 15:32:02.065901 30606 net.cpp:141] Setting up inception_5b/5x5_reduce
I0419 15:32:02.065917 30606 net.cpp:148] Top shape: 1 48 11 15 (7920)
I0419 15:32:02.065923 30606 net.cpp:156] Memory required for data: 199044992
I0419 15:32:02.065933 30606 layer_factory.hpp:77] Creating layer inception_5b/relu_5x5_reduce
I0419 15:32:02.065943 30606 net.cpp:91] Creating Layer inception_5b/relu_5x5_reduce
I0419 15:32:02.065950 30606 net.cpp:425] inception_5b/relu_5x5_reduce <- inception_5b/5x5_reduce
I0419 15:32:02.065958 30606 net.cpp:386] inception_5b/relu_5x5_reduce -> inception_5b/5x5_reduce (in-place)
I0419 15:32:02.067307 30606 net.cpp:141] Setting up inception_5b/relu_5x5_reduce
I0419 15:32:02.067322 30606 net.cpp:148] Top shape: 1 48 11 15 (7920)
I0419 15:32:02.067327 30606 net.cpp:156] Memory required for data: 199076672
I0419 15:32:02.067332 30606 layer_factory.hpp:77] Creating layer inception_5b/5x5
I0419 15:32:02.067345 30606 net.cpp:91] Creating Layer inception_5b/5x5
I0419 15:32:02.067353 30606 net.cpp:425] inception_5b/5x5 <- inception_5b/5x5_reduce
I0419 15:32:02.067363 30606 net.cpp:399] inception_5b/5x5 -> inception_5b/5x5
I0419 15:32:02.074942 30606 net.cpp:141] Setting up inception_5b/5x5
I0419 15:32:02.074957 30606 net.cpp:148] Top shape: 1 128 11 15 (21120)
I0419 15:32:02.074964 30606 net.cpp:156] Memory required for data: 199161152
I0419 15:32:02.074973 30606 layer_factory.hpp:77] Creating layer inception_5b/relu_5x5
I0419 15:32:02.074983 30606 net.cpp:91] Creating Layer inception_5b/relu_5x5
I0419 15:32:02.074990 30606 net.cpp:425] inception_5b/relu_5x5 <- inception_5b/5x5
I0419 15:32:02.074998 30606 net.cpp:386] inception_5b/relu_5x5 -> inception_5b/5x5 (in-place)
I0419 15:32:02.077137 30606 net.cpp:141] Setting up inception_5b/relu_5x5
I0419 15:32:02.077150 30606 net.cpp:148] Top shape: 1 128 11 15 (21120)
I0419 15:32:02.077155 30606 net.cpp:156] Memory required for data: 199245632
I0419 15:32:02.077160 30606 layer_factory.hpp:77] Creating layer inception_5b/pool
I0419 15:32:02.077168 30606 net.cpp:91] Creating Layer inception_5b/pool
I0419 15:32:02.077174 30606 net.cpp:425] inception_5b/pool <- inception_5a/output_inception_5a/output_0_split_3
I0419 15:32:02.077184 30606 net.cpp:399] inception_5b/pool -> inception_5b/pool
I0419 15:32:02.077230 30606 net.cpp:141] Setting up inception_5b/pool
I0419 15:32:02.077240 30606 net.cpp:148] Top shape: 1 832 11 15 (137280)
I0419 15:32:02.077245 30606 net.cpp:156] Memory required for data: 199794752
I0419 15:32:02.077250 30606 layer_factory.hpp:77] Creating layer inception_5b/pool_proj
I0419 15:32:02.077265 30606 net.cpp:91] Creating Layer inception_5b/pool_proj
I0419 15:32:02.077272 30606 net.cpp:425] inception_5b/pool_proj <- inception_5b/pool
I0419 15:32:02.077281 30606 net.cpp:399] inception_5b/pool_proj -> inception_5b/pool_proj
I0419 15:32:02.084574 30606 net.cpp:141] Setting up inception_5b/pool_proj
I0419 15:32:02.084589 30606 net.cpp:148] Top shape: 1 128 11 15 (21120)
I0419 15:32:02.084595 30606 net.cpp:156] Memory required for data: 199879232
I0419 15:32:02.084605 30606 layer_factory.hpp:77] Creating layer inception_5b/relu_pool_proj
I0419 15:32:02.084614 30606 net.cpp:91] Creating Layer inception_5b/relu_pool_proj
I0419 15:32:02.084620 30606 net.cpp:425] inception_5b/relu_pool_proj <- inception_5b/pool_proj
I0419 15:32:02.084627 30606 net.cpp:386] inception_5b/relu_pool_proj -> inception_5b/pool_proj (in-place)
I0419 15:32:02.086748 30606 net.cpp:141] Setting up inception_5b/relu_pool_proj
I0419 15:32:02.086761 30606 net.cpp:148] Top shape: 1 128 11 15 (21120)
I0419 15:32:02.086766 30606 net.cpp:156] Memory required for data: 199963712
I0419 15:32:02.086771 30606 layer_factory.hpp:77] Creating layer inception_5b/output
I0419 15:32:02.086781 30606 net.cpp:91] Creating Layer inception_5b/output
I0419 15:32:02.086787 30606 net.cpp:425] inception_5b/output <- inception_5b/1x1
I0419 15:32:02.086794 30606 net.cpp:425] inception_5b/output <- inception_5b/3x3
I0419 15:32:02.086801 30606 net.cpp:425] inception_5b/output <- inception_5b/5x5
I0419 15:32:02.086807 30606 net.cpp:425] inception_5b/output <- inception_5b/pool_proj
I0419 15:32:02.086812 30606 net.cpp:399] inception_5b/output -> inception_5b/output
I0419 15:32:02.086845 30606 net.cpp:141] Setting up inception_5b/output
I0419 15:32:02.086854 30606 net.cpp:148] Top shape: 1 1024 11 15 (168960)
I0419 15:32:02.086859 30606 net.cpp:156] Memory required for data: 200639552
I0419 15:32:02.086864 30606 layer_factory.hpp:77] Creating layer loss3/classifier-v2
I0419 15:32:02.086879 30606 net.cpp:91] Creating Layer loss3/classifier-v2
I0419 15:32:02.086886 30606 net.cpp:425] loss3/classifier-v2 <- inception_5b/output
I0419 15:32:02.086894 30606 net.cpp:399] loss3/classifier-v2 -> loss3/classifier
I0419 15:32:02.097920 30606 net.cpp:141] Setting up loss3/classifier-v2
I0419 15:32:02.097935 30606 net.cpp:148] Top shape: 1 1000 11 15 (165000)
I0419 15:32:02.097941 30606 net.cpp:156] Memory required for data: 201299552
I0419 15:32:02.097951 30606 layer_factory.hpp:77] Creating layer extra_conv
I0419 15:32:02.097965 30606 net.cpp:91] Creating Layer extra_conv
I0419 15:32:02.097980 30606 net.cpp:425] extra_conv <- loss3/classifier
I0419 15:32:02.097990 30606 net.cpp:399] extra_conv -> score_fr
I0419 15:32:02.106744 30606 net.cpp:141] Setting up extra_conv
I0419 15:32:02.106758 30606 net.cpp:148] Top shape: 1 21 11 15 (3465)
I0419 15:32:02.106763 30606 net.cpp:156] Memory required for data: 201313412
I0419 15:32:02.106773 30606 layer_factory.hpp:77] Creating layer upscore
I0419 15:32:02.106786 30606 net.cpp:91] Creating Layer upscore
I0419 15:32:02.106798 30606 net.cpp:425] upscore <- score_fr
I0419 15:32:02.106807 30606 net.cpp:399] upscore -> upscore
I0419 15:32:02.109158 30606 net.cpp:141] Setting up upscore
I0419 15:32:02.109171 30606 net.cpp:148] Top shape: 1 21 404 540 (4581360)
I0419 15:32:02.109176 30606 net.cpp:156] Memory required for data: 219638852
I0419 15:32:02.109184 30606 layer_factory.hpp:77] Creating layer score
I0419 15:32:02.109194 30606 net.cpp:91] Creating Layer score
I0419 15:32:02.109199 30606 net.cpp:425] score <- upscore
I0419 15:32:02.109205 30606 net.cpp:425] score <- data_data_0_split_1
I0419 15:32:02.109212 30606 net.cpp:399] score -> score
I0419 15:32:02.109242 30606 net.cpp:141] Setting up score
I0419 15:32:02.109252 30606 net.cpp:148] Top shape: 1 21 366 500 (3843000)
I0419 15:32:02.109257 30606 net.cpp:156] Memory required for data: 235010852
I0419 15:32:02.109261 30606 layer_factory.hpp:77] Creating layer loss
I0419 15:32:02.109273 30606 net.cpp:91] Creating Layer loss
I0419 15:32:02.109282 30606 net.cpp:425] loss <- score
I0419 15:32:02.109289 30606 net.cpp:425] loss <- label
I0419 15:32:02.109297 30606 net.cpp:399] loss -> loss
I0419 15:32:02.109307 30606 layer_factory.hpp:77] Creating layer loss
…
