…
I0418 16:23:52.057204  5339 solver.cpp:70] Creating training net from net file: /home/pierre/hgRepos/models/caffeSegNet/train_segnet-pascal/camvid_arch_no_weighting/train_val.prototxt
I0418 16:23:52.059798  5339 net.cpp:42] Initializing net from parameters: 
name: "VGG_ILSVRC_16_layer"
state {
  phase: TRAIN
}
layer {
  name: "data"
  type: "DenseImageData"
  top: "data"
  top: "label"
  dense_image_data_param {
    source: "/home/shared/datasets/VOCdevkit/VOC2012/ImageSets/Segmentation/train_img_lab_224.txt"
    batch_size: 2
    shuffle: true
  }
}
layer {
  name: "conv1_1"
  type: "Convolution"
  bottom: "data"
  top: "conv1_1"
  param {
    lr_mult: 1
    decay_mult: 1
  }
  param {
    lr_mult: 2
    decay_mult: 0
  }
  convolution_param {
    num_output: 64
    pad: 1
    kernel_size: 3
    weight_filler {
      type: "msra"
    }
    bias_filler {
      type: "constant"
    }
  }
}
layer {
  name: "conv1_1_bn"
  type: "BN"
  bottom: "conv1_1"
  top: "conv1_1"
  param {
    lr_mult: 1
    decay_mult: 1
  }
  param {
    lr_mult: 1
    decay_mult: 0
  }
  bn_param {
    scale_filler {
      type: "constant"
      value: 1
    }
    shift_filler {
      type: "constant"
      value: 0.001
    }
  }
}
layer {
  name: "relu1_1"
  type: "ReLU"
  bottom: "conv1_1"
  top: "conv1_1"
}
layer {
  name: "conv1_2"
  type: "Convolution"
  bottom: "conv1_1"
  top: "conv1_2"
  param {
    lr_mult: 1
    decay_mult: 1
  }
  param {
    lr_mult: 2
    decay_mult: 0
  }
  convolution_param {
    num_output: 64
    pad: 1
    kernel_size: 3
    weight_filler {
      type: "msra"
    }
    bias_filler {
      type: "constant"
    }
  }
}
layer {
  name: "conv1_2_bn"
  type: "BN"
  bottom: "conv1_2"
  top: "conv1_2"
  param {
    lr_mult: 1
    decay_mult: 1
  }
  param {
    lr_mult: 1
    decay_mult: 0
  }
  bn_param {
    scale_filler {
      type: "constant"
      value: 1
    }
    shift_filler {
      type: "constant"
      value: 0.001
    }
  }
}
layer {
  name: "relu1_2"
  type: "ReLU"
  bottom: "conv1_2"
  top: "conv1_2"
}
layer {
  name: "pool1"
  type: "Pooling"
  bottom: "conv1_2"
  top: "pool1"
  top: "pool1_mask"
  pooling_param {
    pool: MAX
    kernel_size: 2
    stride: 2
  }
}
layer {
  name: "conv2_1"
  type: "Convolution"
  bottom: "pool1"
  top: "conv2_1"
  param {
    lr_mult: 1
    decay_mult: 1
  }
  param {
    lr_mult: 2
    decay_mult: 0
  }
  convolution_param {
    num_output: 128
    pad: 1
    kernel_size: 3
    weight_filler {
      type: "msra"
    }
    bias_filler {
      type: "constant"
    }
  }
}
layer {
  name: "conv2_1_bn"
  type: "BN"
  bottom: "conv2_1"
  top: "conv2_1"
  param {
    lr_mult: 1
    decay_mult: 1
  }
  param {
    lr_mult: 1
    decay_mult: 0
  }
  bn_param {
    scale_filler {
      type: "constant"
      value: 1
    }
    shift_filler {
      type: "constant"
      value: 0.001
    }
  }
}
layer {
  name: "relu2_1"
  type: "ReLU"
  bottom: "conv2_1"
  top: "conv2_1"
}
layer {
  name: "conv2_2"
  type: "Convolution"
  bottom: "conv2_1"
  top: "conv2_2"
  param {
    lr_mult: 1
    decay_mult: 1
  }
  param {
    lr_mult: 2
    decay_mult: 0
  }
  convolution_param {
    num_output: 128
    pad: 1
    kernel_size: 3
    weight_filler {
      type: "msra"
    }
    bias_filler {
      type: "constant"
    }
  }
}
layer {
  name: "conv2_2_bn"
  type: "BN"
  bottom: "conv2_2"
  top: "conv2_2"
  param {
    lr_mult: 1
    decay_mult: 1
  }
  param {
    lr_mult: 1
    decay_mult: 0
  }
  bn_param {
    scale_filler {
      type: "constant"
      value: 1
    }
    shift_filler {
      type: "constant"
      value: 0.001
    }
  }
}
layer {
  name: "relu2_2"
  type: "ReLU"
  bottom: "conv2_2"
  top: "conv2_2"
}
layer {
  name: "pool2"
  type: "Pooling"
  bottom: "conv2_2"
  top: "pool2"
  top: "pool2_mask"
  pooling_param {
    pool: MAX
    kernel_size: 2
    stride: 2
  }
}
layer {
  name: "conv3_1"
  type: "Convolution"
  bottom: "pool2"
  top: "conv3_1"
  param {
    lr_mult: 1
    decay_mult: 1
  }
  param {
    lr_mult: 2
    decay_mult: 0
  }
  convolution_param {
    num_output: 256
    pad: 1
    kernel_size: 3
    weight_filler {
      type: "msra"
    }
    bias_filler {
      type: "constant"
    }
  }
}
layer {
  name: "conv3_1_bn"
  type: "BN"
  bottom: "conv3_1"
  top: "conv3_1"
  param {
    lr_mult: 1
    decay_mult: 1
  }
  param {
    lr_mult: 1
    decay_mult: 0
  }
  bn_param {
    scale_filler {
      type: "constant"
      value: 1
    }
    shift_filler {
      type: "constant"
      value: 0.001
    }
  }
}
layer {
  name: "relu3_1"
  type: "ReLU"
  bottom: "conv3_1"
  top: "conv3_1"
}
layer {
  name: "conv3_2"
  type: "Convolution"
  bottom: "conv3_1"
  top: "conv3_2"
  param {
    lr_mult: 1
    decay_mult: 1
  }
  param {
    lr_mult: 2
    decay_mult: 0
  }
  convolution_param {
    num_output: 256
    pad: 1
    kernel_size: 3
    weight_filler {
      type: "msra"
    }
    bias_filler {
      type: "constant"
    }
  }
}
layer {
  name: "conv3_2_bn"
  type: "BN"
  bottom: "conv3_2"
  top: "conv3_2"
  param {
    lr_mult: 1
    decay_mult: 1
  }
  param {
    lr_mult: 1
    decay_mult: 0
  }
  bn_param {
    scale_filler {
      type: "constant"
      value: 1
    }
    shift_filler {
      type: "constant"
      value: 0.001
    }
  }
}
layer {
  name: "relu3_2"
  type: "ReLU"
  bottom: "conv3_2"
  top: "conv3_2"
}
layer {
  name: "conv3_3"
  type: "Convolution"
  bottom: "conv3_2"
  top: "conv3_3"
  param {
    lr_mult: 1
    decay_mult: 1
  }
  param {
    lr_mult: 2
    decay_mult: 0
  }
  convolution_param {
    num_output: 256
    pad: 1
    kernel_size: 3
    weight_filler {
      type: "msra"
    }
    bias_filler {
      type: "constant"
    }
  }
}
layer {
  name: "conv3_3_bn"
  type: "BN"
  bottom: "conv3_3"
  top: "conv3_3"
  param {
    lr_mult: 1
    decay_mult: 1
  }
  param {
    lr_mult: 1
    decay_mult: 0
  }
  bn_param {
    scale_filler {
      type: "constant"
      value: 1
    }
    shift_filler {
      type: "constant"
      value: 0.001
    }
  }
}
layer {
  name: "relu3_3"
  type: "ReLU"
  bottom: "conv3_3"
  top: "conv3_3"
}
layer {
  name: "pool3"
  type: "Pooling"
  bottom: "conv3_3"
  top: "pool3"
  top: "pool3_mask"
  pooling_param {
    pool: MAX
    kernel_size: 2
    stride: 2
  }
}
layer {
  name: "conv4_1"
  type: "Convolution"
  bottom: "pool3"
  top: "conv4_1"
  param {
    lr_mult: 1
    decay_mult: 1
  }
  param {
    lr_mult: 2
    decay_mult: 0
  }
  convolution_param {
    num_output: 512
    pad: 1
    kernel_size: 3
    weight_filler {
      type: "msra"
    }
    bias_filler {
      type: "constant"
    }
  }
}
layer {
  name: "conv4_1_bn"
  type: "BN"
  bottom: "conv4_1"
  top: "conv4_1"
  param {
    lr_mult: 1
    decay_mult: 1
  }
  param {
    lr_mult: 1
    decay_mult: 0
  }
  bn_param {
    scale_filler {
      type: "constant"
      value: 1
    }
    shift_filler {
      type: "constant"
      value: 0.001
    }
  }
}
layer {
  name: "relu4_1"
  type: "ReLU"
  bottom: "conv4_1"
  top: "conv4_1"
}
layer {
  name: "conv4_2"
  type: "Convolution"
  bottom: "conv4_1"
  top: "conv4_2"
  param {
    lr_mult: 1
    decay_mult: 1
  }
  param {
    lr_mult: 2
    decay_mult: 0
  }
  convolution_param {
    num_output: 512
    pad: 1
    kernel_size: 3
    weight_filler {
      type: "msra"
    }
    bias_filler {
      type: "constant"
    }
  }
}
layer {
  name: "conv4_2_bn"
  type: "BN"
  bottom: "conv4_2"
  top: "conv4_2"
  param {
    lr_mult: 1
    decay_mult: 1
  }
  param {
    lr_mult: 1
    decay_mult: 0
  }
  bn_param {
    scale_filler {
      type: "constant"
      value: 1
    }
    shift_filler {
      type: "constant"
      value: 0.001
    }
  }
}
layer {
  name: "relu4_2"
  type: "ReLU"
  bottom: "conv4_2"
  top: "conv4_2"
}
layer {
  name: "conv4_3"
  type: "Convolution"
  bottom: "conv4_2"
  top: "conv4_3"
  param {
    lr_mult: 1
    decay_mult: 1
  }
  param {
    lr_mult: 2
    decay_mult: 0
  }
  convolution_param {
    num_output: 512
    pad: 1
    kernel_size: 3
    weight_filler {
      type: "msra"
    }
    bias_filler {
      type: "constant"
    }
  }
}
layer {
  name: "conv4_3_bn"
  type: "BN"
  bottom: "conv4_3"
  top: "conv4_3"
  param {
    lr_mult: 1
    decay_mult: 1
  }
  param {
    lr_mult: 1
    decay_mult: 0
  }
  bn_param {
    scale_filler {
      type: "constant"
      value: 1
    }
    shift_filler {
      type: "constant"
      value: 0.001
    }
  }
}
layer {
  name: "relu4_3"
  type: "ReLU"
  bottom: "conv4_3"
  top: "conv4_3"
}
layer {
  name: "pool4"
  type: "Pooling"
  bottom: "conv4_3"
  top: "pool4"
  top: "pool4_mask"
  pooling_param {
    pool: MAX
    kernel_size: 2
    stride: 2
  }
}
layer {
  name: "conv5_1"
  type: "Convolution"
  bottom: "pool4"
  top: "conv5_1"
  param {
    lr_mult: 1
    decay_mult: 1
  }
  param {
    lr_mult: 2
    decay_mult: 0
  }
  convolution_param {
    num_output: 512
    pad: 1
    kernel_size: 3
    weight_filler {
      type: "msra"
    }
    bias_filler {
      type: "constant"
    }
  }
}
layer {
  name: "conv5_1_bn"
  type: "BN"
  bottom: "conv5_1"
  top: "conv5_1"
  param {
    lr_mult: 1
    decay_mult: 1
  }
  param {
    lr_mult: 1
    decay_mult: 0
  }
  bn_param {
    scale_filler {
      type: "constant"
      value: 1
    }
    shift_filler {
      type: "constant"
      value: 0.001
    }
  }
}
layer {
  name: "relu5_1"
  type: "ReLU"
  bottom: "conv5_1"
  top: "conv5_1"
}
layer {
  name: "conv5_2"
  type: "Convolution"
  bottom: "conv5_1"
  top: "conv5_2"
  param {
    lr_mult: 1
    decay_mult: 1
  }
  param {
    lr_mult: 2
    decay_mult: 0
  }
  convolution_param {
    num_output: 512
    pad: 1
    kernel_size: 3
    weight_filler {
      type: "msra"
    }
    bias_filler {
      type: "constant"
    }
  }
}
layer {
  name: "conv5_2_bn"
  type: "BN"
  bottom: "conv5_2"
  top: "conv5_2"
  param {
    lr_mult: 1
    decay_mult: 1
  }
  param {
    lr_mult: 1
    decay_mult: 0
  }
  bn_param {
    scale_filler {
      type: "constant"
      value: 1
    }
    shift_filler {
      type: "constant"
      value: 0.001
    }
  }
}
layer {
  name: "relu5_2"
  type: "ReLU"
  bottom: "conv5_2"
  top: "conv5_2"
}
layer {
  name: "conv5_3"
  type: "Convolution"
  bottom: "conv5_2"
  top: "conv5_3"
  param {
    lr_mult: 1
    decay_mult: 1
  }
  param {
    lr_mult: 2
    decay_mult: 0
  }
  convolution_param {
    num_output: 512
    pad: 1
    kernel_size: 3
    weight_filler {
      type: "msra"
    }
    bias_filler {
      type: "constant"
    }
  }
}
layer {
  name: "conv5_3_bn"
  type: "BN"
  bottom: "conv5_3"
  top: "conv5_3"
  param {
    lr_mult: 1
    decay_mult: 1
  }
  param {
    lr_mult: 1
    decay_mult: 0
  }
  bn_param {
    scale_filler {
      type: "constant"
      value: 1
    }
    shift_filler {
      type: "constant"
      value: 0.001
    }
  }
}
layer {
  name: "relu5_3"
  type: "ReLU"
  bottom: "conv5_3"
  top: "conv5_3"
}
layer {
  name: "pool5"
  type: "Pooling"
  bottom: "conv5_3"
  top: "pool5"
  top: "pool5_mask"
  pooling_param {
    pool: MAX
    kernel_size: 2
    stride: 2
  }
}
layer {
  name: "upsample5"
  type: "Upsample"
  bottom: "pool5"
  bottom: "pool5_mask"
  top: "pool5_D"
  upsample_param {
    scale: 2
  }
}
layer {
  name: "conv5_3_D"
  type: "Convolution"
  bottom: "pool5_D"
  top: "conv5_3_D"
  param {
    lr_mult: 1
    decay_mult: 1
  }
  param {
    lr_mult: 2
    decay_mult: 0
  }
  convolution_param {
    num_output: 512
    pad: 1
    kernel_size: 3
    weight_filler {
      type: "msra"
    }
    bias_filler {
      type: "constant"
    }
  }
}
layer {
  name: "conv5_3_D_bn"
  type: "BN"
  bottom: "conv5_3_D"
  top: "conv5_3_D"
  param {
    lr_mult: 1
    decay_mult: 1
  }
  param {
    lr_mult: 1
    decay_mult: 0
  }
  bn_param {
    scale_filler {
      type: "constant"
      value: 1
    }
    shift_filler {
      type: "constant"
      value: 0.001
    }
  }
}
layer {
  name: "relu5_3_D"
  type: "ReLU"
  bottom: "conv5_3_D"
  top: "conv5_3_D"
}
layer {
  name: "conv5_2_D"
  type: "Convolution"
  bottom: "conv5_3_D"
  top: "conv5_2_D"
  param {
    lr_mult: 1
    decay_mult: 1
  }
  param {
    lr_mult: 2
    decay_mult: 0
  }
  convolution_param {
    num_output: 512
    pad: 1
    kernel_size: 3
    weight_filler {
      type: "msra"
    }
    bias_filler {
      type: "constant"
    }
  }
}
layer {
  name: "conv5_2_D_bn"
  type: "BN"
  bottom: "conv5_2_D"
  top: "conv5_2_D"
  param {
    lr_mult: 1
    decay_mult: 1
  }
  param {
    lr_mult: 1
    decay_mult: 0
  }
  bn_param {
    scale_filler {
      type: "constant"
      value: 1
    }
    shift_filler {
      type: "constant"
      value: 0.001
    }
  }
}
layer {
  name: "relu5_2_D"
  type: "ReLU"
  bottom: "conv5_2_D"
  top: "conv5_2_D"
}
layer {
  name: "conv5_1_D"
  type: "Convolution"
  bottom: "conv5_2_D"
  top: "conv5_1_D"
  param {
    lr_mult: 1
    decay_mult: 1
  }
  param {
    lr_mult: 2
    decay_mult: 0
  }
  convolution_param {
    num_output: 512
    pad: 1
    kernel_size: 3
    weight_filler {
      type: "msra"
    }
    bias_filler {
      type: "constant"
    }
  }
}
layer {
  name: "conv5_1_D_bn"
  type: "BN"
  bottom: "conv5_1_D"
  top: "conv5_1_D"
  param {
    lr_mult: 1
    decay_mult: 1
  }
  param {
    lr_mult: 1
    decay_mult: 0
  }
  bn_param {
    scale_filler {
      type: "constant"
      value: 1
    }
    shift_filler {
      type: "constant"
      value: 0.001
    }
  }
}
layer {
  name: "relu5_1_D"
  type: "ReLU"
  bottom: "conv5_1_D"
  top: "conv5_1_D"
}
layer {
  name: "upsample4"
  type: "Upsample"
  bottom: "conv5_1_D"
  bottom: "pool4_mask"
  top: "pool4_D"
  upsample_param {
    scale: 2
  }
}
layer {
  name: "conv4_3_D"
  type: "Convolution"
  bottom: "pool4_D"
  top: "conv4_3_D"
  param {
    lr_mult: 1
    decay_mult: 1
  }
  param {
    lr_mult: 2
    decay_mult: 0
  }
  convolution_param {
    num_output: 512
    pad: 1
    kernel_size: 3
    weight_filler {
      type: "msra"
    }
    bias_filler {
      type: "constant"
    }
  }
}
layer {
  name: "conv4_3_D_bn"
  type: "BN"
  bottom: "conv4_3_D"
  top: "conv4_3_D"
  param {
    lr_mult: 1
    decay_mult: 1
  }
  param {
    lr_mult: 1
    decay_mult: 0
  }
  bn_param {
    scale_filler {
      type: "constant"
      value: 1
    }
    shift_filler {
      type: "constant"
      value: 0.001
    }
  }
}
layer {
  name: "relu4_3_D"
  type: "ReLU"
  bottom: "conv4_3_D"
  top: "conv4_3_D"
}
layer {
  name: "conv4_2_D"
  type: "Convolution"
  bottom: "conv4_3_D"
  top: "conv4_2_D"
  param {
    lr_mult: 1
    decay_mult: 1
  }
  param {
    lr_mult: 2
    decay_mult: 0
  }
  convolution_param {
    num_output: 512
    pad: 1
    kernel_size: 3
    weight_filler {
      type: "msra"
    }
    bias_filler {
      type: "constant"
    }
  }
}
layer {
  name: "conv4_2_D_bn"
  type: "BN"
  bottom: "conv4_2_D"
  top: "conv4_2_D"
  param {
    lr_mult: 1
    decay_mult: 1
  }
  param {
    lr_mult: 1
    decay_mult: 0
  }
  bn_param {
    scale_filler {
      type: "constant"
      value: 1
    }
    shift_filler {
      type: "constant"
      value: 0.001
    }
  }
}
layer {
  name: "relu4_2_D"
  type: "ReLU"
  bottom: "conv4_2_D"
  top: "conv4_2_D"
}
layer {
  name: "conv4_1_D"
  type: "Convolution"
  bottom: "conv4_2_D"
  top: "conv4_1_D"
  param {
    lr_mult: 1
    decay_mult: 1
  }
  param {
    lr_mult: 2
    decay_mult: 0
  }
  convolution_param {
    num_output: 256
    pad: 1
    kernel_size: 3
    weight_filler {
      type: "msra"
    }
    bias_filler {
      type: "constant"
    }
  }
}
layer {
  name: "conv4_1_D_bn"
  type: "BN"
  bottom: "conv4_1_D"
  top: "conv4_1_D"
  param {
    lr_mult: 1
    decay_mult: 1
  }
  param {
    lr_mult: 1
    decay_mult: 0
  }
  bn_param {
    scale_filler {
      type: "constant"
      value: 1
    }
    shift_filler {
      type: "constant"
      value: 0.001
    }
  }
}
layer {
  name: "relu4_1_D"
  type: "ReLU"
  bottom: "conv4_1_D"
  top: "conv4_1_D"
}
layer {
  name: "upsample3"
  type: "Upsample"
  bottom: "conv4_1_D"
  bottom: "pool3_mask"
  top: "pool3_D"
  upsample_param {
    scale: 2
  }
}
layer {
  name: "conv3_3_D"
  type: "Convolution"
  bottom: "pool3_D"
  top: "conv3_3_D"
  param {
    lr_mult: 1
    decay_mult: 1
  }
  param {
    lr_mult: 2
    decay_mult: 0
  }
  convolution_param {
    num_output: 256
    pad: 1
    kernel_size: 3
    weight_filler {
      type: "msra"
    }
    bias_filler {
      type: "constant"
    }
  }
}
layer {
  name: "conv3_3_D_bn"
  type: "BN"
  bottom: "conv3_3_D"
  top: "conv3_3_D"
  param {
    lr_mult: 1
    decay_mult: 1
  }
  param {
    lr_mult: 1
    decay_mult: 0
  }
  bn_param {
    scale_filler {
      type: "constant"
      value: 1
    }
    shift_filler {
      type: "constant"
      value: 0.001
    }
  }
}
layer {
  name: "relu3_3_D"
  type: "ReLU"
  bottom: "conv3_3_D"
  top: "conv3_3_D"
}
layer {
  name: "conv3_2_D"
  type: "Convolution"
  bottom: "conv3_3_D"
  top: "conv3_2_D"
  param {
    lr_mult: 1
    decay_mult: 1
  }
  param {
    lr_mult: 2
    decay_mult: 0
  }
  convolution_param {
    num_output: 256
    pad: 1
    kernel_size: 3
    weight_filler {
      type: "msra"
    }
    bias_filler {
      type: "constant"
    }
  }
}
layer {
  name: "conv3_2_D_bn"
  type: "BN"
  bottom: "conv3_2_D"
  top: "conv3_2_D"
  param {
    lr_mult: 1
    decay_mult: 1
  }
  param {
    lr_mult: 1
    decay_mult: 0
  }
  bn_param {
    scale_filler {
      type: "constant"
      value: 1
    }
    shift_filler {
      type: "constant"
      value: 0.001
    }
  }
}
layer {
  name: "relu3_2_D"
  type: "ReLU"
  bottom: "conv3_2_D"
  top: "conv3_2_D"
}
layer {
  name: "conv3_1_D"
  type: "Convolution"
  bottom: "conv3_2_D"
  top: "conv3_1_D"
  param {
    lr_mult: 1
    decay_mult: 1
  }
  param {
    lr_mult: 2
    decay_mult: 0
  }
  convolution_param {
    num_output: 128
    pad: 1
    kernel_size: 3
    weight_filler {
      type: "msra"
    }
    bias_filler {
      type: "constant"
    }
  }
}
layer {
  name: "conv3_1_D_bn"
  type: "BN"
  bottom: "conv3_1_D"
  top: "conv3_1_D"
  param {
    lr_mult: 1
    decay_mult: 1
  }
  param {
    lr_mult: 1
    decay_mult: 0
  }
  bn_param {
    scale_filler {
      type: "constant"
      value: 1
    }
    shift_filler {
      type: "constant"
      value: 0.001
    }
  }
}
layer {
  name: "relu3_1_D"
  type: "ReLU"
  bottom: "conv3_1_D"
  top: "conv3_1_D"
}
layer {
  name: "upsample2"
  type: "Upsample"
  bottom: "conv3_1_D"
  bottom: "pool2_mask"
  top: "pool2_D"
  upsample_param {
    scale: 2
  }
}
layer {
  name: "conv2_2_D"
  type: "Convolution"
  bottom: "pool2_D"
  top: "conv2_2_D"
  param {
    lr_mult: 1
    decay_mult: 1
  }
  param {
    lr_mult: 2
    decay_mult: 0
  }
  convolution_param {
    num_output: 128
    pad: 1
    kernel_size: 3
    weight_filler {
      type: "msra"
    }
    bias_filler {
      type: "constant"
    }
  }
}
layer {
  name: "conv2_2_D_bn"
  type: "BN"
  bottom: "conv2_2_D"
  top: "conv2_2_D"
  param {
    lr_mult: 1
    decay_mult: 1
  }
  param {
    lr_mult: 1
    decay_mult: 0
  }
  bn_param {
    scale_filler {
      type: "constant"
      value: 1
    }
    shift_filler {
      type: "constant"
      value: 0.001
    }
  }
}
layer {
  name: "relu2_2_D"
  type: "ReLU"
  bottom: "conv2_2_D"
  top: "conv2_2_D"
}
layer {
  name: "conv2_1_D"
  type: "Convolution"
  bottom: "conv2_2_D"
  top: "conv2_1_D"
  param {
    lr_mult: 1
    decay_mult: 1
  }
  param {
    lr_mult: 2
    decay_mult: 0
  }
  convolution_param {
    num_output: 64
    pad: 1
    kernel_size: 3
    weight_filler {
      type: "msra"
    }
    bias_filler {
      type: "constant"
    }
  }
}
layer {
  name: "conv2_1_D_bn"
  type: "BN"
  bottom: "conv2_1_D"
  top: "conv2_1_D"
  param {
    lr_mult: 1
    decay_mult: 1
  }
  param {
    lr_mult: 1
    decay_mult: 0
  }
  bn_param {
    scale_filler {
      type: "constant"
      value: 1
    }
    shift_filler {
      type: "constant"
      value: 0.001
    }
  }
}
layer {
  name: "relu2_1_D"
  type: "ReLU"
  bottom: "conv2_1_D"
  top: "conv2_1_D"
}
layer {
  name: "upsample1"
  type: "Upsample"
  bottom: "conv2_1_D"
  bottom: "pool1_mask"
  top: "pool1_D"
  upsample_param {
    scale: 2
  }
}
layer {
  name: "conv1_2_D"
  type: "Convolution"
  bottom: "pool1_D"
  top: "conv1_2_D"
  param {
    lr_mult: 1
    decay_mult: 1
  }
  param {
    lr_mult: 2
    decay_mult: 0
  }
  convolution_param {
    num_output: 64
    pad: 1
    kernel_size: 3
    weight_filler {
      type: "msra"
    }
    bias_filler {
      type: "constant"
    }
  }
}
layer {
  name: "conv1_2_D_bn"
  type: "BN"
  bottom: "conv1_2_D"
  top: "conv1_2_D"
  param {
    lr_mult: 1
    decay_mult: 1
  }
  param {
    lr_mult: 1
    decay_mult: 0
  }
  bn_param {
    scale_filler {
      type: "constant"
      value: 1
    }
    shift_filler {
      type: "constant"
      value: 0.001
    }
  }
}
layer {
  name: "relu1_2_D"
  type: "ReLU"
  bottom: "conv1_2_D"
  top: "conv1_2_D"
}
layer {
  name: "conv1_1_D"
  type: "Convolution"
  bottom: "conv1_2_D"
  top: "conv1_1_D"
  param {
    lr_mult: 1
    decay_mult: 1
  }
  param {
    lr_mult: 2
    decay_mult: 0
  }
  convolution_param {
    num_output: 21
    pad: 1
    kernel_size: 3
    weight_filler {
      type: "msra"
    }
    bias_filler {
      type: "constant"
    }
  }
}
layer {
  name: "loss"
  type: "SoftmaxWithLoss"
  bottom: "conv1_1_D"
  bottom: "label"
  top: "loss"
  loss_param {
    ignore_label: 255
    weight_by_label_freqs: false
  }
  softmax_param {
    engine: CAFFE
  }
}
layer {
  name: "accuracy"
  type: "Accuracy"
  bottom: "conv1_1_D"
  bottom: "label"
  top: "accuracy"
  top: "per_class_accuracy"
}
I0418 16:23:52.060168  5339 layer_factory.hpp:74] Creating layer data
I0418 16:23:52.060196  5339 net.cpp:90] Creating Layer data
I0418 16:23:52.060205  5339 net.cpp:368] data -> data
I0418 16:23:52.060226  5339 net.cpp:368] data -> label
I0418 16:23:52.060236  5339 net.cpp:120] Setting up data
I0418 16:23:52.060250  5339 dense_image_data_layer.cpp:36] Opening file /home/shared/datasets/VOCdevkit/VOC2012/ImageSets/Segmentation/train_img_lab_224.txt
I0418 16:23:52.062686  5339 dense_image_data_layer.cpp:46] Shuffling data
I0418 16:23:52.063294  5339 dense_image_data_layer.cpp:51] A total of 2913 examples.
I0418 16:23:52.065150  5339 dense_image_data_layer.cpp:97] output data size: 2,3,224,224
I0418 16:23:52.065970  5339 net.cpp:127] Top shape: 2 3 224 224 (301056)
I0418 16:23:52.065987  5339 net.cpp:127] Top shape: 2 1 224 224 (100352)
I0418 16:23:52.065995  5339 layer_factory.hpp:74] Creating layer label_data_1_split
I0418 16:23:52.066006  5339 net.cpp:90] Creating Layer label_data_1_split
I0418 16:23:52.066012  5339 net.cpp:410] label_data_1_split <- label
I0418 16:23:52.066023  5339 net.cpp:368] label_data_1_split -> label_data_1_split_0
I0418 16:23:52.066033  5339 net.cpp:368] label_data_1_split -> label_data_1_split_1
I0418 16:23:52.066043  5339 net.cpp:120] Setting up label_data_1_split
I0418 16:23:52.066053  5339 net.cpp:127] Top shape: 2 1 224 224 (100352)
I0418 16:23:52.066059  5339 net.cpp:127] Top shape: 2 1 224 224 (100352)
I0418 16:23:52.066063  5339 layer_factory.hpp:74] Creating layer conv1_1
I0418 16:23:52.066074  5339 net.cpp:90] Creating Layer conv1_1
I0418 16:23:52.066079  5339 net.cpp:410] conv1_1 <- data
I0418 16:23:52.066087  5339 net.cpp:368] conv1_1 -> conv1_1
I0418 16:23:52.066097  5339 net.cpp:120] Setting up conv1_1
I0418 16:23:52.813740  5339 net.cpp:127] Top shape: 2 64 224 224 (6422528)
I0418 16:23:52.813788  5339 layer_factory.hpp:74] Creating layer conv1_1_bn
I0418 16:23:52.813812  5339 net.cpp:90] Creating Layer conv1_1_bn
I0418 16:23:52.813819  5339 net.cpp:410] conv1_1_bn <- conv1_1
I0418 16:23:52.813830  5339 net.cpp:357] conv1_1_bn -> conv1_1 (in-place)
I0418 16:23:52.813844  5339 net.cpp:120] Setting up conv1_1_bn
I0418 16:23:52.814085  5339 net.cpp:127] Top shape: 2 64 224 224 (6422528)
I0418 16:23:52.814100  5339 layer_factory.hpp:74] Creating layer relu1_1
I0418 16:23:52.814117  5339 net.cpp:90] Creating Layer relu1_1
I0418 16:23:52.814123  5339 net.cpp:410] relu1_1 <- conv1_1
I0418 16:23:52.814129  5339 net.cpp:357] relu1_1 -> conv1_1 (in-place)
I0418 16:23:52.814136  5339 net.cpp:120] Setting up relu1_1
I0418 16:23:52.814465  5339 net.cpp:127] Top shape: 2 64 224 224 (6422528)
I0418 16:23:52.814478  5339 layer_factory.hpp:74] Creating layer conv1_2
I0418 16:23:52.814491  5339 net.cpp:90] Creating Layer conv1_2
I0418 16:23:52.814496  5339 net.cpp:410] conv1_2 <- conv1_1
I0418 16:23:52.814502  5339 net.cpp:368] conv1_2 -> conv1_2
I0418 16:23:52.814512  5339 net.cpp:120] Setting up conv1_2
I0418 16:23:52.817569  5339 net.cpp:127] Top shape: 2 64 224 224 (6422528)
I0418 16:23:52.817586  5339 layer_factory.hpp:74] Creating layer conv1_2_bn
I0418 16:23:52.817597  5339 net.cpp:90] Creating Layer conv1_2_bn
I0418 16:23:52.817602  5339 net.cpp:410] conv1_2_bn <- conv1_2
I0418 16:23:52.817608  5339 net.cpp:357] conv1_2_bn -> conv1_2 (in-place)
I0418 16:23:52.817616  5339 net.cpp:120] Setting up conv1_2_bn
I0418 16:23:52.817814  5339 net.cpp:127] Top shape: 2 64 224 224 (6422528)
I0418 16:23:52.817831  5339 layer_factory.hpp:74] Creating layer relu1_2
I0418 16:23:52.817841  5339 net.cpp:90] Creating Layer relu1_2
I0418 16:23:52.817845  5339 net.cpp:410] relu1_2 <- conv1_2
I0418 16:23:52.817854  5339 net.cpp:357] relu1_2 -> conv1_2 (in-place)
I0418 16:23:52.817862  5339 net.cpp:120] Setting up relu1_2
I0418 16:23:52.819128  5339 net.cpp:127] Top shape: 2 64 224 224 (6422528)
I0418 16:23:52.819140  5339 layer_factory.hpp:74] Creating layer pool1
I0418 16:23:52.819150  5339 layer_factory.cpp:55] CUDNN does not support padding or multiple tops. Using Caffe's own pooling layer.
I0418 16:23:52.819160  5339 net.cpp:90] Creating Layer pool1
I0418 16:23:52.819165  5339 net.cpp:410] pool1 <- conv1_2
I0418 16:23:52.819174  5339 net.cpp:368] pool1 -> pool1
I0418 16:23:52.819181  5339 net.cpp:368] pool1 -> pool1_mask
I0418 16:23:52.819188  5339 net.cpp:120] Setting up pool1
I0418 16:23:52.819210  5339 net.cpp:127] Top shape: 2 64 112 112 (1605632)
I0418 16:23:52.819219  5339 net.cpp:127] Top shape: 2 64 112 112 (1605632)
I0418 16:23:52.819224  5339 layer_factory.hpp:74] Creating layer conv2_1
I0418 16:23:52.819232  5339 net.cpp:90] Creating Layer conv2_1
I0418 16:23:52.819236  5339 net.cpp:410] conv2_1 <- pool1
I0418 16:23:52.819245  5339 net.cpp:368] conv2_1 -> conv2_1
I0418 16:23:52.819254  5339 net.cpp:120] Setting up conv2_1
I0418 16:23:52.823782  5339 net.cpp:127] Top shape: 2 128 112 112 (3211264)
I0418 16:23:52.823799  5339 layer_factory.hpp:74] Creating layer conv2_1_bn
I0418 16:23:52.823810  5339 net.cpp:90] Creating Layer conv2_1_bn
I0418 16:23:52.823815  5339 net.cpp:410] conv2_1_bn <- conv2_1
I0418 16:23:52.823822  5339 net.cpp:357] conv2_1_bn -> conv2_1 (in-place)
I0418 16:23:52.823829  5339 net.cpp:120] Setting up conv2_1_bn
I0418 16:23:52.823892  5339 net.cpp:127] Top shape: 2 128 112 112 (3211264)
I0418 16:23:52.823905  5339 layer_factory.hpp:74] Creating layer relu2_1
I0418 16:23:52.823915  5339 net.cpp:90] Creating Layer relu2_1
I0418 16:23:52.823920  5339 net.cpp:410] relu2_1 <- conv2_1
I0418 16:23:52.823925  5339 net.cpp:357] relu2_1 -> conv2_1 (in-place)
I0418 16:23:52.823931  5339 net.cpp:120] Setting up relu2_1
I0418 16:23:52.824120  5339 net.cpp:127] Top shape: 2 128 112 112 (3211264)
I0418 16:23:52.824132  5339 layer_factory.hpp:74] Creating layer conv2_2
I0418 16:23:52.824142  5339 net.cpp:90] Creating Layer conv2_2
I0418 16:23:52.824147  5339 net.cpp:410] conv2_2 <- conv2_1
I0418 16:23:52.824154  5339 net.cpp:368] conv2_2 -> conv2_2
I0418 16:23:52.824162  5339 net.cpp:120] Setting up conv2_2
I0418 16:23:52.832274  5339 net.cpp:127] Top shape: 2 128 112 112 (3211264)
I0418 16:23:52.832290  5339 layer_factory.hpp:74] Creating layer conv2_2_bn
I0418 16:23:52.832301  5339 net.cpp:90] Creating Layer conv2_2_bn
I0418 16:23:52.832306  5339 net.cpp:410] conv2_2_bn <- conv2_2
I0418 16:23:52.832325  5339 net.cpp:357] conv2_2_bn -> conv2_2 (in-place)
I0418 16:23:52.832334  5339 net.cpp:120] Setting up conv2_2_bn
I0418 16:23:52.832398  5339 net.cpp:127] Top shape: 2 128 112 112 (3211264)
I0418 16:23:52.832412  5339 layer_factory.hpp:74] Creating layer relu2_2
I0418 16:23:52.832420  5339 net.cpp:90] Creating Layer relu2_2
I0418 16:23:52.832424  5339 net.cpp:410] relu2_2 <- conv2_2
I0418 16:23:52.832432  5339 net.cpp:357] relu2_2 -> conv2_2 (in-place)
I0418 16:23:52.832439  5339 net.cpp:120] Setting up relu2_2
I0418 16:23:52.832872  5339 net.cpp:127] Top shape: 2 128 112 112 (3211264)
I0418 16:23:52.832885  5339 layer_factory.hpp:74] Creating layer pool2
I0418 16:23:52.832890  5339 layer_factory.cpp:55] CUDNN does not support padding or multiple tops. Using Caffe's own pooling layer.
I0418 16:23:52.832898  5339 net.cpp:90] Creating Layer pool2
I0418 16:23:52.832903  5339 net.cpp:410] pool2 <- conv2_2
I0418 16:23:52.832911  5339 net.cpp:368] pool2 -> pool2
I0418 16:23:52.832917  5339 net.cpp:368] pool2 -> pool2_mask
I0418 16:23:52.832924  5339 net.cpp:120] Setting up pool2
I0418 16:23:52.832932  5339 net.cpp:127] Top shape: 2 128 56 56 (802816)
I0418 16:23:52.832937  5339 net.cpp:127] Top shape: 2 128 56 56 (802816)
I0418 16:23:52.832943  5339 layer_factory.hpp:74] Creating layer conv3_1
I0418 16:23:52.832953  5339 net.cpp:90] Creating Layer conv3_1
I0418 16:23:52.832962  5339 net.cpp:410] conv3_1 <- pool2
I0418 16:23:52.832970  5339 net.cpp:368] conv3_1 -> conv3_1
I0418 16:23:52.832978  5339 net.cpp:120] Setting up conv3_1
I0418 16:23:52.843822  5339 net.cpp:127] Top shape: 2 256 56 56 (1605632)
I0418 16:23:52.843842  5339 layer_factory.hpp:74] Creating layer conv3_1_bn
I0418 16:23:52.843854  5339 net.cpp:90] Creating Layer conv3_1_bn
I0418 16:23:52.843859  5339 net.cpp:410] conv3_1_bn <- conv3_1
I0418 16:23:52.843866  5339 net.cpp:357] conv3_1_bn -> conv3_1 (in-place)
I0418 16:23:52.843873  5339 net.cpp:120] Setting up conv3_1_bn
I0418 16:23:52.843900  5339 net.cpp:127] Top shape: 2 256 56 56 (1605632)
I0418 16:23:52.843911  5339 layer_factory.hpp:74] Creating layer relu3_1
I0418 16:23:52.843920  5339 net.cpp:90] Creating Layer relu3_1
I0418 16:23:52.843924  5339 net.cpp:410] relu3_1 <- conv3_1
I0418 16:23:52.843931  5339 net.cpp:357] relu3_1 -> conv3_1 (in-place)
I0418 16:23:52.843937  5339 net.cpp:120] Setting up relu3_1
I0418 16:23:52.844254  5339 net.cpp:127] Top shape: 2 256 56 56 (1605632)
I0418 16:23:52.844266  5339 layer_factory.hpp:74] Creating layer conv3_2
I0418 16:23:52.844277  5339 net.cpp:90] Creating Layer conv3_2
I0418 16:23:52.844283  5339 net.cpp:410] conv3_2 <- conv3_1
I0418 16:23:52.844291  5339 net.cpp:368] conv3_2 -> conv3_2
I0418 16:23:52.844300  5339 net.cpp:120] Setting up conv3_2
I0418 16:23:52.865149  5339 net.cpp:127] Top shape: 2 256 56 56 (1605632)
I0418 16:23:52.865170  5339 layer_factory.hpp:74] Creating layer conv3_2_bn
I0418 16:23:52.865182  5339 net.cpp:90] Creating Layer conv3_2_bn
I0418 16:23:52.865187  5339 net.cpp:410] conv3_2_bn <- conv3_2
I0418 16:23:52.865197  5339 net.cpp:357] conv3_2_bn -> conv3_2 (in-place)
I0418 16:23:52.865206  5339 net.cpp:120] Setting up conv3_2_bn
I0418 16:23:52.865231  5339 net.cpp:127] Top shape: 2 256 56 56 (1605632)
I0418 16:23:52.865239  5339 layer_factory.hpp:74] Creating layer relu3_2
I0418 16:23:52.865249  5339 net.cpp:90] Creating Layer relu3_2
I0418 16:23:52.865253  5339 net.cpp:410] relu3_2 <- conv3_2
I0418 16:23:52.865262  5339 net.cpp:357] relu3_2 -> conv3_2 (in-place)
I0418 16:23:52.865267  5339 net.cpp:120] Setting up relu3_2
I0418 16:23:52.865460  5339 net.cpp:127] Top shape: 2 256 56 56 (1605632)
I0418 16:23:52.865473  5339 layer_factory.hpp:74] Creating layer conv3_3
I0418 16:23:52.865483  5339 net.cpp:90] Creating Layer conv3_3
I0418 16:23:52.865489  5339 net.cpp:410] conv3_3 <- conv3_2
I0418 16:23:52.865496  5339 net.cpp:368] conv3_3 -> conv3_3
I0418 16:23:52.865505  5339 net.cpp:120] Setting up conv3_3
I0418 16:23:52.886129  5339 net.cpp:127] Top shape: 2 256 56 56 (1605632)
I0418 16:23:52.886164  5339 layer_factory.hpp:74] Creating layer conv3_3_bn
I0418 16:23:52.886178  5339 net.cpp:90] Creating Layer conv3_3_bn
I0418 16:23:52.886183  5339 net.cpp:410] conv3_3_bn <- conv3_3
I0418 16:23:52.886190  5339 net.cpp:357] conv3_3_bn -> conv3_3 (in-place)
I0418 16:23:52.886198  5339 net.cpp:120] Setting up conv3_3_bn
I0418 16:23:52.886224  5339 net.cpp:127] Top shape: 2 256 56 56 (1605632)
I0418 16:23:52.886234  5339 layer_factory.hpp:74] Creating layer relu3_3
I0418 16:23:52.886241  5339 net.cpp:90] Creating Layer relu3_3
I0418 16:23:52.886246  5339 net.cpp:410] relu3_3 <- conv3_3
I0418 16:23:52.886253  5339 net.cpp:357] relu3_3 -> conv3_3 (in-place)
I0418 16:23:52.886260  5339 net.cpp:120] Setting up relu3_3
I0418 16:23:52.886590  5339 net.cpp:127] Top shape: 2 256 56 56 (1605632)
I0418 16:23:52.886601  5339 layer_factory.hpp:74] Creating layer pool3
I0418 16:23:52.886608  5339 layer_factory.cpp:55] CUDNN does not support padding or multiple tops. Using Caffe's own pooling layer.
I0418 16:23:52.886616  5339 net.cpp:90] Creating Layer pool3
I0418 16:23:52.886621  5339 net.cpp:410] pool3 <- conv3_3
I0418 16:23:52.886627  5339 net.cpp:368] pool3 -> pool3
I0418 16:23:52.886636  5339 net.cpp:368] pool3 -> pool3_mask
I0418 16:23:52.886646  5339 net.cpp:120] Setting up pool3
I0418 16:23:52.886656  5339 net.cpp:127] Top shape: 2 256 28 28 (401408)
I0418 16:23:52.886662  5339 net.cpp:127] Top shape: 2 256 28 28 (401408)
I0418 16:23:52.886667  5339 layer_factory.hpp:74] Creating layer conv4_1
I0418 16:23:52.886678  5339 net.cpp:90] Creating Layer conv4_1
I0418 16:23:52.886683  5339 net.cpp:410] conv4_1 <- pool3
I0418 16:23:52.886692  5339 net.cpp:368] conv4_1 -> conv4_1
I0418 16:23:52.886699  5339 net.cpp:120] Setting up conv4_1
I0418 16:23:52.928982  5339 net.cpp:127] Top shape: 2 512 28 28 (802816)
I0418 16:23:52.929013  5339 layer_factory.hpp:74] Creating layer conv4_1_bn
I0418 16:23:52.929028  5339 net.cpp:90] Creating Layer conv4_1_bn
I0418 16:23:52.929034  5339 net.cpp:410] conv4_1_bn <- conv4_1
I0418 16:23:52.929044  5339 net.cpp:357] conv4_1_bn -> conv4_1 (in-place)
I0418 16:23:52.929054  5339 net.cpp:120] Setting up conv4_1_bn
I0418 16:23:52.929075  5339 net.cpp:127] Top shape: 2 512 28 28 (802816)
I0418 16:23:52.929083  5339 layer_factory.hpp:74] Creating layer relu4_1
I0418 16:23:52.929093  5339 net.cpp:90] Creating Layer relu4_1
I0418 16:23:52.929098  5339 net.cpp:410] relu4_1 <- conv4_1
I0418 16:23:52.929105  5339 net.cpp:357] relu4_1 -> conv4_1 (in-place)
I0418 16:23:52.929111  5339 net.cpp:120] Setting up relu4_1
I0418 16:23:52.930260  5339 net.cpp:127] Top shape: 2 512 28 28 (802816)
I0418 16:23:52.930274  5339 layer_factory.hpp:74] Creating layer conv4_2
I0418 16:23:52.930285  5339 net.cpp:90] Creating Layer conv4_2
I0418 16:23:52.930290  5339 net.cpp:410] conv4_2 <- conv4_1
I0418 16:23:52.930300  5339 net.cpp:368] conv4_2 -> conv4_2
I0418 16:23:52.930308  5339 net.cpp:120] Setting up conv4_2
I0418 16:23:53.011656  5339 net.cpp:127] Top shape: 2 512 28 28 (802816)
I0418 16:23:53.011705  5339 layer_factory.hpp:74] Creating layer conv4_2_bn
I0418 16:23:53.011723  5339 net.cpp:90] Creating Layer conv4_2_bn
I0418 16:23:53.011729  5339 net.cpp:410] conv4_2_bn <- conv4_2
I0418 16:23:53.011740  5339 net.cpp:357] conv4_2_bn -> conv4_2 (in-place)
I0418 16:23:53.011752  5339 net.cpp:120] Setting up conv4_2_bn
I0418 16:23:53.011775  5339 net.cpp:127] Top shape: 2 512 28 28 (802816)
I0418 16:23:53.011788  5339 layer_factory.hpp:74] Creating layer relu4_2
I0418 16:23:53.011796  5339 net.cpp:90] Creating Layer relu4_2
I0418 16:23:53.011801  5339 net.cpp:410] relu4_2 <- conv4_2
I0418 16:23:53.011806  5339 net.cpp:357] relu4_2 -> conv4_2 (in-place)
I0418 16:23:53.011813  5339 net.cpp:120] Setting up relu4_2
I0418 16:23:53.013211  5339 net.cpp:127] Top shape: 2 512 28 28 (802816)
I0418 16:23:53.013223  5339 layer_factory.hpp:74] Creating layer conv4_3
I0418 16:23:53.013241  5339 net.cpp:90] Creating Layer conv4_3
I0418 16:23:53.013245  5339 net.cpp:410] conv4_3 <- conv4_2
I0418 16:23:53.013254  5339 net.cpp:368] conv4_3 -> conv4_3
I0418 16:23:53.013283  5339 net.cpp:120] Setting up conv4_3
I0418 16:23:53.108484  5339 net.cpp:127] Top shape: 2 512 28 28 (802816)
I0418 16:23:53.108525  5339 layer_factory.hpp:74] Creating layer conv4_3_bn
I0418 16:23:53.108541  5339 net.cpp:90] Creating Layer conv4_3_bn
I0418 16:23:53.108548  5339 net.cpp:410] conv4_3_bn <- conv4_3
I0418 16:23:53.108559  5339 net.cpp:357] conv4_3_bn -> conv4_3 (in-place)
I0418 16:23:53.108571  5339 net.cpp:120] Setting up conv4_3_bn
I0418 16:23:53.108592  5339 net.cpp:127] Top shape: 2 512 28 28 (802816)
I0418 16:23:53.108602  5339 layer_factory.hpp:74] Creating layer relu4_3
I0418 16:23:53.108613  5339 net.cpp:90] Creating Layer relu4_3
I0418 16:23:53.108618  5339 net.cpp:410] relu4_3 <- conv4_3
I0418 16:23:53.108623  5339 net.cpp:357] relu4_3 -> conv4_3 (in-place)
I0418 16:23:53.108629  5339 net.cpp:120] Setting up relu4_3
I0418 16:23:53.109604  5339 net.cpp:127] Top shape: 2 512 28 28 (802816)
I0418 16:23:53.109619  5339 layer_factory.hpp:74] Creating layer pool4
I0418 16:23:53.109627  5339 layer_factory.cpp:55] CUDNN does not support padding or multiple tops. Using Caffe's own pooling layer.
I0418 16:23:53.109635  5339 net.cpp:90] Creating Layer pool4
I0418 16:23:53.109640  5339 net.cpp:410] pool4 <- conv4_3
I0418 16:23:53.109649  5339 net.cpp:368] pool4 -> pool4
I0418 16:23:53.109658  5339 net.cpp:368] pool4 -> pool4_mask
I0418 16:23:53.109664  5339 net.cpp:120] Setting up pool4
I0418 16:23:53.109674  5339 net.cpp:127] Top shape: 2 512 14 14 (200704)
I0418 16:23:53.109679  5339 net.cpp:127] Top shape: 2 512 14 14 (200704)
I0418 16:23:53.109684  5339 layer_factory.hpp:74] Creating layer conv5_1
I0418 16:23:53.109696  5339 net.cpp:90] Creating Layer conv5_1
I0418 16:23:53.109701  5339 net.cpp:410] conv5_1 <- pool4
I0418 16:23:53.109709  5339 net.cpp:368] conv5_1 -> conv5_1
I0418 16:23:53.109719  5339 net.cpp:120] Setting up conv5_1
I0418 16:23:53.190731  5339 net.cpp:127] Top shape: 2 512 14 14 (200704)
I0418 16:23:53.190768  5339 layer_factory.hpp:74] Creating layer conv5_1_bn
I0418 16:23:53.190781  5339 net.cpp:90] Creating Layer conv5_1_bn
I0418 16:23:53.190788  5339 net.cpp:410] conv5_1_bn <- conv5_1
I0418 16:23:53.190798  5339 net.cpp:357] conv5_1_bn -> conv5_1 (in-place)
I0418 16:23:53.190809  5339 net.cpp:120] Setting up conv5_1_bn
I0418 16:23:53.190830  5339 net.cpp:127] Top shape: 2 512 14 14 (200704)
I0418 16:23:53.190839  5339 layer_factory.hpp:74] Creating layer relu5_1
I0418 16:23:53.190860  5339 net.cpp:90] Creating Layer relu5_1
I0418 16:23:53.190865  5339 net.cpp:410] relu5_1 <- conv5_1
I0418 16:23:53.190871  5339 net.cpp:357] relu5_1 -> conv5_1 (in-place)
I0418 16:23:53.190877  5339 net.cpp:120] Setting up relu5_1
I0418 16:23:53.191226  5339 net.cpp:127] Top shape: 2 512 14 14 (200704)
I0418 16:23:53.191241  5339 layer_factory.hpp:74] Creating layer conv5_2
I0418 16:23:53.191253  5339 net.cpp:90] Creating Layer conv5_2
I0418 16:23:53.191258  5339 net.cpp:410] conv5_2 <- conv5_1
I0418 16:23:53.191265  5339 net.cpp:368] conv5_2 -> conv5_2
I0418 16:23:53.191274  5339 net.cpp:120] Setting up conv5_2
I0418 16:23:53.271416  5339 net.cpp:127] Top shape: 2 512 14 14 (200704)
I0418 16:23:53.271451  5339 layer_factory.hpp:74] Creating layer conv5_2_bn
I0418 16:23:53.271471  5339 net.cpp:90] Creating Layer conv5_2_bn
I0418 16:23:53.271477  5339 net.cpp:410] conv5_2_bn <- conv5_2
I0418 16:23:53.271486  5339 net.cpp:357] conv5_2_bn -> conv5_2 (in-place)
I0418 16:23:53.271497  5339 net.cpp:120] Setting up conv5_2_bn
I0418 16:23:53.271517  5339 net.cpp:127] Top shape: 2 512 14 14 (200704)
I0418 16:23:53.271525  5339 layer_factory.hpp:74] Creating layer relu5_2
I0418 16:23:53.271533  5339 net.cpp:90] Creating Layer relu5_2
I0418 16:23:53.271540  5339 net.cpp:410] relu5_2 <- conv5_2
I0418 16:23:53.271548  5339 net.cpp:357] relu5_2 -> conv5_2 (in-place)
I0418 16:23:53.271553  5339 net.cpp:120] Setting up relu5_2
I0418 16:23:53.271749  5339 net.cpp:127] Top shape: 2 512 14 14 (200704)
I0418 16:23:53.271762  5339 layer_factory.hpp:74] Creating layer conv5_3
I0418 16:23:53.271797  5339 net.cpp:90] Creating Layer conv5_3
I0418 16:23:53.271803  5339 net.cpp:410] conv5_3 <- conv5_2
I0418 16:23:53.271813  5339 net.cpp:368] conv5_3 -> conv5_3
I0418 16:23:53.271822  5339 net.cpp:120] Setting up conv5_3
I0418 16:23:53.357030  5339 net.cpp:127] Top shape: 2 512 14 14 (200704)
I0418 16:23:53.357070  5339 layer_factory.hpp:74] Creating layer conv5_3_bn
I0418 16:23:53.357086  5339 net.cpp:90] Creating Layer conv5_3_bn
I0418 16:23:53.357094  5339 net.cpp:410] conv5_3_bn <- conv5_3
I0418 16:23:53.357102  5339 net.cpp:357] conv5_3_bn -> conv5_3 (in-place)
I0418 16:23:53.357112  5339 net.cpp:120] Setting up conv5_3_bn
I0418 16:23:53.357132  5339 net.cpp:127] Top shape: 2 512 14 14 (200704)
I0418 16:23:53.357141  5339 layer_factory.hpp:74] Creating layer relu5_3
I0418 16:23:53.357152  5339 net.cpp:90] Creating Layer relu5_3
I0418 16:23:53.357156  5339 net.cpp:410] relu5_3 <- conv5_3
I0418 16:23:53.357164  5339 net.cpp:357] relu5_3 -> conv5_3 (in-place)
I0418 16:23:53.357170  5339 net.cpp:120] Setting up relu5_3
I0418 16:23:53.358181  5339 net.cpp:127] Top shape: 2 512 14 14 (200704)
I0418 16:23:53.358193  5339 layer_factory.hpp:74] Creating layer pool5
I0418 16:23:53.358202  5339 layer_factory.cpp:55] CUDNN does not support padding or multiple tops. Using Caffe's own pooling layer.
I0418 16:23:53.358208  5339 net.cpp:90] Creating Layer pool5
I0418 16:23:53.358213  5339 net.cpp:410] pool5 <- conv5_3
I0418 16:23:53.358222  5339 net.cpp:368] pool5 -> pool5
I0418 16:23:53.358230  5339 net.cpp:368] pool5 -> pool5_mask
I0418 16:23:53.358237  5339 net.cpp:120] Setting up pool5
I0418 16:23:53.358247  5339 net.cpp:127] Top shape: 2 512 7 7 (50176)
I0418 16:23:53.358253  5339 net.cpp:127] Top shape: 2 512 7 7 (50176)
I0418 16:23:53.358258  5339 layer_factory.hpp:74] Creating layer upsample5
I0418 16:23:53.358264  5339 net.cpp:90] Creating Layer upsample5
I0418 16:23:53.358273  5339 net.cpp:410] upsample5 <- pool5
I0418 16:23:53.358278  5339 net.cpp:410] upsample5 <- pool5_mask
I0418 16:23:53.358285  5339 net.cpp:368] upsample5 -> pool5_D
I0418 16:23:53.358296  5339 net.cpp:120] Setting up upsample5
I0418 16:23:53.358304  5339 upsample_layer.cpp:31] Params 'pad_out_{}_' are deprecated. Please declare upsample height and width useing the upsample_h, upsample_w parameters.
I0418 16:23:53.358311  5339 net.cpp:127] Top shape: 2 512 14 14 (200704)
I0418 16:23:53.358316  5339 layer_factory.hpp:74] Creating layer conv5_3_D
I0418 16:23:53.358328  5339 net.cpp:90] Creating Layer conv5_3_D
I0418 16:23:53.358333  5339 net.cpp:410] conv5_3_D <- pool5_D
I0418 16:23:53.358340  5339 net.cpp:368] conv5_3_D -> conv5_3_D
I0418 16:23:53.358347  5339 net.cpp:120] Setting up conv5_3_D
I0418 16:23:53.439442  5339 net.cpp:127] Top shape: 2 512 14 14 (200704)
I0418 16:23:53.439482  5339 layer_factory.hpp:74] Creating layer conv5_3_D_bn
I0418 16:23:53.439502  5339 net.cpp:90] Creating Layer conv5_3_D_bn
I0418 16:23:53.439509  5339 net.cpp:410] conv5_3_D_bn <- conv5_3_D
I0418 16:23:53.439517  5339 net.cpp:357] conv5_3_D_bn -> conv5_3_D (in-place)
I0418 16:23:53.439528  5339 net.cpp:120] Setting up conv5_3_D_bn
I0418 16:23:53.439548  5339 net.cpp:127] Top shape: 2 512 14 14 (200704)
I0418 16:23:53.439555  5339 layer_factory.hpp:74] Creating layer relu5_3_D
I0418 16:23:53.439563  5339 net.cpp:90] Creating Layer relu5_3_D
I0418 16:23:53.439570  5339 net.cpp:410] relu5_3_D <- conv5_3_D
I0418 16:23:53.439576  5339 net.cpp:357] relu5_3_D -> conv5_3_D (in-place)
I0418 16:23:53.439584  5339 net.cpp:120] Setting up relu5_3_D
I0418 16:23:53.440567  5339 net.cpp:127] Top shape: 2 512 14 14 (200704)
I0418 16:23:53.440583  5339 layer_factory.hpp:74] Creating layer conv5_2_D
I0418 16:23:53.440594  5339 net.cpp:90] Creating Layer conv5_2_D
I0418 16:23:53.440599  5339 net.cpp:410] conv5_2_D <- conv5_3_D
I0418 16:23:53.440608  5339 net.cpp:368] conv5_2_D -> conv5_2_D
I0418 16:23:53.440616  5339 net.cpp:120] Setting up conv5_2_D
I0418 16:23:53.522122  5339 net.cpp:127] Top shape: 2 512 14 14 (200704)
I0418 16:23:53.522162  5339 layer_factory.hpp:74] Creating layer conv5_2_D_bn
I0418 16:23:53.522212  5339 net.cpp:90] Creating Layer conv5_2_D_bn
I0418 16:23:53.522222  5339 net.cpp:410] conv5_2_D_bn <- conv5_2_D
I0418 16:23:53.522230  5339 net.cpp:357] conv5_2_D_bn -> conv5_2_D (in-place)
I0418 16:23:53.522240  5339 net.cpp:120] Setting up conv5_2_D_bn
I0418 16:23:53.522264  5339 net.cpp:127] Top shape: 2 512 14 14 (200704)
I0418 16:23:53.522274  5339 layer_factory.hpp:74] Creating layer relu5_2_D
I0418 16:23:53.522281  5339 net.cpp:90] Creating Layer relu5_2_D
I0418 16:23:53.522286  5339 net.cpp:410] relu5_2_D <- conv5_2_D
I0418 16:23:53.522294  5339 net.cpp:357] relu5_2_D -> conv5_2_D (in-place)
I0418 16:23:53.522300  5339 net.cpp:120] Setting up relu5_2_D
I0418 16:23:53.523237  5339 net.cpp:127] Top shape: 2 512 14 14 (200704)
I0418 16:23:53.523249  5339 layer_factory.hpp:74] Creating layer conv5_1_D
I0418 16:23:53.523264  5339 net.cpp:90] Creating Layer conv5_1_D
I0418 16:23:53.523269  5339 net.cpp:410] conv5_1_D <- conv5_2_D
I0418 16:23:53.523278  5339 net.cpp:368] conv5_1_D -> conv5_1_D
I0418 16:23:53.523286  5339 net.cpp:120] Setting up conv5_1_D
I0418 16:23:53.604122  5339 net.cpp:127] Top shape: 2 512 14 14 (200704)
I0418 16:23:53.604161  5339 layer_factory.hpp:74] Creating layer conv5_1_D_bn
I0418 16:23:53.604178  5339 net.cpp:90] Creating Layer conv5_1_D_bn
I0418 16:23:53.604187  5339 net.cpp:410] conv5_1_D_bn <- conv5_1_D
I0418 16:23:53.604197  5339 net.cpp:357] conv5_1_D_bn -> conv5_1_D (in-place)
I0418 16:23:53.604207  5339 net.cpp:120] Setting up conv5_1_D_bn
I0418 16:23:53.604226  5339 net.cpp:127] Top shape: 2 512 14 14 (200704)
I0418 16:23:53.604233  5339 layer_factory.hpp:74] Creating layer relu5_1_D
I0418 16:23:53.604240  5339 net.cpp:90] Creating Layer relu5_1_D
I0418 16:23:53.604249  5339 net.cpp:410] relu5_1_D <- conv5_1_D
I0418 16:23:53.604254  5339 net.cpp:357] relu5_1_D -> conv5_1_D (in-place)
I0418 16:23:53.604260  5339 net.cpp:120] Setting up relu5_1_D
I0418 16:23:53.605386  5339 net.cpp:127] Top shape: 2 512 14 14 (200704)
I0418 16:23:53.605398  5339 layer_factory.hpp:74] Creating layer upsample4
I0418 16:23:53.605409  5339 net.cpp:90] Creating Layer upsample4
I0418 16:23:53.605414  5339 net.cpp:410] upsample4 <- conv5_1_D
I0418 16:23:53.605420  5339 net.cpp:410] upsample4 <- pool4_mask
I0418 16:23:53.605427  5339 net.cpp:368] upsample4 -> pool4_D
I0418 16:23:53.605434  5339 net.cpp:120] Setting up upsample4
I0418 16:23:53.605439  5339 upsample_layer.cpp:31] Params 'pad_out_{}_' are deprecated. Please declare upsample height and width useing the upsample_h, upsample_w parameters.
I0418 16:23:53.605449  5339 net.cpp:127] Top shape: 2 512 28 28 (802816)
I0418 16:23:53.605454  5339 layer_factory.hpp:74] Creating layer conv4_3_D
I0418 16:23:53.605468  5339 net.cpp:90] Creating Layer conv4_3_D
I0418 16:23:53.605475  5339 net.cpp:410] conv4_3_D <- pool4_D
I0418 16:23:53.605484  5339 net.cpp:368] conv4_3_D -> conv4_3_D
I0418 16:23:53.605497  5339 net.cpp:120] Setting up conv4_3_D
I0418 16:23:53.688513  5339 net.cpp:127] Top shape: 2 512 28 28 (802816)
I0418 16:23:53.688566  5339 layer_factory.hpp:74] Creating layer conv4_3_D_bn
I0418 16:23:53.688585  5339 net.cpp:90] Creating Layer conv4_3_D_bn
I0418 16:23:53.688591  5339 net.cpp:410] conv4_3_D_bn <- conv4_3_D
I0418 16:23:53.688604  5339 net.cpp:357] conv4_3_D_bn -> conv4_3_D (in-place)
I0418 16:23:53.688614  5339 net.cpp:120] Setting up conv4_3_D_bn
I0418 16:23:53.688639  5339 net.cpp:127] Top shape: 2 512 28 28 (802816)
I0418 16:23:53.688648  5339 layer_factory.hpp:74] Creating layer relu4_3_D
I0418 16:23:53.688657  5339 net.cpp:90] Creating Layer relu4_3_D
I0418 16:23:53.688660  5339 net.cpp:410] relu4_3_D <- conv4_3_D
I0418 16:23:53.688668  5339 net.cpp:357] relu4_3_D -> conv4_3_D (in-place)
I0418 16:23:53.688674  5339 net.cpp:120] Setting up relu4_3_D
I0418 16:23:53.689615  5339 net.cpp:127] Top shape: 2 512 28 28 (802816)
I0418 16:23:53.689630  5339 layer_factory.hpp:74] Creating layer conv4_2_D
I0418 16:23:53.689642  5339 net.cpp:90] Creating Layer conv4_2_D
I0418 16:23:53.689647  5339 net.cpp:410] conv4_2_D <- conv4_3_D
I0418 16:23:53.689676  5339 net.cpp:368] conv4_2_D -> conv4_2_D
I0418 16:23:53.689685  5339 net.cpp:120] Setting up conv4_2_D
I0418 16:23:53.771386  5339 net.cpp:127] Top shape: 2 512 28 28 (802816)
I0418 16:23:53.771428  5339 layer_factory.hpp:74] Creating layer conv4_2_D_bn
I0418 16:23:53.771447  5339 net.cpp:90] Creating Layer conv4_2_D_bn
I0418 16:23:53.771455  5339 net.cpp:410] conv4_2_D_bn <- conv4_2_D
I0418 16:23:53.771463  5339 net.cpp:357] conv4_2_D_bn -> conv4_2_D (in-place)
I0418 16:23:53.771474  5339 net.cpp:120] Setting up conv4_2_D_bn
I0418 16:23:53.771497  5339 net.cpp:127] Top shape: 2 512 28 28 (802816)
I0418 16:23:53.771504  5339 layer_factory.hpp:74] Creating layer relu4_2_D
I0418 16:23:53.771517  5339 net.cpp:90] Creating Layer relu4_2_D
I0418 16:23:53.771522  5339 net.cpp:410] relu4_2_D <- conv4_2_D
I0418 16:23:53.771529  5339 net.cpp:357] relu4_2_D -> conv4_2_D (in-place)
I0418 16:23:53.771536  5339 net.cpp:120] Setting up relu4_2_D
I0418 16:23:53.772961  5339 net.cpp:127] Top shape: 2 512 28 28 (802816)
I0418 16:23:53.772974  5339 layer_factory.hpp:74] Creating layer conv4_1_D
I0418 16:23:53.772985  5339 net.cpp:90] Creating Layer conv4_1_D
I0418 16:23:53.772990  5339 net.cpp:410] conv4_1_D <- conv4_2_D
I0418 16:23:53.772999  5339 net.cpp:368] conv4_1_D -> conv4_1_D
I0418 16:23:53.773007  5339 net.cpp:120] Setting up conv4_1_D
I0418 16:23:53.815454  5339 net.cpp:127] Top shape: 2 256 28 28 (401408)
I0418 16:23:53.815476  5339 layer_factory.hpp:74] Creating layer conv4_1_D_bn
I0418 16:23:53.815500  5339 net.cpp:90] Creating Layer conv4_1_D_bn
I0418 16:23:53.815505  5339 net.cpp:410] conv4_1_D_bn <- conv4_1_D
I0418 16:23:53.815513  5339 net.cpp:357] conv4_1_D_bn -> conv4_1_D (in-place)
I0418 16:23:53.815522  5339 net.cpp:120] Setting up conv4_1_D_bn
I0418 16:23:53.815543  5339 net.cpp:127] Top shape: 2 256 28 28 (401408)
I0418 16:23:53.815557  5339 layer_factory.hpp:74] Creating layer relu4_1_D
I0418 16:23:53.815563  5339 net.cpp:90] Creating Layer relu4_1_D
I0418 16:23:53.815568  5339 net.cpp:410] relu4_1_D <- conv4_1_D
I0418 16:23:53.815574  5339 net.cpp:357] relu4_1_D -> conv4_1_D (in-place)
I0418 16:23:53.815580  5339 net.cpp:120] Setting up relu4_1_D
I0418 16:23:53.816583  5339 net.cpp:127] Top shape: 2 256 28 28 (401408)
I0418 16:23:53.816596  5339 layer_factory.hpp:74] Creating layer upsample3
I0418 16:23:53.816604  5339 net.cpp:90] Creating Layer upsample3
I0418 16:23:53.816609  5339 net.cpp:410] upsample3 <- conv4_1_D
I0418 16:23:53.816615  5339 net.cpp:410] upsample3 <- pool3_mask
I0418 16:23:53.816622  5339 net.cpp:368] upsample3 -> pool3_D
I0418 16:23:53.816629  5339 net.cpp:120] Setting up upsample3
I0418 16:23:53.816634  5339 upsample_layer.cpp:31] Params 'pad_out_{}_' are deprecated. Please declare upsample height and width useing the upsample_h, upsample_w parameters.
I0418 16:23:53.816642  5339 net.cpp:127] Top shape: 2 256 56 56 (1605632)
I0418 16:23:53.816648  5339 layer_factory.hpp:74] Creating layer conv3_3_D
I0418 16:23:53.816658  5339 net.cpp:90] Creating Layer conv3_3_D
I0418 16:23:53.816663  5339 net.cpp:410] conv3_3_D <- pool3_D
I0418 16:23:53.816675  5339 net.cpp:368] conv3_3_D -> conv3_3_D
I0418 16:23:53.816684  5339 net.cpp:120] Setting up conv3_3_D
I0418 16:23:53.838980  5339 net.cpp:127] Top shape: 2 256 56 56 (1605632)
I0418 16:23:53.839004  5339 layer_factory.hpp:74] Creating layer conv3_3_D_bn
I0418 16:23:53.839017  5339 net.cpp:90] Creating Layer conv3_3_D_bn
I0418 16:23:53.839023  5339 net.cpp:410] conv3_3_D_bn <- conv3_3_D
I0418 16:23:53.839031  5339 net.cpp:357] conv3_3_D_bn -> conv3_3_D (in-place)
I0418 16:23:53.839040  5339 net.cpp:120] Setting up conv3_3_D_bn
I0418 16:23:53.839066  5339 net.cpp:127] Top shape: 2 256 56 56 (1605632)
I0418 16:23:53.839079  5339 layer_factory.hpp:74] Creating layer relu3_3_D
I0418 16:23:53.839087  5339 net.cpp:90] Creating Layer relu3_3_D
I0418 16:23:53.839092  5339 net.cpp:410] relu3_3_D <- conv3_3_D
I0418 16:23:53.839097  5339 net.cpp:357] relu3_3_D -> conv3_3_D (in-place)
I0418 16:23:53.839133  5339 net.cpp:120] Setting up relu3_3_D
I0418 16:23:53.840673  5339 net.cpp:127] Top shape: 2 256 56 56 (1605632)
I0418 16:23:53.840687  5339 layer_factory.hpp:74] Creating layer conv3_2_D
I0418 16:23:53.840698  5339 net.cpp:90] Creating Layer conv3_2_D
I0418 16:23:53.840703  5339 net.cpp:410] conv3_2_D <- conv3_3_D
I0418 16:23:53.840710  5339 net.cpp:368] conv3_2_D -> conv3_2_D
I0418 16:23:53.840718  5339 net.cpp:120] Setting up conv3_2_D
I0418 16:23:53.879093  5339 net.cpp:127] Top shape: 2 256 56 56 (1605632)
I0418 16:23:53.879120  5339 layer_factory.hpp:74] Creating layer conv3_2_D_bn
I0418 16:23:53.879134  5339 net.cpp:90] Creating Layer conv3_2_D_bn
I0418 16:23:53.879142  5339 net.cpp:410] conv3_2_D_bn <- conv3_2_D
I0418 16:23:53.879148  5339 net.cpp:357] conv3_2_D_bn -> conv3_2_D (in-place)
I0418 16:23:53.879155  5339 net.cpp:120] Setting up conv3_2_D_bn
I0418 16:23:53.879184  5339 net.cpp:127] Top shape: 2 256 56 56 (1605632)
I0418 16:23:53.879192  5339 layer_factory.hpp:74] Creating layer relu3_2_D
I0418 16:23:53.879201  5339 net.cpp:90] Creating Layer relu3_2_D
I0418 16:23:53.879205  5339 net.cpp:410] relu3_2_D <- conv3_2_D
I0418 16:23:53.879214  5339 net.cpp:357] relu3_2_D -> conv3_2_D (in-place)
I0418 16:23:53.879220  5339 net.cpp:120] Setting up relu3_2_D
I0418 16:23:53.880219  5339 net.cpp:127] Top shape: 2 256 56 56 (1605632)
I0418 16:23:53.880231  5339 layer_factory.hpp:74] Creating layer conv3_1_D
I0418 16:23:53.880239  5339 net.cpp:90] Creating Layer conv3_1_D
I0418 16:23:53.880244  5339 net.cpp:410] conv3_1_D <- conv3_2_D
I0418 16:23:53.880254  5339 net.cpp:368] conv3_1_D -> conv3_1_D
I0418 16:23:53.880262  5339 net.cpp:120] Setting up conv3_1_D
I0418 16:23:53.904989  5339 net.cpp:127] Top shape: 2 128 56 56 (802816)
I0418 16:23:53.905004  5339 layer_factory.hpp:74] Creating layer conv3_1_D_bn
I0418 16:23:53.905016  5339 net.cpp:90] Creating Layer conv3_1_D_bn
I0418 16:23:53.905022  5339 net.cpp:410] conv3_1_D_bn <- conv3_1_D
I0418 16:23:53.905028  5339 net.cpp:357] conv3_1_D_bn -> conv3_1_D (in-place)
I0418 16:23:53.905036  5339 net.cpp:120] Setting up conv3_1_D_bn
I0418 16:23:53.905061  5339 net.cpp:127] Top shape: 2 128 56 56 (802816)
I0418 16:23:53.905069  5339 layer_factory.hpp:74] Creating layer relu3_1_D
I0418 16:23:53.905078  5339 net.cpp:90] Creating Layer relu3_1_D
I0418 16:23:53.905083  5339 net.cpp:410] relu3_1_D <- conv3_1_D
I0418 16:23:53.905092  5339 net.cpp:357] relu3_1_D -> conv3_1_D (in-place)
I0418 16:23:53.905097  5339 net.cpp:120] Setting up relu3_1_D
I0418 16:23:53.906116  5339 net.cpp:127] Top shape: 2 128 56 56 (802816)
I0418 16:23:53.906128  5339 layer_factory.hpp:74] Creating layer upsample2
I0418 16:23:53.906138  5339 net.cpp:90] Creating Layer upsample2
I0418 16:23:53.906143  5339 net.cpp:410] upsample2 <- conv3_1_D
I0418 16:23:53.906149  5339 net.cpp:410] upsample2 <- pool2_mask
I0418 16:23:53.906157  5339 net.cpp:368] upsample2 -> pool2_D
I0418 16:23:53.906164  5339 net.cpp:120] Setting up upsample2
I0418 16:23:53.906169  5339 upsample_layer.cpp:31] Params 'pad_out_{}_' are deprecated. Please declare upsample height and width useing the upsample_h, upsample_w parameters.
I0418 16:23:53.906177  5339 net.cpp:127] Top shape: 2 128 112 112 (3211264)
I0418 16:23:53.906183  5339 layer_factory.hpp:74] Creating layer conv2_2_D
I0418 16:23:53.906191  5339 net.cpp:90] Creating Layer conv2_2_D
I0418 16:23:53.906196  5339 net.cpp:410] conv2_2_D <- pool2_D
I0418 16:23:53.906205  5339 net.cpp:368] conv2_2_D -> conv2_2_D
I0418 16:23:53.906213  5339 net.cpp:120] Setting up conv2_2_D
I0418 16:23:53.912710  5339 net.cpp:127] Top shape: 2 128 112 112 (3211264)
I0418 16:23:53.912726  5339 layer_factory.hpp:74] Creating layer conv2_2_D_bn
I0418 16:23:53.912739  5339 net.cpp:90] Creating Layer conv2_2_D_bn
I0418 16:23:53.912744  5339 net.cpp:410] conv2_2_D_bn <- conv2_2_D
I0418 16:23:53.912750  5339 net.cpp:357] conv2_2_D_bn -> conv2_2_D (in-place)
I0418 16:23:53.912757  5339 net.cpp:120] Setting up conv2_2_D_bn
I0418 16:23:53.912822  5339 net.cpp:127] Top shape: 2 128 112 112 (3211264)
I0418 16:23:53.912847  5339 layer_factory.hpp:74] Creating layer relu2_2_D
I0418 16:23:53.912856  5339 net.cpp:90] Creating Layer relu2_2_D
I0418 16:23:53.912861  5339 net.cpp:410] relu2_2_D <- conv2_2_D
I0418 16:23:53.912868  5339 net.cpp:357] relu2_2_D -> conv2_2_D (in-place)
I0418 16:23:53.912874  5339 net.cpp:120] Setting up relu2_2_D
I0418 16:23:53.913806  5339 net.cpp:127] Top shape: 2 128 112 112 (3211264)
I0418 16:23:53.913820  5339 layer_factory.hpp:74] Creating layer conv2_1_D
I0418 16:23:53.913828  5339 net.cpp:90] Creating Layer conv2_1_D
I0418 16:23:53.913833  5339 net.cpp:410] conv2_1_D <- conv2_2_D
I0418 16:23:53.913842  5339 net.cpp:368] conv2_1_D -> conv2_1_D
I0418 16:23:53.913851  5339 net.cpp:120] Setting up conv2_1_D
I0418 16:23:53.918493  5339 net.cpp:127] Top shape: 2 64 112 112 (1605632)
I0418 16:23:53.918509  5339 layer_factory.hpp:74] Creating layer conv2_1_D_bn
I0418 16:23:53.918521  5339 net.cpp:90] Creating Layer conv2_1_D_bn
I0418 16:23:53.918526  5339 net.cpp:410] conv2_1_D_bn <- conv2_1_D
I0418 16:23:53.918534  5339 net.cpp:357] conv2_1_D_bn -> conv2_1_D (in-place)
I0418 16:23:53.918542  5339 net.cpp:120] Setting up conv2_1_D_bn
I0418 16:23:53.918604  5339 net.cpp:127] Top shape: 2 64 112 112 (1605632)
I0418 16:23:53.918618  5339 layer_factory.hpp:74] Creating layer relu2_1_D
I0418 16:23:53.918627  5339 net.cpp:90] Creating Layer relu2_1_D
I0418 16:23:53.918630  5339 net.cpp:410] relu2_1_D <- conv2_1_D
I0418 16:23:53.918637  5339 net.cpp:357] relu2_1_D -> conv2_1_D (in-place)
I0418 16:23:53.918643  5339 net.cpp:120] Setting up relu2_1_D
I0418 16:23:53.919888  5339 net.cpp:127] Top shape: 2 64 112 112 (1605632)
I0418 16:23:53.919900  5339 layer_factory.hpp:74] Creating layer upsample1
I0418 16:23:53.919908  5339 net.cpp:90] Creating Layer upsample1
I0418 16:23:53.919912  5339 net.cpp:410] upsample1 <- conv2_1_D
I0418 16:23:53.919919  5339 net.cpp:410] upsample1 <- pool1_mask
I0418 16:23:53.919925  5339 net.cpp:368] upsample1 -> pool1_D
I0418 16:23:53.919934  5339 net.cpp:120] Setting up upsample1
I0418 16:23:53.919939  5339 upsample_layer.cpp:31] Params 'pad_out_{}_' are deprecated. Please declare upsample height and width useing the upsample_h, upsample_w parameters.
I0418 16:23:53.919945  5339 net.cpp:127] Top shape: 2 64 224 224 (6422528)
I0418 16:23:53.919950  5339 layer_factory.hpp:74] Creating layer conv1_2_D
I0418 16:23:53.919960  5339 net.cpp:90] Creating Layer conv1_2_D
I0418 16:23:53.919965  5339 net.cpp:410] conv1_2_D <- pool1_D
I0418 16:23:53.919975  5339 net.cpp:368] conv1_2_D -> conv1_2_D
I0418 16:23:53.919984  5339 net.cpp:120] Setting up conv1_2_D
I0418 16:23:53.923600  5339 net.cpp:127] Top shape: 2 64 224 224 (6422528)
I0418 16:23:53.923617  5339 layer_factory.hpp:74] Creating layer conv1_2_D_bn
I0418 16:23:53.923627  5339 net.cpp:90] Creating Layer conv1_2_D_bn
I0418 16:23:53.923635  5339 net.cpp:410] conv1_2_D_bn <- conv1_2_D
I0418 16:23:53.923641  5339 net.cpp:357] conv1_2_D_bn -> conv1_2_D (in-place)
I0418 16:23:53.923648  5339 net.cpp:120] Setting up conv1_2_D_bn
I0418 16:23:53.923840  5339 net.cpp:127] Top shape: 2 64 224 224 (6422528)
I0418 16:23:53.923854  5339 layer_factory.hpp:74] Creating layer relu1_2_D
I0418 16:23:53.923863  5339 net.cpp:90] Creating Layer relu1_2_D
I0418 16:23:53.923868  5339 net.cpp:410] relu1_2_D <- conv1_2_D
I0418 16:23:53.923873  5339 net.cpp:357] relu1_2_D -> conv1_2_D (in-place)
I0418 16:23:53.923883  5339 net.cpp:120] Setting up relu1_2_D
I0418 16:23:53.924216  5339 net.cpp:127] Top shape: 2 64 224 224 (6422528)
I0418 16:23:53.924227  5339 layer_factory.hpp:74] Creating layer conv1_1_D
I0418 16:23:53.924239  5339 net.cpp:90] Creating Layer conv1_1_D
I0418 16:23:53.924244  5339 net.cpp:410] conv1_1_D <- conv1_2_D
I0418 16:23:53.924252  5339 net.cpp:368] conv1_1_D -> conv1_1_D
I0418 16:23:53.924258  5339 net.cpp:120] Setting up conv1_1_D
I0418 16:23:53.926857  5339 net.cpp:127] Top shape: 2 21 224 224 (2107392)
I0418 16:23:53.926875  5339 layer_factory.hpp:74] Creating layer conv1_1_D_conv1_1_D_0_split
I0418 16:23:53.926884  5339 net.cpp:90] Creating Layer conv1_1_D_conv1_1_D_0_split
I0418 16:23:53.926899  5339 net.cpp:410] conv1_1_D_conv1_1_D_0_split <- conv1_1_D
I0418 16:23:53.926908  5339 net.cpp:368] conv1_1_D_conv1_1_D_0_split -> conv1_1_D_conv1_1_D_0_split_0
I0418 16:23:53.926915  5339 net.cpp:368] conv1_1_D_conv1_1_D_0_split -> conv1_1_D_conv1_1_D_0_split_1
I0418 16:23:53.926921  5339 net.cpp:120] Setting up conv1_1_D_conv1_1_D_0_split
I0418 16:23:53.926929  5339 net.cpp:127] Top shape: 2 21 224 224 (2107392)
I0418 16:23:53.926934  5339 net.cpp:127] Top shape: 2 21 224 224 (2107392)
I0418 16:23:53.926939  5339 layer_factory.hpp:74] Creating layer loss
I0418 16:23:53.926952  5339 net.cpp:90] Creating Layer loss
I0418 16:23:53.926959  5339 net.cpp:410] loss <- conv1_1_D_conv1_1_D_0_split_0
I0418 16:23:53.926964  5339 net.cpp:410] loss <- label_data_1_split_0
I0418 16:23:53.926970  5339 net.cpp:368] loss -> loss
I0418 16:23:53.926982  5339 net.cpp:120] Setting up loss
I0418 16:23:53.926991  5339 layer_factory.hpp:74] Creating layer loss
I0418 16:23:53.930320  5339 net.cpp:127] Top shape: (1)
I0418 16:23:53.930359  5339 net.cpp:129]     with loss weight 1
I0418 16:23:53.930392  5339 layer_factory.hpp:74] Creating layer accuracy
I0418 16:23:53.930404  5339 net.cpp:90] Creating Layer accuracy
I0418 16:23:53.930411  5339 net.cpp:410] accuracy <- conv1_1_D_conv1_1_D_0_split_1
I0418 16:23:53.930419  5339 net.cpp:410] accuracy <- label_data_1_split_1
I0418 16:23:53.930431  5339 net.cpp:368] accuracy -> accuracy
I0418 16:23:53.930441  5339 net.cpp:368] accuracy -> per_class_accuracy
I0418 16:23:53.930449  5339 net.cpp:120] Setting up accuracy
I0418 16:23:53.930465  5339 accuracy_layer.cpp:24] Per-class accuracies currently only work on TRAIN phase only.
I0418 16:23:53.930474  5339 net.cpp:127] Top shape: (1)
I0418 16:23:53.930480  5339 net.cpp:127] Top shape: 21 1 1 1 (21)
I0418 16:23:53.930485  5339 net.cpp:194] accuracy does not need backward computation.
I0418 16:23:53.930491  5339 net.cpp:192] loss needs backward computation.
I0418 16:23:53.930496  5339 net.cpp:192] conv1_1_D_conv1_1_D_0_split needs backward computation.
I0418 16:23:53.930500  5339 net.cpp:192] conv1_1_D needs backward computation.
I0418 16:23:53.930505  5339 net.cpp:192] relu1_2_D needs backward computation.
…
