…
  phase: TRAIN
}
layer {
  name: "data"
  type: "Data"
  top: "data"
  include {
    phase: TRAIN
  }
  transform_param {
    mean_value: 104.00699
    mean_value: 116.66877
    mean_value: 122.67892
  }
  data_param {
    source: "/home/shared/datasets/VOCdevkit/VOC2012/LMDB_224x224/train_lmdb"
    batch_size: 2
    backend: LMDB
  }
}
layer {
  name: "label"
  type: "Data"
  top: "label"
  include {
    phase: TRAIN
  }
  data_param {
    source: "/home/shared/datasets/VOCdevkit/VOC2012/LMDB_224x224/train_gt_lmdb"
    batch_size: 2
    backend: LMDB
  }
}
layer {
  name: "conv1_1"
  type: "Convolution"
  bottom: "data"
  top: "conv1_1"
  param {
    lr_mult: 1
    decay_mult: 1
  }
  param {
    lr_mult: 2
    decay_mult: 0
  }
  convolution_param {
    num_output: 64
    pad: 1
    kernel_size: 3
    weight_filler {
      type: "msra"
    }
    bias_filler {
      type: "constant"
    }
  }
}
layer {
  name: "conv1_1_bn"
  type: "BN"
  bottom: "conv1_1"
  top: "conv1_1"
  param {
    lr_mult: 1
    decay_mult: 1
  }
  param {
    lr_mult: 1
    decay_mult: 0
  }
  bn_param {
    scale_filler {
      type: "constant"
      value: 1
    }
    shift_filler {
      type: "constant"
      value: 0.001
    }
  }
}
layer {
  name: "relu1_1"
  type: "ReLU"
  bottom: "conv1_1"
  top: "conv1_1"
}
layer {
  name: "conv1_2"
  type: "Convolution"
  bottom: "conv1_1"
  top: "conv1_2"
  param {
    lr_mult: 1
    decay_mult: 1
  }
  param {
    lr_mult: 2
    decay_mult: 0
  }
  convolution_param {
    num_output: 64
    pad: 1
    kernel_size: 3
    weight_filler {
      type: "msra"
    }
    bias_filler {
      type: "constant"
    }
  }
}
layer {
  name: "conv1_2_bn"
  type: "BN"
  bottom: "conv1_2"
  top: "conv1_2"
  param {
    lr_mult: 1
    decay_mult: 1
  }
  param {
    lr_mult: 1
    decay_mult: 0
  }
  bn_param {
    scale_filler {
      type: "constant"
      value: 1
    }
    shift_filler {
      type: "constant"
      value: 0.001
    }
  }
}
layer {
  name: "relu1_2"
  type: "ReLU"
  bottom: "conv1_2"
  top: "conv1_2"
}
layer {
  name: "pool1"
  type: "Pooling"
  bottom: "conv1_2"
  top: "pool1"
  top: "pool1_mask"
  pooling_param {
    pool: MAX
    kernel_size: 2
    stride: 2
  }
}
layer {
  name: "conv2_1"
  type: "Convolution"
  bottom: "pool1"
  top: "conv2_1"
  param {
    lr_mult: 1
    decay_mult: 1
  }
  param {
    lr_mult: 2
    decay_mult: 0
  }
  convolution_param {
    num_output: 128
    pad: 1
    kernel_size: 3
    weight_filler {
      type: "msra"
    }
    bias_filler {
      type: "constant"
    }
  }
}
layer {
  name: "conv2_1_bn"
  type: "BN"
  bottom: "conv2_1"
  top: "conv2_1"
  param {
    lr_mult: 1
    decay_mult: 1
  }
  param {
    lr_mult: 1
    decay_mult: 0
  }
  bn_param {
    scale_filler {
      type: "constant"
      value: 1
    }
    shift_filler {
      type: "constant"
      value: 0.001
    }
  }
}
layer {
  name: "relu2_1"
  type: "ReLU"
  bottom: "conv2_1"
  top: "conv2_1"
}
layer {
  name: "conv2_2"
  type: "Convolution"
  bottom: "conv2_1"
  top: "conv2_2"
  param {
    lr_mult: 1
    decay_mult: 1
  }
  param {
    lr_mult: 2
    decay_mult: 0
  }
  convolution_param {
    num_output: 128
    pad: 1
    kernel_size: 3
    weight_filler {
      type: "msra"
    }
    bias_filler {
      type: "constant"
    }
  }
}
layer {
  name: "conv2_2_bn"
  type: "BN"
  bottom: "conv2_2"
  top: "conv2_2"
  param {
    lr_mult: 1
    decay_mult: 1
  }
  param {
    lr_mult: 1
    decay_mult: 0
  }
  bn_param {
    scale_filler {
      type: "constant"
      value: 1
    }
    shift_filler {
      type: "constant"
      value: 0.001
    }
  }
}
layer {
  name: "relu2_2"
  type: "ReLU"
  bottom: "conv2_2"
  top: "conv2_2"
}
layer {
  name: "pool2"
  type: "Pooling"
  bottom: "conv2_2"
  top: "pool2"
  top: "pool2_mask"
  pooling_param {
    pool: MAX
    kernel_size: 2
    stride: 2
  }
}
layer {
  name: "conv3_1"
  type: "Convolution"
  bottom: "pool2"
  top: "conv3_1"
  param {
    lr_mult: 1
    decay_mult: 1
  }
  param {
    lr_mult: 2
    decay_mult: 0
  }
  convolution_param {
    num_output: 256
    pad: 1
    kernel_size: 3
    weight_filler {
      type: "msra"
    }
    bias_filler {
      type: "constant"
    }
  }
}
layer {
  name: "conv3_1_bn"
  type: "BN"
  bottom: "conv3_1"
  top: "conv3_1"
  param {
    lr_mult: 1
    decay_mult: 1
  }
  param {
    lr_mult: 1
    decay_mult: 0
  }
  bn_param {
    scale_filler {
      type: "constant"
      value: 1
    }
    shift_filler {
      type: "constant"
      value: 0.001
    }
  }
}
layer {
  name: "relu3_1"
  type: "ReLU"
  bottom: "conv3_1"
  top: "conv3_1"
}
layer {
  name: "conv3_2"
  type: "Convolution"
  bottom: "conv3_1"
  top: "conv3_2"
  param {
    lr_mult: 1
    decay_mult: 1
  }
  param {
    lr_mult: 2
    decay_mult: 0
  }
  convolution_param {
    num_output: 256
    pad: 1
    kernel_size: 3
    weight_filler {
      type: "msra"
    }
    bias_filler {
      type: "constant"
    }
  }
}
layer {
  name: "conv3_2_bn"
  type: "BN"
  bottom: "conv3_2"
  top: "conv3_2"
  param {
    lr_mult: 1
    decay_mult: 1
  }
  param {
    lr_mult: 1
    decay_mult: 0
  }
  bn_param {
    scale_filler {
      type: "constant"
      value: 1
    }
    shift_filler {
      type: "constant"
      value: 0.001
    }
  }
}
layer {
  name: "relu3_2"
  type: "ReLU"
  bottom: "conv3_2"
  top: "conv3_2"
}
layer {
  name: "conv3_3"
  type: "Convolution"
  bottom: "conv3_2"
  top: "conv3_3"
  param {
    lr_mult: 1
    decay_mult: 1
  }
  param {
    lr_mult: 2
    decay_mult: 0
  }
  convolution_param {
    num_output: 256
    pad: 1
    kernel_size: 3
    weight_filler {
      type: "msra"
    }
    bias_filler {
      type: "constant"
    }
  }
}
layer {
  name: "conv3_3_bn"
  type: "BN"
  bottom: "conv3_3"
  top: "conv3_3"
  param {
    lr_mult: 1
    decay_mult: 1
  }
  param {
    lr_mult: 1
    decay_mult: 0
  }
  bn_param {
    scale_filler {
      type: "constant"
      value: 1
    }
    shift_filler {
      type: "constant"
      value: 0.001
    }
  }
}
layer {
  name: "relu3_3"
  type: "ReLU"
  bottom: "conv3_3"
  top: "conv3_3"
}
layer {
  name: "pool3"
  type: "Pooling"
  bottom: "conv3_3"
  top: "pool3"
  top: "pool3_mask"
  pooling_param {
    pool: MAX
    kernel_size: 2
    stride: 2
  }
}
layer {
  name: "conv4_1"
  type: "Convolution"
  bottom: "pool3"
  top: "conv4_1"
  param {
    lr_mult: 1
    decay_mult: 1
  }
  param {
    lr_mult: 2
    decay_mult: 0
  }
  convolution_param {
    num_output: 512
    pad: 1
    kernel_size: 3
    weight_filler {
      type: "msra"
    }
    bias_filler {
      type: "constant"
    }
  }
}
layer {
  name: "conv4_1_bn"
  type: "BN"
  bottom: "conv4_1"
  top: "conv4_1"
  param {
    lr_mult: 1
    decay_mult: 1
  }
  param {
    lr_mult: 1
    decay_mult: 0
  }
  bn_param {
    scale_filler {
      type: "constant"
      value: 1
    }
    shift_filler {
      type: "constant"
      value: 0.001
    }
  }
}
layer {
  name: "relu4_1"
  type: "ReLU"
  bottom: "conv4_1"
  top: "conv4_1"
}
layer {
  name: "conv4_2"
  type: "Convolution"
  bottom: "conv4_1"
  top: "conv4_2"
  param {
    lr_mult: 1
    decay_mult: 1
  }
  param {
    lr_mult: 2
    decay_mult: 0
  }
  convolution_param {
    num_output: 512
    pad: 1
    kernel_size: 3
    weight_filler {
      type: "msra"
    }
    bias_filler {
      type: "constant"
    }
  }
}
layer {
  name: "conv4_2_bn"
  type: "BN"
  bottom: "conv4_2"
  top: "conv4_2"
  param {
    lr_mult: 1
    decay_mult: 1
  }
  param {
    lr_mult: 1
    decay_mult: 0
  }
  bn_param {
    scale_filler {
      type: "constant"
      value: 1
    }
    shift_filler {
      type: "constant"
      value: 0.001
    }
  }
}
layer {
  name: "relu4_2"
  type: "ReLU"
  bottom: "conv4_2"
  top: "conv4_2"
}
layer {
  name: "conv4_3"
  type: "Convolution"
  bottom: "conv4_2"
  top: "conv4_3"
  param {
    lr_mult: 1
    decay_mult: 1
  }
  param {
    lr_mult: 2
    decay_mult: 0
  }
  convolution_param {
    num_output: 512
    pad: 1
    kernel_size: 3
    weight_filler {
      type: "msra"
    }
    bias_filler {
      type: "constant"
    }
  }
}
layer {
  name: "conv4_3_bn"
  type: "BN"
  bottom: "conv4_3"
  top: "conv4_3"
  param {
    lr_mult: 1
    decay_mult: 1
  }
  param {
    lr_mult: 1
    decay_mult: 0
  }
  bn_param {
    scale_filler {
      type: "constant"
      value: 1
    }
    shift_filler {
      type: "constant"
      value: 0.001
    }
  }
}
layer {
  name: "relu4_3"
  type: "ReLU"
  bottom: "conv4_3"
  top: "conv4_3"
}
layer {
  name: "pool4"
  type: "Pooling"
  bottom: "conv4_3"
  top: "pool4"
  top: "pool4_mask"
  pooling_param {
    pool: MAX
    kernel_size: 2
    stride: 2
  }
}
layer {
  name: "conv5_1"
  type: "Convolution"
  bottom: "pool4"
  top: "conv5_1"
  param {
    lr_mult: 1
    decay_mult: 1
  }
  param {
    lr_mult: 2
    decay_mult: 0
  }
  convolution_param {
    num_output: 512
    pad: 1
    kernel_size: 3
    weight_filler {
      type: "msra"
    }
    bias_filler {
      type: "constant"
    }
  }
}
layer {
  name: "conv5_1_bn"
  type: "BN"
  bottom: "conv5_1"
  top: "conv5_1"
  param {
    lr_mult: 1
    decay_mult: 1
  }
  param {
    lr_mult: 1
    decay_mult: 0
  }
  bn_param {
    scale_filler {
      type: "constant"
      value: 1
    }
    shift_filler {
      type: "constant"
      value: 0.001
    }
  }
}
layer {
  name: "relu5_1"
  type: "ReLU"
  bottom: "conv5_1"
  top: "conv5_1"
}
layer {
  name: "conv5_2"
  type: "Convolution"
  bottom: "conv5_1"
  top: "conv5_2"
  param {
    lr_mult: 1
    decay_mult: 1
  }
  param {
    lr_mult: 2
    decay_mult: 0
  }
  convolution_param {
    num_output: 512
    pad: 1
    kernel_size: 3
    weight_filler {
      type: "msra"
    }
    bias_filler {
      type: "constant"
    }
  }
}
layer {
  name: "conv5_2_bn"
  type: "BN"
  bottom: "conv5_2"
  top: "conv5_2"
  param {
    lr_mult: 1
    decay_mult: 1
  }
  param {
    lr_mult: 1
    decay_mult: 0
  }
  bn_param {
    scale_filler {
      type: "constant"
      value: 1
    }
    shift_filler {
      type: "constant"
      value: 0.001
    }
  }
}
layer {
  name: "relu5_2"
  type: "ReLU"
  bottom: "conv5_2"
  top: "conv5_2"
}
layer {
  name: "conv5_3"
  type: "Convolution"
  bottom: "conv5_2"
  top: "conv5_3"
  param {
    lr_mult: 1
    decay_mult: 1
  }
  param {
    lr_mult: 2
    decay_mult: 0
  }
  convolution_param {
    num_output: 512
    pad: 1
    kernel_size: 3
    weight_filler {
      type: "msra"
    }
    bias_filler {
      type: "constant"
    }
  }
}
layer {
  name: "conv5_3_bn"
  type: "BN"
  bottom: "conv5_3"
  top: "conv5_3"
  param {
    lr_mult: 1
    decay_mult: 1
  }
  param {
    lr_mult: 1
    decay_mult: 0
  }
  bn_param {
    scale_filler {
      type: "constant"
      value: 1
    }
    shift_filler {
      type: "constant"
      value: 0.001
    }
  }
}
layer {
  name: "relu5_3"
  type: "ReLU"
  bottom: "conv5_3"
  top: "conv5_3"
}
layer {
  name: "pool5"
  type: "Pooling"
  bottom: "conv5_3"
  top: "pool5"
  top: "pool5_mask"
  pooling_param {
    pool: MAX
    kernel_size: 2
    stride: 2
  }
}
layer {
  name: "upsample5"
  type: "Upsample"
  bottom: "pool5"
  bottom: "pool5_mask"
  top: "pool5_D"
  upsample_param {
    scale: 2
  }
}
layer {
  name: "conv5_3_D"
  type: "Convolution"
  bottom: "pool5_D"
  top: "conv5_3_D"
  param {
    lr_mult: 1
    decay_mult: 1
  }
  param {
    lr_mult: 2
    decay_mult: 0
  }
  convolution_param {
    num_output: 512
    pad: 1
    kernel_size: 3
    weight_filler {
      type: "msra"
    }
    bias_filler {
      type: "constant"
    }
  }
}
layer {
  name: "conv5_3_D_bn"
  type: "BN"
  bottom: "conv5_3_D"
  top: "conv5_3_D"
  param {
    lr_mult: 1
    decay_mult: 1
  }
  param {
    lr_mult: 1
    decay_mult: 0
  }
  bn_param {
    scale_filler {
      type: "constant"
      value: 1
    }
    shift_filler {
      type: "constant"
      value: 0.001
    }
  }
}
layer {
  name: "relu5_3_D"
  type: "ReLU"
  bottom: "conv5_3_D"
  top: "conv5_3_D"
}
layer {
  name: "conv5_2_D"
  type: "Convolution"
  bottom: "conv5_3_D"
  top: "conv5_2_D"
  param {
    lr_mult: 1
    decay_mult: 1
  }
  param {
    lr_mult: 2
    decay_mult: 0
  }
  convolution_param {
    num_output: 512
    pad: 1
    kernel_size: 3
    weight_filler {
      type: "msra"
    }
    bias_filler {
      type: "constant"
    }
  }
}
layer {
  name: "conv5_2_D_bn"
  type: "BN"
  bottom: "conv5_2_D"
  top: "conv5_2_D"
  param {
    lr_mult: 1
    decay_mult: 1
  }
  param {
    lr_mult: 1
    decay_mult: 0
  }
  bn_param {
    scale_filler {
      type: "constant"
      value: 1
    }
    shift_filler {
      type: "constant"
      value: 0.001
    }
  }
}
layer {
  name: "relu5_2_D"
  type: "ReLU"
  bottom: "conv5_2_D"
  top: "conv5_2_D"
}
layer {
  name: "conv5_1_D"
  type: "Convolution"
  bottom: "conv5_2_D"
  top: "conv5_1_D"
  param {
    lr_mult: 1
    decay_mult: 1
  }
  param {
    lr_mult: 2
    decay_mult: 0
  }
  convolution_param {
    num_output: 512
    pad: 1
    kernel_size: 3
    weight_filler {
      type: "msra"
    }
    bias_filler {
      type: "constant"
    }
  }
}
layer {
  name: "conv5_1_D_bn"
  type: "BN"
  bottom: "conv5_1_D"
  top: "conv5_1_D"
  param {
    lr_mult: 1
    decay_mult: 1
  }
  param {
    lr_mult: 1
    decay_mult: 0
  }
  bn_param {
    scale_filler {
      type: "constant"
      value: 1
    }
    shift_filler {
      type: "constant"
      value: 0.001
    }
  }
}
layer {
  name: "relu5_1_D"
  type: "ReLU"
  bottom: "conv5_1_D"
  top: "conv5_1_D"
}
layer {
  name: "upsample4"
  type: "Upsample"
  bottom: "conv5_1_D"
  bottom: "pool4_mask"
  top: "pool4_D"
  upsample_param {
    scale: 2
  }
}
layer {
  name: "conv4_3_D"
  type: "Convolution"
  bottom: "pool4_D"
  top: "conv4_3_D"
  param {
    lr_mult: 1
    decay_mult: 1
  }
  param {
    lr_mult: 2
    decay_mult: 0
  }
  convolution_param {
    num_output: 512
    pad: 1
    kernel_size: 3
    weight_filler {
      type: "msra"
    }
    bias_filler {
      type: "constant"
    }
  }
}
layer {
  name: "conv4_3_D_bn"
  type: "BN"
  bottom: "conv4_3_D"
  top: "conv4_3_D"
  param {
    lr_mult: 1
    decay_mult: 1
  }
  param {
    lr_mult: 1
    decay_mult: 0
  }
  bn_param {
    scale_filler {
      type: "constant"
      value: 1
    }
    shift_filler {
      type: "constant"
      value: 0.001
    }
  }
}
layer {
  name: "relu4_3_D"
  type: "ReLU"
  bottom: "conv4_3_D"
  top: "conv4_3_D"
}
layer {
  name: "conv4_2_D"
  type: "Convolution"
  bottom: "conv4_3_D"
  top: "conv4_2_D"
  param {
    lr_mult: 1
    decay_mult: 1
  }
  param {
    lr_mult: 2
    decay_mult: 0
  }
  convolution_param {
    num_output: 512
    pad: 1
    kernel_size: 3
    weight_filler {
      type: "msra"
    }
    bias_filler {
      type: "constant"
    }
  }
}
layer {
  name: "conv4_2_D_bn"
  type: "BN"
  bottom: "conv4_2_D"
  top: "conv4_2_D"
  param {
    lr_mult: 1
    decay_mult: 1
  }
  param {
    lr_mult: 1
    decay_mult: 0
  }
  bn_param {
    scale_filler {
      type: "constant"
      value: 1
    }
    shift_filler {
      type: "constant"
      value: 0.001
    }
  }
}
layer {
  name: "relu4_2_D"
  type: "ReLU"
  bottom: "conv4_2_D"
  top: "conv4_2_D"
}
layer {
  name: "conv4_1_D"
  type: "Convolution"
  bottom: "conv4_2_D"
  top: "conv4_1_D"
  param {
    lr_mult: 1
    decay_mult: 1
  }
  param {
    lr_mult: 2
    decay_mult: 0
  }
  convolution_param {
    num_output: 256
    pad: 1
    kernel_size: 3
    weight_filler {
      type: "msra"
    }
    bias_filler {
      type: "constant"
    }
  }
}
layer {
  name: "conv4_1_D_bn"
  type: "BN"
  bottom: "conv4_1_D"
  top: "conv4_1_D"
  param {
    lr_mult: 1
    decay_mult: 1
  }
  param {
    lr_mult: 1
    decay_mult: 0
  }
  bn_param {
    scale_filler {
      type: "constant"
      value: 1
    }
    shift_filler {
      type: "constant"
      value: 0.001
    }
  }
}
layer {
  name: "relu4_1_D"
  type: "ReLU"
  bottom: "conv4_1_D"
  top: "conv4_1_D"
}
layer {
  name: "upsample3"
  type: "Upsample"
  bottom: "conv4_1_D"
  bottom: "pool3_mask"
  top: "pool3_D"
  upsample_param {
    scale: 2
  }
}
layer {
  name: "conv3_3_D"
  type: "Convolution"
  bottom: "pool3_D"
  top: "conv3_3_D"
  param {
    lr_mult: 1
    decay_mult: 1
  }
  param {
    lr_mult: 2
    decay_mult: 0
  }
  convolution_param {
    num_output: 256
    pad: 1
    kernel_size: 3
    weight_filler {
      type: "msra"
    }
    bias_filler {
      type: "constant"
    }
  }
}
layer {
  name: "conv3_3_D_bn"
  type: "BN"
  bottom: "conv3_3_D"
  top: "conv3_3_D"
  param {
    lr_mult: 1
    decay_mult: 1
  }
  param {
    lr_mult: 1
    decay_mult: 0
  }
  bn_param {
    scale_filler {
      type: "constant"
      value: 1
    }
    shift_filler {
      type: "constant"
      value: 0.001
    }
  }
}
layer {
  name: "relu3_3_D"
  type: "ReLU"
  bottom: "conv3_3_D"
  top: "conv3_3_D"
}
layer {
  name: "conv3_2_D"
  type: "Convolution"
  bottom: "conv3_3_D"
  top: "conv3_2_D"
  param {
    lr_mult: 1
    decay_mult: 1
  }
  param {
    lr_mult: 2
    decay_mult: 0
  }
  convolution_param {
    num_output: 256
    pad: 1
    kernel_size: 3
    weight_filler {
      type: "msra"
    }
    bias_filler {
      type: "constant"
    }
  }
}
layer {
  name: "conv3_2_D_bn"
  type: "BN"
  bottom: "conv3_2_D"
  top: "conv3_2_D"
  param {
    lr_mult: 1
    decay_mult: 1
  }
  param {
    lr_mult: 1
    decay_mult: 0
  }
  bn_param {
    scale_filler {
      type: "constant"
      value: 1
    }
    shift_filler {
      type: "constant"
      value: 0.001
    }
  }
}
layer {
  name: "relu3_2_D"
  type: "ReLU"
  bottom: "conv3_2_D"
  top: "conv3_2_D"
}
layer {
  name: "conv3_1_D"
  type: "Convolution"
  bottom: "conv3_2_D"
  top: "conv3_1_D"
  param {
    lr_mult: 1
    decay_mult: 1
  }
  param {
    lr_mult: 2
    decay_mult: 0
  }
  convolution_param {
    num_output: 128
    pad: 1
    kernel_size: 3
    weight_filler {
      type: "msra"
    }
    bias_filler {
      type: "constant"
    }
  }
}
layer {
  name: "conv3_1_D_bn"
  type: "BN"
  bottom: "conv3_1_D"
  top: "conv3_1_D"
  param {
    lr_mult: 1
    decay_mult: 1
  }
  param {
    lr_mult: 1
    decay_mult: 0
  }
  bn_param {
    scale_filler {
      type: "constant"
      value: 1
    }
    shift_filler {
      type: "constant"
      value: 0.001
    }
  }
}
layer {
  name: "relu3_1_D"
  type: "ReLU"
  bottom: "conv3_1_D"
  top: "conv3_1_D"
}
layer {
  name: "upsample2"
  type: "Upsample"
  bottom: "conv3_1_D"
  bottom: "pool2_mask"
  top: "pool2_D"
  upsample_param {
    scale: 2
  }
}
layer {
  name: "conv2_2_D"
  type: "Convolution"
  bottom: "pool2_D"
  top: "conv2_2_D"
  param {
    lr_mult: 1
    decay_mult: 1
  }
  param {
    lr_mult: 2
    decay_mult: 0
  }
  convolution_param {
    num_output: 128
    pad: 1
    kernel_size: 3
    weight_filler {
      type: "msra"
    }
    bias_filler {
      type: "constant"
    }
  }
}
layer {
  name: "conv2_2_D_bn"
  type: "BN"
  bottom: "conv2_2_D"
  top: "conv2_2_D"
  param {
    lr_mult: 1
    decay_mult: 1
  }
  param {
    lr_mult: 1
    decay_mult: 0
  }
  bn_param {
    scale_filler {
      type: "constant"
      value: 1
    }
    shift_filler {
      type: "constant"
      value: 0.001
    }
  }
}
layer {
  name: "relu2_2_D"
  type: "ReLU"
  bottom: "conv2_2_D"
  top: "conv2_2_D"
}
layer {
  name: "conv2_1_D"
  type: "Convolution"
  bottom: "conv2_2_D"
  top: "conv2_1_D"
  param {
    lr_mult: 1
    decay_mult: 1
  }
  param {
    lr_mult: 2
    decay_mult: 0
  }
  convolution_param {
    num_output: 64
    pad: 1
    kernel_size: 3
    weight_filler {
      type: "msra"
    }
    bias_filler {
      type: "constant"
    }
  }
}
layer {
  name: "conv2_1_D_bn"
  type: "BN"
  bottom: "conv2_1_D"
  top: "conv2_1_D"
  param {
    lr_mult: 1
    decay_mult: 1
  }
  param {
    lr_mult: 1
    decay_mult: 0
  }
  bn_param {
    scale_filler {
      type: "constant"
      value: 1
    }
    shift_filler {
      type: "constant"
      value: 0.001
    }
  }
}
layer {
  name: "relu2_1_D"
  type: "ReLU"
  bottom: "conv2_1_D"
  top: "conv2_1_D"
}
layer {
  name: "upsample1"
  type: "Upsample"
  bottom: "conv2_1_D"
  bottom: "pool1_mask"
  top: "pool1_D"
  upsample_param {
    scale: 2
  }
}
layer {
  name: "conv1_2_D"
  type: "Convolution"
  bottom: "pool1_D"
  top: "conv1_2_D"
  param {
    lr_mult: 1
    decay_mult: 1
  }
  param {
    lr_mult: 2
    decay_mult: 0
  }
  convolution_param {
    num_output: 64
    pad: 1
    kernel_size: 3
    weight_filler {
      type: "msra"
    }
    bias_filler {
      type: "constant"
    }
  }
}
layer {
  name: "conv1_2_D_bn"
  type: "BN"
  bottom: "conv1_2_D"
  top: "conv1_2_D"
  param {
    lr_mult: 1
    decay_mult: 1
  }
  param {
    lr_mult: 1
    decay_mult: 0
  }
  bn_param {
    scale_filler {
      type: "constant"
      value: 1
    }
    shift_filler {
      type: "constant"
      value: 0.001
    }
  }
}
layer {
  name: "relu1_2_D"
  type: "ReLU"
  bottom: "conv1_2_D"
  top: "conv1_2_D"
}
layer {
  name: "conv1_1_D-v2"
  type: "Convolution"
  bottom: "conv1_2_D"
  top: "conv1_1_D"
  param {
    lr_mult: 1
    decay_mult: 1
  }
  param {
    lr_mult: 2
    decay_mult: 0
  }
  convolution_param {
    num_output: 21
    pad: 1
    kernel_size: 3
    weight_filler {
      type: "msra"
    }
    bias_filler {
      type: "constant"
    }
  }
}
layer {
  name: "loss"
  type: "SoftmaxWithLoss"
  bottom: "conv1_1_D"
  bottom: "label"
  top: "loss"
  loss_param {
    ignore_label: 21
    weight_by_label_freqs: false
  }
  softmax_param {
    engine: CAFFE
  }
}
I0423 15:12:28.002637 12909 layer_factory.hpp:74] Creating layer data
I0423 15:12:28.002663 12909 net.cpp:90] Creating Layer data
I0423 15:12:28.002672 12909 net.cpp:368] data -> data
I0423 15:12:28.002694 12909 net.cpp:120] Setting up data
I0423 15:12:28.002789 12909 db.cpp:34] Opened lmdb /home/shared/datasets/VOCdevkit/VOC2012/LMDB_224x224/train_lmdb
I0423 15:12:28.002976 12909 data_layer.cpp:52] output data size: 2,3,224,224
I0423 15:12:28.003379 12909 net.cpp:127] Top shape: 2 3 224 224 (301056)
I0423 15:12:28.003392 12909 layer_factory.hpp:74] Creating layer label
I0423 15:12:28.003401 12909 net.cpp:90] Creating Layer label
I0423 15:12:28.003409 12909 net.cpp:368] label -> label
I0423 15:12:28.003417 12909 net.cpp:120] Setting up label
I0423 15:12:28.003473 12909 db.cpp:34] Opened lmdb /home/shared/datasets/VOCdevkit/VOC2012/LMDB_224x224/train_gt_lmdb
I0423 15:12:28.003543 12909 data_layer.cpp:52] output data size: 2,1,224,224
I0423 15:12:28.003701 12909 net.cpp:127] Top shape: 2 1 224 224 (100352)
I0423 15:12:28.003711 12909 layer_factory.hpp:74] Creating layer conv1_1
I0423 15:12:28.003731 12909 net.cpp:90] Creating Layer conv1_1
I0423 15:12:28.003737 12909 net.cpp:410] conv1_1 <- data
I0423 15:12:28.003749 12909 net.cpp:368] conv1_1 -> conv1_1
I0423 15:12:28.003760 12909 net.cpp:120] Setting up conv1_1
I0423 15:12:28.792958 12909 net.cpp:127] Top shape: 2 64 224 224 (6422528)
I0423 15:12:28.793007 12909 layer_factory.hpp:74] Creating layer conv1_1_bn
I0423 15:12:28.793031 12909 net.cpp:90] Creating Layer conv1_1_bn
I0423 15:12:28.793038 12909 net.cpp:410] conv1_1_bn <- conv1_1
I0423 15:12:28.793050 12909 net.cpp:357] conv1_1_bn -> conv1_1 (in-place)
I0423 15:12:28.793063 12909 net.cpp:120] Setting up conv1_1_bn
I0423 15:12:28.793316 12909 net.cpp:127] Top shape: 2 64 224 224 (6422528)
I0423 15:12:28.793341 12909 layer_factory.hpp:74] Creating layer relu1_1
I0423 15:12:28.793354 12909 net.cpp:90] Creating Layer relu1_1
I0423 15:12:28.793359 12909 net.cpp:410] relu1_1 <- conv1_1
I0423 15:12:28.793365 12909 net.cpp:357] relu1_1 -> conv1_1 (in-place)
I0423 15:12:28.793371 12909 net.cpp:120] Setting up relu1_1
I0423 15:12:28.794018 12909 net.cpp:127] Top shape: 2 64 224 224 (6422528)
I0423 15:12:28.794031 12909 layer_factory.hpp:74] Creating layer conv1_2
I0423 15:12:28.794044 12909 net.cpp:90] Creating Layer conv1_2
I0423 15:12:28.794049 12909 net.cpp:410] conv1_2 <- conv1_1
I0423 15:12:28.794055 12909 net.cpp:368] conv1_2 -> conv1_2
I0423 15:12:28.794065 12909 net.cpp:120] Setting up conv1_2
I0423 15:12:28.796095 12909 net.cpp:127] Top shape: 2 64 224 224 (6422528)
I0423 15:12:28.796113 12909 layer_factory.hpp:74] Creating layer conv1_2_bn
I0423 15:12:28.796123 12909 net.cpp:90] Creating Layer conv1_2_bn
I0423 15:12:28.796128 12909 net.cpp:410] conv1_2_bn <- conv1_2
I0423 15:12:28.796136 12909 net.cpp:357] conv1_2_bn -> conv1_2 (in-place)
I0423 15:12:28.796144 12909 net.cpp:120] Setting up conv1_2_bn
I0423 15:12:28.796361 12909 net.cpp:127] Top shape: 2 64 224 224 (6422528)
I0423 15:12:28.796376 12909 layer_factory.hpp:74] Creating layer relu1_2
I0423 15:12:28.796383 12909 net.cpp:90] Creating Layer relu1_2
I0423 15:12:28.796387 12909 net.cpp:410] relu1_2 <- conv1_2
I0423 15:12:28.796396 12909 net.cpp:357] relu1_2 -> conv1_2 (in-place)
I0423 15:12:28.796402 12909 net.cpp:120] Setting up relu1_2
I0423 15:12:28.796727 12909 net.cpp:127] Top shape: 2 64 224 224 (6422528)
I0423 15:12:28.796739 12909 layer_factory.hpp:74] Creating layer pool1
I0423 15:12:28.796748 12909 layer_factory.cpp:55] CUDNN does not support padding or multiple tops. Using Caffe's own pooling layer.
I0423 15:12:28.796759 12909 net.cpp:90] Creating Layer pool1
I0423 15:12:28.796764 12909 net.cpp:410] pool1 <- conv1_2
I0423 15:12:28.796772 12909 net.cpp:368] pool1 -> pool1
I0423 15:12:28.796782 12909 net.cpp:368] pool1 -> pool1_mask
I0423 15:12:28.796788 12909 net.cpp:120] Setting up pool1
I0423 15:12:28.796811 12909 net.cpp:127] Top shape: 2 64 112 112 (1605632)
I0423 15:12:28.796820 12909 net.cpp:127] Top shape: 2 64 112 112 (1605632)
I0423 15:12:28.796825 12909 layer_factory.hpp:74] Creating layer conv2_1
I0423 15:12:28.796838 12909 net.cpp:90] Creating Layer conv2_1
I0423 15:12:28.796843 12909 net.cpp:410] conv2_1 <- pool1
I0423 15:12:28.796851 12909 net.cpp:368] conv2_1 -> conv2_1
I0423 15:12:28.796860 12909 net.cpp:120] Setting up conv2_1
I0423 15:12:28.801779 12909 net.cpp:127] Top shape: 2 128 112 112 (3211264)
I0423 15:12:28.801797 12909 layer_factory.hpp:74] Creating layer conv2_1_bn
I0423 15:12:28.801808 12909 net.cpp:90] Creating Layer conv2_1_bn
I0423 15:12:28.801813 12909 net.cpp:410] conv2_1_bn <- conv2_1
I0423 15:12:28.801822 12909 net.cpp:357] conv2_1_bn -> conv2_1 (in-place)
I0423 15:12:28.801831 12909 net.cpp:120] Setting up conv2_1_bn
I0423 15:12:28.801895 12909 net.cpp:127] Top shape: 2 128 112 112 (3211264)
I0423 15:12:28.801910 12909 layer_factory.hpp:74] Creating layer relu2_1
I0423 15:12:28.801918 12909 net.cpp:90] Creating Layer relu2_1
I0423 15:12:28.801923 12909 net.cpp:410] relu2_1 <- conv2_1
I0423 15:12:28.801928 12909 net.cpp:357] relu2_1 -> conv2_1 (in-place)
I0423 15:12:28.801935 12909 net.cpp:120] Setting up relu2_1
I0423 15:12:28.803051 12909 net.cpp:127] Top shape: 2 128 112 112 (3211264)
I0423 15:12:28.803064 12909 layer_factory.hpp:74] Creating layer conv2_2
I0423 15:12:28.803076 12909 net.cpp:90] Creating Layer conv2_2
I0423 15:12:28.803082 12909 net.cpp:410] conv2_2 <- conv2_1
I0423 15:12:28.803089 12909 net.cpp:368] conv2_2 -> conv2_2
I0423 15:12:28.803097 12909 net.cpp:120] Setting up conv2_2
I0423 15:12:28.810811 12909 net.cpp:127] Top shape: 2 128 112 112 (3211264)
I0423 15:12:28.810827 12909 layer_factory.hpp:74] Creating layer conv2_2_bn
I0423 15:12:28.810838 12909 net.cpp:90] Creating Layer conv2_2_bn
I0423 15:12:28.810844 12909 net.cpp:410] conv2_2_bn <- conv2_2
I0423 15:12:28.810865 12909 net.cpp:357] conv2_2_bn -> conv2_2 (in-place)
I0423 15:12:28.810874 12909 net.cpp:120] Setting up conv2_2_bn
I0423 15:12:28.810941 12909 net.cpp:127] Top shape: 2 128 112 112 (3211264)
I0423 15:12:28.810956 12909 layer_factory.hpp:74] Creating layer relu2_2
I0423 15:12:28.810962 12909 net.cpp:90] Creating Layer relu2_2
I0423 15:12:28.810966 12909 net.cpp:410] relu2_2 <- conv2_2
I0423 15:12:28.810976 12909 net.cpp:357] relu2_2 -> conv2_2 (in-place)
I0423 15:12:28.810982 12909 net.cpp:120] Setting up relu2_2
I0423 15:12:28.811620 12909 net.cpp:127] Top shape: 2 128 112 112 (3211264)
I0423 15:12:28.811633 12909 layer_factory.hpp:74] Creating layer pool2
I0423 15:12:28.811640 12909 layer_factory.cpp:55] CUDNN does not support padding or multiple tops. Using Caffe's own pooling layer.
I0423 15:12:28.811645 12909 net.cpp:90] Creating Layer pool2
I0423 15:12:28.811650 12909 net.cpp:410] pool2 <- conv2_2
I0423 15:12:28.811658 12909 net.cpp:368] pool2 -> pool2
I0423 15:12:28.811667 12909 net.cpp:368] pool2 -> pool2_mask
I0423 15:12:28.811674 12909 net.cpp:120] Setting up pool2
I0423 15:12:28.811684 12909 net.cpp:127] Top shape: 2 128 56 56 (802816)
I0423 15:12:28.811691 12909 net.cpp:127] Top shape: 2 128 56 56 (802816)
I0423 15:12:28.811694 12909 layer_factory.hpp:74] Creating layer conv3_1
I0423 15:12:28.811704 12909 net.cpp:90] Creating Layer conv3_1
I0423 15:12:28.811712 12909 net.cpp:410] conv3_1 <- pool2
I0423 15:12:28.811724 12909 net.cpp:368] conv3_1 -> conv3_1
I0423 15:12:28.811733 12909 net.cpp:120] Setting up conv3_1
I0423 15:12:28.823290 12909 net.cpp:127] Top shape: 2 256 56 56 (1605632)
I0423 15:12:28.823312 12909 layer_factory.hpp:74] Creating layer conv3_1_bn
I0423 15:12:28.823323 12909 net.cpp:90] Creating Layer conv3_1_bn
I0423 15:12:28.823328 12909 net.cpp:410] conv3_1_bn <- conv3_1
I0423 15:12:28.823335 12909 net.cpp:357] conv3_1_bn -> conv3_1 (in-place)
I0423 15:12:28.823343 12909 net.cpp:120] Setting up conv3_1_bn
I0423 15:12:28.823369 12909 net.cpp:127] Top shape: 2 256 56 56 (1605632)
I0423 15:12:28.823380 12909 layer_factory.hpp:74] Creating layer relu3_1
I0423 15:12:28.823392 12909 net.cpp:90] Creating Layer relu3_1
I0423 15:12:28.823397 12909 net.cpp:410] relu3_1 <- conv3_1
I0423 15:12:28.823403 12909 net.cpp:357] relu3_1 -> conv3_1 (in-place)
I0423 15:12:28.823410 12909 net.cpp:120] Setting up relu3_1
I0423 15:12:28.823747 12909 net.cpp:127] Top shape: 2 256 56 56 (1605632)
I0423 15:12:28.823760 12909 layer_factory.hpp:74] Creating layer conv3_2
I0423 15:12:28.823771 12909 net.cpp:90] Creating Layer conv3_2
I0423 15:12:28.823776 12909 net.cpp:410] conv3_2 <- conv3_1
I0423 15:12:28.823786 12909 net.cpp:368] conv3_2 -> conv3_2
I0423 15:12:28.823794 12909 net.cpp:120] Setting up conv3_2
I0423 15:12:28.845401 12909 net.cpp:127] Top shape: 2 256 56 56 (1605632)
I0423 15:12:28.845422 12909 layer_factory.hpp:74] Creating layer conv3_2_bn
I0423 15:12:28.845433 12909 net.cpp:90] Creating Layer conv3_2_bn
I0423 15:12:28.845439 12909 net.cpp:410] conv3_2_bn <- conv3_2
I0423 15:12:28.845448 12909 net.cpp:357] conv3_2_bn -> conv3_2 (in-place)
I0423 15:12:28.845456 12909 net.cpp:120] Setting up conv3_2_bn
I0423 15:12:28.845484 12909 net.cpp:127] Top shape: 2 256 56 56 (1605632)
I0423 15:12:28.845494 12909 layer_factory.hpp:74] Creating layer relu3_2
I0423 15:12:28.845501 12909 net.cpp:90] Creating Layer relu3_2
I0423 15:12:28.845510 12909 net.cpp:410] relu3_2 <- conv3_2
I0423 15:12:28.845516 12909 net.cpp:357] relu3_2 -> conv3_2 (in-place)
I0423 15:12:28.845522 12909 net.cpp:120] Setting up relu3_2
I0423 15:12:28.846983 12909 net.cpp:127] Top shape: 2 256 56 56 (1605632)
I0423 15:12:28.846995 12909 layer_factory.hpp:74] Creating layer conv3_3
I0423 15:12:28.847005 12909 net.cpp:90] Creating Layer conv3_3
I0423 15:12:28.847010 12909 net.cpp:410] conv3_3 <- conv3_2
I0423 15:12:28.847018 12909 net.cpp:368] conv3_3 -> conv3_3
I0423 15:12:28.847025 12909 net.cpp:120] Setting up conv3_3
I0423 15:12:28.868957 12909 net.cpp:127] Top shape: 2 256 56 56 (1605632)
I0423 15:12:28.868993 12909 layer_factory.hpp:74] Creating layer conv3_3_bn
I0423 15:12:28.869006 12909 net.cpp:90] Creating Layer conv3_3_bn
I0423 15:12:28.869014 12909 net.cpp:410] conv3_3_bn <- conv3_3
I0423 15:12:28.869021 12909 net.cpp:357] conv3_3_bn -> conv3_3 (in-place)
I0423 15:12:28.869029 12909 net.cpp:120] Setting up conv3_3_bn
I0423 15:12:28.869055 12909 net.cpp:127] Top shape: 2 256 56 56 (1605632)
I0423 15:12:28.869065 12909 layer_factory.hpp:74] Creating layer relu3_3
I0423 15:12:28.869076 12909 net.cpp:90] Creating Layer relu3_3
I0423 15:12:28.869081 12909 net.cpp:410] relu3_3 <- conv3_3
I0423 15:12:28.869088 12909 net.cpp:357] relu3_3 -> conv3_3 (in-place)
I0423 15:12:28.869096 12909 net.cpp:120] Setting up relu3_3
I0423 15:12:28.869456 12909 net.cpp:127] Top shape: 2 256 56 56 (1605632)
I0423 15:12:28.869468 12909 layer_factory.hpp:74] Creating layer pool3
I0423 15:12:28.869474 12909 layer_factory.cpp:55] CUDNN does not support padding or multiple tops. Using Caffe's own pooling layer.
I0423 15:12:28.869482 12909 net.cpp:90] Creating Layer pool3
I0423 15:12:28.869485 12909 net.cpp:410] pool3 <- conv3_3
I0423 15:12:28.869494 12909 net.cpp:368] pool3 -> pool3
I0423 15:12:28.869503 12909 net.cpp:368] pool3 -> pool3_mask
I0423 15:12:28.869509 12909 net.cpp:120] Setting up pool3
I0423 15:12:28.869518 12909 net.cpp:127] Top shape: 2 256 28 28 (401408)
I0423 15:12:28.869524 12909 net.cpp:127] Top shape: 2 256 28 28 (401408)
I0423 15:12:28.869529 12909 layer_factory.hpp:74] Creating layer conv4_1
I0423 15:12:28.869539 12909 net.cpp:90] Creating Layer conv4_1
I0423 15:12:28.869546 12909 net.cpp:410] conv4_1 <- pool3
I0423 15:12:28.869554 12909 net.cpp:368] conv4_1 -> conv4_1
I0423 15:12:28.869565 12909 net.cpp:120] Setting up conv4_1
I0423 15:12:28.910262 12909 net.cpp:127] Top shape: 2 512 28 28 (802816)
I0423 15:12:28.910292 12909 layer_factory.hpp:74] Creating layer conv4_1_bn
I0423 15:12:28.910306 12909 net.cpp:90] Creating Layer conv4_1_bn
I0423 15:12:28.910312 12909 net.cpp:410] conv4_1_bn <- conv4_1
I0423 15:12:28.910321 12909 net.cpp:357] conv4_1_bn -> conv4_1 (in-place)
I0423 15:12:28.910331 12909 net.cpp:120] Setting up conv4_1_bn
I0423 15:12:28.910351 12909 net.cpp:127] Top shape: 2 512 28 28 (802816)
I0423 15:12:28.910362 12909 layer_factory.hpp:74] Creating layer relu4_1
I0423 15:12:28.910368 12909 net.cpp:90] Creating Layer relu4_1
I0423 15:12:28.910372 12909 net.cpp:410] relu4_1 <- conv4_1
I0423 15:12:28.910378 12909 net.cpp:357] relu4_1 -> conv4_1 (in-place)
I0423 15:12:28.910384 12909 net.cpp:120] Setting up relu4_1
I0423 15:12:28.910854 12909 net.cpp:127] Top shape: 2 512 28 28 (802816)
I0423 15:12:28.910867 12909 layer_factory.hpp:74] Creating layer conv4_2
I0423 15:12:28.910878 12909 net.cpp:90] Creating Layer conv4_2
I0423 15:12:28.910883 12909 net.cpp:410] conv4_2 <- conv4_1
I0423 15:12:28.910892 12909 net.cpp:368] conv4_2 -> conv4_2
I0423 15:12:28.910903 12909 net.cpp:120] Setting up conv4_2
I0423 15:12:28.996229 12909 net.cpp:127] Top shape: 2 512 28 28 (802816)
I0423 15:12:28.996278 12909 layer_factory.hpp:74] Creating layer conv4_2_bn
I0423 15:12:28.996295 12909 net.cpp:90] Creating Layer conv4_2_bn
I0423 15:12:28.996302 12909 net.cpp:410] conv4_2_bn <- conv4_2
I0423 15:12:28.996314 12909 net.cpp:357] conv4_2_bn -> conv4_2 (in-place)
I0423 15:12:28.996325 12909 net.cpp:120] Setting up conv4_2_bn
I0423 15:12:28.996348 12909 net.cpp:127] Top shape: 2 512 28 28 (802816)
I0423 15:12:28.996356 12909 layer_factory.hpp:74] Creating layer relu4_2
I0423 15:12:28.996367 12909 net.cpp:90] Creating Layer relu4_2
I0423 15:12:28.996372 12909 net.cpp:410] relu4_2 <- conv4_2
I0423 15:12:28.996381 12909 net.cpp:357] relu4_2 -> conv4_2 (in-place)
I0423 15:12:28.996388 12909 net.cpp:120] Setting up relu4_2
I0423 15:12:28.997345 12909 net.cpp:127] Top shape: 2 512 28 28 (802816)
I0423 15:12:28.997357 12909 layer_factory.hpp:74] Creating layer conv4_3
I0423 15:12:28.997375 12909 net.cpp:90] Creating Layer conv4_3
I0423 15:12:28.997380 12909 net.cpp:410] conv4_3 <- conv4_2
I0423 15:12:28.997390 12909 net.cpp:368] conv4_3 -> conv4_3
I0423 15:12:28.997421 12909 net.cpp:120] Setting up conv4_3
I0423 15:12:29.078752 12909 net.cpp:127] Top shape: 2 512 28 28 (802816)
I0423 15:12:29.078790 12909 layer_factory.hpp:74] Creating layer conv4_3_bn
I0423 15:12:29.078810 12909 net.cpp:90] Creating Layer conv4_3_bn
I0423 15:12:29.078817 12909 net.cpp:410] conv4_3_bn <- conv4_3
I0423 15:12:29.078827 12909 net.cpp:357] conv4_3_bn -> conv4_3 (in-place)
I0423 15:12:29.078840 12909 net.cpp:120] Setting up conv4_3_bn
I0423 15:12:29.078862 12909 net.cpp:127] Top shape: 2 512 28 28 (802816)
I0423 15:12:29.078871 12909 layer_factory.hpp:74] Creating layer relu4_3
I0423 15:12:29.078879 12909 net.cpp:90] Creating Layer relu4_3
I0423 15:12:29.078887 12909 net.cpp:410] relu4_3 <- conv4_3
I0423 15:12:29.078893 12909 net.cpp:357] relu4_3 -> conv4_3 (in-place)
I0423 15:12:29.078903 12909 net.cpp:120] Setting up relu4_3
I0423 15:12:29.080143 12909 net.cpp:127] Top shape: 2 512 28 28 (802816)
I0423 15:12:29.080157 12909 layer_factory.hpp:74] Creating layer pool4
I0423 15:12:29.080163 12909 layer_factory.cpp:55] CUDNN does not support padding or multiple tops. Using Caffe's own pooling layer.
I0423 15:12:29.080171 12909 net.cpp:90] Creating Layer pool4
I0423 15:12:29.080176 12909 net.cpp:410] pool4 <- conv4_3
I0423 15:12:29.080185 12909 net.cpp:368] pool4 -> pool4
I0423 15:12:29.080193 12909 net.cpp:368] pool4 -> pool4_mask
I0423 15:12:29.080200 12909 net.cpp:120] Setting up pool4
I0423 15:12:29.080210 12909 net.cpp:127] Top shape: 2 512 14 14 (200704)
I0423 15:12:29.080215 12909 net.cpp:127] Top shape: 2 512 14 14 (200704)
I0423 15:12:29.080219 12909 layer_factory.hpp:74] Creating layer conv5_1
I0423 15:12:29.080230 12909 net.cpp:90] Creating Layer conv5_1
I0423 15:12:29.080237 12909 net.cpp:410] conv5_1 <- pool4
I0423 15:12:29.080246 12909 net.cpp:368] conv5_1 -> conv5_1
I0423 15:12:29.080257 12909 net.cpp:120] Setting up conv5_1
I0423 15:12:29.161298 12909 net.cpp:127] Top shape: 2 512 14 14 (200704)
I0423 15:12:29.161339 12909 layer_factory.hpp:74] Creating layer conv5_1_bn
I0423 15:12:29.161355 12909 net.cpp:90] Creating Layer conv5_1_bn
I0423 15:12:29.161362 12909 net.cpp:410] conv5_1_bn <- conv5_1
I0423 15:12:29.161373 12909 net.cpp:357] conv5_1_bn -> conv5_1 (in-place)
I0423 15:12:29.161384 12909 net.cpp:120] Setting up conv5_1_bn
I0423 15:12:29.161406 12909 net.cpp:127] Top shape: 2 512 14 14 (200704)
I0423 15:12:29.161412 12909 layer_factory.hpp:74] Creating layer relu5_1
I0423 15:12:29.161428 12909 net.cpp:90] Creating Layer relu5_1
I0423 15:12:29.161437 12909 net.cpp:410] relu5_1 <- conv5_1
I0423 15:12:29.161442 12909 net.cpp:357] relu5_1 -> conv5_1 (in-place)
I0423 15:12:29.161453 12909 net.cpp:120] Setting up relu5_1
I0423 15:12:29.162418 12909 net.cpp:127] Top shape: 2 512 14 14 (200704)
I0423 15:12:29.162431 12909 layer_factory.hpp:74] Creating layer conv5_2
I0423 15:12:29.162444 12909 net.cpp:90] Creating Layer conv5_2
I0423 15:12:29.162449 12909 net.cpp:410] conv5_2 <- conv5_1
I0423 15:12:29.162458 12909 net.cpp:368] conv5_2 -> conv5_2
I0423 15:12:29.162468 12909 net.cpp:120] Setting up conv5_2
I0423 15:12:29.243968 12909 net.cpp:127] Top shape: 2 512 14 14 (200704)
I0423 15:12:29.244004 12909 layer_factory.hpp:74] Creating layer conv5_2_bn
I0423 15:12:29.244024 12909 net.cpp:90] Creating Layer conv5_2_bn
I0423 15:12:29.244031 12909 net.cpp:410] conv5_2_bn <- conv5_2
I0423 15:12:29.244040 12909 net.cpp:357] conv5_2_bn -> conv5_2 (in-place)
I0423 15:12:29.244050 12909 net.cpp:120] Setting up conv5_2_bn
I0423 15:12:29.244071 12909 net.cpp:127] Top shape: 2 512 14 14 (200704)
I0423 15:12:29.244081 12909 layer_factory.hpp:74] Creating layer relu5_2
I0423 15:12:29.244088 12909 net.cpp:90] Creating Layer relu5_2
I0423 15:12:29.244092 12909 net.cpp:410] relu5_2 <- conv5_2
I0423 15:12:29.244098 12909 net.cpp:357] relu5_2 -> conv5_2 (in-place)
I0423 15:12:29.244107 12909 net.cpp:120] Setting up relu5_2
I0423 15:12:29.244305 12909 net.cpp:127] Top shape: 2 512 14 14 (200704)
I0423 15:12:29.244319 12909 layer_factory.hpp:74] Creating layer conv5_3
I0423 15:12:29.244356 12909 net.cpp:90] Creating Layer conv5_3
I0423 15:12:29.244364 12909 net.cpp:410] conv5_3 <- conv5_2
I0423 15:12:29.244370 12909 net.cpp:368] conv5_3 -> conv5_3
I0423 15:12:29.244379 12909 net.cpp:120] Setting up conv5_3
I0423 15:12:29.324872 12909 net.cpp:127] Top shape: 2 512 14 14 (200704)
I0423 15:12:29.324911 12909 layer_factory.hpp:74] Creating layer conv5_3_bn
I0423 15:12:29.324925 12909 net.cpp:90] Creating Layer conv5_3_bn
I0423 15:12:29.324933 12909 net.cpp:410] conv5_3_bn <- conv5_3
I0423 15:12:29.324944 12909 net.cpp:357] conv5_3_bn -> conv5_3 (in-place)
I0423 15:12:29.324954 12909 net.cpp:120] Setting up conv5_3_bn
I0423 15:12:29.324975 12909 net.cpp:127] Top shape: 2 512 14 14 (200704)
I0423 15:12:29.324985 12909 layer_factory.hpp:74] Creating layer relu5_3
I0423 15:12:29.324991 12909 net.cpp:90] Creating Layer relu5_3
I0423 15:12:29.324996 12909 net.cpp:410] relu5_3 <- conv5_3
I0423 15:12:29.325003 12909 net.cpp:357] relu5_3 -> conv5_3 (in-place)
I0423 15:12:29.325013 12909 net.cpp:120] Setting up relu5_3
I0423 15:12:29.325359 12909 net.cpp:127] Top shape: 2 512 14 14 (200704)
I0423 15:12:29.325376 12909 layer_factory.hpp:74] Creating layer pool5
I0423 15:12:29.325384 12909 layer_factory.cpp:55] CUDNN does not support padding or multiple tops. Using Caffe's own pooling layer.
I0423 15:12:29.325390 12909 net.cpp:90] Creating Layer pool5
I0423 15:12:29.325395 12909 net.cpp:410] pool5 <- conv5_3
I0423 15:12:29.325403 12909 net.cpp:368] pool5 -> pool5
I0423 15:12:29.325412 12909 net.cpp:368] pool5 -> pool5_mask
I0423 15:12:29.325419 12909 net.cpp:120] Setting up pool5
I0423 15:12:29.325428 12909 net.cpp:127] Top shape: 2 512 7 7 (50176)
I0423 15:12:29.325434 12909 net.cpp:127] Top shape: 2 512 7 7 (50176)
I0423 15:12:29.325438 12909 layer_factory.hpp:74] Creating layer upsample5
I0423 15:12:29.325445 12909 net.cpp:90] Creating Layer upsample5
I0423 15:12:29.325453 12909 net.cpp:410] upsample5 <- pool5
I0423 15:12:29.325459 12909 net.cpp:410] upsample5 <- pool5_mask
I0423 15:12:29.325470 12909 net.cpp:368] upsample5 -> pool5_D
I0423 15:12:29.325482 12909 net.cpp:120] Setting up upsample5
I0423 15:12:29.325489 12909 upsample_layer.cpp:31] Params 'pad_out_{}_' are deprecated. Please declare upsample height and width useing the upsample_h, upsample_w parameters.
I0423 15:12:29.325497 12909 net.cpp:127] Top shape: 2 512 14 14 (200704)
I0423 15:12:29.325502 12909 layer_factory.hpp:74] Creating layer conv5_3_D
I0423 15:12:29.325511 12909 net.cpp:90] Creating Layer conv5_3_D
I0423 15:12:29.325516 12909 net.cpp:410] conv5_3_D <- pool5_D
I0423 15:12:29.325525 12909 net.cpp:368] conv5_3_D -> conv5_3_D
I0423 15:12:29.325536 12909 net.cpp:120] Setting up conv5_3_D
I0423 15:12:29.410589 12909 net.cpp:127] Top shape: 2 512 14 14 (200704)
I0423 15:12:29.410622 12909 layer_factory.hpp:74] Creating layer conv5_3_D_bn
I0423 15:12:29.410642 12909 net.cpp:90] Creating Layer conv5_3_D_bn
I0423 15:12:29.410650 12909 net.cpp:410] conv5_3_D_bn <- conv5_3_D
I0423 15:12:29.410660 12909 net.cpp:357] conv5_3_D_bn -> conv5_3_D (in-place)
I0423 15:12:29.410672 12909 net.cpp:120] Setting up conv5_3_D_bn
I0423 15:12:29.410694 12909 net.cpp:127] Top shape: 2 512 14 14 (200704)
I0423 15:12:29.410703 12909 layer_factory.hpp:74] Creating layer relu5_3_D
I0423 15:12:29.410711 12909 net.cpp:90] Creating Layer relu5_3_D
I0423 15:12:29.410719 12909 net.cpp:410] relu5_3_D <- conv5_3_D
I0423 15:12:29.410725 12909 net.cpp:357] relu5_3_D -> conv5_3_D (in-place)
I0423 15:12:29.410732 12909 net.cpp:120] Setting up relu5_3_D
I0423 15:12:29.412205 12909 net.cpp:127] Top shape: 2 512 14 14 (200704)
I0423 15:12:29.412217 12909 layer_factory.hpp:74] Creating layer conv5_2_D
I0423 15:12:29.412228 12909 net.cpp:90] Creating Layer conv5_2_D
I0423 15:12:29.412233 12909 net.cpp:410] conv5_2_D <- conv5_3_D
I0423 15:12:29.412242 12909 net.cpp:368] conv5_2_D -> conv5_2_D
I0423 15:12:29.412251 12909 net.cpp:120] Setting up conv5_2_D
I0423 15:12:29.496853 12909 net.cpp:127] Top shape: 2 512 14 14 (200704)
I0423 15:12:29.496892 12909 layer_factory.hpp:74] Creating layer conv5_2_D_bn
I0423 15:12:29.496947 12909 net.cpp:90] Creating Layer conv5_2_D_bn
I0423 15:12:29.496954 12909 net.cpp:410] conv5_2_D_bn <- conv5_2_D
I0423 15:12:29.496966 12909 net.cpp:357] conv5_2_D_bn -> conv5_2_D (in-place)
I0423 15:12:29.496978 12909 net.cpp:120] Setting up conv5_2_D_bn
I0423 15:12:29.497004 12909 net.cpp:127] Top shape: 2 512 14 14 (200704)
I0423 15:12:29.497015 12909 layer_factory.hpp:74] Creating layer relu5_2_D
I0423 15:12:29.497023 12909 net.cpp:90] Creating Layer relu5_2_D
I0423 15:12:29.497028 12909 net.cpp:410] relu5_2_D <- conv5_2_D
I0423 15:12:29.497036 12909 net.cpp:357] relu5_2_D -> conv5_2_D (in-place)
I0423 15:12:29.497042 12909 net.cpp:120] Setting up relu5_2_D
I0423 15:12:29.498026 12909 net.cpp:127] Top shape: 2 512 14 14 (200704)
I0423 15:12:29.498039 12909 layer_factory.hpp:74] Creating layer conv5_1_D
I0423 15:12:29.498051 12909 net.cpp:90] Creating Layer conv5_1_D
I0423 15:12:29.498056 12909 net.cpp:410] conv5_1_D <- conv5_2_D
I0423 15:12:29.498065 12909 net.cpp:368] conv5_1_D -> conv5_1_D
I0423 15:12:29.498075 12909 net.cpp:120] Setting up conv5_1_D
I0423 15:12:29.579658 12909 net.cpp:127] Top shape: 2 512 14 14 (200704)
I0423 15:12:29.579694 12909 layer_factory.hpp:74] Creating layer conv5_1_D_bn
I0423 15:12:29.579713 12909 net.cpp:90] Creating Layer conv5_1_D_bn
I0423 15:12:29.579721 12909 net.cpp:410] conv5_1_D_bn <- conv5_1_D
I0423 15:12:29.579731 12909 net.cpp:357] conv5_1_D_bn -> conv5_1_D (in-place)
I0423 15:12:29.579742 12909 net.cpp:120] Setting up conv5_1_D_bn
I0423 15:12:29.579763 12909 net.cpp:127] Top shape: 2 512 14 14 (200704)
I0423 15:12:29.579771 12909 layer_factory.hpp:74] Creating layer relu5_1_D
I0423 15:12:29.579778 12909 net.cpp:90] Creating Layer relu5_1_D
I0423 15:12:29.579782 12909 net.cpp:410] relu5_1_D <- conv5_1_D
I0423 15:12:29.579788 12909 net.cpp:357] relu5_1_D -> conv5_1_D (in-place)
I0423 15:12:29.579797 12909 net.cpp:120] Setting up relu5_1_D
I0423 15:12:29.581082 12909 net.cpp:127] Top shape: 2 512 14 14 (200704)
I0423 15:12:29.581094 12909 layer_factory.hpp:74] Creating layer upsample4
I0423 15:12:29.581105 12909 net.cpp:90] Creating Layer upsample4
I0423 15:12:29.581110 12909 net.cpp:410] upsample4 <- conv5_1_D
I0423 15:12:29.581116 12909 net.cpp:410] upsample4 <- pool4_mask
I0423 15:12:29.581122 12909 net.cpp:368] upsample4 -> pool4_D
I0423 15:12:29.581130 12909 net.cpp:120] Setting up upsample4
I0423 15:12:29.581136 12909 upsample_layer.cpp:31] Params 'pad_out_{}_' are deprecated. Please declare upsample height and width useing the upsample_h, upsample_w parameters.
I0423 15:12:29.581145 12909 net.cpp:127] Top shape: 2 512 28 28 (802816)
I0423 15:12:29.581151 12909 layer_factory.hpp:74] Creating layer conv4_3_D
I0423 15:12:29.581161 12909 net.cpp:90] Creating Layer conv4_3_D
I0423 15:12:29.581169 12909 net.cpp:410] conv4_3_D <- pool4_D
I0423 15:12:29.581176 12909 net.cpp:368] conv4_3_D -> conv4_3_D
I0423 15:12:29.581187 12909 net.cpp:120] Setting up conv4_3_D
I0423 15:12:29.661502 12909 net.cpp:127] Top shape: 2 512 28 28 (802816)
I0423 15:12:29.661556 12909 layer_factory.hpp:74] Creating layer conv4_3_D_bn
I0423 15:12:29.661571 12909 net.cpp:90] Creating Layer conv4_3_D_bn
I0423 15:12:29.661578 12909 net.cpp:410] conv4_3_D_bn <- conv4_3_D
I0423 15:12:29.661589 12909 net.cpp:357] conv4_3_D_bn -> conv4_3_D (in-place)
I0423 15:12:29.661599 12909 net.cpp:120] Setting up conv4_3_D_bn
I0423 15:12:29.661625 12909 net.cpp:127] Top shape: 2 512 28 28 (802816)
I0423 15:12:29.661636 12909 layer_factory.hpp:74] Creating layer relu4_3_D
I0423 15:12:29.661649 12909 net.cpp:90] Creating Layer relu4_3_D
I0423 15:12:29.661654 12909 net.cpp:410] relu4_3_D <- conv4_3_D
I0423 15:12:29.661660 12909 net.cpp:357] relu4_3_D -> conv4_3_D (in-place)
I0423 15:12:29.661667 12909 net.cpp:120] Setting up relu4_3_D
I0423 15:12:29.662011 12909 net.cpp:127] Top shape: 2 512 28 28 (802816)
I0423 15:12:29.662024 12909 layer_factory.hpp:74] Creating layer conv4_2_D
I0423 15:12:29.662040 12909 net.cpp:90] Creating Layer conv4_2_D
I0423 15:12:29.662046 12909 net.cpp:410] conv4_2_D <- conv4_3_D
I0423 15:12:29.662078 12909 net.cpp:368] conv4_2_D -> conv4_2_D
I0423 15:12:29.662088 12909 net.cpp:120] Setting up conv4_2_D
I0423 15:12:29.743161 12909 net.cpp:127] Top shape: 2 512 28 28 (802816)
I0423 15:12:29.743201 12909 layer_factory.hpp:74] Creating layer conv4_2_D_bn
I0423 15:12:29.743216 12909 net.cpp:90] Creating Layer conv4_2_D_bn
I0423 15:12:29.743223 12909 net.cpp:410] conv4_2_D_bn <- conv4_2_D
I0423 15:12:29.743234 12909 net.cpp:357] conv4_2_D_bn -> conv4_2_D (in-place)
I0423 15:12:29.743245 12909 net.cpp:120] Setting up conv4_2_D_bn
I0423 15:12:29.743268 12909 net.cpp:127] Top shape: 2 512 28 28 (802816)
I0423 15:12:29.743278 12909 layer_factory.hpp:74] Creating layer relu4_2_D
I0423 15:12:29.743284 12909 net.cpp:90] Creating Layer relu4_2_D
I0423 15:12:29.743289 12909 net.cpp:410] relu4_2_D <- conv4_2_D
I0423 15:12:29.743294 12909 net.cpp:357] relu4_2_D -> conv4_2_D (in-place)
I0423 15:12:29.743305 12909 net.cpp:120] Setting up relu4_2_D
I0423 15:12:29.765447 12909 net.cpp:127] Top shape: 2 512 28 28 (802816)
I0423 15:12:29.765461 12909 layer_factory.hpp:74] Creating layer conv4_1_D
I0423 15:12:29.765477 12909 net.cpp:90] Creating Layer conv4_1_D
I0423 15:12:29.765482 12909 net.cpp:410] conv4_1_D <- conv4_2_D
I0423 15:12:29.765489 12909 net.cpp:368] conv4_1_D -> conv4_1_D
I0423 15:12:29.765503 12909 net.cpp:120] Setting up conv4_1_D
I0423 15:12:29.806712 12909 net.cpp:127] Top shape: 2 256 28 28 (401408)
I0423 15:12:29.806737 12909 layer_factory.hpp:74] Creating layer conv4_1_D_bn
I0423 15:12:29.806761 12909 net.cpp:90] Creating Layer conv4_1_D_bn
I0423 15:12:29.806767 12909 net.cpp:410] conv4_1_D_bn <- conv4_1_D
I0423 15:12:29.806777 12909 net.cpp:357] conv4_1_D_bn -> conv4_1_D (in-place)
I0423 15:12:29.806785 12909 net.cpp:120] Setting up conv4_1_D_bn
I0423 15:12:29.806805 12909 net.cpp:127] Top shape: 2 256 28 28 (401408)
I0423 15:12:29.806816 12909 layer_factory.hpp:74] Creating layer relu4_1_D
I0423 15:12:29.806823 12909 net.cpp:90] Creating Layer relu4_1_D
I0423 15:12:29.806831 12909 net.cpp:410] relu4_1_D <- conv4_1_D
I0423 15:12:29.806838 12909 net.cpp:357] relu4_1_D -> conv4_1_D (in-place)
I0423 15:12:29.806844 12909 net.cpp:120] Setting up relu4_1_D
I0423 15:12:29.808061 12909 net.cpp:127] Top shape: 2 256 28 28 (401408)
I0423 15:12:29.808073 12909 layer_factory.hpp:74] Creating layer upsample3
I0423 15:12:29.808084 12909 net.cpp:90] Creating Layer upsample3
I0423 15:12:29.808089 12909 net.cpp:410] upsample3 <- conv4_1_D
I0423 15:12:29.808095 12909 net.cpp:410] upsample3 <- pool3_mask
I0423 15:12:29.808101 12909 net.cpp:368] upsample3 -> pool3_D
I0423 15:12:29.808109 12909 net.cpp:120] Setting up upsample3
I0423 15:12:29.808115 12909 upsample_layer.cpp:31] Params 'pad_out_{}_' are deprecated. Please declare upsample height and width useing the upsample_h, upsample_w parameters.
I0423 15:12:29.808123 12909 net.cpp:127] Top shape: 2 256 56 56 (1605632)
I0423 15:12:29.808127 12909 layer_factory.hpp:74] Creating layer conv3_3_D
I0423 15:12:29.808138 12909 net.cpp:90] Creating Layer conv3_3_D
I0423 15:12:29.808146 12909 net.cpp:410] conv3_3_D <- pool3_D
I0423 15:12:29.808156 12909 net.cpp:368] conv3_3_D -> conv3_3_D
I0423 15:12:29.808166 12909 net.cpp:120] Setting up conv3_3_D
I0423 15:12:29.830729 12909 net.cpp:127] Top shape: 2 256 56 56 (1605632)
I0423 15:12:29.830754 12909 layer_factory.hpp:74] Creating layer conv3_3_D_bn
I0423 15:12:29.830765 12909 net.cpp:90] Creating Layer conv3_3_D_bn
I0423 15:12:29.830771 12909 net.cpp:410] conv3_3_D_bn <- conv3_3_D
I0423 15:12:29.830778 12909 net.cpp:357] conv3_3_D_bn -> conv3_3_D (in-place)
I0423 15:12:29.830787 12909 net.cpp:120] Setting up conv3_3_D_bn
I0423 15:12:29.830816 12909 net.cpp:127] Top shape: 2 256 56 56 (1605632)
I0423 15:12:29.830828 12909 layer_factory.hpp:74] Creating layer relu3_3_D
I0423 15:12:29.830837 12909 net.cpp:90] Creating Layer relu3_3_D
I0423 15:12:29.830842 12909 net.cpp:410] relu3_3_D <- conv3_3_D
I0423 15:12:29.830847 12909 net.cpp:357] relu3_3_D -> conv3_3_D (in-place)
I0423 15:12:29.830854 12909 net.cpp:120] Setting up relu3_3_D
I0423 15:12:29.831846 12909 net.cpp:127] Top shape: 2 256 56 56 (1605632)
I0423 15:12:29.831859 12909 layer_factory.hpp:74] Creating layer conv3_2_D
I0423 15:12:29.831871 12909 net.cpp:90] Creating Layer conv3_2_D
I0423 15:12:29.831876 12909 net.cpp:410] conv3_2_D <- conv3_3_D
I0423 15:12:29.831884 12909 net.cpp:368] conv3_2_D -> conv3_2_D
I0423 15:12:29.831893 12909 net.cpp:120] Setting up conv3_2_D
I0423 15:12:29.855073 12909 net.cpp:127] Top shape: 2 256 56 56 (1605632)
I0423 15:12:29.855092 12909 layer_factory.hpp:74] Creating layer conv3_2_D_bn
I0423 15:12:29.855104 12909 net.cpp:90] Creating Layer conv3_2_D_bn
I0423 15:12:29.855120 12909 net.cpp:410] conv3_2_D_bn <- conv3_2_D
I0423 15:12:29.855129 12909 net.cpp:357] conv3_2_D_bn -> conv3_2_D (in-place)
I0423 15:12:29.855137 12909 net.cpp:120] Setting up conv3_2_D_bn
I0423 15:12:29.855164 12909 net.cpp:127] Top shape: 2 256 56 56 (1605632)
I0423 15:12:29.855175 12909 layer_factory.hpp:74] Creating layer relu3_2_D
I0423 15:12:29.855183 12909 net.cpp:90] Creating Layer relu3_2_D
I0423 15:12:29.855188 12909 net.cpp:410] relu3_2_D <- conv3_2_D
I0423 15:12:29.855196 12909 net.cpp:357] relu3_2_D -> conv3_2_D (in-place)
I0423 15:12:29.855202 12909 net.cpp:120] Setting up relu3_2_D
I0423 15:12:29.856262 12909 net.cpp:127] Top shape: 2 256 56 56 (1605632)
I0423 15:12:29.856274 12909 layer_factory.hpp:74] Creating layer conv3_1_D
I0423 15:12:29.856282 12909 net.cpp:90] Creating Layer conv3_1_D
I0423 15:12:29.856287 12909 net.cpp:410] conv3_1_D <- conv3_2_D
I0423 15:12:29.856297 12909 net.cpp:368] conv3_1_D -> conv3_1_D
I0423 15:12:29.856305 12909 net.cpp:120] Setting up conv3_1_D
I0423 15:12:29.868126 12909 net.cpp:127] Top shape: 2 128 56 56 (802816)
I0423 15:12:29.868144 12909 layer_factory.hpp:74] Creating layer conv3_1_D_bn
I0423 15:12:29.868155 12909 net.cpp:90] Creating Layer conv3_1_D_bn
I0423 15:12:29.868160 12909 net.cpp:410] conv3_1_D_bn <- conv3_1_D
I0423 15:12:29.868166 12909 net.cpp:357] conv3_1_D_bn -> conv3_1_D (in-place)
I0423 15:12:29.868175 12909 net.cpp:120] Setting up conv3_1_D_bn
I0423 15:12:29.868201 12909 net.cpp:127] Top shape: 2 128 56 56 (802816)
I0423 15:12:29.868209 12909 layer_factory.hpp:74] Creating layer relu3_1_D
I0423 15:12:29.868221 12909 net.cpp:90] Creating Layer relu3_1_D
I0423 15:12:29.868227 12909 net.cpp:410] relu3_1_D <- conv3_1_D
I0423 15:12:29.868233 12909 net.cpp:357] relu3_1_D -> conv3_1_D (in-place)
I0423 15:12:29.868240 12909 net.cpp:120] Setting up relu3_1_D
I0423 15:12:29.869246 12909 net.cpp:127] Top shape: 2 128 56 56 (802816)
I0423 15:12:29.869259 12909 layer_factory.hpp:74] Creating layer upsample2
I0423 15:12:29.869267 12909 net.cpp:90] Creating Layer upsample2
I0423 15:12:29.869272 12909 net.cpp:410] upsample2 <- conv3_1_D
I0423 15:12:29.869278 12909 net.cpp:410] upsample2 <- pool2_mask
I0423 15:12:29.869287 12909 net.cpp:368] upsample2 -> pool2_D
I0423 15:12:29.869294 12909 net.cpp:120] Setting up upsample2
I0423 15:12:29.869299 12909 upsample_layer.cpp:31] Params 'pad_out_{}_' are deprecated. Please declare upsample height and width useing the upsample_h, upsample_w parameters.
I0423 15:12:29.869307 12909 net.cpp:127] Top shape: 2 128 112 112 (3211264)
I0423 15:12:29.869313 12909 layer_factory.hpp:74] Creating layer conv2_2_D
I0423 15:12:29.869321 12909 net.cpp:90] Creating Layer conv2_2_D
I0423 15:12:29.869326 12909 net.cpp:410] conv2_2_D <- pool2_D
I0423 15:12:29.869336 12909 net.cpp:368] conv2_2_D -> conv2_2_D
I0423 15:12:29.869344 12909 net.cpp:120] Setting up conv2_2_D
I0423 15:12:29.878557 12909 net.cpp:127] Top shape: 2 128 112 112 (3211264)
I0423 15:12:29.878573 12909 layer_factory.hpp:74] Creating layer conv2_2_D_bn
I0423 15:12:29.878583 12909 net.cpp:90] Creating Layer conv2_2_D_bn
I0423 15:12:29.878588 12909 net.cpp:410] conv2_2_D_bn <- conv2_2_D
I0423 15:12:29.878597 12909 net.cpp:357] conv2_2_D_bn -> conv2_2_D (in-place)
I0423 15:12:29.878605 12909 net.cpp:120] Setting up conv2_2_D_bn
I0423 15:12:29.878674 12909 net.cpp:127] Top shape: 2 128 112 112 (3211264)
I0423 15:12:29.878702 12909 layer_factory.hpp:74] Creating layer relu2_2_D
I0423 15:12:29.878711 12909 net.cpp:90] Creating Layer relu2_2_D
I0423 15:12:29.878716 12909 net.cpp:410] relu2_2_D <- conv2_2_D
I0423 15:12:29.878722 12909 net.cpp:357] relu2_2_D -> conv2_2_D (in-place)
I0423 15:12:29.878729 12909 net.cpp:120] Setting up relu2_2_D
I0423 15:12:29.879680 12909 net.cpp:127] Top shape: 2 128 112 112 (3211264)
I0423 15:12:29.879693 12909 layer_factory.hpp:74] Creating layer conv2_1_D
I0423 15:12:29.879701 12909 net.cpp:90] Creating Layer conv2_1_D
I0423 15:12:29.879706 12909 net.cpp:410] conv2_1_D <- conv2_2_D
I0423 15:12:29.879715 12909 net.cpp:368] conv2_1_D -> conv2_1_D
I0423 15:12:29.879724 12909 net.cpp:120] Setting up conv2_1_D
I0423 15:12:29.887521 12909 net.cpp:127] Top shape: 2 64 112 112 (1605632)
I0423 15:12:29.887537 12909 layer_factory.hpp:74] Creating layer conv2_1_D_bn
I0423 15:12:29.887548 12909 net.cpp:90] Creating Layer conv2_1_D_bn
I0423 15:12:29.887553 12909 net.cpp:410] conv2_1_D_bn <- conv2_1_D
I0423 15:12:29.887560 12909 net.cpp:357] conv2_1_D_bn -> conv2_1_D (in-place)
I0423 15:12:29.887568 12909 net.cpp:120] Setting up conv2_1_D_bn
I0423 15:12:29.887635 12909 net.cpp:127] Top shape: 2 64 112 112 (1605632)
I0423 15:12:29.887648 12909 layer_factory.hpp:74] Creating layer relu2_1_D
I0423 15:12:29.887657 12909 net.cpp:90] Creating Layer relu2_1_D
I0423 15:12:29.887662 12909 net.cpp:410] relu2_1_D <- conv2_1_D
I0423 15:12:29.887670 12909 net.cpp:357] relu2_1_D -> conv2_1_D (in-place)
I0423 15:12:29.887676 12909 net.cpp:120] Setting up relu2_1_D
I0423 15:12:29.889140 12909 net.cpp:127] Top shape: 2 64 112 112 (1605632)
I0423 15:12:29.889155 12909 layer_factory.hpp:74] Creating layer upsample1
I0423 15:12:29.889163 12909 net.cpp:90] Creating Layer upsample1
I0423 15:12:29.889168 12909 net.cpp:410] upsample1 <- conv2_1_D
I0423 15:12:29.889174 12909 net.cpp:410] upsample1 <- pool1_mask
I0423 15:12:29.889181 12909 net.cpp:368] upsample1 -> pool1_D
I0423 15:12:29.889189 12909 net.cpp:120] Setting up upsample1
I0423 15:12:29.889194 12909 upsample_layer.cpp:31] Params 'pad_out_{}_' are deprecated. Please declare upsample height and width useing the upsample_h, upsample_w parameters.
I0423 15:12:29.889201 12909 net.cpp:127] Top shape: 2 64 224 224 (6422528)
I0423 15:12:29.889206 12909 layer_factory.hpp:74] Creating layer conv1_2_D
I0423 15:12:29.889215 12909 net.cpp:90] Creating Layer conv1_2_D
I0423 15:12:29.889219 12909 net.cpp:410] conv1_2_D <- pool1_D
I0423 15:12:29.889231 12909 net.cpp:368] conv1_2_D -> conv1_2_D
I0423 15:12:29.889240 12909 net.cpp:120] Setting up conv1_2_D
I0423 15:12:29.892823 12909 net.cpp:127] Top shape: 2 64 224 224 (6422528)
I0423 15:12:29.892840 12909 layer_factory.hpp:74] Creating layer conv1_2_D_bn
I0423 15:12:29.892853 12909 net.cpp:90] Creating Layer conv1_2_D_bn
I0423 15:12:29.892858 12909 net.cpp:410] conv1_2_D_bn <- conv1_2_D
I0423 15:12:29.892865 12909 net.cpp:357] conv1_2_D_bn -> conv1_2_D (in-place)
I0423 15:12:29.892874 12909 net.cpp:120] Setting up conv1_2_D_bn
I0423 15:12:29.893084 12909 net.cpp:127] Top shape: 2 64 224 224 (6422528)
I0423 15:12:29.893101 12909 layer_factory.hpp:74] Creating layer relu1_2_D
I0423 15:12:29.893108 12909 net.cpp:90] Creating Layer relu1_2_D
I0423 15:12:29.893113 12909 net.cpp:410] relu1_2_D <- conv1_2_D
I0423 15:12:29.893121 12909 net.cpp:357] relu1_2_D -> conv1_2_D (in-place)
I0423 15:12:29.893128 12909 net.cpp:120] Setting up relu1_2_D
I0423 15:12:29.893853 12909 net.cpp:127] Top shape: 2 64 224 224 (6422528)
I0423 15:12:29.893867 12909 layer_factory.hpp:74] Creating layer conv1_1_D-v2
I0423 15:12:29.893878 12909 net.cpp:90] Creating Layer conv1_1_D-v2
I0423 15:12:29.893883 12909 net.cpp:410] conv1_1_D-v2 <- conv1_2_D
I0423 15:12:29.893890 12909 net.cpp:368] conv1_1_D-v2 -> conv1_1_D
I0423 15:12:29.893898 12909 net.cpp:120] Setting up conv1_1_D-v2
I0423 15:12:29.918815 12909 net.cpp:127] Top shape: 2 21 224 224 (2107392)
I0423 15:12:29.918833 12909 layer_factory.hpp:74] Creating layer loss
I0423 15:12:29.918851 12909 net.cpp:90] Creating Layer loss
I0423 15:12:29.918869 12909 net.cpp:410] loss <- conv1_1_D
I0423 15:12:29.918874 12909 net.cpp:410] loss <- label
I0423 15:12:29.918884 12909 net.cpp:368] loss -> loss
I0423 15:12:29.918895 12909 net.cpp:120] Setting up loss
I0423 15:12:29.918907 12909 layer_factory.hpp:74] Creating layer loss
…
