…
state {
  phase: TRAIN
}
layer {
  name: "data"
  type: "Data"
  top: "data"
  include {
    phase: TRAIN
  }
  transform_param {
    mean_value: 104.00699
    mean_value: 116.66877
    mean_value: 122.67892
  }
  data_param {
    source: "/home/shared/datasets/VOCdevkit/VOC2012/LMDB/train_lmdb"
    batch_size: 2
    backend: LMDB
  }
}
layer {
  name: "label"
  type: "Data"
  top: "label"
  include {
    phase: TRAIN
  }
  data_param {
    source: "/home/shared/datasets/VOCdevkit/VOC2012/LMDB/train_gt_lmdb"
    batch_size: 2
    backend: LMDB
  }
}
layer {
  name: "conv1_1"
  type: "Convolution"
  bottom: "data"
  top: "conv1_1"
  param {
    lr_mult: 1
    decay_mult: 1
  }
  param {
    lr_mult: 2
    decay_mult: 0
  }
  convolution_param {
    num_output: 64
    pad: 1
    kernel_size: 3
    weight_filler {
      type: "msra"
    }
    bias_filler {
      type: "constant"
    }
  }
}
layer {
  name: "conv1_1_bn"
  type: "BN"
  bottom: "conv1_1"
  top: "conv1_1"
  param {
    lr_mult: 1
    decay_mult: 1
  }
  param {
    lr_mult: 1
    decay_mult: 0
  }
  bn_param {
    scale_filler {
      type: "constant"
      value: 1
    }
    shift_filler {
      type: "constant"
      value: 0.001
    }
  }
}
layer {
  name: "relu1_1"
  type: "ReLU"
  bottom: "conv1_1"
  top: "conv1_1"
}
layer {
  name: "conv1_2"
  type: "Convolution"
  bottom: "conv1_1"
  top: "conv1_2"
  param {
    lr_mult: 1
    decay_mult: 1
  }
  param {
    lr_mult: 2
    decay_mult: 0
  }
  convolution_param {
    num_output: 64
    pad: 1
    kernel_size: 3
    weight_filler {
      type: "msra"
    }
    bias_filler {
      type: "constant"
    }
  }
}
layer {
  name: "conv1_2_bn"
  type: "BN"
  bottom: "conv1_2"
  top: "conv1_2"
  param {
    lr_mult: 1
    decay_mult: 1
  }
  param {
    lr_mult: 1
    decay_mult: 0
  }
  bn_param {
    scale_filler {
      type: "constant"
      value: 1
    }
    shift_filler {
      type: "constant"
      value: 0.001
    }
  }
}
layer {
  name: "relu1_2"
  type: "ReLU"
  bottom: "conv1_2"
  top: "conv1_2"
}
layer {
  name: "pool1"
  type: "Pooling"
  bottom: "conv1_2"
  top: "pool1"
  top: "pool1_mask"
  pooling_param {
    pool: MAX
    kernel_size: 2
    stride: 2
  }
}
layer {
  name: "conv2_1"
  type: "Convolution"
  bottom: "pool1"
  top: "conv2_1"
  param {
    lr_mult: 1
    decay_mult: 1
  }
  param {
    lr_mult: 2
    decay_mult: 0
  }
  convolution_param {
    num_output: 128
    pad: 1
    kernel_size: 3
    weight_filler {
      type: "msra"
    }
    bias_filler {
      type: "constant"
    }
  }
}
layer {
  name: "conv2_1_bn"
  type: "BN"
  bottom: "conv2_1"
  top: "conv2_1"
  param {
    lr_mult: 1
    decay_mult: 1
  }
  param {
    lr_mult: 1
    decay_mult: 0
  }
  bn_param {
    scale_filler {
      type: "constant"
      value: 1
    }
    shift_filler {
      type: "constant"
      value: 0.001
    }
  }
}
layer {
  name: "relu2_1"
  type: "ReLU"
  bottom: "conv2_1"
  top: "conv2_1"
}
layer {
  name: "conv2_2"
  type: "Convolution"
  bottom: "conv2_1"
  top: "conv2_2"
  param {
    lr_mult: 1
    decay_mult: 1
  }
  param {
    lr_mult: 2
    decay_mult: 0
  }
  convolution_param {
    num_output: 128
    pad: 1
    kernel_size: 3
    weight_filler {
      type: "msra"
    }
    bias_filler {
      type: "constant"
    }
  }
}
layer {
  name: "conv2_2_bn"
  type: "BN"
  bottom: "conv2_2"
  top: "conv2_2"
  param {
    lr_mult: 1
    decay_mult: 1
  }
  param {
    lr_mult: 1
    decay_mult: 0
  }
  bn_param {
    scale_filler {
      type: "constant"
      value: 1
    }
    shift_filler {
      type: "constant"
      value: 0.001
    }
  }
}
layer {
  name: "relu2_2"
  type: "ReLU"
  bottom: "conv2_2"
  top: "conv2_2"
}
layer {
  name: "pool2"
  type: "Pooling"
  bottom: "conv2_2"
  top: "pool2"
  top: "pool2_mask"
  pooling_param {
    pool: MAX
    kernel_size: 2
    stride: 2
  }
}
layer {
  name: "conv3_1"
  type: "Convolution"
  bottom: "pool2"
  top: "conv3_1"
  param {
    lr_mult: 1
    decay_mult: 1
  }
  param {
    lr_mult: 2
    decay_mult: 0
  }
  convolution_param {
    num_output: 256
    pad: 1
    kernel_size: 3
    weight_filler {
      type: "msra"
    }
    bias_filler {
      type: "constant"
    }
  }
}
layer {
  name: "conv3_1_bn"
  type: "BN"
  bottom: "conv3_1"
  top: "conv3_1"
  param {
    lr_mult: 1
    decay_mult: 1
  }
  param {
    lr_mult: 1
    decay_mult: 0
  }
  bn_param {
    scale_filler {
      type: "constant"
      value: 1
    }
    shift_filler {
      type: "constant"
      value: 0.001
    }
  }
}
layer {
  name: "relu3_1"
  type: "ReLU"
  bottom: "conv3_1"
  top: "conv3_1"
}
layer {
  name: "conv3_2"
  type: "Convolution"
  bottom: "conv3_1"
  top: "conv3_2"
  param {
    lr_mult: 1
    decay_mult: 1
  }
  param {
    lr_mult: 2
    decay_mult: 0
  }
  convolution_param {
    num_output: 256
    pad: 1
    kernel_size: 3
    weight_filler {
      type: "msra"
    }
    bias_filler {
      type: "constant"
    }
  }
}
layer {
  name: "conv3_2_bn"
  type: "BN"
  bottom: "conv3_2"
  top: "conv3_2"
  param {
    lr_mult: 1
    decay_mult: 1
  }
  param {
    lr_mult: 1
    decay_mult: 0
  }
  bn_param {
    scale_filler {
      type: "constant"
      value: 1
    }
    shift_filler {
      type: "constant"
      value: 0.001
    }
  }
}
layer {
  name: "relu3_2"
  type: "ReLU"
  bottom: "conv3_2"
  top: "conv3_2"
}
layer {
  name: "conv3_3"
  type: "Convolution"
  bottom: "conv3_2"
  top: "conv3_3"
  param {
    lr_mult: 1
    decay_mult: 1
  }
  param {
    lr_mult: 2
    decay_mult: 0
  }
  convolution_param {
    num_output: 256
    pad: 1
    kernel_size: 3
    weight_filler {
      type: "msra"
    }
    bias_filler {
      type: "constant"
    }
  }
}
layer {
  name: "conv3_3_bn"
  type: "BN"
  bottom: "conv3_3"
  top: "conv3_3"
  param {
    lr_mult: 1
    decay_mult: 1
  }
  param {
    lr_mult: 1
    decay_mult: 0
  }
  bn_param {
    scale_filler {
      type: "constant"
      value: 1
    }
    shift_filler {
      type: "constant"
      value: 0.001
    }
  }
}
layer {
  name: "relu3_3"
  type: "ReLU"
  bottom: "conv3_3"
  top: "conv3_3"
}
layer {
  name: "pool3"
  type: "Pooling"
  bottom: "conv3_3"
  top: "pool3"
  top: "pool3_mask"
  pooling_param {
    pool: MAX
    kernel_size: 2
    stride: 2
  }
}
layer {
  name: "conv4_1"
  type: "Convolution"
  bottom: "pool3"
  top: "conv4_1"
  param {
    lr_mult: 1
    decay_mult: 1
  }
  param {
    lr_mult: 2
    decay_mult: 0
  }
  convolution_param {
    num_output: 512
    pad: 1
    kernel_size: 3
    weight_filler {
      type: "msra"
    }
    bias_filler {
      type: "constant"
    }
  }
}
layer {
  name: "conv4_1_bn"
  type: "BN"
  bottom: "conv4_1"
  top: "conv4_1"
  param {
    lr_mult: 1
    decay_mult: 1
  }
  param {
    lr_mult: 1
    decay_mult: 0
  }
  bn_param {
    scale_filler {
      type: "constant"
      value: 1
    }
    shift_filler {
      type: "constant"
      value: 0.001
    }
  }
}
layer {
  name: "relu4_1"
  type: "ReLU"
  bottom: "conv4_1"
  top: "conv4_1"
}
layer {
  name: "conv4_2"
  type: "Convolution"
  bottom: "conv4_1"
  top: "conv4_2"
  param {
    lr_mult: 1
    decay_mult: 1
  }
  param {
    lr_mult: 2
    decay_mult: 0
  }
  convolution_param {
    num_output: 512
    pad: 1
    kernel_size: 3
    weight_filler {
      type: "msra"
    }
    bias_filler {
      type: "constant"
    }
  }
}
layer {
  name: "conv4_2_bn"
  type: "BN"
  bottom: "conv4_2"
  top: "conv4_2"
  param {
    lr_mult: 1
    decay_mult: 1
  }
  param {
    lr_mult: 1
    decay_mult: 0
  }
  bn_param {
    scale_filler {
      type: "constant"
      value: 1
    }
    shift_filler {
      type: "constant"
      value: 0.001
    }
  }
}
layer {
  name: "relu4_2"
  type: "ReLU"
  bottom: "conv4_2"
  top: "conv4_2"
}
layer {
  name: "conv4_3"
  type: "Convolution"
  bottom: "conv4_2"
  top: "conv4_3"
  param {
    lr_mult: 1
    decay_mult: 1
  }
  param {
    lr_mult: 2
    decay_mult: 0
  }
  convolution_param {
    num_output: 512
    pad: 1
    kernel_size: 3
    weight_filler {
      type: "msra"
    }
    bias_filler {
      type: "constant"
    }
  }
}
layer {
  name: "conv4_3_bn"
  type: "BN"
  bottom: "conv4_3"
  top: "conv4_3"
  param {
    lr_mult: 1
    decay_mult: 1
  }
  param {
    lr_mult: 1
    decay_mult: 0
  }
  bn_param {
    scale_filler {
      type: "constant"
      value: 1
    }
    shift_filler {
      type: "constant"
      value: 0.001
    }
  }
}
layer {
  name: "relu4_3"
  type: "ReLU"
  bottom: "conv4_3"
  top: "conv4_3"
}
layer {
  name: "pool4"
  type: "Pooling"
  bottom: "conv4_3"
  top: "pool4"
  top: "pool4_mask"
  pooling_param {
    pool: MAX
    kernel_size: 2
    stride: 2
  }
}
layer {
  name: "conv5_1"
  type: "Convolution"
  bottom: "pool4"
  top: "conv5_1"
  param {
    lr_mult: 1
    decay_mult: 1
  }
  param {
    lr_mult: 2
    decay_mult: 0
  }
  convolution_param {
    num_output: 512
    pad: 1
    kernel_size: 3
    weight_filler {
      type: "msra"
    }
    bias_filler {
      type: "constant"
    }
  }
}
layer {
  name: "conv5_1_bn"
  type: "BN"
  bottom: "conv5_1"
  top: "conv5_1"
  param {
    lr_mult: 1
    decay_mult: 1
  }
  param {
    lr_mult: 1
    decay_mult: 0
  }
  bn_param {
    scale_filler {
      type: "constant"
      value: 1
    }
    shift_filler {
      type: "constant"
      value: 0.001
    }
  }
}
layer {
  name: "relu5_1"
  type: "ReLU"
  bottom: "conv5_1"
  top: "conv5_1"
}
layer {
  name: "conv5_2"
  type: "Convolution"
  bottom: "conv5_1"
  top: "conv5_2"
  param {
    lr_mult: 1
    decay_mult: 1
  }
  param {
    lr_mult: 2
    decay_mult: 0
  }
  convolution_param {
    num_output: 512
    pad: 1
    kernel_size: 3
    weight_filler {
      type: "msra"
    }
    bias_filler {
      type: "constant"
    }
  }
}
layer {
  name: "conv5_2_bn"
  type: "BN"
  bottom: "conv5_2"
  top: "conv5_2"
  param {
    lr_mult: 1
    decay_mult: 1
  }
  param {
    lr_mult: 1
    decay_mult: 0
  }
  bn_param {
    scale_filler {
      type: "constant"
      value: 1
    }
    shift_filler {
      type: "constant"
      value: 0.001
    }
  }
}
layer {
  name: "relu5_2"
  type: "ReLU"
  bottom: "conv5_2"
  top: "conv5_2"
}
layer {
  name: "conv5_3"
  type: "Convolution"
  bottom: "conv5_2"
  top: "conv5_3"
  param {
    lr_mult: 1
    decay_mult: 1
  }
  param {
    lr_mult: 2
    decay_mult: 0
  }
  convolution_param {
    num_output: 512
    pad: 1
    kernel_size: 3
    weight_filler {
      type: "msra"
    }
    bias_filler {
      type: "constant"
    }
  }
}
layer {
  name: "conv5_3_bn"
  type: "BN"
  bottom: "conv5_3"
  top: "conv5_3"
  param {
    lr_mult: 1
    decay_mult: 1
  }
  param {
    lr_mult: 1
    decay_mult: 0
  }
  bn_param {
    scale_filler {
      type: "constant"
      value: 1
    }
    shift_filler {
      type: "constant"
      value: 0.001
    }
  }
}
layer {
  name: "relu5_3"
  type: "ReLU"
  bottom: "conv5_3"
  top: "conv5_3"
}
layer {
  name: "pool5"
  type: "Pooling"
  bottom: "conv5_3"
  top: "pool5"
  top: "pool5_mask"
  pooling_param {
    pool: MAX
    kernel_size: 2
    stride: 2
  }
}
layer {
  name: "upsample5"
  type: "Upsample"
  bottom: "pool5"
  bottom: "pool5_mask"
  top: "pool5_D"
  upsample_param {
    scale: 2
    upsample_h: 32
    upsample_w: 32
  }
}
layer {
  name: "conv5_3_D"
  type: "Convolution"
  bottom: "pool5_D"
  top: "conv5_3_D"
  param {
    lr_mult: 1
    decay_mult: 1
  }
  param {
    lr_mult: 2
    decay_mult: 0
  }
  convolution_param {
    num_output: 512
    pad: 1
    kernel_size: 3
    weight_filler {
      type: "msra"
    }
    bias_filler {
      type: "constant"
    }
  }
}
layer {
  name: "conv5_3_D_bn"
  type: "BN"
  bottom: "conv5_3_D"
  top: "conv5_3_D"
  param {
    lr_mult: 1
    decay_mult: 1
  }
  param {
    lr_mult: 1
    decay_mult: 0
  }
  bn_param {
    scale_filler {
      type: "constant"
      value: 1
    }
    shift_filler {
      type: "constant"
      value: 0.001
    }
  }
}
layer {
  name: "relu5_3_D"
  type: "ReLU"
  bottom: "conv5_3_D"
  top: "conv5_3_D"
}
layer {
  name: "conv5_2_D"
  type: "Convolution"
  bottom: "conv5_3_D"
  top: "conv5_2_D"
  param {
    lr_mult: 1
    decay_mult: 1
  }
  param {
    lr_mult: 2
    decay_mult: 0
  }
  convolution_param {
    num_output: 512
    pad: 1
    kernel_size: 3
    weight_filler {
      type: "msra"
    }
    bias_filler {
      type: "constant"
    }
  }
}
layer {
  name: "conv5_2_D_bn"
  type: "BN"
  bottom: "conv5_2_D"
  top: "conv5_2_D"
  param {
    lr_mult: 1
    decay_mult: 1
  }
  param {
    lr_mult: 1
    decay_mult: 0
  }
  bn_param {
    scale_filler {
      type: "constant"
      value: 1
    }
    shift_filler {
      type: "constant"
      value: 0.001
    }
  }
}
layer {
  name: "relu5_2_D"
  type: "ReLU"
  bottom: "conv5_2_D"
  top: "conv5_2_D"
}
layer {
  name: "conv5_1_D"
  type: "Convolution"
  bottom: "conv5_2_D"
  top: "conv5_1_D"
  param {
    lr_mult: 1
    decay_mult: 1
  }
  param {
    lr_mult: 2
    decay_mult: 0
  }
  convolution_param {
    num_output: 512
    pad: 1
    kernel_size: 3
    weight_filler {
      type: "msra"
    }
    bias_filler {
      type: "constant"
    }
  }
}
layer {
  name: "conv5_1_D_bn"
  type: "BN"
  bottom: "conv5_1_D"
  top: "conv5_1_D"
  param {
    lr_mult: 1
    decay_mult: 1
  }
  param {
    lr_mult: 1
    decay_mult: 0
  }
  bn_param {
    scale_filler {
      type: "constant"
      value: 1
    }
    shift_filler {
      type: "constant"
      value: 0.001
    }
  }
}
layer {
  name: "relu5_1_D"
  type: "ReLU"
  bottom: "conv5_1_D"
  top: "conv5_1_D"
}
layer {
  name: "upsample4"
  type: "Upsample"
  bottom: "conv5_1_D"
  bottom: "pool4_mask"
  top: "pool4_D"
  upsample_param {
    scale: 2
    upsample_h: 63
    upsample_w: 63
  }
}
layer {
  name: "conv4_3_D"
  type: "Convolution"
  bottom: "pool4_D"
  top: "conv4_3_D"
  param {
    lr_mult: 1
    decay_mult: 1
  }
  param {
    lr_mult: 2
    decay_mult: 0
  }
  convolution_param {
    num_output: 512
    pad: 1
    kernel_size: 3
    weight_filler {
      type: "msra"
    }
    bias_filler {
      type: "constant"
    }
  }
}
layer {
  name: "conv4_3_D_bn"
  type: "BN"
  bottom: "conv4_3_D"
  top: "conv4_3_D"
  param {
    lr_mult: 1
    decay_mult: 1
  }
  param {
    lr_mult: 1
    decay_mult: 0
  }
  bn_param {
    scale_filler {
      type: "constant"
      value: 1
    }
    shift_filler {
      type: "constant"
      value: 0.001
    }
  }
}
layer {
  name: "relu4_3_D"
  type: "ReLU"
  bottom: "conv4_3_D"
  top: "conv4_3_D"
}
layer {
  name: "conv4_2_D"
  type: "Convolution"
  bottom: "conv4_3_D"
  top: "conv4_2_D"
  param {
    lr_mult: 1
    decay_mult: 1
  }
  param {
    lr_mult: 2
    decay_mult: 0
  }
  convolution_param {
    num_output: 512
    pad: 1
    kernel_size: 3
    weight_filler {
      type: "msra"
    }
    bias_filler {
      type: "constant"
    }
  }
}
layer {
  name: "conv4_2_D_bn"
  type: "BN"
  bottom: "conv4_2_D"
  top: "conv4_2_D"
  param {
    lr_mult: 1
    decay_mult: 1
  }
  param {
    lr_mult: 1
    decay_mult: 0
  }
  bn_param {
    scale_filler {
      type: "constant"
      value: 1
    }
    shift_filler {
      type: "constant"
      value: 0.001
    }
  }
}
layer {
  name: "relu4_2_D"
  type: "ReLU"
  bottom: "conv4_2_D"
  top: "conv4_2_D"
}
layer {
  name: "conv4_1_D"
  type: "Convolution"
  bottom: "conv4_2_D"
  top: "conv4_1_D"
  param {
    lr_mult: 1
    decay_mult: 1
  }
  param {
    lr_mult: 2
    decay_mult: 0
  }
  convolution_param {
    num_output: 256
    pad: 1
    kernel_size: 3
    weight_filler {
      type: "msra"
    }
    bias_filler {
      type: "constant"
    }
  }
}
layer {
  name: "conv4_1_D_bn"
  type: "BN"
  bottom: "conv4_1_D"
  top: "conv4_1_D"
  param {
    lr_mult: 1
    decay_mult: 1
  }
  param {
    lr_mult: 1
    decay_mult: 0
  }
  bn_param {
    scale_filler {
      type: "constant"
      value: 1
    }
    shift_filler {
      type: "constant"
      value: 0.001
    }
  }
}
layer {
  name: "relu4_1_D"
  type: "ReLU"
  bottom: "conv4_1_D"
  top: "conv4_1_D"
}
layer {
  name: "upsample3"
  type: "Upsample"
  bottom: "conv4_1_D"
  bottom: "pool3_mask"
  top: "pool3_D"
  upsample_param {
    scale: 2
    upsample_h: 125
    upsample_w: 125
  }
}
layer {
  name: "conv3_3_D"
  type: "Convolution"
  bottom: "pool3_D"
  top: "conv3_3_D"
  param {
    lr_mult: 1
    decay_mult: 1
  }
  param {
    lr_mult: 2
    decay_mult: 0
  }
  convolution_param {
    num_output: 256
    pad: 1
    kernel_size: 3
    weight_filler {
      type: "msra"
    }
    bias_filler {
      type: "constant"
    }
  }
}
layer {
  name: "conv3_3_D_bn"
  type: "BN"
  bottom: "conv3_3_D"
  top: "conv3_3_D"
  param {
    lr_mult: 1
    decay_mult: 1
  }
  param {
    lr_mult: 1
    decay_mult: 0
  }
  bn_param {
    scale_filler {
      type: "constant"
      value: 1
    }
    shift_filler {
      type: "constant"
      value: 0.001
    }
  }
}
layer {
  name: "relu3_3_D"
  type: "ReLU"
  bottom: "conv3_3_D"
  top: "conv3_3_D"
}
layer {
  name: "conv3_2_D"
  type: "Convolution"
  bottom: "conv3_3_D"
  top: "conv3_2_D"
  param {
    lr_mult: 1
    decay_mult: 1
  }
  param {
    lr_mult: 2
    decay_mult: 0
  }
  convolution_param {
    num_output: 256
    pad: 1
    kernel_size: 3
    weight_filler {
      type: "msra"
    }
    bias_filler {
      type: "constant"
    }
  }
}
layer {
  name: "conv3_2_D_bn"
  type: "BN"
  bottom: "conv3_2_D"
  top: "conv3_2_D"
  param {
    lr_mult: 1
    decay_mult: 1
  }
  param {
    lr_mult: 1
    decay_mult: 0
  }
  bn_param {
    scale_filler {
      type: "constant"
      value: 1
    }
    shift_filler {
      type: "constant"
      value: 0.001
    }
  }
}
layer {
  name: "relu3_2_D"
  type: "ReLU"
  bottom: "conv3_2_D"
  top: "conv3_2_D"
}
layer {
  name: "conv3_1_D"
  type: "Convolution"
  bottom: "conv3_2_D"
  top: "conv3_1_D"
  param {
    lr_mult: 1
    decay_mult: 1
  }
  param {
    lr_mult: 2
    decay_mult: 0
  }
  convolution_param {
    num_output: 128
    pad: 1
    kernel_size: 3
    weight_filler {
      type: "msra"
    }
    bias_filler {
      type: "constant"
    }
  }
}
layer {
  name: "conv3_1_D_bn"
  type: "BN"
  bottom: "conv3_1_D"
  top: "conv3_1_D"
  param {
    lr_mult: 1
    decay_mult: 1
  }
  param {
    lr_mult: 1
    decay_mult: 0
  }
  bn_param {
    scale_filler {
      type: "constant"
      value: 1
    }
    shift_filler {
      type: "constant"
      value: 0.001
    }
  }
}
layer {
  name: "relu3_1_D"
  type: "ReLU"
  bottom: "conv3_1_D"
  top: "conv3_1_D"
}
layer {
  name: "upsample2"
  type: "Upsample"
  bottom: "conv3_1_D"
  bottom: "pool2_mask"
  top: "pool2_D"
  upsample_param {
    scale: 2
  }
}
layer {
  name: "conv2_2_D"
  type: "Convolution"
  bottom: "pool2_D"
  top: "conv2_2_D"
  param {
    lr_mult: 1
    decay_mult: 1
  }
  param {
    lr_mult: 2
    decay_mult: 0
  }
  convolution_param {
    num_output: 128
    pad: 1
    kernel_size: 3
    weight_filler {
      type: "msra"
    }
    bias_filler {
      type: "constant"
    }
  }
}
layer {
  name: "conv2_2_D_bn"
  type: "BN"
  bottom: "conv2_2_D"
  top: "conv2_2_D"
  param {
    lr_mult: 1
    decay_mult: 1
  }
  param {
    lr_mult: 1
    decay_mult: 0
  }
  bn_param {
    scale_filler {
      type: "constant"
      value: 1
    }
    shift_filler {
      type: "constant"
      value: 0.001
    }
  }
}
layer {
  name: "relu2_2_D"
  type: "ReLU"
  bottom: "conv2_2_D"
  top: "conv2_2_D"
}
layer {
  name: "conv2_1_D"
  type: "Convolution"
  bottom: "conv2_2_D"
  top: "conv2_1_D"
  param {
    lr_mult: 1
    decay_mult: 1
  }
  param {
    lr_mult: 2
    decay_mult: 0
  }
  convolution_param {
    num_output: 64
    pad: 1
    kernel_size: 3
    weight_filler {
      type: "msra"
    }
    bias_filler {
      type: "constant"
    }
  }
}
layer {
  name: "conv2_1_D_bn"
  type: "BN"
  bottom: "conv2_1_D"
  top: "conv2_1_D"
  param {
    lr_mult: 1
    decay_mult: 1
  }
  param {
    lr_mult: 1
    decay_mult: 0
  }
  bn_param {
    scale_filler {
      type: "constant"
      value: 1
    }
    shift_filler {
      type: "constant"
      value: 0.001
    }
  }
}
layer {
  name: "relu2_1_D"
  type: "ReLU"
  bottom: "conv2_1_D"
  top: "conv2_1_D"
}
layer {
  name: "upsample1"
  type: "Upsample"
  bottom: "conv2_1_D"
  bottom: "pool1_mask"
  top: "pool1_D"
  upsample_param {
    scale: 2
  }
}
layer {
  name: "conv1_2_D"
  type: "Convolution"
  bottom: "pool1_D"
  top: "conv1_2_D"
  param {
    lr_mult: 1
    decay_mult: 1
  }
  param {
    lr_mult: 2
    decay_mult: 0
  }
  convolution_param {
    num_output: 64
    pad: 1
    kernel_size: 3
    weight_filler {
      type: "msra"
    }
    bias_filler {
      type: "constant"
    }
  }
}
layer {
  name: "conv1_2_D_bn"
  type: "BN"
  bottom: "conv1_2_D"
  top: "conv1_2_D"
  param {
    lr_mult: 1
    decay_mult: 1
  }
  param {
    lr_mult: 1
    decay_mult: 0
  }
  bn_param {
    scale_filler {
      type: "constant"
      value: 1
    }
    shift_filler {
      type: "constant"
      value: 0.001
    }
  }
}
layer {
  name: "relu1_2_D"
  type: "ReLU"
  bottom: "conv1_2_D"
  top: "conv1_2_D"
}
layer {
  name: "conv1_1_D-v2"
  type: "Convolution"
  bottom: "conv1_2_D"
  top: "conv1_1_D"
  param {
    lr_mult: 1
    decay_mult: 1
  }
  param {
    lr_mult: 2
    decay_mult: 0
  }
  convolution_param {
    num_output: 21
    pad: 1
    kernel_size: 3
    weight_filler {
      type: "msra"
    }
    bias_filler {
      type: "constant"
    }
  }
}
layer {
  name: "loss"
  type: "SoftmaxWithLoss"
  bottom: "conv1_1_D"
  bottom: "label"
  top: "loss"
  loss_param {
    ignore_label: 21
    weight_by_label_freqs: false
  }
  softmax_param {
    engine: CAFFE
  }
}
I0418 19:04:27.068395 30885 layer_factory.hpp:74] Creating layer data
I0418 19:04:27.068433 30885 net.cpp:90] Creating Layer data
I0418 19:04:27.068450 30885 net.cpp:368] data -> data
I0418 19:04:27.068487 30885 net.cpp:120] Setting up data
I0418 19:04:27.068598 30885 db.cpp:34] Opened lmdb /home/shared/datasets/VOCdevkit/VOC2012/LMDB/train_lmdb
I0418 19:04:27.069636 30885 data_layer.cpp:52] output data size: 2,3,500,500
I0418 19:04:27.072021 30885 net.cpp:127] Top shape: 2 3 500 500 (1500000)
I0418 19:04:27.072062 30885 layer_factory.hpp:74] Creating layer label
I0418 19:04:27.072093 30885 net.cpp:90] Creating Layer label
I0418 19:04:27.072104 30885 net.cpp:368] label -> label
I0418 19:04:27.072127 30885 net.cpp:120] Setting up label
I0418 19:04:27.072212 30885 db.cpp:34] Opened lmdb /home/shared/datasets/VOCdevkit/VOC2012/LMDB/train_gt_lmdb
I0418 19:04:27.072428 30885 data_layer.cpp:52] output data size: 2,1,500,500
I0418 19:04:27.072878 30885 net.cpp:127] Top shape: 2 1 500 500 (500000)
I0418 19:04:27.072891 30885 layer_factory.hpp:74] Creating layer conv1_1
I0418 19:04:27.072912 30885 net.cpp:90] Creating Layer conv1_1
I0418 19:04:27.072926 30885 net.cpp:410] conv1_1 <- data
I0418 19:04:27.072952 30885 net.cpp:368] conv1_1 -> conv1_1
I0418 19:04:27.072971 30885 net.cpp:120] Setting up conv1_1
I0418 19:04:28.590329 30885 net.cpp:127] Top shape: 2 64 500 500 (32000000)
I0418 19:04:28.590380 30885 layer_factory.hpp:74] Creating layer conv1_1_bn
I0418 19:04:28.590405 30885 net.cpp:90] Creating Layer conv1_1_bn
I0418 19:04:28.590417 30885 net.cpp:410] conv1_1_bn <- conv1_1
I0418 19:04:28.590435 30885 net.cpp:357] conv1_1_bn -> conv1_1 (in-place)
I0418 19:04:28.590476 30885 net.cpp:120] Setting up conv1_1_bn
I0418 19:04:28.591378 30885 net.cpp:127] Top shape: 2 64 500 500 (32000000)
I0418 19:04:28.591400 30885 layer_factory.hpp:74] Creating layer relu1_1
I0418 19:04:28.591418 30885 net.cpp:90] Creating Layer relu1_1
I0418 19:04:28.591434 30885 net.cpp:410] relu1_1 <- conv1_1
I0418 19:04:28.591446 30885 net.cpp:357] relu1_1 -> conv1_1 (in-place)
I0418 19:04:28.591465 30885 net.cpp:120] Setting up relu1_1
I0418 19:04:28.593498 30885 net.cpp:127] Top shape: 2 64 500 500 (32000000)
I0418 19:04:28.593513 30885 layer_factory.hpp:74] Creating layer conv1_2
I0418 19:04:28.593529 30885 net.cpp:90] Creating Layer conv1_2
I0418 19:04:28.593538 30885 net.cpp:410] conv1_2 <- conv1_1
I0418 19:04:28.593555 30885 net.cpp:368] conv1_2 -> conv1_2
I0418 19:04:28.593571 30885 net.cpp:120] Setting up conv1_2
I0418 19:04:28.606798 30885 net.cpp:127] Top shape: 2 64 500 500 (32000000)
I0418 19:04:28.606830 30885 layer_factory.hpp:74] Creating layer conv1_2_bn
I0418 19:04:28.606848 30885 net.cpp:90] Creating Layer conv1_2_bn
I0418 19:04:28.606858 30885 net.cpp:410] conv1_2_bn <- conv1_2
I0418 19:04:28.606876 30885 net.cpp:357] conv1_2_bn -> conv1_2 (in-place)
I0418 19:04:28.606899 30885 net.cpp:120] Setting up conv1_2_bn
I0418 19:04:28.607867 30885 net.cpp:127] Top shape: 2 64 500 500 (32000000)
I0418 19:04:28.607893 30885 layer_factory.hpp:74] Creating layer relu1_2
I0418 19:04:28.607908 30885 net.cpp:90] Creating Layer relu1_2
I0418 19:04:28.607918 30885 net.cpp:410] relu1_2 <- conv1_2
I0418 19:04:28.607933 30885 net.cpp:357] relu1_2 -> conv1_2 (in-place)
I0418 19:04:28.607946 30885 net.cpp:120] Setting up relu1_2
I0418 19:04:28.616775 30885 net.cpp:127] Top shape: 2 64 500 500 (32000000)
I0418 19:04:28.616792 30885 layer_factory.hpp:74] Creating layer pool1
I0418 19:04:28.616808 30885 layer_factory.cpp:55] CUDNN does not support padding or multiple tops. Using Caffe's own pooling layer.
I0418 19:04:28.616827 30885 net.cpp:90] Creating Layer pool1
I0418 19:04:28.616842 30885 net.cpp:410] pool1 <- conv1_2
I0418 19:04:28.616858 30885 net.cpp:368] pool1 -> pool1
I0418 19:04:28.616878 30885 net.cpp:368] pool1 -> pool1_mask
I0418 19:04:28.616894 30885 net.cpp:120] Setting up pool1
I0418 19:04:28.616936 30885 net.cpp:127] Top shape: 2 64 250 250 (8000000)
I0418 19:04:28.616950 30885 net.cpp:127] Top shape: 2 64 250 250 (8000000)
I0418 19:04:28.616961 30885 layer_factory.hpp:74] Creating layer conv2_1
I0418 19:04:28.616979 30885 net.cpp:90] Creating Layer conv2_1
I0418 19:04:28.616991 30885 net.cpp:410] conv2_1 <- pool1
I0418 19:04:28.617003 30885 net.cpp:368] conv2_1 -> conv2_1
I0418 19:04:28.617022 30885 net.cpp:120] Setting up conv2_1
I0418 19:04:28.638973 30885 net.cpp:127] Top shape: 2 128 250 250 (16000000)
I0418 19:04:28.638998 30885 layer_factory.hpp:74] Creating layer conv2_1_bn
I0418 19:04:28.639015 30885 net.cpp:90] Creating Layer conv2_1_bn
I0418 19:04:28.639024 30885 net.cpp:410] conv2_1_bn <- conv2_1
I0418 19:04:28.639040 30885 net.cpp:357] conv2_1_bn -> conv2_1 (in-place)
I0418 19:04:28.639058 30885 net.cpp:120] Setting up conv2_1_bn
I0418 19:04:28.639358 30885 net.cpp:127] Top shape: 2 128 250 250 (16000000)
I0418 19:04:28.639379 30885 layer_factory.hpp:74] Creating layer relu2_1
I0418 19:04:28.639394 30885 net.cpp:90] Creating Layer relu2_1
I0418 19:04:28.639402 30885 net.cpp:410] relu2_1 <- conv2_1
I0418 19:04:28.639415 30885 net.cpp:357] relu2_1 -> conv2_1 (in-place)
I0418 19:04:28.639426 30885 net.cpp:120] Setting up relu2_1
I0418 19:04:28.643620 30885 net.cpp:127] Top shape: 2 128 250 250 (16000000)
I0418 19:04:28.643635 30885 layer_factory.hpp:74] Creating layer conv2_2
I0418 19:04:28.643651 30885 net.cpp:90] Creating Layer conv2_2
I0418 19:04:28.643661 30885 net.cpp:410] conv2_2 <- conv2_1
I0418 19:04:28.643676 30885 net.cpp:368] conv2_2 -> conv2_2
I0418 19:04:28.643690 30885 net.cpp:120] Setting up conv2_2
I0418 19:04:28.660802 30885 net.cpp:127] Top shape: 2 128 250 250 (16000000)
I0418 19:04:28.660823 30885 layer_factory.hpp:74] Creating layer conv2_2_bn
I0418 19:04:28.660866 30885 net.cpp:90] Creating Layer conv2_2_bn
I0418 19:04:28.660881 30885 net.cpp:410] conv2_2_bn <- conv2_2
I0418 19:04:28.660893 30885 net.cpp:357] conv2_2_bn -> conv2_2 (in-place)
I0418 19:04:28.660907 30885 net.cpp:120] Setting up conv2_2_bn
I0418 19:04:28.661161 30885 net.cpp:127] Top shape: 2 128 250 250 (16000000)
I0418 19:04:28.661180 30885 layer_factory.hpp:74] Creating layer relu2_2
I0418 19:04:28.661193 30885 net.cpp:90] Creating Layer relu2_2
I0418 19:04:28.661203 30885 net.cpp:410] relu2_2 <- conv2_2
I0418 19:04:28.661218 30885 net.cpp:357] relu2_2 -> conv2_2 (in-place)
I0418 19:04:28.661237 30885 net.cpp:120] Setting up relu2_2
I0418 19:04:28.668043 30885 net.cpp:127] Top shape: 2 128 250 250 (16000000)
I0418 19:04:28.668058 30885 layer_factory.hpp:74] Creating layer pool2
I0418 19:04:28.668068 30885 layer_factory.cpp:55] CUDNN does not support padding or multiple tops. Using Caffe's own pooling layer.
I0418 19:04:28.668081 30885 net.cpp:90] Creating Layer pool2
I0418 19:04:28.668088 30885 net.cpp:410] pool2 <- conv2_2
I0418 19:04:28.668103 30885 net.cpp:368] pool2 -> pool2
I0418 19:04:28.668119 30885 net.cpp:368] pool2 -> pool2_mask
I0418 19:04:28.668138 30885 net.cpp:120] Setting up pool2
I0418 19:04:28.668164 30885 net.cpp:127] Top shape: 2 128 125 125 (4000000)
I0418 19:04:28.668181 30885 net.cpp:127] Top shape: 2 128 125 125 (4000000)
I0418 19:04:28.668192 30885 layer_factory.hpp:74] Creating layer conv3_1
I0418 19:04:28.668210 30885 net.cpp:90] Creating Layer conv3_1
I0418 19:04:28.668221 30885 net.cpp:410] conv3_1 <- pool2
I0418 19:04:28.668237 30885 net.cpp:368] conv3_1 -> conv3_1
I0418 19:04:28.668253 30885 net.cpp:120] Setting up conv3_1
I0418 19:04:28.683269 30885 net.cpp:127] Top shape: 2 256 125 125 (8000000)
I0418 19:04:28.683297 30885 layer_factory.hpp:74] Creating layer conv3_1_bn
I0418 19:04:28.683317 30885 net.cpp:90] Creating Layer conv3_1_bn
I0418 19:04:28.683329 30885 net.cpp:410] conv3_1_bn <- conv3_1
I0418 19:04:28.683346 30885 net.cpp:357] conv3_1_bn -> conv3_1 (in-place)
I0418 19:04:28.683363 30885 net.cpp:120] Setting up conv3_1_bn
I0418 19:04:28.683456 30885 net.cpp:127] Top shape: 2 256 125 125 (8000000)
I0418 19:04:28.683478 30885 layer_factory.hpp:74] Creating layer relu3_1
I0418 19:04:28.683491 30885 net.cpp:90] Creating Layer relu3_1
I0418 19:04:28.683501 30885 net.cpp:410] relu3_1 <- conv3_1
I0418 19:04:28.683512 30885 net.cpp:357] relu3_1 -> conv3_1 (in-place)
I0418 19:04:28.683526 30885 net.cpp:120] Setting up relu3_1
I0418 19:04:28.687666 30885 net.cpp:127] Top shape: 2 256 125 125 (8000000)
I0418 19:04:28.687680 30885 layer_factory.hpp:74] Creating layer conv3_2
I0418 19:04:28.687696 30885 net.cpp:90] Creating Layer conv3_2
I0418 19:04:28.687705 30885 net.cpp:410] conv3_2 <- conv3_1
I0418 19:04:28.687722 30885 net.cpp:368] conv3_2 -> conv3_2
I0418 19:04:28.687737 30885 net.cpp:120] Setting up conv3_2
I0418 19:04:28.715876 30885 net.cpp:127] Top shape: 2 256 125 125 (8000000)
I0418 19:04:28.715898 30885 layer_factory.hpp:74] Creating layer conv3_2_bn
I0418 19:04:28.715916 30885 net.cpp:90] Creating Layer conv3_2_bn
I0418 19:04:28.715927 30885 net.cpp:410] conv3_2_bn <- conv3_2
I0418 19:04:28.715940 30885 net.cpp:357] conv3_2_bn -> conv3_2 (in-place)
I0418 19:04:28.715962 30885 net.cpp:120] Setting up conv3_2_bn
I0418 19:04:28.716050 30885 net.cpp:127] Top shape: 2 256 125 125 (8000000)
I0418 19:04:28.716068 30885 layer_factory.hpp:74] Creating layer relu3_2
I0418 19:04:28.716081 30885 net.cpp:90] Creating Layer relu3_2
I0418 19:04:28.716090 30885 net.cpp:410] relu3_2 <- conv3_2
I0418 19:04:28.716105 30885 net.cpp:357] relu3_2 -> conv3_2 (in-place)
I0418 19:04:28.716119 30885 net.cpp:120] Setting up relu3_2
I0418 19:04:28.718886 30885 net.cpp:127] Top shape: 2 256 125 125 (8000000)
I0418 19:04:28.718900 30885 layer_factory.hpp:74] Creating layer conv3_3
I0418 19:04:28.718914 30885 net.cpp:90] Creating Layer conv3_3
I0418 19:04:28.718924 30885 net.cpp:410] conv3_3 <- conv3_2
I0418 19:04:28.718940 30885 net.cpp:368] conv3_3 -> conv3_3
I0418 19:04:28.718955 30885 net.cpp:120] Setting up conv3_3
I0418 19:04:28.748353 30885 net.cpp:127] Top shape: 2 256 125 125 (8000000)
I0418 19:04:28.748378 30885 layer_factory.hpp:74] Creating layer conv3_3_bn
I0418 19:04:28.748399 30885 net.cpp:90] Creating Layer conv3_3_bn
I0418 19:04:28.748409 30885 net.cpp:410] conv3_3_bn <- conv3_3
I0418 19:04:28.748426 30885 net.cpp:357] conv3_3_bn -> conv3_3 (in-place)
I0418 19:04:28.748446 30885 net.cpp:120] Setting up conv3_3_bn
I0418 19:04:28.748538 30885 net.cpp:127] Top shape: 2 256 125 125 (8000000)
I0418 19:04:28.748558 30885 layer_factory.hpp:74] Creating layer relu3_3
I0418 19:04:28.748570 30885 net.cpp:90] Creating Layer relu3_3
I0418 19:04:28.748579 30885 net.cpp:410] relu3_3 <- conv3_3
I0418 19:04:28.748591 30885 net.cpp:357] relu3_3 -> conv3_3 (in-place)
I0418 19:04:28.748605 30885 net.cpp:120] Setting up relu3_3
I0418 19:04:28.754129 30885 net.cpp:127] Top shape: 2 256 125 125 (8000000)
I0418 19:04:28.754143 30885 layer_factory.hpp:74] Creating layer pool3
I0418 19:04:28.754155 30885 layer_factory.cpp:55] CUDNN does not support padding or multiple tops. Using Caffe's own pooling layer.
I0418 19:04:28.754168 30885 net.cpp:90] Creating Layer pool3
I0418 19:04:28.754176 30885 net.cpp:410] pool3 <- conv3_3
I0418 19:04:28.754189 30885 net.cpp:368] pool3 -> pool3
I0418 19:04:28.754206 30885 net.cpp:368] pool3 -> pool3_mask
I0418 19:04:28.754225 30885 net.cpp:120] Setting up pool3
I0418 19:04:28.754241 30885 net.cpp:127] Top shape: 2 256 63 63 (2032128)
I0418 19:04:28.754256 30885 net.cpp:127] Top shape: 2 256 63 63 (2032128)
I0418 19:04:28.754264 30885 layer_factory.hpp:74] Creating layer conv4_1
I0418 19:04:28.754278 30885 net.cpp:90] Creating Layer conv4_1
I0418 19:04:28.754292 30885 net.cpp:410] conv4_1 <- pool3
I0418 19:04:28.754310 30885 net.cpp:368] conv4_1 -> conv4_1
I0418 19:04:28.754328 30885 net.cpp:120] Setting up conv4_1
I0418 19:04:28.803510 30885 net.cpp:127] Top shape: 2 512 63 63 (4064256)
I0418 19:04:28.803550 30885 layer_factory.hpp:74] Creating layer conv4_1_bn
I0418 19:04:28.803570 30885 net.cpp:90] Creating Layer conv4_1_bn
I0418 19:04:28.803581 30885 net.cpp:410] conv4_1_bn <- conv4_1
I0418 19:04:28.803601 30885 net.cpp:357] conv4_1_bn -> conv4_1 (in-place)
I0418 19:04:28.803623 30885 net.cpp:120] Setting up conv4_1_bn
I0418 19:04:28.803673 30885 net.cpp:127] Top shape: 2 512 63 63 (4064256)
I0418 19:04:28.803689 30885 layer_factory.hpp:74] Creating layer relu4_1
I0418 19:04:28.803704 30885 net.cpp:90] Creating Layer relu4_1
I0418 19:04:28.803712 30885 net.cpp:410] relu4_1 <- conv4_1
I0418 19:04:28.803725 30885 net.cpp:357] relu4_1 -> conv4_1 (in-place)
I0418 19:04:28.803737 30885 net.cpp:120] Setting up relu4_1
I0418 19:04:28.808373 30885 net.cpp:127] Top shape: 2 512 63 63 (4064256)
I0418 19:04:28.808388 30885 layer_factory.hpp:74] Creating layer conv4_2
I0418 19:04:28.808406 30885 net.cpp:90] Creating Layer conv4_2
I0418 19:04:28.808418 30885 net.cpp:410] conv4_2 <- conv4_1
I0418 19:04:28.808434 30885 net.cpp:368] conv4_2 -> conv4_2
I0418 19:04:28.808459 30885 net.cpp:120] Setting up conv4_2
I0418 19:04:28.898277 30885 net.cpp:127] Top shape: 2 512 63 63 (4064256)
I0418 19:04:28.898337 30885 layer_factory.hpp:74] Creating layer conv4_2_bn
I0418 19:04:28.898362 30885 net.cpp:90] Creating Layer conv4_2_bn
I0418 19:04:28.898380 30885 net.cpp:410] conv4_2_bn <- conv4_2
I0418 19:04:28.898403 30885 net.cpp:357] conv4_2_bn -> conv4_2 (in-place)
I0418 19:04:28.898425 30885 net.cpp:120] Setting up conv4_2_bn
I0418 19:04:28.898475 30885 net.cpp:127] Top shape: 2 512 63 63 (4064256)
I0418 19:04:28.898493 30885 layer_factory.hpp:74] Creating layer relu4_2
I0418 19:04:28.898509 30885 net.cpp:90] Creating Layer relu4_2
I0418 19:04:28.898520 30885 net.cpp:410] relu4_2 <- conv4_2
I0418 19:04:28.898533 30885 net.cpp:357] relu4_2 -> conv4_2 (in-place)
I0418 19:04:28.898545 30885 net.cpp:120] Setting up relu4_2
I0418 19:04:28.901754 30885 net.cpp:127] Top shape: 2 512 63 63 (4064256)
I0418 19:04:28.901768 30885 layer_factory.hpp:74] Creating layer conv4_3
I0418 19:04:28.901795 30885 net.cpp:90] Creating Layer conv4_3
I0418 19:04:28.901823 30885 net.cpp:410] conv4_3 <- conv4_2
I0418 19:04:28.901841 30885 net.cpp:368] conv4_3 -> conv4_3
I0418 19:04:28.901860 30885 net.cpp:120] Setting up conv4_3
I0418 19:04:28.990375 30885 net.cpp:127] Top shape: 2 512 63 63 (4064256)
I0418 19:04:28.990422 30885 layer_factory.hpp:74] Creating layer conv4_3_bn
I0418 19:04:28.990447 30885 net.cpp:90] Creating Layer conv4_3_bn
I0418 19:04:28.990459 30885 net.cpp:410] conv4_3_bn <- conv4_3
I0418 19:04:28.990479 30885 net.cpp:357] conv4_3_bn -> conv4_3 (in-place)
I0418 19:04:28.990501 30885 net.cpp:120] Setting up conv4_3_bn
I0418 19:04:28.990548 30885 net.cpp:127] Top shape: 2 512 63 63 (4064256)
I0418 19:04:28.990566 30885 layer_factory.hpp:74] Creating layer relu4_3
I0418 19:04:28.990579 30885 net.cpp:90] Creating Layer relu4_3
I0418 19:04:28.990592 30885 net.cpp:410] relu4_3 <- conv4_3
I0418 19:04:28.990607 30885 net.cpp:357] relu4_3 -> conv4_3 (in-place)
I0418 19:04:28.990624 30885 net.cpp:120] Setting up relu4_3
I0418 19:04:28.993423 30885 net.cpp:127] Top shape: 2 512 63 63 (4064256)
I0418 19:04:28.993438 30885 layer_factory.hpp:74] Creating layer pool4
I0418 19:04:28.993449 30885 layer_factory.cpp:55] CUDNN does not support padding or multiple tops. Using Caffe's own pooling layer.
I0418 19:04:28.993461 30885 net.cpp:90] Creating Layer pool4
I0418 19:04:28.993470 30885 net.cpp:410] pool4 <- conv4_3
I0418 19:04:28.993486 30885 net.cpp:368] pool4 -> pool4
I0418 19:04:28.993502 30885 net.cpp:368] pool4 -> pool4_mask
I0418 19:04:28.993518 30885 net.cpp:120] Setting up pool4
I0418 19:04:28.993540 30885 net.cpp:127] Top shape: 2 512 32 32 (1048576)
I0418 19:04:28.993553 30885 net.cpp:127] Top shape: 2 512 32 32 (1048576)
I0418 19:04:28.993562 30885 layer_factory.hpp:74] Creating layer conv5_1
I0418 19:04:28.993582 30885 net.cpp:90] Creating Layer conv5_1
I0418 19:04:28.993592 30885 net.cpp:410] conv5_1 <- pool4
I0418 19:04:28.993607 30885 net.cpp:368] conv5_1 -> conv5_1
I0418 19:04:28.993623 30885 net.cpp:120] Setting up conv5_1
I0418 19:04:29.086225 30885 net.cpp:127] Top shape: 2 512 32 32 (1048576)
I0418 19:04:29.086284 30885 layer_factory.hpp:74] Creating layer conv5_1_bn
I0418 19:04:29.086319 30885 net.cpp:90] Creating Layer conv5_1_bn
I0418 19:04:29.086345 30885 net.cpp:410] conv5_1_bn <- conv5_1
I0418 19:04:29.086366 30885 net.cpp:357] conv5_1_bn -> conv5_1 (in-place)
I0418 19:04:29.086388 30885 net.cpp:120] Setting up conv5_1_bn
I0418 19:04:29.086427 30885 net.cpp:127] Top shape: 2 512 32 32 (1048576)
I0418 19:04:29.086443 30885 layer_factory.hpp:74] Creating layer relu5_1
I0418 19:04:29.086458 30885 net.cpp:90] Creating Layer relu5_1
I0418 19:04:29.086470 30885 net.cpp:410] relu5_1 <- conv5_1
I0418 19:04:29.086485 30885 net.cpp:357] relu5_1 -> conv5_1 (in-place)
I0418 19:04:29.086498 30885 net.cpp:120] Setting up relu5_1
I0418 19:04:29.091444 30885 net.cpp:127] Top shape: 2 512 32 32 (1048576)
I0418 19:04:29.091459 30885 layer_factory.hpp:74] Creating layer conv5_2
I0418 19:04:29.091478 30885 net.cpp:90] Creating Layer conv5_2
I0418 19:04:29.091488 30885 net.cpp:410] conv5_2 <- conv5_1
I0418 19:04:29.091502 30885 net.cpp:368] conv5_2 -> conv5_2
I0418 19:04:29.091528 30885 net.cpp:120] Setting up conv5_2
I0418 19:04:29.184682 30885 net.cpp:127] Top shape: 2 512 32 32 (1048576)
I0418 19:04:29.184736 30885 layer_factory.hpp:74] Creating layer conv5_2_bn
I0418 19:04:29.184762 30885 net.cpp:90] Creating Layer conv5_2_bn
I0418 19:04:29.184773 30885 net.cpp:410] conv5_2_bn <- conv5_2
I0418 19:04:29.184790 30885 net.cpp:357] conv5_2_bn -> conv5_2 (in-place)
I0418 19:04:29.184814 30885 net.cpp:120] Setting up conv5_2_bn
I0418 19:04:29.184864 30885 net.cpp:127] Top shape: 2 512 32 32 (1048576)
I0418 19:04:29.184880 30885 layer_factory.hpp:74] Creating layer relu5_2
I0418 19:04:29.184895 30885 net.cpp:90] Creating Layer relu5_2
I0418 19:04:29.184903 30885 net.cpp:410] relu5_2 <- conv5_2
I0418 19:04:29.184918 30885 net.cpp:357] relu5_2 -> conv5_2 (in-place)
I0418 19:04:29.184934 30885 net.cpp:120] Setting up relu5_2
I0418 19:04:29.189185 30885 net.cpp:127] Top shape: 2 512 32 32 (1048576)
I0418 19:04:29.189200 30885 layer_factory.hpp:74] Creating layer conv5_3
I0418 19:04:29.189219 30885 net.cpp:90] Creating Layer conv5_3
I0418 19:04:29.189230 30885 net.cpp:410] conv5_3 <- conv5_2
I0418 19:04:29.189246 30885 net.cpp:368] conv5_3 -> conv5_3
I0418 19:04:29.189267 30885 net.cpp:120] Setting up conv5_3
I0418 19:04:29.283839 30885 net.cpp:127] Top shape: 2 512 32 32 (1048576)
I0418 19:04:29.283888 30885 layer_factory.hpp:74] Creating layer conv5_3_bn
I0418 19:04:29.283920 30885 net.cpp:90] Creating Layer conv5_3_bn
I0418 19:04:29.283934 30885 net.cpp:410] conv5_3_bn <- conv5_3
I0418 19:04:29.283949 30885 net.cpp:357] conv5_3_bn -> conv5_3 (in-place)
I0418 19:04:29.283967 30885 net.cpp:120] Setting up conv5_3_bn
I0418 19:04:29.283999 30885 net.cpp:127] Top shape: 2 512 32 32 (1048576)
I0418 19:04:29.284015 30885 layer_factory.hpp:74] Creating layer relu5_3
I0418 19:04:29.284026 30885 net.cpp:90] Creating Layer relu5_3
I0418 19:04:29.284034 30885 net.cpp:410] relu5_3 <- conv5_3
I0418 19:04:29.284047 30885 net.cpp:357] relu5_3 -> conv5_3 (in-place)
I0418 19:04:29.284056 30885 net.cpp:120] Setting up relu5_3
I0418 19:04:29.289084 30885 net.cpp:127] Top shape: 2 512 32 32 (1048576)
I0418 19:04:29.289101 30885 layer_factory.hpp:74] Creating layer pool5
I0418 19:04:29.289114 30885 layer_factory.cpp:55] CUDNN does not support padding or multiple tops. Using Caffe's own pooling layer.
I0418 19:04:29.289126 30885 net.cpp:90] Creating Layer pool5
I0418 19:04:29.289135 30885 net.cpp:410] pool5 <- conv5_3
I0418 19:04:29.289155 30885 net.cpp:368] pool5 -> pool5
I0418 19:04:29.289176 30885 net.cpp:368] pool5 -> pool5_mask
I0418 19:04:29.289192 30885 net.cpp:120] Setting up pool5
I0418 19:04:29.289214 30885 net.cpp:127] Top shape: 2 512 16 16 (262144)
I0418 19:04:29.289229 30885 net.cpp:127] Top shape: 2 512 16 16 (262144)
I0418 19:04:29.289238 30885 layer_factory.hpp:74] Creating layer upsample5
I0418 19:04:29.289252 30885 net.cpp:90] Creating Layer upsample5
I0418 19:04:29.289261 30885 net.cpp:410] upsample5 <- pool5
I0418 19:04:29.289273 30885 net.cpp:410] upsample5 <- pool5_mask
I0418 19:04:29.289289 30885 net.cpp:368] upsample5 -> pool5_D
I0418 19:04:29.289309 30885 net.cpp:120] Setting up upsample5
I0418 19:04:29.289330 30885 net.cpp:127] Top shape: 2 512 32 32 (1048576)
I0418 19:04:29.289340 30885 layer_factory.hpp:74] Creating layer conv5_3_D
I0418 19:04:29.289361 30885 net.cpp:90] Creating Layer conv5_3_D
I0418 19:04:29.289376 30885 net.cpp:410] conv5_3_D <- pool5_D
I0418 19:04:29.289391 30885 net.cpp:368] conv5_3_D -> conv5_3_D
I0418 19:04:29.289405 30885 net.cpp:120] Setting up conv5_3_D
I0418 19:04:29.380403 30885 net.cpp:127] Top shape: 2 512 32 32 (1048576)
I0418 19:04:29.380445 30885 layer_factory.hpp:74] Creating layer conv5_3_D_bn
I0418 19:04:29.380470 30885 net.cpp:90] Creating Layer conv5_3_D_bn
I0418 19:04:29.380482 30885 net.cpp:410] conv5_3_D_bn <- conv5_3_D
I0418 19:04:29.380501 30885 net.cpp:357] conv5_3_D_bn -> conv5_3_D (in-place)
I0418 19:04:29.380524 30885 net.cpp:120] Setting up conv5_3_D_bn
I0418 19:04:29.380565 30885 net.cpp:127] Top shape: 2 512 32 32 (1048576)
I0418 19:04:29.380583 30885 layer_factory.hpp:74] Creating layer relu5_3_D
I0418 19:04:29.380599 30885 net.cpp:90] Creating Layer relu5_3_D
I0418 19:04:29.380611 30885 net.cpp:410] relu5_3_D <- conv5_3_D
I0418 19:04:29.380625 30885 net.cpp:357] relu5_3_D -> conv5_3_D (in-place)
I0418 19:04:29.380636 30885 net.cpp:120] Setting up relu5_3_D
I0418 19:04:29.385239 30885 net.cpp:127] Top shape: 2 512 32 32 (1048576)
I0418 19:04:29.385253 30885 layer_factory.hpp:74] Creating layer conv5_2_D
I0418 19:04:29.385277 30885 net.cpp:90] Creating Layer conv5_2_D
I0418 19:04:29.385287 30885 net.cpp:410] conv5_2_D <- conv5_3_D
I0418 19:04:29.385303 30885 net.cpp:368] conv5_2_D -> conv5_2_D
I0418 19:04:29.385321 30885 net.cpp:120] Setting up conv5_2_D
I0418 19:04:29.497611 30885 net.cpp:127] Top shape: 2 512 32 32 (1048576)
I0418 19:04:29.497658 30885 layer_factory.hpp:74] Creating layer conv5_2_D_bn
I0418 19:04:29.497726 30885 net.cpp:90] Creating Layer conv5_2_D_bn
I0418 19:04:29.497741 30885 net.cpp:410] conv5_2_D_bn <- conv5_2_D
I0418 19:04:29.497762 30885 net.cpp:357] conv5_2_D_bn -> conv5_2_D (in-place)
I0418 19:04:29.497783 30885 net.cpp:120] Setting up conv5_2_D_bn
I0418 19:04:29.497823 30885 net.cpp:127] Top shape: 2 512 32 32 (1048576)
I0418 19:04:29.497840 30885 layer_factory.hpp:74] Creating layer relu5_2_D
I0418 19:04:29.497854 30885 net.cpp:90] Creating Layer relu5_2_D
I0418 19:04:29.497864 30885 net.cpp:410] relu5_2_D <- conv5_2_D
I0418 19:04:29.497875 30885 net.cpp:357] relu5_2_D -> conv5_2_D (in-place)
I0418 19:04:29.497889 30885 net.cpp:120] Setting up relu5_2_D
I0418 19:04:29.503460 30885 net.cpp:127] Top shape: 2 512 32 32 (1048576)
I0418 19:04:29.503475 30885 layer_factory.hpp:74] Creating layer conv5_1_D
I0418 19:04:29.503496 30885 net.cpp:90] Creating Layer conv5_1_D
I0418 19:04:29.503506 30885 net.cpp:410] conv5_1_D <- conv5_2_D
I0418 19:04:29.503520 30885 net.cpp:368] conv5_1_D -> conv5_1_D
I0418 19:04:29.503543 30885 net.cpp:120] Setting up conv5_1_D
I0418 19:04:29.598187 30885 net.cpp:127] Top shape: 2 512 32 32 (1048576)
I0418 19:04:29.598237 30885 layer_factory.hpp:74] Creating layer conv5_1_D_bn
I0418 19:04:29.598261 30885 net.cpp:90] Creating Layer conv5_1_D_bn
I0418 19:04:29.598273 30885 net.cpp:410] conv5_1_D_bn <- conv5_1_D
I0418 19:04:29.598290 30885 net.cpp:357] conv5_1_D_bn -> conv5_1_D (in-place)
I0418 19:04:29.598316 30885 net.cpp:120] Setting up conv5_1_D_bn
I0418 19:04:29.598363 30885 net.cpp:127] Top shape: 2 512 32 32 (1048576)
I0418 19:04:29.598383 30885 layer_factory.hpp:74] Creating layer relu5_1_D
I0418 19:04:29.598402 30885 net.cpp:90] Creating Layer relu5_1_D
I0418 19:04:29.598414 30885 net.cpp:410] relu5_1_D <- conv5_1_D
I0418 19:04:29.598430 30885 net.cpp:357] relu5_1_D -> conv5_1_D (in-place)
I0418 19:04:29.598445 30885 net.cpp:120] Setting up relu5_1_D
I0418 19:04:29.603178 30885 net.cpp:127] Top shape: 2 512 32 32 (1048576)
I0418 19:04:29.603193 30885 layer_factory.hpp:74] Creating layer upsample4
I0418 19:04:29.603211 30885 net.cpp:90] Creating Layer upsample4
I0418 19:04:29.603222 30885 net.cpp:410] upsample4 <- conv5_1_D
I0418 19:04:29.603234 30885 net.cpp:410] upsample4 <- pool4_mask
I0418 19:04:29.603246 30885 net.cpp:368] upsample4 -> pool4_D
I0418 19:04:29.603261 30885 net.cpp:120] Setting up upsample4
I0418 19:04:29.603283 30885 net.cpp:127] Top shape: 2 512 63 63 (4064256)
I0418 19:04:29.603297 30885 layer_factory.hpp:74] Creating layer conv4_3_D
I0418 19:04:29.603317 30885 net.cpp:90] Creating Layer conv4_3_D
I0418 19:04:29.603328 30885 net.cpp:410] conv4_3_D <- pool4_D
I0418 19:04:29.603346 30885 net.cpp:368] conv4_3_D -> conv4_3_D
I0418 19:04:29.603364 30885 net.cpp:120] Setting up conv4_3_D
I0418 19:04:29.720468 30885 net.cpp:127] Top shape: 2 512 63 63 (4064256)
I0418 19:04:29.720587 30885 layer_factory.hpp:74] Creating layer conv4_3_D_bn
I0418 19:04:29.720614 30885 net.cpp:90] Creating Layer conv4_3_D_bn
I0418 19:04:29.720630 30885 net.cpp:410] conv4_3_D_bn <- conv4_3_D
I0418 19:04:29.720649 30885 net.cpp:357] conv4_3_D_bn -> conv4_3_D (in-place)
I0418 19:04:29.720669 30885 net.cpp:120] Setting up conv4_3_D_bn
I0418 19:04:29.720717 30885 net.cpp:127] Top shape: 2 512 63 63 (4064256)
I0418 19:04:29.720736 30885 layer_factory.hpp:74] Creating layer relu4_3_D
I0418 19:04:29.720751 30885 net.cpp:90] Creating Layer relu4_3_D
I0418 19:04:29.720760 30885 net.cpp:410] relu4_3_D <- conv4_3_D
I0418 19:04:29.720772 30885 net.cpp:357] relu4_3_D -> conv4_3_D (in-place)
I0418 19:04:29.720785 30885 net.cpp:120] Setting up relu4_3_D
I0418 19:04:29.724985 30885 net.cpp:127] Top shape: 2 512 63 63 (4064256)
I0418 19:04:29.725000 30885 layer_factory.hpp:74] Creating layer conv4_2_D
I0418 19:04:29.725018 30885 net.cpp:90] Creating Layer conv4_2_D
I0418 19:04:29.725028 30885 net.cpp:410] conv4_2_D <- conv4_3_D
I0418 19:04:29.725044 30885 net.cpp:368] conv4_2_D -> conv4_2_D
I0418 19:04:29.725069 30885 net.cpp:120] Setting up conv4_2_D
I0418 19:04:29.838922 30885 net.cpp:127] Top shape: 2 512 63 63 (4064256)
I0418 19:04:29.838995 30885 layer_factory.hpp:74] Creating layer conv4_2_D_bn
I0418 19:04:29.839018 30885 net.cpp:90] Creating Layer conv4_2_D_bn
I0418 19:04:29.839030 30885 net.cpp:410] conv4_2_D_bn <- conv4_2_D
I0418 19:04:29.839051 30885 net.cpp:357] conv4_2_D_bn -> conv4_2_D (in-place)
I0418 19:04:29.839073 30885 net.cpp:120] Setting up conv4_2_D_bn
I0418 19:04:29.839125 30885 net.cpp:127] Top shape: 2 512 63 63 (4064256)
I0418 19:04:29.839145 30885 layer_factory.hpp:74] Creating layer relu4_2_D
I0418 19:04:29.839164 30885 net.cpp:90] Creating Layer relu4_2_D
I0418 19:04:29.839175 30885 net.cpp:410] relu4_2_D <- conv4_2_D
I0418 19:04:29.839187 30885 net.cpp:357] relu4_2_D -> conv4_2_D (in-place)
I0418 19:04:29.839200 30885 net.cpp:120] Setting up relu4_2_D
I0418 19:04:29.843370 30885 net.cpp:127] Top shape: 2 512 63 63 (4064256)
I0418 19:04:29.843389 30885 layer_factory.hpp:74] Creating layer conv4_1_D
I0418 19:04:29.843408 30885 net.cpp:90] Creating Layer conv4_1_D
I0418 19:04:29.843426 30885 net.cpp:410] conv4_1_D <- conv4_2_D
I0418 19:04:29.843441 30885 net.cpp:368] conv4_1_D -> conv4_1_D
I0418 19:04:29.843471 30885 net.cpp:120] Setting up conv4_1_D
I0418 19:04:29.912881 30885 net.cpp:127] Top shape: 2 256 63 63 (2032128)
I0418 19:04:29.912915 30885 layer_factory.hpp:74] Creating layer conv4_1_D_bn
I0418 19:04:29.912955 30885 net.cpp:90] Creating Layer conv4_1_D_bn
I0418 19:04:29.912969 30885 net.cpp:410] conv4_1_D_bn <- conv4_1_D
I0418 19:04:29.912988 30885 net.cpp:357] conv4_1_D_bn -> conv4_1_D (in-place)
I0418 19:04:29.913007 30885 net.cpp:120] Setting up conv4_1_D_bn
I0418 19:04:29.913053 30885 net.cpp:127] Top shape: 2 256 63 63 (2032128)
I0418 19:04:29.913069 30885 layer_factory.hpp:74] Creating layer relu4_1_D
I0418 19:04:29.913089 30885 net.cpp:90] Creating Layer relu4_1_D
I0418 19:04:29.913099 30885 net.cpp:410] relu4_1_D <- conv4_1_D
I0418 19:04:29.913113 30885 net.cpp:357] relu4_1_D -> conv4_1_D (in-place)
I0418 19:04:29.913126 30885 net.cpp:120] Setting up relu4_1_D
I0418 19:04:29.937028 30885 net.cpp:127] Top shape: 2 256 63 63 (2032128)
I0418 19:04:29.937043 30885 layer_factory.hpp:74] Creating layer upsample3
I0418 19:04:29.937057 30885 net.cpp:90] Creating Layer upsample3
I0418 19:04:29.937067 30885 net.cpp:410] upsample3 <- conv4_1_D
I0418 19:04:29.937083 30885 net.cpp:410] upsample3 <- pool3_mask
I0418 19:04:29.937105 30885 net.cpp:368] upsample3 -> pool3_D
I0418 19:04:29.937124 30885 net.cpp:120] Setting up upsample3
I0418 19:04:29.937142 30885 net.cpp:127] Top shape: 2 256 125 125 (8000000)
I0418 19:04:29.937157 30885 layer_factory.hpp:74] Creating layer conv3_3_D
I0418 19:04:29.937175 30885 net.cpp:90] Creating Layer conv3_3_D
I0418 19:04:29.937187 30885 net.cpp:410] conv3_3_D <- pool3_D
I0418 19:04:29.937201 30885 net.cpp:368] conv3_3_D -> conv3_3_D
I0418 19:04:29.937216 30885 net.cpp:120] Setting up conv3_3_D
I0418 19:04:29.972358 30885 net.cpp:127] Top shape: 2 256 125 125 (8000000)
I0418 19:04:29.972383 30885 layer_factory.hpp:74] Creating layer conv3_3_D_bn
I0418 19:04:29.972404 30885 net.cpp:90] Creating Layer conv3_3_D_bn
I0418 19:04:29.972415 30885 net.cpp:410] conv3_3_D_bn <- conv3_3_D
I0418 19:04:29.972432 30885 net.cpp:357] conv3_3_D_bn -> conv3_3_D (in-place)
I0418 19:04:29.972452 30885 net.cpp:120] Setting up conv3_3_D_bn
I0418 19:04:29.972543 30885 net.cpp:127] Top shape: 2 256 125 125 (8000000)
I0418 19:04:29.972559 30885 layer_factory.hpp:74] Creating layer relu3_3_D
I0418 19:04:29.972575 30885 net.cpp:90] Creating Layer relu3_3_D
I0418 19:04:29.972585 30885 net.cpp:410] relu3_3_D <- conv3_3_D
I0418 19:04:29.972597 30885 net.cpp:357] relu3_3_D -> conv3_3_D (in-place)
I0418 19:04:29.972610 30885 net.cpp:120] Setting up relu3_3_D
I0418 19:04:29.977061 30885 net.cpp:127] Top shape: 2 256 125 125 (8000000)
I0418 19:04:29.977075 30885 layer_factory.hpp:74] Creating layer conv3_2_D
I0418 19:04:29.977094 30885 net.cpp:90] Creating Layer conv3_2_D
I0418 19:04:29.977105 30885 net.cpp:410] conv3_2_D <- conv3_3_D
I0418 19:04:29.977123 30885 net.cpp:368] conv3_2_D -> conv3_2_D
I0418 19:04:29.977156 30885 net.cpp:120] Setting up conv3_2_D
I0418 19:04:30.004596 30885 net.cpp:127] Top shape: 2 256 125 125 (8000000)
I0418 19:04:30.004623 30885 layer_factory.hpp:74] Creating layer conv3_2_D_bn
I0418 19:04:30.004643 30885 net.cpp:90] Creating Layer conv3_2_D_bn
I0418 19:04:30.004654 30885 net.cpp:410] conv3_2_D_bn <- conv3_2_D
I0418 19:04:30.004667 30885 net.cpp:357] conv3_2_D_bn -> conv3_2_D (in-place)
I0418 19:04:30.004688 30885 net.cpp:120] Setting up conv3_2_D_bn
I0418 19:04:30.004779 30885 net.cpp:127] Top shape: 2 256 125 125 (8000000)
I0418 19:04:30.004801 30885 layer_factory.hpp:74] Creating layer relu3_2_D
I0418 19:04:30.004815 30885 net.cpp:90] Creating Layer relu3_2_D
I0418 19:04:30.004824 30885 net.cpp:410] relu3_2_D <- conv3_2_D
I0418 19:04:30.004840 30885 net.cpp:357] relu3_2_D -> conv3_2_D (in-place)
I0418 19:04:30.004859 30885 net.cpp:120] Setting up relu3_2_D
I0418 19:04:30.012748 30885 net.cpp:127] Top shape: 2 256 125 125 (8000000)
I0418 19:04:30.012763 30885 layer_factory.hpp:74] Creating layer conv3_1_D
I0418 19:04:30.012778 30885 net.cpp:90] Creating Layer conv3_1_D
I0418 19:04:30.012789 30885 net.cpp:410] conv3_1_D <- conv3_2_D
I0418 19:04:30.012804 30885 net.cpp:368] conv3_1_D -> conv3_1_D
I0418 19:04:30.012820 30885 net.cpp:120] Setting up conv3_1_D
I0418 19:04:30.051194 30885 net.cpp:127] Top shape: 2 128 125 125 (4000000)
I0418 19:04:30.051218 30885 layer_factory.hpp:74] Creating layer conv3_1_D_bn
I0418 19:04:30.051239 30885 net.cpp:90] Creating Layer conv3_1_D_bn
I0418 19:04:30.051257 30885 net.cpp:410] conv3_1_D_bn <- conv3_1_D
I0418 19:04:30.051275 30885 net.cpp:357] conv3_1_D_bn -> conv3_1_D (in-place)
I0418 19:04:30.051290 30885 net.cpp:120] Setting up conv3_1_D_bn
I0418 19:04:30.051381 30885 net.cpp:127] Top shape: 2 128 125 125 (4000000)
I0418 19:04:30.051398 30885 layer_factory.hpp:74] Creating layer relu3_1_D
I0418 19:04:30.051411 30885 net.cpp:90] Creating Layer relu3_1_D
I0418 19:04:30.051420 30885 net.cpp:410] relu3_1_D <- conv3_1_D
I0418 19:04:30.051435 30885 net.cpp:357] relu3_1_D -> conv3_1_D (in-place)
I0418 19:04:30.051448 30885 net.cpp:120] Setting up relu3_1_D
I0418 19:04:30.060806 30885 net.cpp:127] Top shape: 2 128 125 125 (4000000)
I0418 19:04:30.060820 30885 layer_factory.hpp:74] Creating layer upsample2
I0418 19:04:30.060835 30885 net.cpp:90] Creating Layer upsample2
I0418 19:04:30.060845 30885 net.cpp:410] upsample2 <- conv3_1_D
I0418 19:04:30.060859 30885 net.cpp:410] upsample2 <- pool2_mask
I0418 19:04:30.060873 30885 net.cpp:368] upsample2 -> pool2_D
I0418 19:04:30.060895 30885 net.cpp:120] Setting up upsample2
I0418 19:04:30.060909 30885 upsample_layer.cpp:31] Params 'pad_out_{}_' are deprecated. Please declare upsample height and width useing the upsample_h, upsample_w parameters.
I0418 19:04:30.060925 30885 net.cpp:127] Top shape: 2 128 250 250 (16000000)
I0418 19:04:30.060937 30885 layer_factory.hpp:74] Creating layer conv2_2_D
I0418 19:04:30.060956 30885 net.cpp:90] Creating Layer conv2_2_D
I0418 19:04:30.060968 30885 net.cpp:410] conv2_2_D <- pool2_D
I0418 19:04:30.060983 30885 net.cpp:368] conv2_2_D -> conv2_2_D
I0418 19:04:30.060998 30885 net.cpp:120] Setting up conv2_2_D
I0418 19:04:30.078322 30885 net.cpp:127] Top shape: 2 128 250 250 (16000000)
I0418 19:04:30.078346 30885 layer_factory.hpp:74] Creating layer conv2_2_D_bn
I0418 19:04:30.078361 30885 net.cpp:90] Creating Layer conv2_2_D_bn
I0418 19:04:30.078372 30885 net.cpp:410] conv2_2_D_bn <- conv2_2_D
I0418 19:04:30.078388 30885 net.cpp:357] conv2_2_D_bn -> conv2_2_D (in-place)
I0418 19:04:30.078408 30885 net.cpp:120] Setting up conv2_2_D_bn
I0418 19:04:30.078665 30885 net.cpp:127] Top shape: 2 128 250 250 (16000000)
I0418 19:04:30.078685 30885 layer_factory.hpp:74] Creating layer relu2_2_D
I0418 19:04:30.078701 30885 net.cpp:90] Creating Layer relu2_2_D
I0418 19:04:30.078711 30885 net.cpp:410] relu2_2_D <- conv2_2_D
I0418 19:04:30.078722 30885 net.cpp:357] relu2_2_D -> conv2_2_D (in-place)
I0418 19:04:30.078734 30885 net.cpp:120] Setting up relu2_2_D
I0418 19:04:30.083003 30885 net.cpp:127] Top shape: 2 128 250 250 (16000000)
I0418 19:04:30.083017 30885 layer_factory.hpp:74] Creating layer conv2_1_D
I0418 19:04:30.083039 30885 net.cpp:90] Creating Layer conv2_1_D
I0418 19:04:30.083050 30885 net.cpp:410] conv2_1_D <- conv2_2_D
I0418 19:04:30.083066 30885 net.cpp:368] conv2_1_D -> conv2_1_D
I0418 19:04:30.083086 30885 net.cpp:120] Setting up conv2_1_D
I0418 19:04:30.098176 30885 net.cpp:127] Top shape: 2 64 250 250 (8000000)
I0418 19:04:30.098206 30885 layer_factory.hpp:74] Creating layer conv2_1_D_bn
I0418 19:04:30.098222 30885 net.cpp:90] Creating Layer conv2_1_D_bn
I0418 19:04:30.098229 30885 net.cpp:410] conv2_1_D_bn <- conv2_1_D
I0418 19:04:30.098240 30885 net.cpp:357] conv2_1_D_bn -> conv2_1_D (in-place)
I0418 19:04:30.098253 30885 net.cpp:120] Setting up conv2_1_D_bn
I0418 19:04:30.098496 30885 net.cpp:127] Top shape: 2 64 250 250 (8000000)
I0418 19:04:30.098511 30885 layer_factory.hpp:74] Creating layer relu2_1_D
I0418 19:04:30.098520 30885 net.cpp:90] Creating Layer relu2_1_D
I0418 19:04:30.098525 30885 net.cpp:410] relu2_1_D <- conv2_1_D
I0418 19:04:30.098533 30885 net.cpp:357] relu2_1_D -> conv2_1_D (in-place)
I0418 19:04:30.098541 30885 net.cpp:120] Setting up relu2_1_D
I0418 19:04:30.103473 30885 net.cpp:127] Top shape: 2 64 250 250 (8000000)
I0418 19:04:30.103487 30885 layer_factory.hpp:74] Creating layer upsample1
I0418 19:04:30.103499 30885 net.cpp:90] Creating Layer upsample1
I0418 19:04:30.103505 30885 net.cpp:410] upsample1 <- conv2_1_D
I0418 19:04:30.103512 30885 net.cpp:410] upsample1 <- pool1_mask
I0418 19:04:30.103518 30885 net.cpp:368] upsample1 -> pool1_D
I0418 19:04:30.103526 30885 net.cpp:120] Setting up upsample1
I0418 19:04:30.103533 30885 upsample_layer.cpp:31] Params 'pad_out_{}_' are deprecated. Please declare upsample height and width useing the upsample_h, upsample_w parameters.
I0418 19:04:30.103540 30885 net.cpp:127] Top shape: 2 64 500 500 (32000000)
I0418 19:04:30.103545 30885 layer_factory.hpp:74] Creating layer conv1_2_D
I0418 19:04:30.103557 30885 net.cpp:90] Creating Layer conv1_2_D
I0418 19:04:30.103561 30885 net.cpp:410] conv1_2_D <- pool1_D
I0418 19:04:30.103569 30885 net.cpp:368] conv1_2_D -> conv1_2_D
I0418 19:04:30.103576 30885 net.cpp:120] Setting up conv1_2_D
I0418 19:04:30.149859 30885 net.cpp:127] Top shape: 2 64 500 500 (32000000)
I0418 19:04:30.149881 30885 layer_factory.hpp:74] Creating layer conv1_2_D_bn
I0418 19:04:30.149895 30885 net.cpp:90] Creating Layer conv1_2_D_bn
I0418 19:04:30.149900 30885 net.cpp:410] conv1_2_D_bn <- conv1_2_D
I0418 19:04:30.149909 30885 net.cpp:357] conv1_2_D_bn -> conv1_2_D (in-place)
I0418 19:04:30.149919 30885 net.cpp:120] Setting up conv1_2_D_bn
I0418 19:04:30.150815 30885 net.cpp:127] Top shape: 2 64 500 500 (32000000)
I0418 19:04:30.150833 30885 layer_factory.hpp:74] Creating layer relu1_2_D
I0418 19:04:30.150842 30885 net.cpp:90] Creating Layer relu1_2_D
I0418 19:04:30.150847 30885 net.cpp:410] relu1_2_D <- conv1_2_D
I0418 19:04:30.150853 30885 net.cpp:357] relu1_2_D -> conv1_2_D (in-place)
I0418 19:04:30.150861 30885 net.cpp:120] Setting up relu1_2_D
I0418 19:04:30.154167 30885 net.cpp:127] Top shape: 2 64 500 500 (32000000)
I0418 19:04:30.154181 30885 layer_factory.hpp:74] Creating layer conv1_1_D-v2
I0418 19:04:30.154192 30885 net.cpp:90] Creating Layer conv1_1_D-v2
I0418 19:04:30.154197 30885 net.cpp:410] conv1_1_D-v2 <- conv1_2_D
I0418 19:04:30.154207 30885 net.cpp:368] conv1_1_D-v2 -> conv1_1_D
I0418 19:04:30.154217 30885 net.cpp:120] Setting up conv1_1_D-v2
I0418 19:04:30.174415 30885 net.cpp:127] Top shape: 2 21 500 500 (10500000)
I0418 19:04:30.174434 30885 layer_factory.hpp:74] Creating layer loss
I0418 19:04:30.174453 30885 net.cpp:90] Creating Layer loss
I0418 19:04:30.174459 30885 net.cpp:410] loss <- conv1_1_D
I0418 19:04:30.174465 30885 net.cpp:410] loss <- label
I0418 19:04:30.174479 30885 net.cpp:368] loss -> loss
I0418 19:04:30.174491 30885 net.cpp:120] Setting up loss
I0418 19:04:30.174501 30885 layer_factory.hpp:74] Creating layer loss
…
