…
  phase: TRAIN
}
layer {
  name: "data"
  type: "Data"
  top: "data"
  include {
    phase: TRAIN
  }
  transform_param {
    mean_value: 104.00699
    mean_value: 116.66877
    mean_value: 122.67892
  }
  data_param {
    source: "/home/shared/datasets/VOCdevkit/VOC2012/LMDB_500x500/train_lmdb"
    batch_size: 2
    backend: LMDB
  }
}
layer {
  name: "label"
  type: "Data"
  top: "label"
  include {
    phase: TRAIN
  }
  data_param {
    source: "/home/shared/datasets/VOCdevkit/VOC2012/LMDB_500x500/train_gt_lmdb"
    batch_size: 2
    backend: LMDB
  }
}
layer {
  name: "conv1_1"
  type: "Convolution"
  bottom: "data"
  top: "conv1_1"
  param {
    lr_mult: 1
    decay_mult: 1
  }
  param {
    lr_mult: 2
    decay_mult: 0
  }
  convolution_param {
    num_output: 64
    pad: 1
    kernel_size: 3
    weight_filler {
      type: "msra"
    }
    bias_filler {
      type: "constant"
    }
  }
}
layer {
  name: "conv1_1_bn"
  type: "BN"
  bottom: "conv1_1"
  top: "conv1_1"
  param {
    lr_mult: 1
    decay_mult: 1
  }
  param {
    lr_mult: 1
    decay_mult: 0
  }
  bn_param {
    scale_filler {
      type: "constant"
      value: 1
    }
    shift_filler {
      type: "constant"
      value: 0.001
    }
  }
}
layer {
  name: "relu1_1"
  type: "ReLU"
  bottom: "conv1_1"
  top: "conv1_1"
}
layer {
  name: "conv1_2"
  type: "Convolution"
  bottom: "conv1_1"
  top: "conv1_2"
  param {
    lr_mult: 1
    decay_mult: 1
  }
  param {
    lr_mult: 2
    decay_mult: 0
  }
  convolution_param {
    num_output: 64
    pad: 1
    kernel_size: 3
    weight_filler {
      type: "msra"
    }
    bias_filler {
      type: "constant"
    }
  }
}
layer {
  name: "conv1_2_bn"
  type: "BN"
  bottom: "conv1_2"
  top: "conv1_2"
  param {
    lr_mult: 1
    decay_mult: 1
  }
  param {
    lr_mult: 1
    decay_mult: 0
  }
  bn_param {
    scale_filler {
      type: "constant"
      value: 1
    }
    shift_filler {
      type: "constant"
      value: 0.001
    }
  }
}
layer {
  name: "relu1_2"
  type: "ReLU"
  bottom: "conv1_2"
  top: "conv1_2"
}
layer {
  name: "pool1"
  type: "Pooling"
  bottom: "conv1_2"
  top: "pool1"
  top: "pool1_mask"
  pooling_param {
    pool: MAX
    kernel_size: 2
    stride: 2
  }
}
layer {
  name: "conv2_1"
  type: "Convolution"
  bottom: "pool1"
  top: "conv2_1"
  param {
    lr_mult: 1
    decay_mult: 1
  }
  param {
    lr_mult: 2
    decay_mult: 0
  }
  convolution_param {
    num_output: 128
    pad: 1
    kernel_size: 3
    weight_filler {
      type: "msra"
    }
    bias_filler {
      type: "constant"
    }
  }
}
layer {
  name: "conv2_1_bn"
  type: "BN"
  bottom: "conv2_1"
  top: "conv2_1"
  param {
    lr_mult: 1
    decay_mult: 1
  }
  param {
    lr_mult: 1
    decay_mult: 0
  }
  bn_param {
    scale_filler {
      type: "constant"
      value: 1
    }
    shift_filler {
      type: "constant"
      value: 0.001
    }
  }
}
layer {
  name: "relu2_1"
  type: "ReLU"
  bottom: "conv2_1"
  top: "conv2_1"
}
layer {
  name: "conv2_2"
  type: "Convolution"
  bottom: "conv2_1"
  top: "conv2_2"
  param {
    lr_mult: 1
    decay_mult: 1
  }
  param {
    lr_mult: 2
    decay_mult: 0
  }
  convolution_param {
    num_output: 128
    pad: 1
    kernel_size: 3
    weight_filler {
      type: "msra"
    }
    bias_filler {
      type: "constant"
    }
  }
}
layer {
  name: "conv2_2_bn"
  type: "BN"
  bottom: "conv2_2"
  top: "conv2_2"
  param {
    lr_mult: 1
    decay_mult: 1
  }
  param {
    lr_mult: 1
    decay_mult: 0
  }
  bn_param {
    scale_filler {
      type: "constant"
      value: 1
    }
    shift_filler {
      type: "constant"
      value: 0.001
    }
  }
}
layer {
  name: "relu2_2"
  type: "ReLU"
  bottom: "conv2_2"
  top: "conv2_2"
}
layer {
  name: "pool2"
  type: "Pooling"
  bottom: "conv2_2"
  top: "pool2"
  top: "pool2_mask"
  pooling_param {
    pool: MAX
    kernel_size: 2
    stride: 2
  }
}
layer {
  name: "conv3_1"
  type: "Convolution"
  bottom: "pool2"
  top: "conv3_1"
  param {
    lr_mult: 1
    decay_mult: 1
  }
  param {
    lr_mult: 2
    decay_mult: 0
  }
  convolution_param {
    num_output: 256
    pad: 1
    kernel_size: 3
    weight_filler {
      type: "msra"
    }
    bias_filler {
      type: "constant"
    }
  }
}
layer {
  name: "conv3_1_bn"
  type: "BN"
  bottom: "conv3_1"
  top: "conv3_1"
  param {
    lr_mult: 1
    decay_mult: 1
  }
  param {
    lr_mult: 1
    decay_mult: 0
  }
  bn_param {
    scale_filler {
      type: "constant"
      value: 1
    }
    shift_filler {
      type: "constant"
      value: 0.001
    }
  }
}
layer {
  name: "relu3_1"
  type: "ReLU"
  bottom: "conv3_1"
  top: "conv3_1"
}
layer {
  name: "conv3_2"
  type: "Convolution"
  bottom: "conv3_1"
  top: "conv3_2"
  param {
    lr_mult: 1
    decay_mult: 1
  }
  param {
    lr_mult: 2
    decay_mult: 0
  }
  convolution_param {
    num_output: 256
    pad: 1
    kernel_size: 3
    weight_filler {
      type: "msra"
    }
    bias_filler {
      type: "constant"
    }
  }
}
layer {
  name: "conv3_2_bn"
  type: "BN"
  bottom: "conv3_2"
  top: "conv3_2"
  param {
    lr_mult: 1
    decay_mult: 1
  }
  param {
    lr_mult: 1
    decay_mult: 0
  }
  bn_param {
    scale_filler {
      type: "constant"
      value: 1
    }
    shift_filler {
      type: "constant"
      value: 0.001
    }
  }
}
layer {
  name: "relu3_2"
  type: "ReLU"
  bottom: "conv3_2"
  top: "conv3_2"
}
layer {
  name: "conv3_3"
  type: "Convolution"
  bottom: "conv3_2"
  top: "conv3_3"
  param {
    lr_mult: 1
    decay_mult: 1
  }
  param {
    lr_mult: 2
    decay_mult: 0
  }
  convolution_param {
    num_output: 256
    pad: 1
    kernel_size: 3
    weight_filler {
      type: "msra"
    }
    bias_filler {
      type: "constant"
    }
  }
}
layer {
  name: "conv3_3_bn"
  type: "BN"
  bottom: "conv3_3"
  top: "conv3_3"
  param {
    lr_mult: 1
    decay_mult: 1
  }
  param {
    lr_mult: 1
    decay_mult: 0
  }
  bn_param {
    scale_filler {
      type: "constant"
      value: 1
    }
    shift_filler {
      type: "constant"
      value: 0.001
    }
  }
}
layer {
  name: "relu3_3"
  type: "ReLU"
  bottom: "conv3_3"
  top: "conv3_3"
}
layer {
  name: "pool3"
  type: "Pooling"
  bottom: "conv3_3"
  top: "pool3"
  top: "pool3_mask"
  pooling_param {
    pool: MAX
    kernel_size: 2
    stride: 2
  }
}
layer {
  name: "conv4_1"
  type: "Convolution"
  bottom: "pool3"
  top: "conv4_1"
  param {
    lr_mult: 1
    decay_mult: 1
  }
  param {
    lr_mult: 2
    decay_mult: 0
  }
  convolution_param {
    num_output: 512
    pad: 1
    kernel_size: 3
    weight_filler {
      type: "msra"
    }
    bias_filler {
      type: "constant"
    }
  }
}
layer {
  name: "conv4_1_bn"
  type: "BN"
  bottom: "conv4_1"
  top: "conv4_1"
  param {
    lr_mult: 1
    decay_mult: 1
  }
  param {
    lr_mult: 1
    decay_mult: 0
  }
  bn_param {
    scale_filler {
      type: "constant"
      value: 1
    }
    shift_filler {
      type: "constant"
      value: 0.001
    }
  }
}
layer {
  name: "relu4_1"
  type: "ReLU"
  bottom: "conv4_1"
  top: "conv4_1"
}
layer {
  name: "conv4_2"
  type: "Convolution"
  bottom: "conv4_1"
  top: "conv4_2"
  param {
    lr_mult: 1
    decay_mult: 1
  }
  param {
    lr_mult: 2
    decay_mult: 0
  }
  convolution_param {
    num_output: 512
    pad: 1
    kernel_size: 3
    weight_filler {
      type: "msra"
    }
    bias_filler {
      type: "constant"
    }
  }
}
layer {
  name: "conv4_2_bn"
  type: "BN"
  bottom: "conv4_2"
  top: "conv4_2"
  param {
    lr_mult: 1
    decay_mult: 1
  }
  param {
    lr_mult: 1
    decay_mult: 0
  }
  bn_param {
    scale_filler {
      type: "constant"
      value: 1
    }
    shift_filler {
      type: "constant"
      value: 0.001
    }
  }
}
layer {
  name: "relu4_2"
  type: "ReLU"
  bottom: "conv4_2"
  top: "conv4_2"
}
layer {
  name: "conv4_3"
  type: "Convolution"
  bottom: "conv4_2"
  top: "conv4_3"
  param {
    lr_mult: 1
    decay_mult: 1
  }
  param {
    lr_mult: 2
    decay_mult: 0
  }
  convolution_param {
    num_output: 512
    pad: 1
    kernel_size: 3
    weight_filler {
      type: "msra"
    }
    bias_filler {
      type: "constant"
    }
  }
}
layer {
  name: "conv4_3_bn"
  type: "BN"
  bottom: "conv4_3"
  top: "conv4_3"
  param {
    lr_mult: 1
    decay_mult: 1
  }
  param {
    lr_mult: 1
    decay_mult: 0
  }
  bn_param {
    scale_filler {
      type: "constant"
      value: 1
    }
    shift_filler {
      type: "constant"
      value: 0.001
    }
  }
}
layer {
  name: "relu4_3"
  type: "ReLU"
  bottom: "conv4_3"
  top: "conv4_3"
}
layer {
  name: "pool4"
  type: "Pooling"
  bottom: "conv4_3"
  top: "pool4"
  top: "pool4_mask"
  pooling_param {
    pool: MAX
    kernel_size: 2
    stride: 2
  }
}
layer {
  name: "conv5_1"
  type: "Convolution"
  bottom: "pool4"
  top: "conv5_1"
  param {
    lr_mult: 1
    decay_mult: 1
  }
  param {
    lr_mult: 2
    decay_mult: 0
  }
  convolution_param {
    num_output: 512
    pad: 1
    kernel_size: 3
    weight_filler {
      type: "msra"
    }
    bias_filler {
      type: "constant"
    }
  }
}
layer {
  name: "conv5_1_bn"
  type: "BN"
  bottom: "conv5_1"
  top: "conv5_1"
  param {
    lr_mult: 1
    decay_mult: 1
  }
  param {
    lr_mult: 1
    decay_mult: 0
  }
  bn_param {
    scale_filler {
      type: "constant"
      value: 1
    }
    shift_filler {
      type: "constant"
      value: 0.001
    }
  }
}
layer {
  name: "relu5_1"
  type: "ReLU"
  bottom: "conv5_1"
  top: "conv5_1"
}
layer {
  name: "conv5_2"
  type: "Convolution"
  bottom: "conv5_1"
  top: "conv5_2"
  param {
    lr_mult: 1
    decay_mult: 1
  }
  param {
    lr_mult: 2
    decay_mult: 0
  }
  convolution_param {
    num_output: 512
    pad: 1
    kernel_size: 3
    weight_filler {
      type: "msra"
    }
    bias_filler {
      type: "constant"
    }
  }
}
layer {
  name: "conv5_2_bn"
  type: "BN"
  bottom: "conv5_2"
  top: "conv5_2"
  param {
    lr_mult: 1
    decay_mult: 1
  }
  param {
    lr_mult: 1
    decay_mult: 0
  }
  bn_param {
    scale_filler {
      type: "constant"
      value: 1
    }
    shift_filler {
      type: "constant"
      value: 0.001
    }
  }
}
layer {
  name: "relu5_2"
  type: "ReLU"
  bottom: "conv5_2"
  top: "conv5_2"
}
layer {
  name: "conv5_3"
  type: "Convolution"
  bottom: "conv5_2"
  top: "conv5_3"
  param {
    lr_mult: 1
    decay_mult: 1
  }
  param {
    lr_mult: 2
    decay_mult: 0
  }
  convolution_param {
    num_output: 512
    pad: 1
    kernel_size: 3
    weight_filler {
      type: "msra"
    }
    bias_filler {
      type: "constant"
    }
  }
}
layer {
  name: "conv5_3_bn"
  type: "BN"
  bottom: "conv5_3"
  top: "conv5_3"
  param {
    lr_mult: 1
    decay_mult: 1
  }
  param {
    lr_mult: 1
    decay_mult: 0
  }
  bn_param {
    scale_filler {
      type: "constant"
      value: 1
    }
    shift_filler {
      type: "constant"
      value: 0.001
    }
  }
}
layer {
  name: "relu5_3"
  type: "ReLU"
  bottom: "conv5_3"
  top: "conv5_3"
}
layer {
  name: "pool5"
  type: "Pooling"
  bottom: "conv5_3"
  top: "pool5"
  top: "pool5_mask"
  pooling_param {
    pool: MAX
    kernel_size: 2
    stride: 2
  }
}
layer {
  name: "upsample5"
  type: "Upsample"
  bottom: "pool5"
  bottom: "pool5_mask"
  top: "pool5_D"
  upsample_param {
    scale: 2
    upsample_h: 32
    upsample_w: 32
  }
}
layer {
  name: "conv5_3_D"
  type: "Convolution"
  bottom: "pool5_D"
  top: "conv5_3_D"
  param {
    lr_mult: 1
    decay_mult: 1
  }
  param {
    lr_mult: 2
    decay_mult: 0
  }
  convolution_param {
    num_output: 512
    pad: 1
    kernel_size: 3
    weight_filler {
      type: "msra"
    }
    bias_filler {
      type: "constant"
    }
  }
}
layer {
  name: "conv5_3_D_bn"
  type: "BN"
  bottom: "conv5_3_D"
  top: "conv5_3_D"
  param {
    lr_mult: 1
    decay_mult: 1
  }
  param {
    lr_mult: 1
    decay_mult: 0
  }
  bn_param {
    scale_filler {
      type: "constant"
      value: 1
    }
    shift_filler {
      type: "constant"
      value: 0.001
    }
  }
}
layer {
  name: "relu5_3_D"
  type: "ReLU"
  bottom: "conv5_3_D"
  top: "conv5_3_D"
}
layer {
  name: "conv5_2_D"
  type: "Convolution"
  bottom: "conv5_3_D"
  top: "conv5_2_D"
  param {
    lr_mult: 1
    decay_mult: 1
  }
  param {
    lr_mult: 2
    decay_mult: 0
  }
  convolution_param {
    num_output: 512
    pad: 1
    kernel_size: 3
    weight_filler {
      type: "msra"
    }
    bias_filler {
      type: "constant"
    }
  }
}
layer {
  name: "conv5_2_D_bn"
  type: "BN"
  bottom: "conv5_2_D"
  top: "conv5_2_D"
  param {
    lr_mult: 1
    decay_mult: 1
  }
  param {
    lr_mult: 1
    decay_mult: 0
  }
  bn_param {
    scale_filler {
      type: "constant"
      value: 1
    }
    shift_filler {
      type: "constant"
      value: 0.001
    }
  }
}
layer {
  name: "relu5_2_D"
  type: "ReLU"
  bottom: "conv5_2_D"
  top: "conv5_2_D"
}
layer {
  name: "conv5_1_D"
  type: "Convolution"
  bottom: "conv5_2_D"
  top: "conv5_1_D"
  param {
    lr_mult: 1
    decay_mult: 1
  }
  param {
    lr_mult: 2
    decay_mult: 0
  }
  convolution_param {
    num_output: 512
    pad: 1
    kernel_size: 3
    weight_filler {
      type: "msra"
    }
    bias_filler {
      type: "constant"
    }
  }
}
layer {
  name: "conv5_1_D_bn"
  type: "BN"
  bottom: "conv5_1_D"
  top: "conv5_1_D"
  param {
    lr_mult: 1
    decay_mult: 1
  }
  param {
    lr_mult: 1
    decay_mult: 0
  }
  bn_param {
    scale_filler {
      type: "constant"
      value: 1
    }
    shift_filler {
      type: "constant"
      value: 0.001
    }
  }
}
layer {
  name: "relu5_1_D"
  type: "ReLU"
  bottom: "conv5_1_D"
  top: "conv5_1_D"
}
layer {
  name: "upsample4"
  type: "Upsample"
  bottom: "conv5_1_D"
  bottom: "pool4_mask"
  top: "pool4_D"
  upsample_param {
    scale: 2
    upsample_h: 63
    upsample_w: 63
  }
}
layer {
  name: "conv4_3_D"
  type: "Convolution"
  bottom: "pool4_D"
  top: "conv4_3_D"
  param {
    lr_mult: 1
    decay_mult: 1
  }
  param {
    lr_mult: 2
    decay_mult: 0
  }
  convolution_param {
    num_output: 512
    pad: 1
    kernel_size: 3
    weight_filler {
      type: "msra"
    }
    bias_filler {
      type: "constant"
    }
  }
}
layer {
  name: "conv4_3_D_bn"
  type: "BN"
  bottom: "conv4_3_D"
  top: "conv4_3_D"
  param {
    lr_mult: 1
    decay_mult: 1
  }
  param {
    lr_mult: 1
    decay_mult: 0
  }
  bn_param {
    scale_filler {
      type: "constant"
      value: 1
    }
    shift_filler {
      type: "constant"
      value: 0.001
    }
  }
}
layer {
  name: "relu4_3_D"
  type: "ReLU"
  bottom: "conv4_3_D"
  top: "conv4_3_D"
}
layer {
  name: "conv4_2_D"
  type: "Convolution"
  bottom: "conv4_3_D"
  top: "conv4_2_D"
  param {
    lr_mult: 1
    decay_mult: 1
  }
  param {
    lr_mult: 2
    decay_mult: 0
  }
  convolution_param {
    num_output: 512
    pad: 1
    kernel_size: 3
    weight_filler {
      type: "msra"
    }
    bias_filler {
      type: "constant"
    }
  }
}
layer {
  name: "conv4_2_D_bn"
  type: "BN"
  bottom: "conv4_2_D"
  top: "conv4_2_D"
  param {
    lr_mult: 1
    decay_mult: 1
  }
  param {
    lr_mult: 1
    decay_mult: 0
  }
  bn_param {
    scale_filler {
      type: "constant"
      value: 1
    }
    shift_filler {
      type: "constant"
      value: 0.001
    }
  }
}
layer {
  name: "relu4_2_D"
  type: "ReLU"
  bottom: "conv4_2_D"
  top: "conv4_2_D"
}
layer {
  name: "conv4_1_D"
  type: "Convolution"
  bottom: "conv4_2_D"
  top: "conv4_1_D"
  param {
    lr_mult: 1
    decay_mult: 1
  }
  param {
    lr_mult: 2
    decay_mult: 0
  }
  convolution_param {
    num_output: 256
    pad: 1
    kernel_size: 3
    weight_filler {
      type: "msra"
    }
    bias_filler {
      type: "constant"
    }
  }
}
layer {
  name: "conv4_1_D_bn"
  type: "BN"
  bottom: "conv4_1_D"
  top: "conv4_1_D"
  param {
    lr_mult: 1
    decay_mult: 1
  }
  param {
    lr_mult: 1
    decay_mult: 0
  }
  bn_param {
    scale_filler {
      type: "constant"
      value: 1
    }
    shift_filler {
      type: "constant"
      value: 0.001
    }
  }
}
layer {
  name: "relu4_1_D"
  type: "ReLU"
  bottom: "conv4_1_D"
  top: "conv4_1_D"
}
layer {
  name: "upsample3"
  type: "Upsample"
  bottom: "conv4_1_D"
  bottom: "pool3_mask"
  top: "pool3_D"
  upsample_param {
    scale: 2
    upsample_h: 125
    upsample_w: 125
  }
}
layer {
  name: "conv3_3_D"
  type: "Convolution"
  bottom: "pool3_D"
  top: "conv3_3_D"
  param {
    lr_mult: 1
    decay_mult: 1
  }
  param {
    lr_mult: 2
    decay_mult: 0
  }
  convolution_param {
    num_output: 256
    pad: 1
    kernel_size: 3
    weight_filler {
      type: "msra"
    }
    bias_filler {
      type: "constant"
    }
  }
}
layer {
  name: "conv3_3_D_bn"
  type: "BN"
  bottom: "conv3_3_D"
  top: "conv3_3_D"
  param {
    lr_mult: 1
    decay_mult: 1
  }
  param {
    lr_mult: 1
    decay_mult: 0
  }
  bn_param {
    scale_filler {
      type: "constant"
      value: 1
    }
    shift_filler {
      type: "constant"
      value: 0.001
    }
  }
}
layer {
  name: "relu3_3_D"
  type: "ReLU"
  bottom: "conv3_3_D"
  top: "conv3_3_D"
}
layer {
  name: "conv3_2_D"
  type: "Convolution"
  bottom: "conv3_3_D"
  top: "conv3_2_D"
  param {
    lr_mult: 1
    decay_mult: 1
  }
  param {
    lr_mult: 2
    decay_mult: 0
  }
  convolution_param {
    num_output: 256
    pad: 1
    kernel_size: 3
    weight_filler {
      type: "msra"
    }
    bias_filler {
      type: "constant"
    }
  }
}
layer {
  name: "conv3_2_D_bn"
  type: "BN"
  bottom: "conv3_2_D"
  top: "conv3_2_D"
  param {
    lr_mult: 1
    decay_mult: 1
  }
  param {
    lr_mult: 1
    decay_mult: 0
  }
  bn_param {
    scale_filler {
      type: "constant"
      value: 1
    }
    shift_filler {
      type: "constant"
      value: 0.001
    }
  }
}
layer {
  name: "relu3_2_D"
  type: "ReLU"
  bottom: "conv3_2_D"
  top: "conv3_2_D"
}
layer {
  name: "conv3_1_D"
  type: "Convolution"
  bottom: "conv3_2_D"
  top: "conv3_1_D"
  param {
    lr_mult: 1
    decay_mult: 1
  }
  param {
    lr_mult: 2
    decay_mult: 0
  }
  convolution_param {
    num_output: 128
    pad: 1
    kernel_size: 3
    weight_filler {
      type: "msra"
    }
    bias_filler {
      type: "constant"
    }
  }
}
layer {
  name: "conv3_1_D_bn"
  type: "BN"
  bottom: "conv3_1_D"
  top: "conv3_1_D"
  param {
    lr_mult: 1
    decay_mult: 1
  }
  param {
    lr_mult: 1
    decay_mult: 0
  }
  bn_param {
    scale_filler {
      type: "constant"
      value: 1
    }
    shift_filler {
      type: "constant"
      value: 0.001
    }
  }
}
layer {
  name: "relu3_1_D"
  type: "ReLU"
  bottom: "conv3_1_D"
  top: "conv3_1_D"
}
layer {
  name: "upsample2"
  type: "Upsample"
  bottom: "conv3_1_D"
  bottom: "pool2_mask"
  top: "pool2_D"
  upsample_param {
    scale: 2
  }
}
layer {
  name: "conv2_2_D"
  type: "Convolution"
  bottom: "pool2_D"
  top: "conv2_2_D"
  param {
    lr_mult: 1
    decay_mult: 1
  }
  param {
    lr_mult: 2
    decay_mult: 0
  }
  convolution_param {
    num_output: 128
    pad: 1
    kernel_size: 3
    weight_filler {
      type: "msra"
    }
    bias_filler {
      type: "constant"
    }
  }
}
layer {
  name: "conv2_2_D_bn"
  type: "BN"
  bottom: "conv2_2_D"
  top: "conv2_2_D"
  param {
    lr_mult: 1
    decay_mult: 1
  }
  param {
    lr_mult: 1
    decay_mult: 0
  }
  bn_param {
    scale_filler {
      type: "constant"
      value: 1
    }
    shift_filler {
      type: "constant"
      value: 0.001
    }
  }
}
layer {
  name: "relu2_2_D"
  type: "ReLU"
  bottom: "conv2_2_D"
  top: "conv2_2_D"
}
layer {
  name: "conv2_1_D"
  type: "Convolution"
  bottom: "conv2_2_D"
  top: "conv2_1_D"
  param {
    lr_mult: 1
    decay_mult: 1
  }
  param {
    lr_mult: 2
    decay_mult: 0
  }
  convolution_param {
    num_output: 64
    pad: 1
    kernel_size: 3
    weight_filler {
      type: "msra"
    }
    bias_filler {
      type: "constant"
    }
  }
}
layer {
  name: "conv2_1_D_bn"
  type: "BN"
  bottom: "conv2_1_D"
  top: "conv2_1_D"
  param {
    lr_mult: 1
    decay_mult: 1
  }
  param {
    lr_mult: 1
    decay_mult: 0
  }
  bn_param {
    scale_filler {
      type: "constant"
      value: 1
    }
    shift_filler {
      type: "constant"
      value: 0.001
    }
  }
}
layer {
  name: "relu2_1_D"
  type: "ReLU"
  bottom: "conv2_1_D"
  top: "conv2_1_D"
}
layer {
  name: "upsample1"
  type: "Upsample"
  bottom: "conv2_1_D"
  bottom: "pool1_mask"
  top: "pool1_D"
  upsample_param {
    scale: 2
  }
}
layer {
  name: "conv1_2_D"
  type: "Convolution"
  bottom: "pool1_D"
  top: "conv1_2_D"
  param {
    lr_mult: 1
    decay_mult: 1
  }
  param {
    lr_mult: 2
    decay_mult: 0
  }
  convolution_param {
    num_output: 64
    pad: 1
    kernel_size: 3
    weight_filler {
      type: "msra"
    }
    bias_filler {
      type: "constant"
    }
  }
}
layer {
  name: "conv1_2_D_bn"
  type: "BN"
  bottom: "conv1_2_D"
  top: "conv1_2_D"
  param {
    lr_mult: 1
    decay_mult: 1
  }
  param {
    lr_mult: 1
    decay_mult: 0
  }
  bn_param {
    scale_filler {
      type: "constant"
      value: 1
    }
    shift_filler {
      type: "constant"
      value: 0.001
    }
  }
}
layer {
  name: "relu1_2_D"
  type: "ReLU"
  bottom: "conv1_2_D"
  top: "conv1_2_D"
}
layer {
  name: "conv1_1_D-v2"
  type: "Convolution"
  bottom: "conv1_2_D"
  top: "conv1_1_D"
  param {
    lr_mult: 1
    decay_mult: 1
  }
  param {
    lr_mult: 2
    decay_mult: 0
  }
  convolution_param {
    num_output: 21
    pad: 1
    kernel_size: 3
    weight_filler {
      type: "msra"
    }
    bias_filler {
      type: "constant"
    }
  }
}
layer {
  name: "loss"
  type: "SoftmaxWithLoss"
  bottom: "conv1_1_D"
  bottom: "label"
  top: "loss"
  loss_param {
    ignore_label: 21
    weight_by_label_freqs: false
  }
  softmax_param {
    engine: CAFFE
  }
}
I0419 23:07:41.056490 23025 layer_factory.hpp:74] Creating layer data
I0419 23:07:41.056529 23025 net.cpp:90] Creating Layer data
I0419 23:07:41.056543 23025 net.cpp:368] data -> data
I0419 23:07:41.056574 23025 net.cpp:120] Setting up data
I0419 23:07:41.056701 23025 db.cpp:34] Opened lmdb /home/shared/datasets/VOCdevkit/VOC2012/LMDB_500x500/train_lmdb
I0419 23:07:41.057664 23025 data_layer.cpp:52] output data size: 2,3,500,500
I0419 23:07:41.060034 23025 net.cpp:127] Top shape: 2 3 500 500 (1500000)
I0419 23:07:41.060063 23025 layer_factory.hpp:74] Creating layer label
I0419 23:07:41.060087 23025 net.cpp:90] Creating Layer label
I0419 23:07:41.060102 23025 net.cpp:368] label -> label
I0419 23:07:41.060123 23025 net.cpp:120] Setting up label
I0419 23:07:41.060232 23025 db.cpp:34] Opened lmdb /home/shared/datasets/VOCdevkit/VOC2012/LMDB_500x500/train_gt_lmdb
I0419 23:07:41.060415 23025 data_layer.cpp:52] output data size: 2,1,500,500
I0419 23:07:41.060847 23025 net.cpp:127] Top shape: 2 1 500 500 (500000)
I0419 23:07:41.060860 23025 layer_factory.hpp:74] Creating layer conv1_1
I0419 23:07:41.060880 23025 net.cpp:90] Creating Layer conv1_1
I0419 23:07:41.060894 23025 net.cpp:410] conv1_1 <- data
I0419 23:07:41.060921 23025 net.cpp:368] conv1_1 -> conv1_1
I0419 23:07:41.060942 23025 net.cpp:120] Setting up conv1_1
I0419 23:07:42.212779 23025 net.cpp:127] Top shape: 2 64 500 500 (32000000)
I0419 23:07:42.212831 23025 layer_factory.hpp:74] Creating layer conv1_1_bn
I0419 23:07:42.212854 23025 net.cpp:90] Creating Layer conv1_1_bn
I0419 23:07:42.212863 23025 net.cpp:410] conv1_1_bn <- conv1_1
I0419 23:07:42.212873 23025 net.cpp:357] conv1_1_bn -> conv1_1 (in-place)
I0419 23:07:42.212923 23025 net.cpp:120] Setting up conv1_1_bn
I0419 23:07:42.213419 23025 net.cpp:127] Top shape: 2 64 500 500 (32000000)
I0419 23:07:42.213438 23025 layer_factory.hpp:74] Creating layer relu1_1
I0419 23:07:42.213454 23025 net.cpp:90] Creating Layer relu1_1
I0419 23:07:42.213459 23025 net.cpp:410] relu1_1 <- conv1_1
I0419 23:07:42.213465 23025 net.cpp:357] relu1_1 -> conv1_1 (in-place)
I0419 23:07:42.213472 23025 net.cpp:120] Setting up relu1_1
I0419 23:07:42.217536 23025 net.cpp:127] Top shape: 2 64 500 500 (32000000)
I0419 23:07:42.217551 23025 layer_factory.hpp:74] Creating layer conv1_2
I0419 23:07:42.217562 23025 net.cpp:90] Creating Layer conv1_2
I0419 23:07:42.217567 23025 net.cpp:410] conv1_2 <- conv1_1
I0419 23:07:42.217576 23025 net.cpp:368] conv1_2 -> conv1_2
I0419 23:07:42.217586 23025 net.cpp:120] Setting up conv1_2
I0419 23:07:42.224992 23025 net.cpp:127] Top shape: 2 64 500 500 (32000000)
I0419 23:07:42.225013 23025 layer_factory.hpp:74] Creating layer conv1_2_bn
I0419 23:07:42.225025 23025 net.cpp:90] Creating Layer conv1_2_bn
I0419 23:07:42.225031 23025 net.cpp:410] conv1_2_bn <- conv1_2
I0419 23:07:42.225039 23025 net.cpp:357] conv1_2_bn -> conv1_2 (in-place)
I0419 23:07:42.225049 23025 net.cpp:120] Setting up conv1_2_bn
I0419 23:07:42.225963 23025 net.cpp:127] Top shape: 2 64 500 500 (32000000)
I0419 23:07:42.225985 23025 layer_factory.hpp:74] Creating layer relu1_2
I0419 23:07:42.225993 23025 net.cpp:90] Creating Layer relu1_2
I0419 23:07:42.225999 23025 net.cpp:410] relu1_2 <- conv1_2
I0419 23:07:42.226006 23025 net.cpp:357] relu1_2 -> conv1_2 (in-place)
I0419 23:07:42.226013 23025 net.cpp:120] Setting up relu1_2
I0419 23:07:42.227747 23025 net.cpp:127] Top shape: 2 64 500 500 (32000000)
I0419 23:07:42.227762 23025 layer_factory.hpp:74] Creating layer pool1
I0419 23:07:42.227771 23025 layer_factory.cpp:55] CUDNN does not support padding or multiple tops. Using Caffe's own pooling layer.
I0419 23:07:42.227782 23025 net.cpp:90] Creating Layer pool1
I0419 23:07:42.227787 23025 net.cpp:410] pool1 <- conv1_2
I0419 23:07:42.227794 23025 net.cpp:368] pool1 -> pool1
I0419 23:07:42.227804 23025 net.cpp:368] pool1 -> pool1_mask
I0419 23:07:42.227812 23025 net.cpp:120] Setting up pool1
I0419 23:07:42.227839 23025 net.cpp:127] Top shape: 2 64 250 250 (8000000)
I0419 23:07:42.227846 23025 net.cpp:127] Top shape: 2 64 250 250 (8000000)
I0419 23:07:42.227851 23025 layer_factory.hpp:74] Creating layer conv2_1
I0419 23:07:42.227861 23025 net.cpp:90] Creating Layer conv2_1
I0419 23:07:42.227866 23025 net.cpp:410] conv2_1 <- pool1
I0419 23:07:42.227874 23025 net.cpp:368] conv2_1 -> conv2_1
I0419 23:07:42.227888 23025 net.cpp:120] Setting up conv2_1
I0419 23:07:42.239549 23025 net.cpp:127] Top shape: 2 128 250 250 (16000000)
I0419 23:07:42.239570 23025 layer_factory.hpp:74] Creating layer conv2_1_bn
I0419 23:07:42.239581 23025 net.cpp:90] Creating Layer conv2_1_bn
I0419 23:07:42.239588 23025 net.cpp:410] conv2_1_bn <- conv2_1
I0419 23:07:42.239594 23025 net.cpp:357] conv2_1_bn -> conv2_1 (in-place)
I0419 23:07:42.239603 23025 net.cpp:120] Setting up conv2_1_bn
I0419 23:07:42.239866 23025 net.cpp:127] Top shape: 2 128 250 250 (16000000)
I0419 23:07:42.239883 23025 layer_factory.hpp:74] Creating layer relu2_1
I0419 23:07:42.239892 23025 net.cpp:90] Creating Layer relu2_1
I0419 23:07:42.239897 23025 net.cpp:410] relu2_1 <- conv2_1
I0419 23:07:42.239903 23025 net.cpp:357] relu2_1 -> conv2_1 (in-place)
I0419 23:07:42.239910 23025 net.cpp:120] Setting up relu2_1
I0419 23:07:42.244280 23025 net.cpp:127] Top shape: 2 128 250 250 (16000000)
I0419 23:07:42.244294 23025 layer_factory.hpp:74] Creating layer conv2_2
I0419 23:07:42.244307 23025 net.cpp:90] Creating Layer conv2_2
I0419 23:07:42.244313 23025 net.cpp:410] conv2_2 <- conv2_1
I0419 23:07:42.244320 23025 net.cpp:368] conv2_2 -> conv2_2
I0419 23:07:42.244329 23025 net.cpp:120] Setting up conv2_2
I0419 23:07:42.257307 23025 net.cpp:127] Top shape: 2 128 250 250 (16000000)
I0419 23:07:42.257325 23025 layer_factory.hpp:74] Creating layer conv2_2_bn
I0419 23:07:42.257356 23025 net.cpp:90] Creating Layer conv2_2_bn
I0419 23:07:42.257362 23025 net.cpp:410] conv2_2_bn <- conv2_2
I0419 23:07:42.257370 23025 net.cpp:357] conv2_2_bn -> conv2_2 (in-place)
I0419 23:07:42.257380 23025 net.cpp:120] Setting up conv2_2_bn
I0419 23:07:42.257640 23025 net.cpp:127] Top shape: 2 128 250 250 (16000000)
I0419 23:07:42.257657 23025 layer_factory.hpp:74] Creating layer relu2_2
I0419 23:07:42.257664 23025 net.cpp:90] Creating Layer relu2_2
I0419 23:07:42.257669 23025 net.cpp:410] relu2_2 <- conv2_2
I0419 23:07:42.257676 23025 net.cpp:357] relu2_2 -> conv2_2 (in-place)
I0419 23:07:42.257683 23025 net.cpp:120] Setting up relu2_2
I0419 23:07:42.259779 23025 net.cpp:127] Top shape: 2 128 250 250 (16000000)
I0419 23:07:42.259796 23025 layer_factory.hpp:74] Creating layer pool2
I0419 23:07:42.259804 23025 layer_factory.cpp:55] CUDNN does not support padding or multiple tops. Using Caffe's own pooling layer.
I0419 23:07:42.259810 23025 net.cpp:90] Creating Layer pool2
I0419 23:07:42.259815 23025 net.cpp:410] pool2 <- conv2_2
I0419 23:07:42.259824 23025 net.cpp:368] pool2 -> pool2
I0419 23:07:42.259834 23025 net.cpp:368] pool2 -> pool2_mask
I0419 23:07:42.259840 23025 net.cpp:120] Setting up pool2
I0419 23:07:42.259850 23025 net.cpp:127] Top shape: 2 128 125 125 (4000000)
I0419 23:07:42.259855 23025 net.cpp:127] Top shape: 2 128 125 125 (4000000)
I0419 23:07:42.259860 23025 layer_factory.hpp:74] Creating layer conv3_1
I0419 23:07:42.259871 23025 net.cpp:90] Creating Layer conv3_1
I0419 23:07:42.259876 23025 net.cpp:410] conv3_1 <- pool2
I0419 23:07:42.259883 23025 net.cpp:368] conv3_1 -> conv3_1
I0419 23:07:42.259891 23025 net.cpp:120] Setting up conv3_1
I0419 23:07:42.279793 23025 net.cpp:127] Top shape: 2 256 125 125 (8000000)
I0419 23:07:42.279815 23025 layer_factory.hpp:74] Creating layer conv3_1_bn
I0419 23:07:42.279827 23025 net.cpp:90] Creating Layer conv3_1_bn
I0419 23:07:42.279832 23025 net.cpp:410] conv3_1_bn <- conv3_1
I0419 23:07:42.279841 23025 net.cpp:357] conv3_1_bn -> conv3_1 (in-place)
I0419 23:07:42.279850 23025 net.cpp:120] Setting up conv3_1_bn
I0419 23:07:42.279922 23025 net.cpp:127] Top shape: 2 256 125 125 (8000000)
I0419 23:07:42.279947 23025 layer_factory.hpp:74] Creating layer relu3_1
I0419 23:07:42.279968 23025 net.cpp:90] Creating Layer relu3_1
I0419 23:07:42.279980 23025 net.cpp:410] relu3_1 <- conv3_1
I0419 23:07:42.279991 23025 net.cpp:357] relu3_1 -> conv3_1 (in-place)
I0419 23:07:42.280001 23025 net.cpp:120] Setting up relu3_1
I0419 23:07:42.282196 23025 net.cpp:127] Top shape: 2 256 125 125 (8000000)
I0419 23:07:42.282212 23025 layer_factory.hpp:74] Creating layer conv3_2
I0419 23:07:42.282223 23025 net.cpp:90] Creating Layer conv3_2
I0419 23:07:42.282229 23025 net.cpp:410] conv3_2 <- conv3_1
I0419 23:07:42.282238 23025 net.cpp:368] conv3_2 -> conv3_2
I0419 23:07:42.282245 23025 net.cpp:120] Setting up conv3_2
I0419 23:07:42.307525 23025 net.cpp:127] Top shape: 2 256 125 125 (8000000)
I0419 23:07:42.307564 23025 layer_factory.hpp:74] Creating layer conv3_2_bn
I0419 23:07:42.307579 23025 net.cpp:90] Creating Layer conv3_2_bn
I0419 23:07:42.307587 23025 net.cpp:410] conv3_2_bn <- conv3_2
I0419 23:07:42.307596 23025 net.cpp:357] conv3_2_bn -> conv3_2 (in-place)
I0419 23:07:42.307607 23025 net.cpp:120] Setting up conv3_2_bn
I0419 23:07:42.307679 23025 net.cpp:127] Top shape: 2 256 125 125 (8000000)
I0419 23:07:42.307692 23025 layer_factory.hpp:74] Creating layer relu3_2
I0419 23:07:42.307703 23025 net.cpp:90] Creating Layer relu3_2
I0419 23:07:42.307706 23025 net.cpp:410] relu3_2 <- conv3_2
I0419 23:07:42.307713 23025 net.cpp:357] relu3_2 -> conv3_2 (in-place)
I0419 23:07:42.307719 23025 net.cpp:120] Setting up relu3_2
I0419 23:07:42.310192 23025 net.cpp:127] Top shape: 2 256 125 125 (8000000)
I0419 23:07:42.310209 23025 layer_factory.hpp:74] Creating layer conv3_3
I0419 23:07:42.310222 23025 net.cpp:90] Creating Layer conv3_3
I0419 23:07:42.310227 23025 net.cpp:410] conv3_3 <- conv3_2
I0419 23:07:42.310235 23025 net.cpp:368] conv3_3 -> conv3_3
I0419 23:07:42.310266 23025 net.cpp:120] Setting up conv3_3
I0419 23:07:42.332747 23025 net.cpp:127] Top shape: 2 256 125 125 (8000000)
I0419 23:07:42.332784 23025 layer_factory.hpp:74] Creating layer conv3_3_bn
I0419 23:07:42.332800 23025 net.cpp:90] Creating Layer conv3_3_bn
I0419 23:07:42.332808 23025 net.cpp:410] conv3_3_bn <- conv3_3
I0419 23:07:42.332818 23025 net.cpp:357] conv3_3_bn -> conv3_3 (in-place)
I0419 23:07:42.332829 23025 net.cpp:120] Setting up conv3_3_bn
I0419 23:07:42.332904 23025 net.cpp:127] Top shape: 2 256 125 125 (8000000)
I0419 23:07:42.332916 23025 layer_factory.hpp:74] Creating layer relu3_3
I0419 23:07:42.332926 23025 net.cpp:90] Creating Layer relu3_3
I0419 23:07:42.332931 23025 net.cpp:410] relu3_3 <- conv3_3
I0419 23:07:42.332938 23025 net.cpp:357] relu3_3 -> conv3_3 (in-place)
I0419 23:07:42.332945 23025 net.cpp:120] Setting up relu3_3
I0419 23:07:42.333636 23025 net.cpp:127] Top shape: 2 256 125 125 (8000000)
I0419 23:07:42.333652 23025 layer_factory.hpp:74] Creating layer pool3
I0419 23:07:42.333658 23025 layer_factory.cpp:55] CUDNN does not support padding or multiple tops. Using Caffe's own pooling layer.
I0419 23:07:42.333665 23025 net.cpp:90] Creating Layer pool3
I0419 23:07:42.333670 23025 net.cpp:410] pool3 <- conv3_3
I0419 23:07:42.333679 23025 net.cpp:368] pool3 -> pool3
I0419 23:07:42.333688 23025 net.cpp:368] pool3 -> pool3_mask
I0419 23:07:42.333694 23025 net.cpp:120] Setting up pool3
I0419 23:07:42.333704 23025 net.cpp:127] Top shape: 2 256 63 63 (2032128)
I0419 23:07:42.333711 23025 net.cpp:127] Top shape: 2 256 63 63 (2032128)
I0419 23:07:42.333715 23025 layer_factory.hpp:74] Creating layer conv4_1
I0419 23:07:42.333726 23025 net.cpp:90] Creating Layer conv4_1
I0419 23:07:42.333731 23025 net.cpp:410] conv4_1 <- pool3
I0419 23:07:42.333739 23025 net.cpp:368] conv4_1 -> conv4_1
I0419 23:07:42.333746 23025 net.cpp:120] Setting up conv4_1
I0419 23:07:42.377636 23025 net.cpp:127] Top shape: 2 512 63 63 (4064256)
I0419 23:07:42.377673 23025 layer_factory.hpp:74] Creating layer conv4_1_bn
I0419 23:07:42.377692 23025 net.cpp:90] Creating Layer conv4_1_bn
I0419 23:07:42.377699 23025 net.cpp:410] conv4_1_bn <- conv4_1
I0419 23:07:42.377709 23025 net.cpp:357] conv4_1_bn -> conv4_1 (in-place)
I0419 23:07:42.377720 23025 net.cpp:120] Setting up conv4_1_bn
I0419 23:07:42.377754 23025 net.cpp:127] Top shape: 2 512 63 63 (4064256)
I0419 23:07:42.377764 23025 layer_factory.hpp:74] Creating layer relu4_1
I0419 23:07:42.377773 23025 net.cpp:90] Creating Layer relu4_1
I0419 23:07:42.377777 23025 net.cpp:410] relu4_1 <- conv4_1
I0419 23:07:42.377785 23025 net.cpp:357] relu4_1 -> conv4_1 (in-place)
I0419 23:07:42.377791 23025 net.cpp:120] Setting up relu4_1
I0419 23:07:42.378926 23025 net.cpp:127] Top shape: 2 512 63 63 (4064256)
I0419 23:07:42.378940 23025 layer_factory.hpp:74] Creating layer conv4_2
I0419 23:07:42.378952 23025 net.cpp:90] Creating Layer conv4_2
I0419 23:07:42.378957 23025 net.cpp:410] conv4_2 <- conv4_1
I0419 23:07:42.378965 23025 net.cpp:368] conv4_2 -> conv4_2
I0419 23:07:42.378979 23025 net.cpp:120] Setting up conv4_2
I0419 23:07:42.477461 23025 net.cpp:127] Top shape: 2 512 63 63 (4064256)
I0419 23:07:42.477507 23025 layer_factory.hpp:74] Creating layer conv4_2_bn
I0419 23:07:42.477525 23025 net.cpp:90] Creating Layer conv4_2_bn
I0419 23:07:42.477532 23025 net.cpp:410] conv4_2_bn <- conv4_2
I0419 23:07:42.477545 23025 net.cpp:357] conv4_2_bn -> conv4_2 (in-place)
I0419 23:07:42.477556 23025 net.cpp:120] Setting up conv4_2_bn
I0419 23:07:42.477591 23025 net.cpp:127] Top shape: 2 512 63 63 (4064256)
I0419 23:07:42.477599 23025 layer_factory.hpp:74] Creating layer relu4_2
I0419 23:07:42.477609 23025 net.cpp:90] Creating Layer relu4_2
I0419 23:07:42.477614 23025 net.cpp:410] relu4_2 <- conv4_2
I0419 23:07:42.477620 23025 net.cpp:357] relu4_2 -> conv4_2 (in-place)
I0419 23:07:42.477627 23025 net.cpp:120] Setting up relu4_2
I0419 23:07:42.488997 23025 net.cpp:127] Top shape: 2 512 63 63 (4064256)
I0419 23:07:42.489012 23025 layer_factory.hpp:74] Creating layer conv4_3
I0419 23:07:42.489053 23025 net.cpp:90] Creating Layer conv4_3
I0419 23:07:42.489058 23025 net.cpp:410] conv4_3 <- conv4_2
I0419 23:07:42.489068 23025 net.cpp:368] conv4_3 -> conv4_3
I0419 23:07:42.489078 23025 net.cpp:120] Setting up conv4_3
I0419 23:07:42.579406 23025 net.cpp:127] Top shape: 2 512 63 63 (4064256)
I0419 23:07:42.579447 23025 layer_factory.hpp:74] Creating layer conv4_3_bn
I0419 23:07:42.579463 23025 net.cpp:90] Creating Layer conv4_3_bn
I0419 23:07:42.579469 23025 net.cpp:410] conv4_3_bn <- conv4_3
I0419 23:07:42.579480 23025 net.cpp:357] conv4_3_bn -> conv4_3 (in-place)
I0419 23:07:42.579493 23025 net.cpp:120] Setting up conv4_3_bn
I0419 23:07:42.579524 23025 net.cpp:127] Top shape: 2 512 63 63 (4064256)
I0419 23:07:42.579535 23025 layer_factory.hpp:74] Creating layer relu4_3
I0419 23:07:42.579546 23025 net.cpp:90] Creating Layer relu4_3
I0419 23:07:42.579551 23025 net.cpp:410] relu4_3 <- conv4_3
I0419 23:07:42.579557 23025 net.cpp:357] relu4_3 -> conv4_3 (in-place)
I0419 23:07:42.579563 23025 net.cpp:120] Setting up relu4_3
I0419 23:07:42.583928 23025 net.cpp:127] Top shape: 2 512 63 63 (4064256)
I0419 23:07:42.583942 23025 layer_factory.hpp:74] Creating layer pool4
I0419 23:07:42.583951 23025 layer_factory.cpp:55] CUDNN does not support padding or multiple tops. Using Caffe's own pooling layer.
I0419 23:07:42.583959 23025 net.cpp:90] Creating Layer pool4
I0419 23:07:42.583966 23025 net.cpp:410] pool4 <- conv4_3
I0419 23:07:42.583972 23025 net.cpp:368] pool4 -> pool4
I0419 23:07:42.583981 23025 net.cpp:368] pool4 -> pool4_mask
I0419 23:07:42.583988 23025 net.cpp:120] Setting up pool4
I0419 23:07:42.583998 23025 net.cpp:127] Top shape: 2 512 32 32 (1048576)
I0419 23:07:42.584004 23025 net.cpp:127] Top shape: 2 512 32 32 (1048576)
I0419 23:07:42.584008 23025 layer_factory.hpp:74] Creating layer conv5_1
I0419 23:07:42.584019 23025 net.cpp:90] Creating Layer conv5_1
I0419 23:07:42.584024 23025 net.cpp:410] conv5_1 <- pool4
I0419 23:07:42.584033 23025 net.cpp:368] conv5_1 -> conv5_1
I0419 23:07:42.584041 23025 net.cpp:120] Setting up conv5_1
I0419 23:07:42.687494 23025 net.cpp:127] Top shape: 2 512 32 32 (1048576)
I0419 23:07:42.687543 23025 layer_factory.hpp:74] Creating layer conv5_1_bn
I0419 23:07:42.687574 23025 net.cpp:90] Creating Layer conv5_1_bn
I0419 23:07:42.687584 23025 net.cpp:410] conv5_1_bn <- conv5_1
I0419 23:07:42.687595 23025 net.cpp:357] conv5_1_bn -> conv5_1 (in-place)
I0419 23:07:42.687609 23025 net.cpp:120] Setting up conv5_1_bn
I0419 23:07:42.687635 23025 net.cpp:127] Top shape: 2 512 32 32 (1048576)
I0419 23:07:42.687644 23025 layer_factory.hpp:74] Creating layer relu5_1
I0419 23:07:42.687654 23025 net.cpp:90] Creating Layer relu5_1
I0419 23:07:42.687657 23025 net.cpp:410] relu5_1 <- conv5_1
I0419 23:07:42.687665 23025 net.cpp:357] relu5_1 -> conv5_1 (in-place)
I0419 23:07:42.687672 23025 net.cpp:120] Setting up relu5_1
I0419 23:07:42.696615 23025 net.cpp:127] Top shape: 2 512 32 32 (1048576)
I0419 23:07:42.696629 23025 layer_factory.hpp:74] Creating layer conv5_2
I0419 23:07:42.696647 23025 net.cpp:90] Creating Layer conv5_2
I0419 23:07:42.696653 23025 net.cpp:410] conv5_2 <- conv5_1
I0419 23:07:42.696663 23025 net.cpp:368] conv5_2 -> conv5_2
I0419 23:07:42.696673 23025 net.cpp:120] Setting up conv5_2
I0419 23:07:42.787883 23025 net.cpp:127] Top shape: 2 512 32 32 (1048576)
I0419 23:07:42.787930 23025 layer_factory.hpp:74] Creating layer conv5_2_bn
I0419 23:07:42.787958 23025 net.cpp:90] Creating Layer conv5_2_bn
I0419 23:07:42.787968 23025 net.cpp:410] conv5_2_bn <- conv5_2
I0419 23:07:42.787981 23025 net.cpp:357] conv5_2_bn -> conv5_2 (in-place)
I0419 23:07:42.787994 23025 net.cpp:120] Setting up conv5_2_bn
I0419 23:07:42.788024 23025 net.cpp:127] Top shape: 2 512 32 32 (1048576)
I0419 23:07:42.788033 23025 layer_factory.hpp:74] Creating layer relu5_2
I0419 23:07:42.788043 23025 net.cpp:90] Creating Layer relu5_2
I0419 23:07:42.788048 23025 net.cpp:410] relu5_2 <- conv5_2
I0419 23:07:42.788054 23025 net.cpp:357] relu5_2 -> conv5_2 (in-place)
I0419 23:07:42.788061 23025 net.cpp:120] Setting up relu5_2
I0419 23:07:42.792409 23025 net.cpp:127] Top shape: 2 512 32 32 (1048576)
I0419 23:07:42.792423 23025 layer_factory.hpp:74] Creating layer conv5_3
I0419 23:07:42.792433 23025 net.cpp:90] Creating Layer conv5_3
I0419 23:07:42.792438 23025 net.cpp:410] conv5_3 <- conv5_2
I0419 23:07:42.792448 23025 net.cpp:368] conv5_3 -> conv5_3
I0419 23:07:42.792457 23025 net.cpp:120] Setting up conv5_3
I0419 23:07:42.888528 23025 net.cpp:127] Top shape: 2 512 32 32 (1048576)
I0419 23:07:42.888586 23025 layer_factory.hpp:74] Creating layer conv5_3_bn
I0419 23:07:42.888610 23025 net.cpp:90] Creating Layer conv5_3_bn
I0419 23:07:42.888619 23025 net.cpp:410] conv5_3_bn <- conv5_3
I0419 23:07:42.888630 23025 net.cpp:357] conv5_3_bn -> conv5_3 (in-place)
I0419 23:07:42.888643 23025 net.cpp:120] Setting up conv5_3_bn
I0419 23:07:42.888669 23025 net.cpp:127] Top shape: 2 512 32 32 (1048576)
I0419 23:07:42.888676 23025 layer_factory.hpp:74] Creating layer relu5_3
I0419 23:07:42.888685 23025 net.cpp:90] Creating Layer relu5_3
I0419 23:07:42.888689 23025 net.cpp:410] relu5_3 <- conv5_3
I0419 23:07:42.888697 23025 net.cpp:357] relu5_3 -> conv5_3 (in-place)
I0419 23:07:42.888705 23025 net.cpp:120] Setting up relu5_3
I0419 23:07:42.893131 23025 net.cpp:127] Top shape: 2 512 32 32 (1048576)
I0419 23:07:42.893146 23025 layer_factory.hpp:74] Creating layer pool5
I0419 23:07:42.893152 23025 layer_factory.cpp:55] CUDNN does not support padding or multiple tops. Using Caffe's own pooling layer.
I0419 23:07:42.893162 23025 net.cpp:90] Creating Layer pool5
I0419 23:07:42.893167 23025 net.cpp:410] pool5 <- conv5_3
I0419 23:07:42.893174 23025 net.cpp:368] pool5 -> pool5
I0419 23:07:42.893183 23025 net.cpp:368] pool5 -> pool5_mask
I0419 23:07:42.893190 23025 net.cpp:120] Setting up pool5
I0419 23:07:42.893200 23025 net.cpp:127] Top shape: 2 512 16 16 (262144)
I0419 23:07:42.893206 23025 net.cpp:127] Top shape: 2 512 16 16 (262144)
I0419 23:07:42.893210 23025 layer_factory.hpp:74] Creating layer upsample5
I0419 23:07:42.893226 23025 net.cpp:90] Creating Layer upsample5
I0419 23:07:42.893232 23025 net.cpp:410] upsample5 <- pool5
I0419 23:07:42.893239 23025 net.cpp:410] upsample5 <- pool5_mask
I0419 23:07:42.893244 23025 net.cpp:368] upsample5 -> pool5_D
I0419 23:07:42.893257 23025 net.cpp:120] Setting up upsample5
I0419 23:07:42.893267 23025 net.cpp:127] Top shape: 2 512 32 32 (1048576)
I0419 23:07:42.893278 23025 layer_factory.hpp:74] Creating layer conv5_3_D
I0419 23:07:42.893290 23025 net.cpp:90] Creating Layer conv5_3_D
I0419 23:07:42.893296 23025 net.cpp:410] conv5_3_D <- pool5_D
I0419 23:07:42.893302 23025 net.cpp:368] conv5_3_D -> conv5_3_D
I0419 23:07:42.893311 23025 net.cpp:120] Setting up conv5_3_D
I0419 23:07:42.986378 23025 net.cpp:127] Top shape: 2 512 32 32 (1048576)
I0419 23:07:42.986424 23025 layer_factory.hpp:74] Creating layer conv5_3_D_bn
I0419 23:07:42.986443 23025 net.cpp:90] Creating Layer conv5_3_D_bn
I0419 23:07:42.986450 23025 net.cpp:410] conv5_3_D_bn <- conv5_3_D
I0419 23:07:42.986467 23025 net.cpp:357] conv5_3_D_bn -> conv5_3_D (in-place)
I0419 23:07:42.986481 23025 net.cpp:120] Setting up conv5_3_D_bn
I0419 23:07:42.986507 23025 net.cpp:127] Top shape: 2 512 32 32 (1048576)
I0419 23:07:42.986515 23025 layer_factory.hpp:74] Creating layer relu5_3_D
I0419 23:07:42.986524 23025 net.cpp:90] Creating Layer relu5_3_D
I0419 23:07:42.986529 23025 net.cpp:410] relu5_3_D <- conv5_3_D
I0419 23:07:42.986536 23025 net.cpp:357] relu5_3_D -> conv5_3_D (in-place)
I0419 23:07:42.986542 23025 net.cpp:120] Setting up relu5_3_D
I0419 23:07:42.993968 23025 net.cpp:127] Top shape: 2 512 32 32 (1048576)
I0419 23:07:42.993980 23025 layer_factory.hpp:74] Creating layer conv5_2_D
I0419 23:07:42.994009 23025 net.cpp:90] Creating Layer conv5_2_D
I0419 23:07:42.994016 23025 net.cpp:410] conv5_2_D <- conv5_3_D
I0419 23:07:42.994029 23025 net.cpp:368] conv5_2_D -> conv5_2_D
I0419 23:07:42.994040 23025 net.cpp:120] Setting up conv5_2_D
I0419 23:07:43.092301 23025 net.cpp:127] Top shape: 2 512 32 32 (1048576)
I0419 23:07:43.092350 23025 layer_factory.hpp:74] Creating layer conv5_2_D_bn
I0419 23:07:43.092396 23025 net.cpp:90] Creating Layer conv5_2_D_bn
I0419 23:07:43.092406 23025 net.cpp:410] conv5_2_D_bn <- conv5_2_D
I0419 23:07:43.092418 23025 net.cpp:357] conv5_2_D_bn -> conv5_2_D (in-place)
I0419 23:07:43.092432 23025 net.cpp:120] Setting up conv5_2_D_bn
I0419 23:07:43.092458 23025 net.cpp:127] Top shape: 2 512 32 32 (1048576)
I0419 23:07:43.092466 23025 layer_factory.hpp:74] Creating layer relu5_2_D
I0419 23:07:43.092475 23025 net.cpp:90] Creating Layer relu5_2_D
I0419 23:07:43.092480 23025 net.cpp:410] relu5_2_D <- conv5_2_D
I0419 23:07:43.092486 23025 net.cpp:357] relu5_2_D -> conv5_2_D (in-place)
I0419 23:07:43.092492 23025 net.cpp:120] Setting up relu5_2_D
I0419 23:07:43.100669 23025 net.cpp:127] Top shape: 2 512 32 32 (1048576)
I0419 23:07:43.100682 23025 layer_factory.hpp:74] Creating layer conv5_1_D
I0419 23:07:43.100705 23025 net.cpp:90] Creating Layer conv5_1_D
I0419 23:07:43.100711 23025 net.cpp:410] conv5_1_D <- conv5_2_D
I0419 23:07:43.100720 23025 net.cpp:368] conv5_1_D -> conv5_1_D
I0419 23:07:43.100730 23025 net.cpp:120] Setting up conv5_1_D
I0419 23:07:43.198972 23025 net.cpp:127] Top shape: 2 512 32 32 (1048576)
I0419 23:07:43.199020 23025 layer_factory.hpp:74] Creating layer conv5_1_D_bn
I0419 23:07:43.199054 23025 net.cpp:90] Creating Layer conv5_1_D_bn
I0419 23:07:43.199064 23025 net.cpp:410] conv5_1_D_bn <- conv5_1_D
I0419 23:07:43.199075 23025 net.cpp:357] conv5_1_D_bn -> conv5_1_D (in-place)
I0419 23:07:43.199090 23025 net.cpp:120] Setting up conv5_1_D_bn
I0419 23:07:43.199126 23025 net.cpp:127] Top shape: 2 512 32 32 (1048576)
I0419 23:07:43.199136 23025 layer_factory.hpp:74] Creating layer relu5_1_D
I0419 23:07:43.199144 23025 net.cpp:90] Creating Layer relu5_1_D
I0419 23:07:43.199148 23025 net.cpp:410] relu5_1_D <- conv5_1_D
I0419 23:07:43.199156 23025 net.cpp:357] relu5_1_D -> conv5_1_D (in-place)
I0419 23:07:43.199162 23025 net.cpp:120] Setting up relu5_1_D
I0419 23:07:43.245153 23025 net.cpp:127] Top shape: 2 512 32 32 (1048576)
I0419 23:07:43.245167 23025 layer_factory.hpp:74] Creating layer upsample4
I0419 23:07:43.245184 23025 net.cpp:90] Creating Layer upsample4
I0419 23:07:43.245190 23025 net.cpp:410] upsample4 <- conv5_1_D
I0419 23:07:43.245198 23025 net.cpp:410] upsample4 <- pool4_mask
I0419 23:07:43.245205 23025 net.cpp:368] upsample4 -> pool4_D
I0419 23:07:43.245214 23025 net.cpp:120] Setting up upsample4
I0419 23:07:43.245224 23025 net.cpp:127] Top shape: 2 512 63 63 (4064256)
I0419 23:07:43.245229 23025 layer_factory.hpp:74] Creating layer conv4_3_D
I0419 23:07:43.245240 23025 net.cpp:90] Creating Layer conv4_3_D
I0419 23:07:43.245246 23025 net.cpp:410] conv4_3_D <- pool4_D
I0419 23:07:43.245252 23025 net.cpp:368] conv4_3_D -> conv4_3_D
I0419 23:07:43.245260 23025 net.cpp:120] Setting up conv4_3_D
I0419 23:07:43.362572 23025 net.cpp:127] Top shape: 2 512 63 63 (4064256)
I0419 23:07:43.362646 23025 layer_factory.hpp:74] Creating layer conv4_3_D_bn
I0419 23:07:43.362669 23025 net.cpp:90] Creating Layer conv4_3_D_bn
I0419 23:07:43.362679 23025 net.cpp:410] conv4_3_D_bn <- conv4_3_D
I0419 23:07:43.362690 23025 net.cpp:357] conv4_3_D_bn -> conv4_3_D (in-place)
I0419 23:07:43.362704 23025 net.cpp:120] Setting up conv4_3_D_bn
I0419 23:07:43.362736 23025 net.cpp:127] Top shape: 2 512 63 63 (4064256)
I0419 23:07:43.362753 23025 layer_factory.hpp:74] Creating layer relu4_3_D
I0419 23:07:43.362761 23025 net.cpp:90] Creating Layer relu4_3_D
I0419 23:07:43.362766 23025 net.cpp:410] relu4_3_D <- conv4_3_D
I0419 23:07:43.362774 23025 net.cpp:357] relu4_3_D -> conv4_3_D (in-place)
I0419 23:07:43.362782 23025 net.cpp:120] Setting up relu4_3_D
I0419 23:07:43.367139 23025 net.cpp:127] Top shape: 2 512 63 63 (4064256)
I0419 23:07:43.367154 23025 layer_factory.hpp:74] Creating layer conv4_2_D
I0419 23:07:43.367167 23025 net.cpp:90] Creating Layer conv4_2_D
I0419 23:07:43.367173 23025 net.cpp:410] conv4_2_D <- conv4_3_D
I0419 23:07:43.367182 23025 net.cpp:368] conv4_2_D -> conv4_2_D
I0419 23:07:43.367192 23025 net.cpp:120] Setting up conv4_2_D
I0419 23:07:43.460965 23025 net.cpp:127] Top shape: 2 512 63 63 (4064256)
I0419 23:07:43.461005 23025 layer_factory.hpp:74] Creating layer conv4_2_D_bn
I0419 23:07:43.461038 23025 net.cpp:90] Creating Layer conv4_2_D_bn
I0419 23:07:43.461048 23025 net.cpp:410] conv4_2_D_bn <- conv4_2_D
I0419 23:07:43.461060 23025 net.cpp:357] conv4_2_D_bn -> conv4_2_D (in-place)
I0419 23:07:43.461072 23025 net.cpp:120] Setting up conv4_2_D_bn
I0419 23:07:43.461110 23025 net.cpp:127] Top shape: 2 512 63 63 (4064256)
I0419 23:07:43.461122 23025 layer_factory.hpp:74] Creating layer relu4_2_D
I0419 23:07:43.461130 23025 net.cpp:90] Creating Layer relu4_2_D
I0419 23:07:43.461134 23025 net.cpp:410] relu4_2_D <- conv4_2_D
I0419 23:07:43.461141 23025 net.cpp:357] relu4_2_D -> conv4_2_D (in-place)
I0419 23:07:43.461148 23025 net.cpp:120] Setting up relu4_2_D
I0419 23:07:43.464750 23025 net.cpp:127] Top shape: 2 512 63 63 (4064256)
I0419 23:07:43.464762 23025 layer_factory.hpp:74] Creating layer conv4_1_D
I0419 23:07:43.464776 23025 net.cpp:90] Creating Layer conv4_1_D
I0419 23:07:43.464781 23025 net.cpp:410] conv4_1_D <- conv4_2_D
I0419 23:07:43.464788 23025 net.cpp:368] conv4_1_D -> conv4_1_D
I0419 23:07:43.464807 23025 net.cpp:120] Setting up conv4_1_D
I0419 23:07:43.513703 23025 net.cpp:127] Top shape: 2 256 63 63 (2032128)
I0419 23:07:43.513736 23025 layer_factory.hpp:74] Creating layer conv4_1_D_bn
I0419 23:07:43.513767 23025 net.cpp:90] Creating Layer conv4_1_D_bn
I0419 23:07:43.513774 23025 net.cpp:410] conv4_1_D_bn <- conv4_1_D
I0419 23:07:43.513783 23025 net.cpp:357] conv4_1_D_bn -> conv4_1_D (in-place)
I0419 23:07:43.513794 23025 net.cpp:120] Setting up conv4_1_D_bn
I0419 23:07:43.513826 23025 net.cpp:127] Top shape: 2 256 63 63 (2032128)
I0419 23:07:43.513835 23025 layer_factory.hpp:74] Creating layer relu4_1_D
I0419 23:07:43.513844 23025 net.cpp:90] Creating Layer relu4_1_D
I0419 23:07:43.513849 23025 net.cpp:410] relu4_1_D <- conv4_1_D
I0419 23:07:43.513855 23025 net.cpp:357] relu4_1_D -> conv4_1_D (in-place)
I0419 23:07:43.513861 23025 net.cpp:120] Setting up relu4_1_D
I0419 23:07:43.517550 23025 net.cpp:127] Top shape: 2 256 63 63 (2032128)
I0419 23:07:43.517565 23025 layer_factory.hpp:74] Creating layer upsample3
I0419 23:07:43.517573 23025 net.cpp:90] Creating Layer upsample3
I0419 23:07:43.517578 23025 net.cpp:410] upsample3 <- conv4_1_D
I0419 23:07:43.517585 23025 net.cpp:410] upsample3 <- pool3_mask
I0419 23:07:43.517591 23025 net.cpp:368] upsample3 -> pool3_D
I0419 23:07:43.517599 23025 net.cpp:120] Setting up upsample3
I0419 23:07:43.517608 23025 net.cpp:127] Top shape: 2 256 125 125 (8000000)
I0419 23:07:43.517613 23025 layer_factory.hpp:74] Creating layer conv3_3_D
I0419 23:07:43.517627 23025 net.cpp:90] Creating Layer conv3_3_D
I0419 23:07:43.517632 23025 net.cpp:410] conv3_3_D <- pool3_D
I0419 23:07:43.517640 23025 net.cpp:368] conv3_3_D -> conv3_3_D
I0419 23:07:43.517648 23025 net.cpp:120] Setting up conv3_3_D
I0419 23:07:43.542989 23025 net.cpp:127] Top shape: 2 256 125 125 (8000000)
I0419 23:07:43.543011 23025 layer_factory.hpp:74] Creating layer conv3_3_D_bn
I0419 23:07:43.543022 23025 net.cpp:90] Creating Layer conv3_3_D_bn
I0419 23:07:43.543027 23025 net.cpp:410] conv3_3_D_bn <- conv3_3_D
I0419 23:07:43.543036 23025 net.cpp:357] conv3_3_D_bn -> conv3_3_D (in-place)
I0419 23:07:43.543045 23025 net.cpp:120] Setting up conv3_3_D_bn
I0419 23:07:43.543128 23025 net.cpp:127] Top shape: 2 256 125 125 (8000000)
I0419 23:07:43.543138 23025 layer_factory.hpp:74] Creating layer relu3_3_D
I0419 23:07:43.543148 23025 net.cpp:90] Creating Layer relu3_3_D
I0419 23:07:43.543153 23025 net.cpp:410] relu3_3_D <- conv3_3_D
I0419 23:07:43.543159 23025 net.cpp:357] relu3_3_D -> conv3_3_D (in-place)
I0419 23:07:43.543165 23025 net.cpp:120] Setting up relu3_3_D
I0419 23:07:43.545820 23025 net.cpp:127] Top shape: 2 256 125 125 (8000000)
I0419 23:07:43.545833 23025 layer_factory.hpp:74] Creating layer conv3_2_D
I0419 23:07:43.545845 23025 net.cpp:90] Creating Layer conv3_2_D
I0419 23:07:43.545850 23025 net.cpp:410] conv3_2_D <- conv3_3_D
I0419 23:07:43.545882 23025 net.cpp:368] conv3_2_D -> conv3_2_D
I0419 23:07:43.545892 23025 net.cpp:120] Setting up conv3_2_D
I0419 23:07:43.573140 23025 net.cpp:127] Top shape: 2 256 125 125 (8000000)
I0419 23:07:43.573163 23025 layer_factory.hpp:74] Creating layer conv3_2_D_bn
I0419 23:07:43.573175 23025 net.cpp:90] Creating Layer conv3_2_D_bn
I0419 23:07:43.573181 23025 net.cpp:410] conv3_2_D_bn <- conv3_2_D
I0419 23:07:43.573189 23025 net.cpp:357] conv3_2_D_bn -> conv3_2_D (in-place)
I0419 23:07:43.573200 23025 net.cpp:120] Setting up conv3_2_D_bn
I0419 23:07:43.573271 23025 net.cpp:127] Top shape: 2 256 125 125 (8000000)
I0419 23:07:43.573282 23025 layer_factory.hpp:74] Creating layer relu3_2_D
I0419 23:07:43.573292 23025 net.cpp:90] Creating Layer relu3_2_D
I0419 23:07:43.573297 23025 net.cpp:410] relu3_2_D <- conv3_2_D
I0419 23:07:43.573303 23025 net.cpp:357] relu3_2_D -> conv3_2_D (in-place)
I0419 23:07:43.573310 23025 net.cpp:120] Setting up relu3_2_D
I0419 23:07:43.574724 23025 net.cpp:127] Top shape: 2 256 125 125 (8000000)
I0419 23:07:43.574738 23025 layer_factory.hpp:74] Creating layer conv3_1_D
I0419 23:07:43.574748 23025 net.cpp:90] Creating Layer conv3_1_D
I0419 23:07:43.574753 23025 net.cpp:410] conv3_1_D <- conv3_2_D
I0419 23:07:43.574762 23025 net.cpp:368] conv3_1_D -> conv3_1_D
I0419 23:07:43.574771 23025 net.cpp:120] Setting up conv3_1_D
I0419 23:07:43.589401 23025 net.cpp:127] Top shape: 2 128 125 125 (4000000)
I0419 23:07:43.589418 23025 layer_factory.hpp:74] Creating layer conv3_1_D_bn
I0419 23:07:43.589428 23025 net.cpp:90] Creating Layer conv3_1_D_bn
I0419 23:07:43.589434 23025 net.cpp:410] conv3_1_D_bn <- conv3_1_D
I0419 23:07:43.589443 23025 net.cpp:357] conv3_1_D_bn -> conv3_1_D (in-place)
I0419 23:07:43.589452 23025 net.cpp:120] Setting up conv3_1_D_bn
I0419 23:07:43.589524 23025 net.cpp:127] Top shape: 2 128 125 125 (4000000)
I0419 23:07:43.589543 23025 layer_factory.hpp:74] Creating layer relu3_1_D
I0419 23:07:43.589551 23025 net.cpp:90] Creating Layer relu3_1_D
I0419 23:07:43.589556 23025 net.cpp:410] relu3_1_D <- conv3_1_D
I0419 23:07:43.589562 23025 net.cpp:357] relu3_1_D -> conv3_1_D (in-place)
I0419 23:07:43.589570 23025 net.cpp:120] Setting up relu3_1_D
I0419 23:07:43.592447 23025 net.cpp:127] Top shape: 2 128 125 125 (4000000)
I0419 23:07:43.592461 23025 layer_factory.hpp:74] Creating layer upsample2
I0419 23:07:43.592471 23025 net.cpp:90] Creating Layer upsample2
I0419 23:07:43.592478 23025 net.cpp:410] upsample2 <- conv3_1_D
I0419 23:07:43.592483 23025 net.cpp:410] upsample2 <- pool2_mask
I0419 23:07:43.592490 23025 net.cpp:368] upsample2 -> pool2_D
I0419 23:07:43.592499 23025 net.cpp:120] Setting up upsample2
I0419 23:07:43.592504 23025 upsample_layer.cpp:31] Params 'pad_out_{}_' are deprecated. Please declare upsample height and width useing the upsample_h, upsample_w parameters.
I0419 23:07:43.592511 23025 net.cpp:127] Top shape: 2 128 250 250 (16000000)
I0419 23:07:43.592519 23025 layer_factory.hpp:74] Creating layer conv2_2_D
I0419 23:07:43.592528 23025 net.cpp:90] Creating Layer conv2_2_D
I0419 23:07:43.592533 23025 net.cpp:410] conv2_2_D <- pool2_D
I0419 23:07:43.592542 23025 net.cpp:368] conv2_2_D -> conv2_2_D
I0419 23:07:43.592550 23025 net.cpp:120] Setting up conv2_2_D
I0419 23:07:43.603050 23025 net.cpp:127] Top shape: 2 128 250 250 (16000000)
I0419 23:07:43.603070 23025 layer_factory.hpp:74] Creating layer conv2_2_D_bn
I0419 23:07:43.603085 23025 net.cpp:90] Creating Layer conv2_2_D_bn
I0419 23:07:43.603091 23025 net.cpp:410] conv2_2_D_bn <- conv2_2_D
I0419 23:07:43.603097 23025 net.cpp:357] conv2_2_D_bn -> conv2_2_D (in-place)
I0419 23:07:43.603109 23025 net.cpp:120] Setting up conv2_2_D_bn
I0419 23:07:43.603348 23025 net.cpp:127] Top shape: 2 128 250 250 (16000000)
I0419 23:07:43.603361 23025 layer_factory.hpp:74] Creating layer relu2_2_D
I0419 23:07:43.603369 23025 net.cpp:90] Creating Layer relu2_2_D
I0419 23:07:43.603374 23025 net.cpp:410] relu2_2_D <- conv2_2_D
I0419 23:07:43.603380 23025 net.cpp:357] relu2_2_D -> conv2_2_D (in-place)
I0419 23:07:43.603386 23025 net.cpp:120] Setting up relu2_2_D
I0419 23:07:43.605757 23025 net.cpp:127] Top shape: 2 128 250 250 (16000000)
I0419 23:07:43.605770 23025 layer_factory.hpp:74] Creating layer conv2_1_D
I0419 23:07:43.605782 23025 net.cpp:90] Creating Layer conv2_1_D
I0419 23:07:43.605787 23025 net.cpp:410] conv2_1_D <- conv2_2_D
I0419 23:07:43.605797 23025 net.cpp:368] conv2_1_D -> conv2_1_D
I0419 23:07:43.605805 23025 net.cpp:120] Setting up conv2_1_D
I0419 23:07:43.617735 23025 net.cpp:127] Top shape: 2 64 250 250 (8000000)
I0419 23:07:43.617753 23025 layer_factory.hpp:74] Creating layer conv2_1_D_bn
I0419 23:07:43.617765 23025 net.cpp:90] Creating Layer conv2_1_D_bn
I0419 23:07:43.617771 23025 net.cpp:410] conv2_1_D_bn <- conv2_1_D
I0419 23:07:43.617779 23025 net.cpp:357] conv2_1_D_bn -> conv2_1_D (in-place)
I0419 23:07:43.617786 23025 net.cpp:120] Setting up conv2_1_D_bn
I0419 23:07:43.618023 23025 net.cpp:127] Top shape: 2 64 250 250 (8000000)
I0419 23:07:43.618039 23025 layer_factory.hpp:74] Creating layer relu2_1_D
I0419 23:07:43.618046 23025 net.cpp:90] Creating Layer relu2_1_D
I0419 23:07:43.618052 23025 net.cpp:410] relu2_1_D <- conv2_1_D
I0419 23:07:43.618057 23025 net.cpp:357] relu2_1_D -> conv2_1_D (in-place)
I0419 23:07:43.618064 23025 net.cpp:120] Setting up relu2_1_D
I0419 23:07:43.622262 23025 net.cpp:127] Top shape: 2 64 250 250 (8000000)
I0419 23:07:43.622277 23025 layer_factory.hpp:74] Creating layer upsample1
I0419 23:07:43.622287 23025 net.cpp:90] Creating Layer upsample1
I0419 23:07:43.622292 23025 net.cpp:410] upsample1 <- conv2_1_D
I0419 23:07:43.622298 23025 net.cpp:410] upsample1 <- pool1_mask
I0419 23:07:43.622304 23025 net.cpp:368] upsample1 -> pool1_D
I0419 23:07:43.622311 23025 net.cpp:120] Setting up upsample1
I0419 23:07:43.622316 23025 upsample_layer.cpp:31] Params 'pad_out_{}_' are deprecated. Please declare upsample height and width useing the upsample_h, upsample_w parameters.
I0419 23:07:43.622324 23025 net.cpp:127] Top shape: 2 64 500 500 (32000000)
I0419 23:07:43.622329 23025 layer_factory.hpp:74] Creating layer conv1_2_D
I0419 23:07:43.622339 23025 net.cpp:90] Creating Layer conv1_2_D
I0419 23:07:43.622345 23025 net.cpp:410] conv1_2_D <- pool1_D
I0419 23:07:43.622354 23025 net.cpp:368] conv1_2_D -> conv1_2_D
I0419 23:07:43.622361 23025 net.cpp:120] Setting up conv1_2_D
I0419 23:07:43.632128 23025 net.cpp:127] Top shape: 2 64 500 500 (32000000)
I0419 23:07:43.632146 23025 layer_factory.hpp:74] Creating layer conv1_2_D_bn
I0419 23:07:43.632158 23025 net.cpp:90] Creating Layer conv1_2_D_bn
I0419 23:07:43.632163 23025 net.cpp:410] conv1_2_D_bn <- conv1_2_D
I0419 23:07:43.632171 23025 net.cpp:357] conv1_2_D_bn -> conv1_2_D (in-place)
I0419 23:07:43.632180 23025 net.cpp:120] Setting up conv1_2_D_bn
I0419 23:07:43.633056 23025 net.cpp:127] Top shape: 2 64 500 500 (32000000)
I0419 23:07:43.633074 23025 layer_factory.hpp:74] Creating layer relu1_2_D
I0419 23:07:43.633081 23025 net.cpp:90] Creating Layer relu1_2_D
I0419 23:07:43.633086 23025 net.cpp:410] relu1_2_D <- conv1_2_D
I0419 23:07:43.633092 23025 net.cpp:357] relu1_2_D -> conv1_2_D (in-place)
I0419 23:07:43.633101 23025 net.cpp:120] Setting up relu1_2_D
I0419 23:07:43.635102 23025 net.cpp:127] Top shape: 2 64 500 500 (32000000)
I0419 23:07:43.635143 23025 layer_factory.hpp:74] Creating layer conv1_1_D-v2
I0419 23:07:43.635156 23025 net.cpp:90] Creating Layer conv1_1_D-v2
I0419 23:07:43.635161 23025 net.cpp:410] conv1_1_D-v2 <- conv1_2_D
I0419 23:07:43.635169 23025 net.cpp:368] conv1_1_D-v2 -> conv1_1_D
I0419 23:07:43.635179 23025 net.cpp:120] Setting up conv1_1_D-v2
I0419 23:07:43.645570 23025 net.cpp:127] Top shape: 2 21 500 500 (10500000)
I0419 23:07:43.645588 23025 layer_factory.hpp:74] Creating layer loss
I0419 23:07:43.645604 23025 net.cpp:90] Creating Layer loss
I0419 23:07:43.645609 23025 net.cpp:410] loss <- conv1_1_D
I0419 23:07:43.645617 23025 net.cpp:410] loss <- label
I0419 23:07:43.645627 23025 net.cpp:368] loss -> loss
I0419 23:07:43.645637 23025 net.cpp:120] Setting up loss
I0419 23:07:43.645654 23025 layer_factory.hpp:74] Creating layer loss
…
