…
I0418 16:19:47.909859 14721 solver.cpp:81] Creating training net from train_net file: train-3.prototxt
I0418 16:19:47.910621 14721 net.cpp:49] Initializing net from parameters: 
state {
  phase: TRAIN
}
layer {
  name: "data"
  type: "Data"
  top: "data"
  transform_param {
    mean_value: 104.00699
    mean_value: 116.66877
    mean_value: 122.67892
  }
  data_param {
    source: "/home/shared/datasets/CamVid/LMDB-v2/train_lmdb"
    batch_size: 1
    backend: LMDB
  }
}
layer {
  name: "label"
  type: "Data"
  top: "label"
  data_param {
    source: "/home/shared/datasets/CamVid/LMDB-v2/train_gt_lmdb"
    batch_size: 1
    backend: LMDB
  }
}
layer {
  name: "conv1_1"
  type: "Convolution"
  bottom: "data"
  top: "conv1_1"
  param {
    lr_mult: 1
    decay_mult: 1
  }
  param {
    lr_mult: 2
    decay_mult: 0
  }
  convolution_param {
    num_output: 64
    pad: 100
    kernel_size: 3
    stride: 1
  }
}
layer {
  name: "relu1_1"
  type: "ReLU"
  bottom: "conv1_1"
  top: "conv1_1"
}
layer {
  name: "conv1_2"
  type: "Convolution"
  bottom: "conv1_1"
  top: "conv1_2"
  param {
    lr_mult: 1
    decay_mult: 1
  }
  param {
    lr_mult: 2
    decay_mult: 0
  }
  convolution_param {
    num_output: 64
    pad: 1
    kernel_size: 3
    stride: 1
  }
}
layer {
  name: "relu1_2"
  type: "ReLU"
  bottom: "conv1_2"
  top: "conv1_2"
}
layer {
  name: "pool1"
  type: "Pooling"
  bottom: "conv1_2"
  top: "pool1"
  pooling_param {
    pool: MAX
    kernel_size: 2
    stride: 2
  }
}
layer {
  name: "conv2_1"
  type: "Convolution"
  bottom: "pool1"
  top: "conv2_1"
  param {
    lr_mult: 1
    decay_mult: 1
  }
  param {
    lr_mult: 2
    decay_mult: 0
  }
  convolution_param {
    num_output: 128
    pad: 1
    kernel_size: 3
    stride: 1
  }
}
layer {
  name: "relu2_1"
  type: "ReLU"
  bottom: "conv2_1"
  top: "conv2_1"
}
layer {
  name: "conv2_2"
  type: "Convolution"
  bottom: "conv2_1"
  top: "conv2_2"
  param {
    lr_mult: 1
    decay_mult: 1
  }
  param {
    lr_mult: 2
    decay_mult: 0
  }
  convolution_param {
    num_output: 128
    pad: 1
    kernel_size: 3
    stride: 1
  }
}
layer {
  name: "relu2_2"
  type: "ReLU"
  bottom: "conv2_2"
  top: "conv2_2"
}
layer {
  name: "pool2"
  type: "Pooling"
  bottom: "conv2_2"
  top: "pool2"
  pooling_param {
    pool: MAX
    kernel_size: 2
    stride: 2
  }
}
layer {
  name: "conv3_1"
  type: "Convolution"
  bottom: "pool2"
  top: "conv3_1"
  param {
    lr_mult: 1
    decay_mult: 1
  }
  param {
    lr_mult: 2
    decay_mult: 0
  }
  convolution_param {
    num_output: 256
    pad: 1
    kernel_size: 3
    stride: 1
  }
}
layer {
  name: "relu3_1"
  type: "ReLU"
  bottom: "conv3_1"
  top: "conv3_1"
}
layer {
  name: "conv3_2"
  type: "Convolution"
  bottom: "conv3_1"
  top: "conv3_2"
  param {
    lr_mult: 1
    decay_mult: 1
  }
  param {
    lr_mult: 2
    decay_mult: 0
  }
  convolution_param {
    num_output: 256
    pad: 1
    kernel_size: 3
    stride: 1
  }
}
layer {
  name: "relu3_2"
  type: "ReLU"
  bottom: "conv3_2"
  top: "conv3_2"
}
layer {
  name: "conv3_3"
  type: "Convolution"
  bottom: "conv3_2"
  top: "conv3_3"
  param {
    lr_mult: 1
    decay_mult: 1
  }
  param {
    lr_mult: 2
    decay_mult: 0
  }
  convolution_param {
    num_output: 256
    pad: 1
    kernel_size: 3
    stride: 1
  }
}
layer {
  name: "relu3_3"
  type: "ReLU"
  bottom: "conv3_3"
  top: "conv3_3"
}
layer {
  name: "pool3"
  type: "Pooling"
  bottom: "conv3_3"
  top: "pool3"
  pooling_param {
    pool: MAX
    kernel_size: 2
    stride: 2
  }
}
layer {
  name: "conv4_1"
  type: "Convolution"
  bottom: "pool3"
  top: "conv4_1"
  param {
    lr_mult: 1
    decay_mult: 1
  }
  param {
    lr_mult: 2
    decay_mult: 0
  }
  convolution_param {
    num_output: 512
    pad: 1
    kernel_size: 3
    stride: 1
  }
}
layer {
  name: "relu4_1"
  type: "ReLU"
  bottom: "conv4_1"
  top: "conv4_1"
}
layer {
  name: "conv4_2"
  type: "Convolution"
  bottom: "conv4_1"
  top: "conv4_2"
  param {
    lr_mult: 1
    decay_mult: 1
  }
  param {
    lr_mult: 2
    decay_mult: 0
  }
  convolution_param {
    num_output: 512
    pad: 1
    kernel_size: 3
    stride: 1
  }
}
layer {
  name: "relu4_2"
  type: "ReLU"
  bottom: "conv4_2"
  top: "conv4_2"
}
layer {
  name: "conv4_3"
  type: "Convolution"
  bottom: "conv4_2"
  top: "conv4_3"
  param {
    lr_mult: 1
    decay_mult: 1
  }
  param {
    lr_mult: 2
    decay_mult: 0
  }
  convolution_param {
    num_output: 512
    pad: 1
    kernel_size: 3
    stride: 1
  }
}
layer {
  name: "relu4_3"
  type: "ReLU"
  bottom: "conv4_3"
  top: "conv4_3"
}
layer {
  name: "pool4"
  type: "Pooling"
  bottom: "conv4_3"
  top: "pool4"
  pooling_param {
    pool: MAX
    kernel_size: 2
    stride: 2
  }
}
layer {
  name: "conv5_1"
  type: "Convolution"
  bottom: "pool4"
  top: "conv5_1"
  param {
    lr_mult: 1
    decay_mult: 1
  }
  param {
    lr_mult: 2
    decay_mult: 0
  }
  convolution_param {
    num_output: 512
    pad: 1
    kernel_size: 3
    stride: 1
  }
}
layer {
  name: "relu5_1"
  type: "ReLU"
  bottom: "conv5_1"
  top: "conv5_1"
}
layer {
  name: "conv5_2"
  type: "Convolution"
  bottom: "conv5_1"
  top: "conv5_2"
  param {
    lr_mult: 1
    decay_mult: 1
  }
  param {
    lr_mult: 2
    decay_mult: 0
  }
  convolution_param {
    num_output: 512
    pad: 1
    kernel_size: 3
    stride: 1
  }
}
layer {
  name: "relu5_2"
  type: "ReLU"
  bottom: "conv5_2"
  top: "conv5_2"
}
layer {
  name: "conv5_3"
  type: "Convolution"
  bottom: "conv5_2"
  top: "conv5_3"
  param {
    lr_mult: 1
    decay_mult: 1
  }
  param {
    lr_mult: 2
    decay_mult: 0
  }
  convolution_param {
    num_output: 512
    pad: 1
    kernel_size: 3
    stride: 1
  }
}
layer {
  name: "relu5_3"
  type: "ReLU"
  bottom: "conv5_3"
  top: "conv5_3"
}
layer {
  name: "pool5"
  type: "Pooling"
  bottom: "conv5_3"
  top: "pool5"
  pooling_param {
    pool: MAX
    kernel_size: 2
    stride: 2
  }
}
layer {
  name: "fc6"
  type: "Convolution"
  bottom: "pool5"
  top: "fc6"
  param {
    lr_mult: 1
    decay_mult: 1
  }
  param {
    lr_mult: 2
    decay_mult: 0
  }
  convolution_param {
    num_output: 4096
    pad: 0
    kernel_size: 7
    stride: 1
    weight_filler {
      type: "gaussian"
      std: 0.005
    }
    bias_filler {
      type: "constant"
      value: 1
    }
  }
}
layer {
  name: "relu6"
  type: "ReLU"
  bottom: "fc6"
  top: "fc6"
}
layer {
  name: "drop6"
  type: "Dropout"
  bottom: "fc6"
  top: "fc6"
  dropout_param {
    dropout_ratio: 0.5
  }
}
layer {
  name: "fc7"
  type: "Convolution"
  bottom: "fc6"
  top: "fc7"
  param {
    lr_mult: 1
    decay_mult: 1
  }
  param {
    lr_mult: 2
    decay_mult: 0
  }
  convolution_param {
    num_output: 4096
    pad: 0
    kernel_size: 1
    stride: 1
    weight_filler {
      type: "gaussian"
      std: 0.005
    }
    bias_filler {
      type: "constant"
      value: 1
    }
  }
}
layer {
  name: "relu7"
  type: "ReLU"
  bottom: "fc7"
  top: "fc7"
}
layer {
  name: "drop7"
  type: "Dropout"
  bottom: "fc7"
  top: "fc7"
  dropout_param {
    dropout_ratio: 0.5
  }
}
layer {
  name: "score_fr-camvid"
  type: "Convolution"
  bottom: "fc7"
  top: "score_fr"
  param {
    lr_mult: 1
    decay_mult: 1
  }
  param {
    lr_mult: 2
    decay_mult: 0
  }
  convolution_param {
    num_output: 12
    pad: 0
    kernel_size: 1
    weight_filler {
      type: "gaussian"
      std: 0.005
    }
    bias_filler {
      type: "constant"
      value: 1
    }
  }
}
layer {
  name: "upscore-camvid"
  type: "Deconvolution"
  bottom: "score_fr"
  top: "upscore"
  param {
    lr_mult: 0
  }
  convolution_param {
    num_output: 12
    bias_term: false
    kernel_size: 64
    stride: 32
  }
}
layer {
  name: "score"
  type: "Crop"
  bottom: "upscore"
  bottom: "data"
  top: "score"
  crop_param {
    axis: 2
    offset: 19
  }
}
layer {
  name: "loss"
  type: "SoftmaxWithLoss"
  bottom: "score"
  bottom: "label"
  top: "loss"
  loss_param {
    ignore_label: 255
    normalize: false
  }
}
I0418 16:19:47.910742 14721 layer_factory.hpp:77] Creating layer data
I0418 16:19:47.911080 14721 net.cpp:91] Creating Layer data
I0418 16:19:47.911089 14721 net.cpp:399] data -> data
I0418 16:19:47.913501 14741 db_lmdb.cpp:38] Opened lmdb /home/shared/datasets/CamVid/LMDB-v2/train_lmdb
I0418 16:19:48.081778 14721 data_layer.cpp:41] output data size: 1,3,360,480
I0418 16:19:48.087321 14721 net.cpp:141] Setting up data
I0418 16:19:48.087337 14721 net.cpp:148] Top shape: 1 3 360 480 (518400)
I0418 16:19:48.087340 14721 net.cpp:156] Memory required for data: 2073600
I0418 16:19:48.087347 14721 layer_factory.hpp:77] Creating layer data_data_0_split
I0418 16:19:48.087359 14721 net.cpp:91] Creating Layer data_data_0_split
I0418 16:19:48.087363 14721 net.cpp:425] data_data_0_split <- data
I0418 16:19:48.087368 14721 net.cpp:399] data_data_0_split -> data_data_0_split_0
I0418 16:19:48.087374 14721 net.cpp:399] data_data_0_split -> data_data_0_split_1
I0418 16:19:48.087416 14721 net.cpp:141] Setting up data_data_0_split
I0418 16:19:48.087424 14721 net.cpp:148] Top shape: 1 3 360 480 (518400)
I0418 16:19:48.087427 14721 net.cpp:148] Top shape: 1 3 360 480 (518400)
I0418 16:19:48.087430 14721 net.cpp:156] Memory required for data: 6220800
I0418 16:19:48.087432 14721 layer_factory.hpp:77] Creating layer label
I0418 16:19:48.087468 14721 net.cpp:91] Creating Layer label
I0418 16:19:48.087476 14721 net.cpp:399] label -> label
I0418 16:19:48.090219 14743 db_lmdb.cpp:38] Opened lmdb /home/shared/datasets/CamVid/LMDB-v2/train_gt_lmdb
I0418 16:19:48.090713 14721 data_layer.cpp:41] output data size: 1,1,360,480
I0418 16:19:48.092500 14721 net.cpp:141] Setting up label
I0418 16:19:48.092514 14721 net.cpp:148] Top shape: 1 1 360 480 (172800)
I0418 16:19:48.092516 14721 net.cpp:156] Memory required for data: 6912000
I0418 16:19:48.092520 14721 layer_factory.hpp:77] Creating layer conv1_1
I0418 16:19:48.092530 14721 net.cpp:91] Creating Layer conv1_1
I0418 16:19:48.092532 14721 net.cpp:425] conv1_1 <- data_data_0_split_0
I0418 16:19:48.092537 14721 net.cpp:399] conv1_1 -> conv1_1
I0418 16:19:48.564488 14721 net.cpp:141] Setting up conv1_1
I0418 16:19:48.564515 14721 net.cpp:148] Top shape: 1 64 558 678 (24212736)
I0418 16:19:48.564518 14721 net.cpp:156] Memory required for data: 103762944
I0418 16:19:48.564532 14721 layer_factory.hpp:77] Creating layer relu1_1
I0418 16:19:48.564543 14721 net.cpp:91] Creating Layer relu1_1
I0418 16:19:48.564546 14721 net.cpp:425] relu1_1 <- conv1_1
I0418 16:19:48.564551 14721 net.cpp:386] relu1_1 -> conv1_1 (in-place)
I0418 16:19:48.564828 14721 net.cpp:141] Setting up relu1_1
I0418 16:19:48.564841 14721 net.cpp:148] Top shape: 1 64 558 678 (24212736)
I0418 16:19:48.564843 14721 net.cpp:156] Memory required for data: 200613888
I0418 16:19:48.564846 14721 layer_factory.hpp:77] Creating layer conv1_2
I0418 16:19:48.564856 14721 net.cpp:91] Creating Layer conv1_2
I0418 16:19:48.564858 14721 net.cpp:425] conv1_2 <- conv1_1
I0418 16:19:48.564862 14721 net.cpp:399] conv1_2 -> conv1_2
I0418 16:19:48.568992 14721 net.cpp:141] Setting up conv1_2
I0418 16:19:48.569006 14721 net.cpp:148] Top shape: 1 64 558 678 (24212736)
I0418 16:19:48.569010 14721 net.cpp:156] Memory required for data: 297464832
I0418 16:19:48.569017 14721 layer_factory.hpp:77] Creating layer relu1_2
I0418 16:19:48.569023 14721 net.cpp:91] Creating Layer relu1_2
I0418 16:19:48.569026 14721 net.cpp:425] relu1_2 <- conv1_2
I0418 16:19:48.569031 14721 net.cpp:386] relu1_2 -> conv1_2 (in-place)
I0418 16:19:48.569411 14721 net.cpp:141] Setting up relu1_2
I0418 16:19:48.569422 14721 net.cpp:148] Top shape: 1 64 558 678 (24212736)
I0418 16:19:48.569425 14721 net.cpp:156] Memory required for data: 394315776
I0418 16:19:48.569428 14721 layer_factory.hpp:77] Creating layer pool1
I0418 16:19:48.569439 14721 net.cpp:91] Creating Layer pool1
I0418 16:19:48.569442 14721 net.cpp:425] pool1 <- conv1_2
I0418 16:19:48.569447 14721 net.cpp:399] pool1 -> pool1
I0418 16:19:48.569480 14721 net.cpp:141] Setting up pool1
I0418 16:19:48.569488 14721 net.cpp:148] Top shape: 1 64 279 339 (6053184)
I0418 16:19:48.569490 14721 net.cpp:156] Memory required for data: 418528512
I0418 16:19:48.569492 14721 layer_factory.hpp:77] Creating layer conv2_1
I0418 16:19:48.569499 14721 net.cpp:91] Creating Layer conv2_1
I0418 16:19:48.569502 14721 net.cpp:425] conv2_1 <- pool1
I0418 16:19:48.569506 14721 net.cpp:399] conv2_1 -> conv2_1
I0418 16:19:48.573391 14721 net.cpp:141] Setting up conv2_1
I0418 16:19:48.573405 14721 net.cpp:148] Top shape: 1 128 279 339 (12106368)
I0418 16:19:48.573407 14721 net.cpp:156] Memory required for data: 466953984
I0418 16:19:48.573415 14721 layer_factory.hpp:77] Creating layer relu2_1
I0418 16:19:48.573421 14721 net.cpp:91] Creating Layer relu2_1
I0418 16:19:48.573423 14721 net.cpp:425] relu2_1 <- conv2_1
I0418 16:19:48.573428 14721 net.cpp:386] relu2_1 -> conv2_1 (in-place)
I0418 16:19:48.573566 14721 net.cpp:141] Setting up relu2_1
I0418 16:19:48.573575 14721 net.cpp:148] Top shape: 1 128 279 339 (12106368)
I0418 16:19:48.573578 14721 net.cpp:156] Memory required for data: 515379456
I0418 16:19:48.573581 14721 layer_factory.hpp:77] Creating layer conv2_2
I0418 16:19:48.573588 14721 net.cpp:91] Creating Layer conv2_2
I0418 16:19:48.573591 14721 net.cpp:425] conv2_2 <- conv2_1
I0418 16:19:48.573596 14721 net.cpp:399] conv2_2 -> conv2_2
I0418 16:19:48.576953 14721 net.cpp:141] Setting up conv2_2
I0418 16:19:48.576967 14721 net.cpp:148] Top shape: 1 128 279 339 (12106368)
I0418 16:19:48.576969 14721 net.cpp:156] Memory required for data: 563804928
I0418 16:19:48.576975 14721 layer_factory.hpp:77] Creating layer relu2_2
I0418 16:19:48.576982 14721 net.cpp:91] Creating Layer relu2_2
I0418 16:19:48.576985 14721 net.cpp:425] relu2_2 <- conv2_2
I0418 16:19:48.576989 14721 net.cpp:386] relu2_2 -> conv2_2 (in-place)
I0418 16:19:48.577678 14721 net.cpp:141] Setting up relu2_2
I0418 16:19:48.577690 14721 net.cpp:148] Top shape: 1 128 279 339 (12106368)
I0418 16:19:48.577693 14721 net.cpp:156] Memory required for data: 612230400
I0418 16:19:48.577697 14721 layer_factory.hpp:77] Creating layer pool2
I0418 16:19:48.577702 14721 net.cpp:91] Creating Layer pool2
I0418 16:19:48.577705 14721 net.cpp:425] pool2 <- conv2_2
I0418 16:19:48.577710 14721 net.cpp:399] pool2 -> pool2
I0418 16:19:48.577745 14721 net.cpp:141] Setting up pool2
I0418 16:19:48.577750 14721 net.cpp:148] Top shape: 1 128 140 170 (3046400)
I0418 16:19:48.577754 14721 net.cpp:156] Memory required for data: 624416000
I0418 16:19:48.577755 14721 layer_factory.hpp:77] Creating layer conv3_1
I0418 16:19:48.577764 14721 net.cpp:91] Creating Layer conv3_1
I0418 16:19:48.577766 14721 net.cpp:425] conv3_1 <- pool2
I0418 16:19:48.577771 14721 net.cpp:399] conv3_1 -> conv3_1
I0418 16:19:48.581763 14721 net.cpp:141] Setting up conv3_1
I0418 16:19:48.581776 14721 net.cpp:148] Top shape: 1 256 140 170 (6092800)
I0418 16:19:48.581779 14721 net.cpp:156] Memory required for data: 648787200
I0418 16:19:48.581787 14721 layer_factory.hpp:77] Creating layer relu3_1
I0418 16:19:48.581794 14721 net.cpp:91] Creating Layer relu3_1
I0418 16:19:48.581797 14721 net.cpp:425] relu3_1 <- conv3_1
I0418 16:19:48.581801 14721 net.cpp:386] relu3_1 -> conv3_1 (in-place)
I0418 16:19:48.582867 14721 net.cpp:141] Setting up relu3_1
I0418 16:19:48.582878 14721 net.cpp:148] Top shape: 1 256 140 170 (6092800)
I0418 16:19:48.582881 14721 net.cpp:156] Memory required for data: 673158400
I0418 16:19:48.582885 14721 layer_factory.hpp:77] Creating layer conv3_2
I0418 16:19:48.582892 14721 net.cpp:91] Creating Layer conv3_2
I0418 16:19:48.582895 14721 net.cpp:425] conv3_2 <- conv3_1
I0418 16:19:48.582901 14721 net.cpp:399] conv3_2 -> conv3_2
I0418 16:19:48.588676 14721 net.cpp:141] Setting up conv3_2
I0418 16:19:48.588690 14721 net.cpp:148] Top shape: 1 256 140 170 (6092800)
I0418 16:19:48.588695 14721 net.cpp:156] Memory required for data: 697529600
I0418 16:19:48.588699 14721 layer_factory.hpp:77] Creating layer relu3_2
I0418 16:19:48.588706 14721 net.cpp:91] Creating Layer relu3_2
I0418 16:19:48.588709 14721 net.cpp:425] relu3_2 <- conv3_2
I0418 16:19:48.588713 14721 net.cpp:386] relu3_2 -> conv3_2 (in-place)
I0418 16:19:48.589766 14721 net.cpp:141] Setting up relu3_2
I0418 16:19:48.589776 14721 net.cpp:148] Top shape: 1 256 140 170 (6092800)
I0418 16:19:48.589778 14721 net.cpp:156] Memory required for data: 721900800
I0418 16:19:48.589781 14721 layer_factory.hpp:77] Creating layer conv3_3
I0418 16:19:48.589788 14721 net.cpp:91] Creating Layer conv3_3
I0418 16:19:48.589792 14721 net.cpp:425] conv3_3 <- conv3_2
I0418 16:19:48.589797 14721 net.cpp:399] conv3_3 -> conv3_3
I0418 16:19:48.594130 14721 net.cpp:141] Setting up conv3_3
I0418 16:19:48.594143 14721 net.cpp:148] Top shape: 1 256 140 170 (6092800)
I0418 16:19:48.594147 14721 net.cpp:156] Memory required for data: 746272000
I0418 16:19:48.594153 14721 layer_factory.hpp:77] Creating layer relu3_3
I0418 16:19:48.594159 14721 net.cpp:91] Creating Layer relu3_3
I0418 16:19:48.594162 14721 net.cpp:425] relu3_3 <- conv3_3
I0418 16:19:48.594166 14721 net.cpp:386] relu3_3 -> conv3_3 (in-place)
I0418 16:19:48.595432 14721 net.cpp:141] Setting up relu3_3
I0418 16:19:48.595443 14721 net.cpp:148] Top shape: 1 256 140 170 (6092800)
I0418 16:19:48.595446 14721 net.cpp:156] Memory required for data: 770643200
I0418 16:19:48.595449 14721 layer_factory.hpp:77] Creating layer pool3
I0418 16:19:48.595454 14721 net.cpp:91] Creating Layer pool3
I0418 16:19:48.595458 14721 net.cpp:425] pool3 <- conv3_3
I0418 16:19:48.595463 14721 net.cpp:399] pool3 -> pool3
I0418 16:19:48.595501 14721 net.cpp:141] Setting up pool3
I0418 16:19:48.595506 14721 net.cpp:148] Top shape: 1 256 70 85 (1523200)
I0418 16:19:48.595509 14721 net.cpp:156] Memory required for data: 776736000
I0418 16:19:48.595511 14721 layer_factory.hpp:77] Creating layer conv4_1
I0418 16:19:48.595518 14721 net.cpp:91] Creating Layer conv4_1
I0418 16:19:48.595521 14721 net.cpp:425] conv4_1 <- pool3
I0418 16:19:48.595526 14721 net.cpp:399] conv4_1 -> conv4_1
I0418 16:19:48.600055 14721 net.cpp:141] Setting up conv4_1
I0418 16:19:48.600069 14721 net.cpp:148] Top shape: 1 512 70 85 (3046400)
I0418 16:19:48.600072 14721 net.cpp:156] Memory required for data: 788921600
I0418 16:19:48.600080 14721 layer_factory.hpp:77] Creating layer relu4_1
I0418 16:19:48.600085 14721 net.cpp:91] Creating Layer relu4_1
I0418 16:19:48.600088 14721 net.cpp:425] relu4_1 <- conv4_1
I0418 16:19:48.600093 14721 net.cpp:386] relu4_1 -> conv4_1 (in-place)
I0418 16:19:48.600756 14721 net.cpp:141] Setting up relu4_1
I0418 16:19:48.600769 14721 net.cpp:148] Top shape: 1 512 70 85 (3046400)
I0418 16:19:48.600770 14721 net.cpp:156] Memory required for data: 801107200
I0418 16:19:48.600775 14721 layer_factory.hpp:77] Creating layer conv4_2
I0418 16:19:48.600781 14721 net.cpp:91] Creating Layer conv4_2
I0418 16:19:48.600785 14721 net.cpp:425] conv4_2 <- conv4_1
I0418 16:19:48.600790 14721 net.cpp:399] conv4_2 -> conv4_2
I0418 16:19:48.606254 14721 net.cpp:141] Setting up conv4_2
I0418 16:19:48.606268 14721 net.cpp:148] Top shape: 1 512 70 85 (3046400)
I0418 16:19:48.606271 14721 net.cpp:156] Memory required for data: 813292800
I0418 16:19:48.606281 14721 layer_factory.hpp:77] Creating layer relu4_2
I0418 16:19:48.606287 14721 net.cpp:91] Creating Layer relu4_2
I0418 16:19:48.606290 14721 net.cpp:425] relu4_2 <- conv4_2
I0418 16:19:48.606294 14721 net.cpp:386] relu4_2 -> conv4_2 (in-place)
I0418 16:19:48.607800 14721 net.cpp:141] Setting up relu4_2
I0418 16:19:48.607808 14721 net.cpp:148] Top shape: 1 512 70 85 (3046400)
I0418 16:19:48.607811 14721 net.cpp:156] Memory required for data: 825478400
I0418 16:19:48.607815 14721 layer_factory.hpp:77] Creating layer conv4_3
I0418 16:19:48.607821 14721 net.cpp:91] Creating Layer conv4_3
I0418 16:19:48.607825 14721 net.cpp:425] conv4_3 <- conv4_2
I0418 16:19:48.607828 14721 net.cpp:399] conv4_3 -> conv4_3
I0418 16:19:48.613209 14721 net.cpp:141] Setting up conv4_3
I0418 16:19:48.613225 14721 net.cpp:148] Top shape: 1 512 70 85 (3046400)
I0418 16:19:48.613229 14721 net.cpp:156] Memory required for data: 837664000
I0418 16:19:48.613234 14721 layer_factory.hpp:77] Creating layer relu4_3
I0418 16:19:48.613240 14721 net.cpp:91] Creating Layer relu4_3
I0418 16:19:48.613245 14721 net.cpp:425] relu4_3 <- conv4_3
I0418 16:19:48.613248 14721 net.cpp:386] relu4_3 -> conv4_3 (in-place)
I0418 16:19:48.614569 14721 net.cpp:141] Setting up relu4_3
I0418 16:19:48.614580 14721 net.cpp:148] Top shape: 1 512 70 85 (3046400)
I0418 16:19:48.614583 14721 net.cpp:156] Memory required for data: 849849600
I0418 16:19:48.614588 14721 layer_factory.hpp:77] Creating layer pool4
I0418 16:19:48.614594 14721 net.cpp:91] Creating Layer pool4
I0418 16:19:48.614598 14721 net.cpp:425] pool4 <- conv4_3
I0418 16:19:48.614603 14721 net.cpp:399] pool4 -> pool4
I0418 16:19:48.614642 14721 net.cpp:141] Setting up pool4
I0418 16:19:48.614650 14721 net.cpp:148] Top shape: 1 512 35 43 (770560)
I0418 16:19:48.614652 14721 net.cpp:156] Memory required for data: 852931840
I0418 16:19:48.614655 14721 layer_factory.hpp:77] Creating layer conv5_1
I0418 16:19:48.614661 14721 net.cpp:91] Creating Layer conv5_1
I0418 16:19:48.614665 14721 net.cpp:425] conv5_1 <- pool4
I0418 16:19:48.614670 14721 net.cpp:399] conv5_1 -> conv5_1
I0418 16:19:48.620270 14721 net.cpp:141] Setting up conv5_1
I0418 16:19:48.620285 14721 net.cpp:148] Top shape: 1 512 35 43 (770560)
I0418 16:19:48.620288 14721 net.cpp:156] Memory required for data: 856014080
I0418 16:19:48.620293 14721 layer_factory.hpp:77] Creating layer relu5_1
I0418 16:19:48.620299 14721 net.cpp:91] Creating Layer relu5_1
I0418 16:19:48.620302 14721 net.cpp:425] relu5_1 <- conv5_1
I0418 16:19:48.620306 14721 net.cpp:386] relu5_1 -> conv5_1 (in-place)
I0418 16:19:48.622808 14721 net.cpp:141] Setting up relu5_1
I0418 16:19:48.622820 14721 net.cpp:148] Top shape: 1 512 35 43 (770560)
I0418 16:19:48.622823 14721 net.cpp:156] Memory required for data: 859096320
I0418 16:19:48.622827 14721 layer_factory.hpp:77] Creating layer conv5_2
I0418 16:19:48.622834 14721 net.cpp:91] Creating Layer conv5_2
I0418 16:19:48.622838 14721 net.cpp:425] conv5_2 <- conv5_1
I0418 16:19:48.622843 14721 net.cpp:399] conv5_2 -> conv5_2
I0418 16:19:48.627998 14721 net.cpp:141] Setting up conv5_2
I0418 16:19:48.628013 14721 net.cpp:148] Top shape: 1 512 35 43 (770560)
I0418 16:19:48.628016 14721 net.cpp:156] Memory required for data: 862178560
I0418 16:19:48.628022 14721 layer_factory.hpp:77] Creating layer relu5_2
I0418 16:19:48.628028 14721 net.cpp:91] Creating Layer relu5_2
I0418 16:19:48.628032 14721 net.cpp:425] relu5_2 <- conv5_2
I0418 16:19:48.628037 14721 net.cpp:386] relu5_2 -> conv5_2 (in-place)
I0418 16:19:48.629254 14721 net.cpp:141] Setting up relu5_2
I0418 16:19:48.629263 14721 net.cpp:148] Top shape: 1 512 35 43 (770560)
I0418 16:19:48.629266 14721 net.cpp:156] Memory required for data: 865260800
I0418 16:19:48.629268 14721 layer_factory.hpp:77] Creating layer conv5_3
I0418 16:19:48.629277 14721 net.cpp:91] Creating Layer conv5_3
I0418 16:19:48.629281 14721 net.cpp:425] conv5_3 <- conv5_2
I0418 16:19:48.629284 14721 net.cpp:399] conv5_3 -> conv5_3
I0418 16:19:48.636138 14721 net.cpp:141] Setting up conv5_3
I0418 16:19:48.636152 14721 net.cpp:148] Top shape: 1 512 35 43 (770560)
I0418 16:19:48.636155 14721 net.cpp:156] Memory required for data: 868343040
I0418 16:19:48.636162 14721 layer_factory.hpp:77] Creating layer relu5_3
I0418 16:19:48.636170 14721 net.cpp:91] Creating Layer relu5_3
I0418 16:19:48.636174 14721 net.cpp:425] relu5_3 <- conv5_3
I0418 16:19:48.636179 14721 net.cpp:386] relu5_3 -> conv5_3 (in-place)
I0418 16:19:48.643970 14721 net.cpp:141] Setting up relu5_3
I0418 16:19:48.643982 14721 net.cpp:148] Top shape: 1 512 35 43 (770560)
I0418 16:19:48.643985 14721 net.cpp:156] Memory required for data: 871425280
I0418 16:19:48.643988 14721 layer_factory.hpp:77] Creating layer pool5
I0418 16:19:48.643996 14721 net.cpp:91] Creating Layer pool5
I0418 16:19:48.643998 14721 net.cpp:425] pool5 <- conv5_3
I0418 16:19:48.644003 14721 net.cpp:399] pool5 -> pool5
I0418 16:19:48.644043 14721 net.cpp:141] Setting up pool5
I0418 16:19:48.644048 14721 net.cpp:148] Top shape: 1 512 18 22 (202752)
I0418 16:19:48.644052 14721 net.cpp:156] Memory required for data: 872236288
I0418 16:19:48.644054 14721 layer_factory.hpp:77] Creating layer fc6
I0418 16:19:48.644062 14721 net.cpp:91] Creating Layer fc6
I0418 16:19:48.644065 14721 net.cpp:425] fc6 <- pool5
I0418 16:19:48.644070 14721 net.cpp:399] fc6 -> fc6
I0418 16:19:51.271098 14721 net.cpp:141] Setting up fc6
I0418 16:19:51.271124 14721 net.cpp:148] Top shape: 1 4096 12 16 (786432)
I0418 16:19:51.271128 14721 net.cpp:156] Memory required for data: 875382016
I0418 16:19:51.271136 14721 layer_factory.hpp:77] Creating layer relu6
I0418 16:19:51.271145 14721 net.cpp:91] Creating Layer relu6
I0418 16:19:51.271149 14721 net.cpp:425] relu6 <- fc6
I0418 16:19:51.271157 14721 net.cpp:386] relu6 -> fc6 (in-place)
I0418 16:19:51.413301 14721 net.cpp:141] Setting up relu6
I0418 16:19:51.413314 14721 net.cpp:148] Top shape: 1 4096 12 16 (786432)
I0418 16:19:51.413317 14721 net.cpp:156] Memory required for data: 878527744
I0418 16:19:51.413321 14721 layer_factory.hpp:77] Creating layer drop6
I0418 16:19:51.413326 14721 net.cpp:91] Creating Layer drop6
I0418 16:19:51.413329 14721 net.cpp:425] drop6 <- fc6
I0418 16:19:51.413334 14721 net.cpp:386] drop6 -> fc6 (in-place)
I0418 16:19:51.413367 14721 net.cpp:141] Setting up drop6
I0418 16:19:51.413373 14721 net.cpp:148] Top shape: 1 4096 12 16 (786432)
I0418 16:19:51.413375 14721 net.cpp:156] Memory required for data: 881673472
I0418 16:19:51.413378 14721 layer_factory.hpp:77] Creating layer fc7
I0418 16:19:51.413389 14721 net.cpp:91] Creating Layer fc7
I0418 16:19:51.413391 14721 net.cpp:425] fc7 <- fc6
I0418 16:19:51.413396 14721 net.cpp:399] fc7 -> fc7
I0418 16:19:51.817199 14721 net.cpp:141] Setting up fc7
I0418 16:19:51.817229 14721 net.cpp:148] Top shape: 1 4096 12 16 (786432)
I0418 16:19:51.817231 14721 net.cpp:156] Memory required for data: 884819200
I0418 16:19:51.817240 14721 layer_factory.hpp:77] Creating layer relu7
I0418 16:19:51.817251 14721 net.cpp:91] Creating Layer relu7
I0418 16:19:51.817255 14721 net.cpp:425] relu7 <- fc7
I0418 16:19:51.817261 14721 net.cpp:386] relu7 -> fc7 (in-place)
I0418 16:19:51.994689 14721 net.cpp:141] Setting up relu7
I0418 16:19:51.994700 14721 net.cpp:148] Top shape: 1 4096 12 16 (786432)
I0418 16:19:51.994704 14721 net.cpp:156] Memory required for data: 887964928
I0418 16:19:51.994706 14721 layer_factory.hpp:77] Creating layer drop7
I0418 16:19:51.994712 14721 net.cpp:91] Creating Layer drop7
I0418 16:19:51.994715 14721 net.cpp:425] drop7 <- fc7
I0418 16:19:51.994719 14721 net.cpp:386] drop7 -> fc7 (in-place)
I0418 16:19:51.994747 14721 net.cpp:141] Setting up drop7
I0418 16:19:51.994752 14721 net.cpp:148] Top shape: 1 4096 12 16 (786432)
I0418 16:19:51.994756 14721 net.cpp:156] Memory required for data: 891110656
I0418 16:19:51.994760 14721 layer_factory.hpp:77] Creating layer score_fr-camvid
I0418 16:19:51.994767 14721 net.cpp:91] Creating Layer score_fr-camvid
I0418 16:19:51.994770 14721 net.cpp:425] score_fr-camvid <- fc7
I0418 16:19:51.994776 14721 net.cpp:399] score_fr-camvid -> score_fr
I0418 16:19:52.140178 14721 net.cpp:141] Setting up score_fr-camvid
I0418 16:19:52.140192 14721 net.cpp:148] Top shape: 1 12 12 16 (2304)
I0418 16:19:52.140194 14721 net.cpp:156] Memory required for data: 891119872
I0418 16:19:52.140200 14721 layer_factory.hpp:77] Creating layer upscore-camvid
I0418 16:19:52.140208 14721 net.cpp:91] Creating Layer upscore-camvid
I0418 16:19:52.140211 14721 net.cpp:425] upscore-camvid <- score_fr
I0418 16:19:52.140216 14721 net.cpp:399] upscore-camvid -> upscore
I0418 16:19:52.141199 14721 net.cpp:141] Setting up upscore-camvid
I0418 16:19:52.141211 14721 net.cpp:148] Top shape: 1 12 416 544 (2715648)
I0418 16:19:52.141214 14721 net.cpp:156] Memory required for data: 901982464
I0418 16:19:52.141224 14721 layer_factory.hpp:77] Creating layer score
I0418 16:19:52.141230 14721 net.cpp:91] Creating Layer score
I0418 16:19:52.141233 14721 net.cpp:425] score <- upscore
I0418 16:19:52.141237 14721 net.cpp:425] score <- data_data_0_split_1
I0418 16:19:52.141242 14721 net.cpp:399] score -> score
I0418 16:19:52.141265 14721 net.cpp:141] Setting up score
I0418 16:19:52.141269 14721 net.cpp:148] Top shape: 1 12 360 480 (2073600)
I0418 16:19:52.141273 14721 net.cpp:156] Memory required for data: 910276864
I0418 16:19:52.141274 14721 layer_factory.hpp:77] Creating layer loss
I0418 16:19:52.141281 14721 net.cpp:91] Creating Layer loss
I0418 16:19:52.141284 14721 net.cpp:425] loss <- score
I0418 16:19:52.141288 14721 net.cpp:425] loss <- label
I0418 16:19:52.141290 14721 net.cpp:399] loss -> loss
I0418 16:19:52.141296 14721 layer_factory.hpp:77] Creating layer loss
…
I0418 16:19:52.144243 14721 net.cpp:274] Network initialization done.
I0418 16:19:52.144858 14721 solver.cpp:181] Creating test net (#0) specified by test_net file: val-3.prototxt
I0418 16:19:52.145058 14721 net.cpp:49] Initializing net from parameters: 
state {
  phase: TEST
}
layer {
  name: "data"
  type: "Python"
  top: "data"
  top: "label"
  python_param {
    module: "layers"
    layer: "VOCSegDataLayer"
    param_str: "{\'voc_dir\': \'/home/shared/datasets/VOCdevkit/VOC2012\', \'seed\': 1337, \'split\': \'seg11valid\', \'mean\': (104.00699, 116.66877, 122.67892)}"
  }
}
layer {
  name: "conv1_1"
  type: "Convolution"
  bottom: "data"
  top: "conv1_1"
  param {
    lr_mult: 1
    decay_mult: 1
  }
  param {
    lr_mult: 2
    decay_mult: 0
  }
  convolution_param {
    num_output: 64
    pad: 100
    kernel_size: 3
    stride: 1
  }
}
layer {
  name: "relu1_1"
  type: "ReLU"
  bottom: "conv1_1"
  top: "conv1_1"
}
layer {
  name: "conv1_2"
  type: "Convolution"
  bottom: "conv1_1"
  top: "conv1_2"
  param {
    lr_mult: 1
    decay_mult: 1
  }
  param {
    lr_mult: 2
    decay_mult: 0
  }
  convolution_param {
    num_output: 64
    pad: 1
    kernel_size: 3
    stride: 1
  }
}
layer {
  name: "relu1_2"
  type: "ReLU"
  bottom: "conv1_2"
  top: "conv1_2"
}
layer {
  name: "pool1"
  type: "Pooling"
  bottom: "conv1_2"
  top: "pool1"
  pooling_param {
    pool: MAX
    kernel_size: 2
    stride: 2
  }
}
layer {
  name: "conv2_1"
  type: "Convolution"
  bottom: "pool1"
  top: "conv2_1"
  param {
    lr_mult: 1
    decay_mult: 1
  }
  param {
    lr_mult: 2
    decay_mult: 0
  }
  convolution_param {
    num_output: 128
    pad: 1
    kernel_size: 3
    stride: 1
  }
}
layer {
  name: "relu2_1"
  type: "ReLU"
  bottom: "conv2_1"
  top: "conv2_1"
}
layer {
  name: "conv2_2"
  type: "Convolution"
  bottom: "conv2_1"
  top: "conv2_2"
  param {
    lr_mult: 1
    decay_mult: 1
  }
  param {
    lr_mult: 2
    decay_mult: 0
  }
  convolution_param {
    num_output: 128
    pad: 1
    kernel_size: 3
    stride: 1
  }
}
layer {
  name: "relu2_2"
  type: "ReLU"
  bottom: "conv2_2"
  top: "conv2_2"
}
layer {
  name: "pool2"
  type: "Pooling"
  bottom: "conv2_2"
  top: "pool2"
  pooling_param {
    pool: MAX
    kernel_size: 2
    stride: 2
  }
}
layer {
  name: "conv3_1"
  type: "Convolution"
  bottom: "pool2"
  top: "conv3_1"
  param {
    lr_mult: 1
    decay_mult: 1
  }
  param {
    lr_mult: 2
    decay_mult: 0
  }
  convolution_param {
    num_output: 256
    pad: 1
    kernel_size: 3
    stride: 1
  }
}
layer {
  name: "relu3_1"
  type: "ReLU"
  bottom: "conv3_1"
  top: "conv3_1"
}
layer {
  name: "conv3_2"
  type: "Convolution"
  bottom: "conv3_1"
  top: "conv3_2"
  param {
    lr_mult: 1
    decay_mult: 1
  }
  param {
    lr_mult: 2
    decay_mult: 0
  }
  convolution_param {
    num_output: 256
    pad: 1
    kernel_size: 3
    stride: 1
  }
}
layer {
  name: "relu3_2"
  type: "ReLU"
  bottom: "conv3_2"
  top: "conv3_2"
}
layer {
  name: "conv3_3"
  type: "Convolution"
  bottom: "conv3_2"
  top: "conv3_3"
  param {
    lr_mult: 1
    decay_mult: 1
  }
  param {
    lr_mult: 2
    decay_mult: 0
  }
  convolution_param {
    num_output: 256
    pad: 1
    kernel_size: 3
    stride: 1
  }
}
layer {
  name: "relu3_3"
  type: "ReLU"
  bottom: "conv3_3"
  top: "conv3_3"
}
layer {
  name: "pool3"
  type: "Pooling"
  bottom: "conv3_3"
  top: "pool3"
  pooling_param {
    pool: MAX
    kernel_size: 2
    stride: 2
  }
}
layer {
  name: "conv4_1"
  type: "Convolution"
  bottom: "pool3"
  top: "conv4_1"
  param {
    lr_mult: 1
    decay_mult: 1
  }
  param {
    lr_mult: 2
    decay_mult: 0
  }
  convolution_param {
    num_output: 512
    pad: 1
    kernel_size: 3
    stride: 1
  }
}
layer {
  name: "relu4_1"
  type: "ReLU"
  bottom: "conv4_1"
  top: "conv4_1"
}
layer {
  name: "conv4_2"
  type: "Convolution"
  bottom: "conv4_1"
  top: "conv4_2"
  param {
    lr_mult: 1
    decay_mult: 1
  }
  param {
    lr_mult: 2
    decay_mult: 0
  }
  convolution_param {
    num_output: 512
    pad: 1
    kernel_size: 3
    stride: 1
  }
}
layer {
  name: "relu4_2"
  type: "ReLU"
  bottom: "conv4_2"
  top: "conv4_2"
}
layer {
  name: "conv4_3"
  type: "Convolution"
  bottom: "conv4_2"
  top: "conv4_3"
  param {
    lr_mult: 1
    decay_mult: 1
  }
  param {
    lr_mult: 2
    decay_mult: 0
  }
  convolution_param {
    num_output: 512
    pad: 1
    kernel_size: 3
    stride: 1
  }
}
layer {
  name: "relu4_3"
  type: "ReLU"
  bottom: "conv4_3"
  top: "conv4_3"
}
layer {
  name: "pool4"
  type: "Pooling"
  bottom: "conv4_3"
  top: "pool4"
  pooling_param {
    pool: MAX
    kernel_size: 2
    stride: 2
  }
}
layer {
  name: "conv5_1"
  type: "Convolution"
  bottom: "pool4"
  top: "conv5_1"
  param {
    lr_mult: 1
    decay_mult: 1
  }
  param {
    lr_mult: 2
    decay_mult: 0
  }
  convolution_param {
    num_output: 512
    pad: 1
    kernel_size: 3
    stride: 1
  }
}
layer {
  name: "relu5_1"
  type: "ReLU"
  bottom: "conv5_1"
  top: "conv5_1"
}
layer {
  name: "conv5_2"
  type: "Convolution"
  bottom: "conv5_1"
  top: "conv5_2"
  param {
    lr_mult: 1
    decay_mult: 1
  }
  param {
    lr_mult: 2
    decay_mult: 0
  }
  convolution_param {
    num_output: 512
    pad: 1
    kernel_size: 3
    stride: 1
  }
}
layer {
  name: "relu5_2"
  type: "ReLU"
  bottom: "conv5_2"
  top: "conv5_2"
}
layer {
  name: "conv5_3"
  type: "Convolution"
  bottom: "conv5_2"
  top: "conv5_3"
  param {
    lr_mult: 1
    decay_mult: 1
  }
  param {
    lr_mult: 2
    decay_mult: 0
  }
  convolution_param {
    num_output: 512
    pad: 1
    kernel_size: 3
    stride: 1
  }
}
layer {
  name: "relu5_3"
  type: "ReLU"
  bottom: "conv5_3"
  top: "conv5_3"
}
layer {
  name: "pool5"
  type: "Pooling"
  bottom: "conv5_3"
  top: "pool5"
  pooling_param {
    pool: MAX
    kernel_size: 2
    stride: 2
  }
}
layer {
  name: "fc6"
  type: "Convolution"
  bottom: "pool5"
  top: "fc6"
  param {
    lr_mult: 1
    decay_mult: 1
  }
  param {
    lr_mult: 2
    decay_mult: 0
  }
  convolution_param {
    num_output: 4096
    pad: 0
    kernel_size: 7
    stride: 1
  }
}
layer {
  name: "relu6"
  type: "ReLU"
  bottom: "fc6"
  top: "fc6"
}
layer {
  name: "drop6"
  type: "Dropout"
  bottom: "fc6"
  top: "fc6"
  dropout_param {
    dropout_ratio: 0.5
  }
}
layer {
  name: "fc7"
  type: "Convolution"
  bottom: "fc6"
  top: "fc7"
  param {
    lr_mult: 1
    decay_mult: 1
  }
  param {
    lr_mult: 2
    decay_mult: 0
  }
  convolution_param {
    num_output: 4096
    pad: 0
    kernel_size: 1
    stride: 1
  }
}
layer {
  name: "relu7"
  type: "ReLU"
  bottom: "fc7"
  top: "fc7"
}
layer {
  name: "drop7"
  type: "Dropout"
  bottom: "fc7"
  top: "fc7"
  dropout_param {
    dropout_ratio: 0.5
  }
}
layer {
  name: "score_fr"
  type: "Convolution"
  bottom: "fc7"
  top: "score_fr"
  param {
    lr_mult: 1
    decay_mult: 1
  }
  param {
    lr_mult: 2
    decay_mult: 0
  }
  convolution_param {
    num_output: 21
    pad: 0
    kernel_size: 1
  }
}
layer {
  name: "upscore"
  type: "Deconvolution"
  bottom: "score_fr"
  top: "upscore"
  param {
    lr_mult: 0
  }
  convolution_param {
    num_output: 21
    bias_term: false
    kernel_size: 64
    stride: 32
  }
}
layer {
  name: "score"
  type: "Crop"
  bottom: "upscore"
  bottom: "data"
  top: "score"
  crop_param {
    axis: 2
    offset: 19
  }
}
layer {
  name: "loss"
  type: "SoftmaxWithLoss"
  bottom: "score"
  bottom: "label"
  top: "loss"
  loss_param {
    ignore_label: 255
    normalize: false
  }
}
I0418 16:19:52.145167 14721 layer_factory.hpp:77] Creating layer data
I0418 16:19:52.145357 14721 net.cpp:91] Creating Layer data
I0418 16:19:52.145366 14721 net.cpp:399] data -> data
I0418 16:19:52.145372 14721 net.cpp:399] data -> label
I0418 16:19:52.153018 14721 net.cpp:141] Setting up data
I0418 16:19:52.153033 14721 net.cpp:148] Top shape: 1 3 366 500 (549000)
I0418 16:19:52.153038 14721 net.cpp:148] Top shape: 1 1 366 500 (183000)
I0418 16:19:52.153040 14721 net.cpp:156] Memory required for data: 2928000
I0418 16:19:52.153043 14721 layer_factory.hpp:77] Creating layer data_data_0_split
I0418 16:19:52.153049 14721 net.cpp:91] Creating Layer data_data_0_split
I0418 16:19:52.153053 14721 net.cpp:425] data_data_0_split <- data
I0418 16:19:52.153058 14721 net.cpp:399] data_data_0_split -> data_data_0_split_0
I0418 16:19:52.153064 14721 net.cpp:399] data_data_0_split -> data_data_0_split_1
I0418 16:19:52.153096 14721 net.cpp:141] Setting up data_data_0_split
I0418 16:19:52.153101 14721 net.cpp:148] Top shape: 1 3 366 500 (549000)
I0418 16:19:52.153105 14721 net.cpp:148] Top shape: 1 3 366 500 (549000)
I0418 16:19:52.153107 14721 net.cpp:156] Memory required for data: 7320000
I0418 16:19:52.153110 14721 layer_factory.hpp:77] Creating layer conv1_1
I0418 16:19:52.153116 14721 net.cpp:91] Creating Layer conv1_1
I0418 16:19:52.153120 14721 net.cpp:425] conv1_1 <- data_data_0_split_0
I0418 16:19:52.153123 14721 net.cpp:399] conv1_1 -> conv1_1
I0418 16:19:52.155941 14721 net.cpp:141] Setting up conv1_1
I0418 16:19:52.155956 14721 net.cpp:148] Top shape: 1 64 564 698 (25195008)
I0418 16:19:52.155958 14721 net.cpp:156] Memory required for data: 108100032
I0418 16:19:52.155967 14721 layer_factory.hpp:77] Creating layer relu1_1
I0418 16:19:52.155972 14721 net.cpp:91] Creating Layer relu1_1
I0418 16:19:52.155975 14721 net.cpp:425] relu1_1 <- conv1_1
I0418 16:19:52.155979 14721 net.cpp:386] relu1_1 -> conv1_1 (in-place)
I0418 16:19:52.156314 14721 net.cpp:141] Setting up relu1_1
I0418 16:19:52.156325 14721 net.cpp:148] Top shape: 1 64 564 698 (25195008)
I0418 16:19:52.156328 14721 net.cpp:156] Memory required for data: 208880064
I0418 16:19:52.156332 14721 layer_factory.hpp:77] Creating layer conv1_2
I0418 16:19:52.156339 14721 net.cpp:91] Creating Layer conv1_2
I0418 16:19:52.156342 14721 net.cpp:425] conv1_2 <- conv1_1
I0418 16:19:52.156347 14721 net.cpp:399] conv1_2 -> conv1_2
I0418 16:19:52.160509 14721 net.cpp:141] Setting up conv1_2
I0418 16:19:52.160522 14721 net.cpp:148] Top shape: 1 64 564 698 (25195008)
I0418 16:19:52.160526 14721 net.cpp:156] Memory required for data: 309660096
I0418 16:19:52.160533 14721 layer_factory.hpp:77] Creating layer relu1_2
I0418 16:19:52.160538 14721 net.cpp:91] Creating Layer relu1_2
I0418 16:19:52.160542 14721 net.cpp:425] relu1_2 <- conv1_2
I0418 16:19:52.160545 14721 net.cpp:386] relu1_2 -> conv1_2 (in-place)
I0418 16:19:52.160892 14721 net.cpp:141] Setting up relu1_2
I0418 16:19:52.160902 14721 net.cpp:148] Top shape: 1 64 564 698 (25195008)
I0418 16:19:52.160903 14721 net.cpp:156] Memory required for data: 410440128
I0418 16:19:52.160907 14721 layer_factory.hpp:77] Creating layer pool1
I0418 16:19:52.160912 14721 net.cpp:91] Creating Layer pool1
I0418 16:19:52.160914 14721 net.cpp:425] pool1 <- conv1_2
I0418 16:19:52.160923 14721 net.cpp:399] pool1 -> pool1
I0418 16:19:52.160962 14721 net.cpp:141] Setting up pool1
I0418 16:19:52.160967 14721 net.cpp:148] Top shape: 1 64 282 349 (6298752)
I0418 16:19:52.160969 14721 net.cpp:156] Memory required for data: 435635136
I0418 16:19:52.160972 14721 layer_factory.hpp:77] Creating layer conv2_1
I0418 16:19:52.160977 14721 net.cpp:91] Creating Layer conv2_1
I0418 16:19:52.160980 14721 net.cpp:425] conv2_1 <- pool1
I0418 16:19:52.160984 14721 net.cpp:399] conv2_1 -> conv2_1
I0418 16:19:52.163205 14721 net.cpp:141] Setting up conv2_1
I0418 16:19:52.163218 14721 net.cpp:148] Top shape: 1 128 282 349 (12597504)
I0418 16:19:52.163223 14721 net.cpp:156] Memory required for data: 486025152
I0418 16:19:52.163229 14721 layer_factory.hpp:77] Creating layer relu2_1
I0418 16:19:52.163235 14721 net.cpp:91] Creating Layer relu2_1
I0418 16:19:52.163239 14721 net.cpp:425] relu2_1 <- conv2_1
I0418 16:19:52.163244 14721 net.cpp:386] relu2_1 -> conv2_1 (in-place)
I0418 16:19:52.163513 14721 net.cpp:141] Setting up relu2_1
I0418 16:19:52.163525 14721 net.cpp:148] Top shape: 1 128 282 349 (12597504)
I0418 16:19:52.163528 14721 net.cpp:156] Memory required for data: 536415168
I0418 16:19:52.163532 14721 layer_factory.hpp:77] Creating layer conv2_2
I0418 16:19:52.163538 14721 net.cpp:91] Creating Layer conv2_2
I0418 16:19:52.163542 14721 net.cpp:425] conv2_2 <- conv2_1
I0418 16:19:52.163545 14721 net.cpp:399] conv2_2 -> conv2_2
I0418 16:19:52.167395 14721 net.cpp:141] Setting up conv2_2
I0418 16:19:52.167408 14721 net.cpp:148] Top shape: 1 128 282 349 (12597504)
I0418 16:19:52.167412 14721 net.cpp:156] Memory required for data: 586805184
I0418 16:19:52.167418 14721 layer_factory.hpp:77] Creating layer relu2_2
I0418 16:19:52.167423 14721 net.cpp:91] Creating Layer relu2_2
I0418 16:19:52.167426 14721 net.cpp:425] relu2_2 <- conv2_2
I0418 16:19:52.167430 14721 net.cpp:386] relu2_2 -> conv2_2 (in-place)
I0418 16:19:52.168136 14721 net.cpp:141] Setting up relu2_2
I0418 16:19:52.168148 14721 net.cpp:148] Top shape: 1 128 282 349 (12597504)
I0418 16:19:52.168150 14721 net.cpp:156] Memory required for data: 637195200
I0418 16:19:52.168154 14721 layer_factory.hpp:77] Creating layer pool2
I0418 16:19:52.168159 14721 net.cpp:91] Creating Layer pool2
I0418 16:19:52.168164 14721 net.cpp:425] pool2 <- conv2_2
I0418 16:19:52.168167 14721 net.cpp:399] pool2 -> pool2
I0418 16:19:52.168207 14721 net.cpp:141] Setting up pool2
I0418 16:19:52.168212 14721 net.cpp:148] Top shape: 1 128 141 175 (3158400)
I0418 16:19:52.168215 14721 net.cpp:156] Memory required for data: 649828800
I0418 16:19:52.168218 14721 layer_factory.hpp:77] Creating layer conv3_1
I0418 16:19:52.168223 14721 net.cpp:91] Creating Layer conv3_1
I0418 16:19:52.168226 14721 net.cpp:425] conv3_1 <- pool2
I0418 16:19:52.168231 14721 net.cpp:399] conv3_1 -> conv3_1
I0418 16:19:52.173017 14721 net.cpp:141] Setting up conv3_1
I0418 16:19:52.173029 14721 net.cpp:148] Top shape: 1 256 141 175 (6316800)
I0418 16:19:52.173033 14721 net.cpp:156] Memory required for data: 675096000
I0418 16:19:52.173041 14721 layer_factory.hpp:77] Creating layer relu3_1
I0418 16:19:52.173046 14721 net.cpp:91] Creating Layer relu3_1
I0418 16:19:52.173049 14721 net.cpp:425] relu3_1 <- conv3_1
I0418 16:19:52.173053 14721 net.cpp:386] relu3_1 -> conv3_1 (in-place)
I0418 16:19:52.174124 14721 net.cpp:141] Setting up relu3_1
I0418 16:19:52.174134 14721 net.cpp:148] Top shape: 1 256 141 175 (6316800)
I0418 16:19:52.174136 14721 net.cpp:156] Memory required for data: 700363200
I0418 16:19:52.174139 14721 layer_factory.hpp:77] Creating layer conv3_2
I0418 16:19:52.174146 14721 net.cpp:91] Creating Layer conv3_2
I0418 16:19:52.174149 14721 net.cpp:425] conv3_2 <- conv3_1
I0418 16:19:52.174154 14721 net.cpp:399] conv3_2 -> conv3_2
I0418 16:19:52.178006 14721 net.cpp:141] Setting up conv3_2
I0418 16:19:52.178020 14721 net.cpp:148] Top shape: 1 256 141 175 (6316800)
I0418 16:19:52.178022 14721 net.cpp:156] Memory required for data: 725630400
I0418 16:19:52.178028 14721 layer_factory.hpp:77] Creating layer relu3_2
I0418 16:19:52.178035 14721 net.cpp:91] Creating Layer relu3_2
I0418 16:19:52.178037 14721 net.cpp:425] relu3_2 <- conv3_2
I0418 16:19:52.178041 14721 net.cpp:386] relu3_2 -> conv3_2 (in-place)
I0418 16:19:52.179344 14721 net.cpp:141] Setting up relu3_2
I0418 16:19:52.179357 14721 net.cpp:148] Top shape: 1 256 141 175 (6316800)
I0418 16:19:52.179359 14721 net.cpp:156] Memory required for data: 750897600
I0418 16:19:52.179363 14721 layer_factory.hpp:77] Creating layer conv3_3
I0418 16:19:52.179370 14721 net.cpp:91] Creating Layer conv3_3
I0418 16:19:52.179373 14721 net.cpp:425] conv3_3 <- conv3_2
I0418 16:19:52.179378 14721 net.cpp:399] conv3_3 -> conv3_3
I0418 16:19:52.183804 14721 net.cpp:141] Setting up conv3_3
I0418 16:19:52.183817 14721 net.cpp:148] Top shape: 1 256 141 175 (6316800)
I0418 16:19:52.183821 14721 net.cpp:156] Memory required for data: 776164800
I0418 16:19:52.183826 14721 layer_factory.hpp:77] Creating layer relu3_3
I0418 16:19:52.183832 14721 net.cpp:91] Creating Layer relu3_3
I0418 16:19:52.183835 14721 net.cpp:425] relu3_3 <- conv3_3
I0418 16:19:52.183840 14721 net.cpp:386] relu3_3 -> conv3_3 (in-place)
I0418 16:19:52.184607 14721 net.cpp:141] Setting up relu3_3
I0418 16:19:52.184618 14721 net.cpp:148] Top shape: 1 256 141 175 (6316800)
I0418 16:19:52.184622 14721 net.cpp:156] Memory required for data: 801432000
I0418 16:19:52.184624 14721 layer_factory.hpp:77] Creating layer pool3
I0418 16:19:52.184629 14721 net.cpp:91] Creating Layer pool3
I0418 16:19:52.184633 14721 net.cpp:425] pool3 <- conv3_3
I0418 16:19:52.184638 14721 net.cpp:399] pool3 -> pool3
I0418 16:19:52.184679 14721 net.cpp:141] Setting up pool3
I0418 16:19:52.184684 14721 net.cpp:148] Top shape: 1 256 71 88 (1599488)
I0418 16:19:52.184685 14721 net.cpp:156] Memory required for data: 807829952
I0418 16:19:52.184689 14721 layer_factory.hpp:77] Creating layer conv4_1
I0418 16:19:52.184695 14721 net.cpp:91] Creating Layer conv4_1
I0418 16:19:52.184697 14721 net.cpp:425] conv4_1 <- pool3
I0418 16:19:52.184701 14721 net.cpp:399] conv4_1 -> conv4_1
I0418 16:19:52.189359 14721 net.cpp:141] Setting up conv4_1
I0418 16:19:52.189373 14721 net.cpp:148] Top shape: 1 512 71 88 (3198976)
I0418 16:19:52.189375 14721 net.cpp:156] Memory required for data: 820625856
I0418 16:19:52.189381 14721 layer_factory.hpp:77] Creating layer relu4_1
I0418 16:19:52.189386 14721 net.cpp:91] Creating Layer relu4_1
I0418 16:19:52.189389 14721 net.cpp:425] relu4_1 <- conv4_1
I0418 16:19:52.189393 14721 net.cpp:386] relu4_1 -> conv4_1 (in-place)
I0418 16:19:52.190917 14721 net.cpp:141] Setting up relu4_1
I0418 16:19:52.190925 14721 net.cpp:148] Top shape: 1 512 71 88 (3198976)
I0418 16:19:52.190928 14721 net.cpp:156] Memory required for data: 833421760
I0418 16:19:52.190930 14721 layer_factory.hpp:77] Creating layer conv4_2
I0418 16:19:52.190937 14721 net.cpp:91] Creating Layer conv4_2
I0418 16:19:52.190940 14721 net.cpp:425] conv4_2 <- conv4_1
I0418 16:19:52.190944 14721 net.cpp:399] conv4_2 -> conv4_2
I0418 16:19:52.196683 14721 net.cpp:141] Setting up conv4_2
I0418 16:19:52.196697 14721 net.cpp:148] Top shape: 1 512 71 88 (3198976)
I0418 16:19:52.196701 14721 net.cpp:156] Memory required for data: 846217664
I0418 16:19:52.196710 14721 layer_factory.hpp:77] Creating layer relu4_2
I0418 16:19:52.196717 14721 net.cpp:91] Creating Layer relu4_2
I0418 16:19:52.196719 14721 net.cpp:425] relu4_2 <- conv4_2
I0418 16:19:52.196724 14721 net.cpp:386] relu4_2 -> conv4_2 (in-place)
I0418 16:19:52.197953 14721 net.cpp:141] Setting up relu4_2
I0418 16:19:52.197964 14721 net.cpp:148] Top shape: 1 512 71 88 (3198976)
I0418 16:19:52.197968 14721 net.cpp:156] Memory required for data: 859013568
I0418 16:19:52.197970 14721 layer_factory.hpp:77] Creating layer conv4_3
I0418 16:19:52.197978 14721 net.cpp:91] Creating Layer conv4_3
I0418 16:19:52.197981 14721 net.cpp:425] conv4_3 <- conv4_2
I0418 16:19:52.197986 14721 net.cpp:399] conv4_3 -> conv4_3
I0418 16:19:52.203404 14721 net.cpp:141] Setting up conv4_3
I0418 16:19:52.203420 14721 net.cpp:148] Top shape: 1 512 71 88 (3198976)
I0418 16:19:52.203424 14721 net.cpp:156] Memory required for data: 871809472
I0418 16:19:52.203429 14721 layer_factory.hpp:77] Creating layer relu4_3
I0418 16:19:52.203435 14721 net.cpp:91] Creating Layer relu4_3
I0418 16:19:52.203438 14721 net.cpp:425] relu4_3 <- conv4_3
I0418 16:19:52.203444 14721 net.cpp:386] relu4_3 -> conv4_3 (in-place)
I0418 16:19:52.204668 14721 net.cpp:141] Setting up relu4_3
I0418 16:19:52.204680 14721 net.cpp:148] Top shape: 1 512 71 88 (3198976)
I0418 16:19:52.204684 14721 net.cpp:156] Memory required for data: 884605376
I0418 16:19:52.204686 14721 layer_factory.hpp:77] Creating layer pool4
I0418 16:19:52.204692 14721 net.cpp:91] Creating Layer pool4
I0418 16:19:52.204695 14721 net.cpp:425] pool4 <- conv4_3
I0418 16:19:52.204699 14721 net.cpp:399] pool4 -> pool4
I0418 16:19:52.204746 14721 net.cpp:141] Setting up pool4
I0418 16:19:52.204751 14721 net.cpp:148] Top shape: 1 512 36 44 (811008)
I0418 16:19:52.204753 14721 net.cpp:156] Memory required for data: 887849408
I0418 16:19:52.204756 14721 layer_factory.hpp:77] Creating layer conv5_1
I0418 16:19:52.204762 14721 net.cpp:91] Creating Layer conv5_1
I0418 16:19:52.204766 14721 net.cpp:425] conv5_1 <- pool4
I0418 16:19:52.204771 14721 net.cpp:399] conv5_1 -> conv5_1
I0418 16:19:52.210373 14721 net.cpp:141] Setting up conv5_1
I0418 16:19:52.210387 14721 net.cpp:148] Top shape: 1 512 36 44 (811008)
I0418 16:19:52.210391 14721 net.cpp:156] Memory required for data: 891093440
I0418 16:19:52.210397 14721 layer_factory.hpp:77] Creating layer relu5_1
I0418 16:19:52.210403 14721 net.cpp:91] Creating Layer relu5_1
I0418 16:19:52.210407 14721 net.cpp:425] relu5_1 <- conv5_1
I0418 16:19:52.210412 14721 net.cpp:386] relu5_1 -> conv5_1 (in-place)
I0418 16:19:52.211627 14721 net.cpp:141] Setting up relu5_1
I0418 16:19:52.211635 14721 net.cpp:148] Top shape: 1 512 36 44 (811008)
I0418 16:19:52.211638 14721 net.cpp:156] Memory required for data: 894337472
I0418 16:19:52.211640 14721 layer_factory.hpp:77] Creating layer conv5_2
I0418 16:19:52.211648 14721 net.cpp:91] Creating Layer conv5_2
I0418 16:19:52.211652 14721 net.cpp:425] conv5_2 <- conv5_1
I0418 16:19:52.211658 14721 net.cpp:399] conv5_2 -> conv5_2
I0418 16:19:52.216820 14721 net.cpp:141] Setting up conv5_2
I0418 16:19:52.216832 14721 net.cpp:148] Top shape: 1 512 36 44 (811008)
I0418 16:19:52.216835 14721 net.cpp:156] Memory required for data: 897581504
I0418 16:19:52.216841 14721 layer_factory.hpp:77] Creating layer relu5_2
I0418 16:19:52.216847 14721 net.cpp:91] Creating Layer relu5_2
I0418 16:19:52.216851 14721 net.cpp:425] relu5_2 <- conv5_2
I0418 16:19:52.216856 14721 net.cpp:386] relu5_2 -> conv5_2 (in-place)
I0418 16:19:52.218083 14721 net.cpp:141] Setting up relu5_2
I0418 16:19:52.218094 14721 net.cpp:148] Top shape: 1 512 36 44 (811008)
I0418 16:19:52.218097 14721 net.cpp:156] Memory required for data: 900825536
I0418 16:19:52.218101 14721 layer_factory.hpp:77] Creating layer conv5_3
I0418 16:19:52.218108 14721 net.cpp:91] Creating Layer conv5_3
I0418 16:19:52.218112 14721 net.cpp:425] conv5_3 <- conv5_2
I0418 16:19:52.218116 14721 net.cpp:399] conv5_3 -> conv5_3
I0418 16:19:52.223392 14721 net.cpp:141] Setting up conv5_3
I0418 16:19:52.223405 14721 net.cpp:148] Top shape: 1 512 36 44 (811008)
I0418 16:19:52.223408 14721 net.cpp:156] Memory required for data: 904069568
I0418 16:19:52.223414 14721 layer_factory.hpp:77] Creating layer relu5_3
I0418 16:19:52.223419 14721 net.cpp:91] Creating Layer relu5_3
I0418 16:19:52.223423 14721 net.cpp:425] relu5_3 <- conv5_3
I0418 16:19:52.223428 14721 net.cpp:386] relu5_3 -> conv5_3 (in-place)
I0418 16:19:52.225625 14721 net.cpp:141] Setting up relu5_3
I0418 16:19:52.225637 14721 net.cpp:148] Top shape: 1 512 36 44 (811008)
I0418 16:19:52.225641 14721 net.cpp:156] Memory required for data: 907313600
I0418 16:19:52.225643 14721 layer_factory.hpp:77] Creating layer pool5
I0418 16:19:52.225654 14721 net.cpp:91] Creating Layer pool5
I0418 16:19:52.225658 14721 net.cpp:425] pool5 <- conv5_3
I0418 16:19:52.225662 14721 net.cpp:399] pool5 -> pool5
I0418 16:19:52.225711 14721 net.cpp:141] Setting up pool5
I0418 16:19:52.225716 14721 net.cpp:148] Top shape: 1 512 18 22 (202752)
I0418 16:19:52.225719 14721 net.cpp:156] Memory required for data: 908124608
I0418 16:19:52.225721 14721 layer_factory.hpp:77] Creating layer fc6
I0418 16:19:52.225728 14721 net.cpp:91] Creating Layer fc6
I0418 16:19:52.225731 14721 net.cpp:425] fc6 <- pool5
I0418 16:19:52.225736 14721 net.cpp:399] fc6 -> fc6
I0418 16:19:52.391705 14721 net.cpp:141] Setting up fc6
I0418 16:19:52.391736 14721 net.cpp:148] Top shape: 1 4096 12 16 (786432)
I0418 16:19:52.391739 14721 net.cpp:156] Memory required for data: 911270336
I0418 16:19:52.391748 14721 layer_factory.hpp:77] Creating layer relu6
I0418 16:19:52.391757 14721 net.cpp:91] Creating Layer relu6
I0418 16:19:52.391762 14721 net.cpp:425] relu6 <- fc6
I0418 16:19:52.391768 14721 net.cpp:386] relu6 -> fc6 (in-place)
I0418 16:19:52.392789 14721 net.cpp:141] Setting up relu6
I0418 16:19:52.392798 14721 net.cpp:148] Top shape: 1 4096 12 16 (786432)
I0418 16:19:52.392802 14721 net.cpp:156] Memory required for data: 914416064
I0418 16:19:52.392804 14721 layer_factory.hpp:77] Creating layer drop6
I0418 16:19:52.392810 14721 net.cpp:91] Creating Layer drop6
I0418 16:19:52.392813 14721 net.cpp:425] drop6 <- fc6
I0418 16:19:52.392817 14721 net.cpp:386] drop6 -> fc6 (in-place)
I0418 16:19:52.392848 14721 net.cpp:141] Setting up drop6
I0418 16:19:52.392853 14721 net.cpp:148] Top shape: 1 4096 12 16 (786432)
I0418 16:19:52.392854 14721 net.cpp:156] Memory required for data: 917561792
I0418 16:19:52.392858 14721 layer_factory.hpp:77] Creating layer fc7
I0418 16:19:52.392865 14721 net.cpp:91] Creating Layer fc7
I0418 16:19:52.392868 14721 net.cpp:425] fc7 <- fc6
I0418 16:19:52.392874 14721 net.cpp:399] fc7 -> fc7
I0418 16:19:52.423043 14721 net.cpp:141] Setting up fc7
I0418 16:19:52.423074 14721 net.cpp:148] Top shape: 1 4096 12 16 (786432)
I0418 16:19:52.423077 14721 net.cpp:156] Memory required for data: 920707520
I0418 16:19:52.423086 14721 layer_factory.hpp:77] Creating layer relu7
I0418 16:19:52.423095 14721 net.cpp:91] Creating Layer relu7
I0418 16:19:52.423100 14721 net.cpp:425] relu7 <- fc7
I0418 16:19:52.423105 14721 net.cpp:386] relu7 -> fc7 (in-place)
I0418 16:19:52.423981 14721 net.cpp:141] Setting up relu7
I0418 16:19:52.423995 14721 net.cpp:148] Top shape: 1 4096 12 16 (786432)
I0418 16:19:52.423997 14721 net.cpp:156] Memory required for data: 923853248
I0418 16:19:52.424000 14721 layer_factory.hpp:77] Creating layer drop7
I0418 16:19:52.424007 14721 net.cpp:91] Creating Layer drop7
I0418 16:19:52.424010 14721 net.cpp:425] drop7 <- fc7
I0418 16:19:52.424013 14721 net.cpp:386] drop7 -> fc7 (in-place)
I0418 16:19:52.424047 14721 net.cpp:141] Setting up drop7
I0418 16:19:52.424052 14721 net.cpp:148] Top shape: 1 4096 12 16 (786432)
I0418 16:19:52.424055 14721 net.cpp:156] Memory required for data: 926998976
I0418 16:19:52.424057 14721 layer_factory.hpp:77] Creating layer score_fr
I0418 16:19:52.424065 14721 net.cpp:91] Creating Layer score_fr
I0418 16:19:52.424068 14721 net.cpp:425] score_fr <- fc7
I0418 16:19:52.424073 14721 net.cpp:399] score_fr -> score_fr
I0418 16:19:52.427597 14721 net.cpp:141] Setting up score_fr
I0418 16:19:52.427611 14721 net.cpp:148] Top shape: 1 21 12 16 (4032)
I0418 16:19:52.427614 14721 net.cpp:156] Memory required for data: 927015104
I0418 16:19:52.427620 14721 layer_factory.hpp:77] Creating layer upscore
I0418 16:19:52.427628 14721 net.cpp:91] Creating Layer upscore
I0418 16:19:52.427630 14721 net.cpp:425] upscore <- score_fr
I0418 16:19:52.427635 14721 net.cpp:399] upscore -> upscore
I0418 16:19:52.429986 14721 net.cpp:141] Setting up upscore
I0418 16:19:52.429996 14721 net.cpp:148] Top shape: 1 21 416 544 (4752384)
I0418 16:19:52.429999 14721 net.cpp:156] Memory required for data: 946024640
I0418 16:19:52.430009 14721 layer_factory.hpp:77] Creating layer score
I0418 16:19:52.430016 14721 net.cpp:91] Creating Layer score
I0418 16:19:52.430019 14721 net.cpp:425] score <- upscore
I0418 16:19:52.430022 14721 net.cpp:425] score <- data_data_0_split_1
I0418 16:19:52.430028 14721 net.cpp:399] score -> score
I0418 16:19:52.430055 14721 net.cpp:141] Setting up score
I0418 16:19:52.430060 14721 net.cpp:148] Top shape: 1 21 366 500 (3843000)
I0418 16:19:52.430063 14721 net.cpp:156] Memory required for data: 961396640
I0418 16:19:52.430065 14721 layer_factory.hpp:77] Creating layer loss
I0418 16:19:52.430070 14721 net.cpp:91] Creating Layer loss
I0418 16:19:52.430073 14721 net.cpp:425] loss <- score
I0418 16:19:52.430076 14721 net.cpp:425] loss <- label
I0418 16:19:52.430079 14721 net.cpp:399] loss -> loss
I0418 16:19:52.430085 14721 layer_factory.hpp:77] Creating layer loss
…
