…
test_initialization: false
average_loss: 20
iter_size: 1
I0415 17:04:39.739497 21387 solver.cpp:81] Creating training net from train_net file: train.prototxt
I0415 17:04:39.740319 21387 net.cpp:49] Initializing net from parameters: 
state {
  phase: TRAIN
}
layer {
  name: "data"
  type: "Python"
  top: "data"
  top: "label"
  python_param {
    module: "layers"
    layer: "SBDDSegDataLayer"
    param_str: "{\'sbdd_dir\': \'/home/shared/datasets/benchmark_RELEASE/dataset\', \'seed\': 1337, \'split\': \'train\', \'mean\': (104.00699, 116.66877, 122.67892)}"
  }
}
layer {
  name: "conv1_1"
  type: "Convolution"
  bottom: "data"
  top: "conv1_1"
  param {
    lr_mult: 1
    decay_mult: 1
  }
  param {
    lr_mult: 2
    decay_mult: 0
  }
  convolution_param {
    num_output: 64
    pad: 100
    kernel_size: 3
    stride: 1
  }
}
layer {
  name: "relu1_1"
  type: "ReLU"
  bottom: "conv1_1"
  top: "conv1_1"
}
layer {
  name: "conv1_2"
  type: "Convolution"
  bottom: "conv1_1"
  top: "conv1_2"
  param {
    lr_mult: 1
    decay_mult: 1
  }
  param {
    lr_mult: 2
    decay_mult: 0
  }
  convolution_param {
    num_output: 64
    pad: 1
    kernel_size: 3
    stride: 1
  }
}
layer {
  name: "relu1_2"
  type: "ReLU"
  bottom: "conv1_2"
  top: "conv1_2"
}
layer {
  name: "pool1"
  type: "Pooling"
  bottom: "conv1_2"
  top: "pool1"
  pooling_param {
    pool: MAX
    kernel_size: 2
    stride: 2
  }
}
layer {
  name: "conv2_1"
  type: "Convolution"
  bottom: "pool1"
  top: "conv2_1"
  param {
    lr_mult: 1
    decay_mult: 1
  }
  param {
    lr_mult: 2
    decay_mult: 0
  }
  convolution_param {
    num_output: 128
    pad: 1
    kernel_size: 3
    stride: 1
  }
}
layer {
  name: "relu2_1"
  type: "ReLU"
  bottom: "conv2_1"
  top: "conv2_1"
}
layer {
  name: "conv2_2"
  type: "Convolution"
  bottom: "conv2_1"
  top: "conv2_2"
  param {
    lr_mult: 1
    decay_mult: 1
  }
  param {
    lr_mult: 2
    decay_mult: 0
  }
  convolution_param {
    num_output: 128
    pad: 1
    kernel_size: 3
    stride: 1
  }
}
layer {
  name: "relu2_2"
  type: "ReLU"
  bottom: "conv2_2"
  top: "conv2_2"
}
layer {
  name: "pool2"
  type: "Pooling"
  bottom: "conv2_2"
  top: "pool2"
  pooling_param {
    pool: MAX
    kernel_size: 2
    stride: 2
  }
}
layer {
  name: "conv3_1"
  type: "Convolution"
  bottom: "pool2"
  top: "conv3_1"
  param {
    lr_mult: 1
    decay_mult: 1
  }
  param {
    lr_mult: 2
    decay_mult: 0
  }
  convolution_param {
    num_output: 256
    pad: 1
    kernel_size: 3
    stride: 1
  }
}
layer {
  name: "relu3_1"
  type: "ReLU"
  bottom: "conv3_1"
  top: "conv3_1"
}
layer {
  name: "conv3_2"
  type: "Convolution"
  bottom: "conv3_1"
  top: "conv3_2"
  param {
    lr_mult: 1
    decay_mult: 1
  }
  param {
    lr_mult: 2
    decay_mult: 0
  }
  convolution_param {
    num_output: 256
    pad: 1
    kernel_size: 3
    stride: 1
  }
}
layer {
  name: "relu3_2"
  type: "ReLU"
  bottom: "conv3_2"
  top: "conv3_2"
}
layer {
  name: "conv3_3"
  type: "Convolution"
  bottom: "conv3_2"
  top: "conv3_3"
  param {
    lr_mult: 1
    decay_mult: 1
  }
  param {
    lr_mult: 2
    decay_mult: 0
  }
  convolution_param {
    num_output: 256
    pad: 1
    kernel_size: 3
    stride: 1
  }
}
layer {
  name: "relu3_3"
  type: "ReLU"
  bottom: "conv3_3"
  top: "conv3_3"
}
layer {
  name: "pool3"
  type: "Pooling"
  bottom: "conv3_3"
  top: "pool3"
  pooling_param {
    pool: MAX
    kernel_size: 2
    stride: 2
  }
}
layer {
  name: "conv4_1"
  type: "Convolution"
  bottom: "pool3"
  top: "conv4_1"
  param {
    lr_mult: 1
    decay_mult: 1
  }
  param {
    lr_mult: 2
    decay_mult: 0
  }
  convolution_param {
    num_output: 512
    pad: 1
    kernel_size: 3
    stride: 1
  }
}
layer {
  name: "relu4_1"
  type: "ReLU"
  bottom: "conv4_1"
  top: "conv4_1"
}
layer {
  name: "conv4_2"
  type: "Convolution"
  bottom: "conv4_1"
  top: "conv4_2"
  param {
    lr_mult: 1
    decay_mult: 1
  }
  param {
    lr_mult: 2
    decay_mult: 0
  }
  convolution_param {
    num_output: 512
    pad: 1
    kernel_size: 3
    stride: 1
  }
}
layer {
  name: "relu4_2"
  type: "ReLU"
  bottom: "conv4_2"
  top: "conv4_2"
}
layer {
  name: "conv4_3"
  type: "Convolution"
  bottom: "conv4_2"
  top: "conv4_3"
  param {
    lr_mult: 1
    decay_mult: 1
  }
  param {
    lr_mult: 2
    decay_mult: 0
  }
  convolution_param {
    num_output: 512
    pad: 1
    kernel_size: 3
    stride: 1
  }
}
layer {
  name: "relu4_3"
  type: "ReLU"
  bottom: "conv4_3"
  top: "conv4_3"
}
layer {
  name: "pool4"
  type: "Pooling"
  bottom: "conv4_3"
  top: "pool4"
  pooling_param {
    pool: MAX
    kernel_size: 2
    stride: 2
  }
}
layer {
  name: "conv5_1"
  type: "Convolution"
  bottom: "pool4"
  top: "conv5_1"
  param {
    lr_mult: 1
    decay_mult: 1
  }
  param {
    lr_mult: 2
    decay_mult: 0
  }
  convolution_param {
    num_output: 512
    pad: 1
    kernel_size: 3
    stride: 1
  }
}
layer {
  name: "relu5_1"
  type: "ReLU"
  bottom: "conv5_1"
  top: "conv5_1"
}
layer {
  name: "conv5_2"
  type: "Convolution"
  bottom: "conv5_1"
  top: "conv5_2"
  param {
    lr_mult: 1
    decay_mult: 1
  }
  param {
    lr_mult: 2
    decay_mult: 0
  }
  convolution_param {
    num_output: 512
    pad: 1
    kernel_size: 3
    stride: 1
  }
}
layer {
  name: "relu5_2"
  type: "ReLU"
  bottom: "conv5_2"
  top: "conv5_2"
}
layer {
  name: "conv5_3"
  type: "Convolution"
  bottom: "conv5_2"
  top: "conv5_3"
  param {
    lr_mult: 1
    decay_mult: 1
  }
  param {
    lr_mult: 2
    decay_mult: 0
  }
  convolution_param {
    num_output: 512
    pad: 1
    kernel_size: 3
    stride: 1
  }
}
layer {
  name: "relu5_3"
  type: "ReLU"
  bottom: "conv5_3"
  top: "conv5_3"
}
layer {
  name: "pool5"
  type: "Pooling"
  bottom: "conv5_3"
  top: "pool5"
  pooling_param {
    pool: MAX
    kernel_size: 2
    stride: 2
  }
}
layer {
  name: "fc6-v2"
  type: "Convolution"
  bottom: "pool5"
  top: "fc6"
  param {
    lr_mult: 1
    decay_mult: 1
  }
  param {
    lr_mult: 2
    decay_mult: 0
  }
  convolution_param {
    num_output: 4096
    pad: 0
    kernel_size: 7
    stride: 1
    weight_filler {
      type: "gaussian"
      std: 0.005
    }
    bias_filler {
      type: "constant"
      value: 1
    }
  }
}
layer {
  name: "relu6"
  type: "ReLU"
  bottom: "fc6"
  top: "fc6"
}
layer {
  name: "drop6"
  type: "Dropout"
  bottom: "fc6"
  top: "fc6"
  dropout_param {
    dropout_ratio: 0.5
  }
}
layer {
  name: "fc7-v2"
  type: "Convolution"
  bottom: "fc6"
  top: "fc7"
  param {
    lr_mult: 1
    decay_mult: 1
  }
  param {
    lr_mult: 2
    decay_mult: 0
  }
  convolution_param {
    num_output: 4096
    pad: 0
    kernel_size: 1
    stride: 1
    weight_filler {
      type: "gaussian"
      std: 0.005
    }
    bias_filler {
      type: "constant"
      value: 1
    }
  }
}
layer {
  name: "relu7"
  type: "ReLU"
  bottom: "fc7"
  top: "fc7"
}
layer {
  name: "drop7"
  type: "Dropout"
  bottom: "fc7"
  top: "fc7"
  dropout_param {
    dropout_ratio: 0.5
  }
}
layer {
  name: "score_fr"
  type: "Convolution"
  bottom: "fc7"
  top: "score_fr"
  param {
    lr_mult: 1
    decay_mult: 1
  }
  param {
    lr_mult: 2
    decay_mult: 0
  }
  convolution_param {
    num_output: 21
    pad: 0
    kernel_size: 1
    weight_filler {
      type: "gaussian"
      std: 0.005
    }
    bias_filler {
      type: "constant"
      value: 1
    }
  }
}
layer {
  name: "upscore"
  type: "Deconvolution"
  bottom: "score_fr"
  top: "upscore"
  param {
    lr_mult: 0
  }
  convolution_param {
    num_output: 21
    bias_term: false
    kernel_size: 64
    stride: 32
  }
}
layer {
  name: "score"
  type: "Crop"
  bottom: "upscore"
  bottom: "data"
  top: "score"
  crop_param {
    axis: 2
    offset: 19
  }
}
layer {
  name: "loss"
  type: "SoftmaxWithLoss"
  bottom: "score"
  bottom: "label"
  top: "loss"
  loss_param {
    ignore_label: 255
    normalize: false
  }
}
I0415 17:04:39.740453 21387 layer_factory.hpp:77] Creating layer data
I0415 17:04:39.740639 21387 net.cpp:91] Creating Layer data
I0415 17:04:39.740648 21387 net.cpp:399] data -> data
I0415 17:04:39.740660 21387 net.cpp:399] data -> label
/usr/local/lib/python2.7/dist-packages/numpy/core/fromnumeric.py:2652: VisibleDeprecationWarning: `rank` is deprecated; use the `ndim` attribute or function instead. To find the rank of a matrix see `numpy.linalg.matrix_rank`.
  VisibleDeprecationWarning)
I0415 17:04:39.761677 21387 net.cpp:141] Setting up data
I0415 17:04:39.761695 21387 net.cpp:148] Top shape: 1 3 500 330 (495000)
I0415 17:04:39.761700 21387 net.cpp:148] Top shape: 1 1 500 330 (165000)
I0415 17:04:39.761703 21387 net.cpp:156] Memory required for data: 2640000
I0415 17:04:39.761708 21387 layer_factory.hpp:77] Creating layer data_data_0_split
I0415 17:04:39.761720 21387 net.cpp:91] Creating Layer data_data_0_split
I0415 17:04:39.761724 21387 net.cpp:425] data_data_0_split <- data
I0415 17:04:39.761731 21387 net.cpp:399] data_data_0_split -> data_data_0_split_0
I0415 17:04:39.761739 21387 net.cpp:399] data_data_0_split -> data_data_0_split_1
I0415 17:04:39.761770 21387 net.cpp:141] Setting up data_data_0_split
I0415 17:04:39.761781 21387 net.cpp:148] Top shape: 1 3 500 330 (495000)
I0415 17:04:39.761785 21387 net.cpp:148] Top shape: 1 3 500 330 (495000)
I0415 17:04:39.761788 21387 net.cpp:156] Memory required for data: 6600000
I0415 17:04:39.761791 21387 layer_factory.hpp:77] Creating layer conv1_1
I0415 17:04:39.761801 21387 net.cpp:91] Creating Layer conv1_1
I0415 17:04:39.761804 21387 net.cpp:425] conv1_1 <- data_data_0_split_0
I0415 17:04:39.761809 21387 net.cpp:399] conv1_1 -> conv1_1
I0415 17:04:39.876991 21387 net.cpp:141] Setting up conv1_1
I0415 17:04:39.877022 21387 net.cpp:148] Top shape: 1 64 698 528 (23586816)
I0415 17:04:39.877027 21387 net.cpp:156] Memory required for data: 100947264
I0415 17:04:39.877040 21387 layer_factory.hpp:77] Creating layer relu1_1
I0415 17:04:39.877050 21387 net.cpp:91] Creating Layer relu1_1
I0415 17:04:39.877055 21387 net.cpp:425] relu1_1 <- conv1_1
I0415 17:04:39.877059 21387 net.cpp:386] relu1_1 -> conv1_1 (in-place)
I0415 17:04:39.877316 21387 net.cpp:141] Setting up relu1_1
I0415 17:04:39.877329 21387 net.cpp:148] Top shape: 1 64 698 528 (23586816)
I0415 17:04:39.877333 21387 net.cpp:156] Memory required for data: 195294528
I0415 17:04:39.877336 21387 layer_factory.hpp:77] Creating layer conv1_2
I0415 17:04:39.877347 21387 net.cpp:91] Creating Layer conv1_2
I0415 17:04:39.877351 21387 net.cpp:425] conv1_2 <- conv1_1
I0415 17:04:39.877356 21387 net.cpp:399] conv1_2 -> conv1_2
I0415 17:04:39.879145 21387 net.cpp:141] Setting up conv1_2
I0415 17:04:39.879159 21387 net.cpp:148] Top shape: 1 64 698 528 (23586816)
I0415 17:04:39.879163 21387 net.cpp:156] Memory required for data: 289641792
I0415 17:04:39.879171 21387 layer_factory.hpp:77] Creating layer relu1_2
I0415 17:04:39.879178 21387 net.cpp:91] Creating Layer relu1_2
I0415 17:04:39.879181 21387 net.cpp:425] relu1_2 <- conv1_2
I0415 17:04:39.879185 21387 net.cpp:386] relu1_2 -> conv1_2 (in-place)
I0415 17:04:39.879441 21387 net.cpp:141] Setting up relu1_2
I0415 17:04:39.879453 21387 net.cpp:148] Top shape: 1 64 698 528 (23586816)
I0415 17:04:39.879456 21387 net.cpp:156] Memory required for data: 383989056
I0415 17:04:39.879459 21387 layer_factory.hpp:77] Creating layer pool1
I0415 17:04:39.879467 21387 net.cpp:91] Creating Layer pool1
I0415 17:04:39.879469 21387 net.cpp:425] pool1 <- conv1_2
I0415 17:04:39.879474 21387 net.cpp:399] pool1 -> pool1
I0415 17:04:39.879508 21387 net.cpp:141] Setting up pool1
I0415 17:04:39.879514 21387 net.cpp:148] Top shape: 1 64 349 264 (5896704)
I0415 17:04:39.879516 21387 net.cpp:156] Memory required for data: 407575872
I0415 17:04:39.879519 21387 layer_factory.hpp:77] Creating layer conv2_1
I0415 17:04:39.879525 21387 net.cpp:91] Creating Layer conv2_1
I0415 17:04:39.879528 21387 net.cpp:425] conv2_1 <- pool1
I0415 17:04:39.879533 21387 net.cpp:399] conv2_1 -> conv2_1
I0415 17:04:39.880852 21387 net.cpp:141] Setting up conv2_1
I0415 17:04:39.880867 21387 net.cpp:148] Top shape: 1 128 349 264 (11793408)
I0415 17:04:39.880869 21387 net.cpp:156] Memory required for data: 454749504
I0415 17:04:39.880877 21387 layer_factory.hpp:77] Creating layer relu2_1
I0415 17:04:39.880884 21387 net.cpp:91] Creating Layer relu2_1
I0415 17:04:39.880888 21387 net.cpp:425] relu2_1 <- conv2_1
I0415 17:04:39.880893 21387 net.cpp:386] relu2_1 -> conv2_1 (in-place)
I0415 17:04:39.881031 21387 net.cpp:141] Setting up relu2_1
I0415 17:04:39.881041 21387 net.cpp:148] Top shape: 1 128 349 264 (11793408)
I0415 17:04:39.881043 21387 net.cpp:156] Memory required for data: 501923136
I0415 17:04:39.881047 21387 layer_factory.hpp:77] Creating layer conv2_2
I0415 17:04:39.881054 21387 net.cpp:91] Creating Layer conv2_2
I0415 17:04:39.881057 21387 net.cpp:425] conv2_2 <- conv2_1
I0415 17:04:39.881062 21387 net.cpp:399] conv2_2 -> conv2_2
I0415 17:04:39.882454 21387 net.cpp:141] Setting up conv2_2
I0415 17:04:39.882469 21387 net.cpp:148] Top shape: 1 128 349 264 (11793408)
I0415 17:04:39.882473 21387 net.cpp:156] Memory required for data: 549096768
I0415 17:04:39.882479 21387 layer_factory.hpp:77] Creating layer relu2_2
I0415 17:04:39.882484 21387 net.cpp:91] Creating Layer relu2_2
I0415 17:04:39.882489 21387 net.cpp:425] relu2_2 <- conv2_2
I0415 17:04:39.882493 21387 net.cpp:386] relu2_2 -> conv2_2 (in-place)
I0415 17:04:39.882760 21387 net.cpp:141] Setting up relu2_2
I0415 17:04:39.882771 21387 net.cpp:148] Top shape: 1 128 349 264 (11793408)
I0415 17:04:39.882774 21387 net.cpp:156] Memory required for data: 596270400
I0415 17:04:39.882778 21387 layer_factory.hpp:77] Creating layer pool2
I0415 17:04:39.882783 21387 net.cpp:91] Creating Layer pool2
I0415 17:04:39.882787 21387 net.cpp:425] pool2 <- conv2_2
I0415 17:04:39.882792 21387 net.cpp:399] pool2 -> pool2
I0415 17:04:39.882827 21387 net.cpp:141] Setting up pool2
I0415 17:04:39.882835 21387 net.cpp:148] Top shape: 1 128 175 132 (2956800)
I0415 17:04:39.882838 21387 net.cpp:156] Memory required for data: 608097600
I0415 17:04:39.882840 21387 layer_factory.hpp:77] Creating layer conv3_1
I0415 17:04:39.882848 21387 net.cpp:91] Creating Layer conv3_1
I0415 17:04:39.882853 21387 net.cpp:425] conv3_1 <- pool2
I0415 17:04:39.882856 21387 net.cpp:399] conv3_1 -> conv3_1
I0415 17:04:39.884202 21387 net.cpp:141] Setting up conv3_1
I0415 17:04:39.884215 21387 net.cpp:148] Top shape: 1 256 175 132 (5913600)
I0415 17:04:39.884218 21387 net.cpp:156] Memory required for data: 631752000
I0415 17:04:39.884228 21387 layer_factory.hpp:77] Creating layer relu3_1
I0415 17:04:39.884234 21387 net.cpp:91] Creating Layer relu3_1
I0415 17:04:39.884238 21387 net.cpp:425] relu3_1 <- conv3_1
I0415 17:04:39.884243 21387 net.cpp:386] relu3_1 -> conv3_1 (in-place)
I0415 17:04:39.884507 21387 net.cpp:141] Setting up relu3_1
I0415 17:04:39.884521 21387 net.cpp:148] Top shape: 1 256 175 132 (5913600)
I0415 17:04:39.884523 21387 net.cpp:156] Memory required for data: 655406400
I0415 17:04:39.884526 21387 layer_factory.hpp:77] Creating layer conv3_2
I0415 17:04:39.884534 21387 net.cpp:91] Creating Layer conv3_2
I0415 17:04:39.884537 21387 net.cpp:425] conv3_2 <- conv3_1
I0415 17:04:39.884543 21387 net.cpp:399] conv3_2 -> conv3_2
I0415 17:04:39.886283 21387 net.cpp:141] Setting up conv3_2
I0415 17:04:39.886297 21387 net.cpp:148] Top shape: 1 256 175 132 (5913600)
I0415 17:04:39.886301 21387 net.cpp:156] Memory required for data: 679060800
I0415 17:04:39.886307 21387 layer_factory.hpp:77] Creating layer relu3_2
I0415 17:04:39.886313 21387 net.cpp:91] Creating Layer relu3_2
I0415 17:04:39.886317 21387 net.cpp:425] relu3_2 <- conv3_2
I0415 17:04:39.886320 21387 net.cpp:386] relu3_2 -> conv3_2 (in-place)
I0415 17:04:39.886476 21387 net.cpp:141] Setting up relu3_2
I0415 17:04:39.886487 21387 net.cpp:148] Top shape: 1 256 175 132 (5913600)
I0415 17:04:39.886489 21387 net.cpp:156] Memory required for data: 702715200
I0415 17:04:39.886492 21387 layer_factory.hpp:77] Creating layer conv3_3
I0415 17:04:39.886504 21387 net.cpp:91] Creating Layer conv3_3
I0415 17:04:39.886508 21387 net.cpp:425] conv3_3 <- conv3_2
I0415 17:04:39.886513 21387 net.cpp:399] conv3_3 -> conv3_3
I0415 17:04:39.888350 21387 net.cpp:141] Setting up conv3_3
I0415 17:04:39.888365 21387 net.cpp:148] Top shape: 1 256 175 132 (5913600)
I0415 17:04:39.888367 21387 net.cpp:156] Memory required for data: 726369600
I0415 17:04:39.888375 21387 layer_factory.hpp:77] Creating layer relu3_3
I0415 17:04:39.888381 21387 net.cpp:91] Creating Layer relu3_3
I0415 17:04:39.888384 21387 net.cpp:425] relu3_3 <- conv3_3
I0415 17:04:39.888388 21387 net.cpp:386] relu3_3 -> conv3_3 (in-place)
I0415 17:04:39.888662 21387 net.cpp:141] Setting up relu3_3
I0415 17:04:39.888674 21387 net.cpp:148] Top shape: 1 256 175 132 (5913600)
I0415 17:04:39.888677 21387 net.cpp:156] Memory required for data: 750024000
I0415 17:04:39.888680 21387 layer_factory.hpp:77] Creating layer pool3
I0415 17:04:39.888687 21387 net.cpp:91] Creating Layer pool3
I0415 17:04:39.888690 21387 net.cpp:425] pool3 <- conv3_3
I0415 17:04:39.888695 21387 net.cpp:399] pool3 -> pool3
I0415 17:04:39.888733 21387 net.cpp:141] Setting up pool3
I0415 17:04:39.888741 21387 net.cpp:148] Top shape: 1 256 88 66 (1486848)
I0415 17:04:39.888743 21387 net.cpp:156] Memory required for data: 755971392
I0415 17:04:39.888746 21387 layer_factory.hpp:77] Creating layer conv4_1
I0415 17:04:39.888752 21387 net.cpp:91] Creating Layer conv4_1
I0415 17:04:39.888762 21387 net.cpp:425] conv4_1 <- pool3
I0415 17:04:39.888768 21387 net.cpp:399] conv4_1 -> conv4_1
I0415 17:04:39.891886 21387 net.cpp:141] Setting up conv4_1
I0415 17:04:39.891901 21387 net.cpp:148] Top shape: 1 512 88 66 (2973696)
I0415 17:04:39.891903 21387 net.cpp:156] Memory required for data: 767866176
I0415 17:04:39.891911 21387 layer_factory.hpp:77] Creating layer relu4_1
I0415 17:04:39.891916 21387 net.cpp:91] Creating Layer relu4_1
I0415 17:04:39.891918 21387 net.cpp:425] relu4_1 <- conv4_1
I0415 17:04:39.891924 21387 net.cpp:386] relu4_1 -> conv4_1 (in-place)
I0415 17:04:39.892297 21387 net.cpp:141] Setting up relu4_1
I0415 17:04:39.892309 21387 net.cpp:148] Top shape: 1 512 88 66 (2973696)
I0415 17:04:39.892313 21387 net.cpp:156] Memory required for data: 779760960
I0415 17:04:39.892315 21387 layer_factory.hpp:77] Creating layer conv4_2
I0415 17:04:39.892323 21387 net.cpp:91] Creating Layer conv4_2
I0415 17:04:39.892326 21387 net.cpp:425] conv4_2 <- conv4_1
I0415 17:04:39.892333 21387 net.cpp:399] conv4_2 -> conv4_2
I0415 17:04:39.896133 21387 net.cpp:141] Setting up conv4_2
I0415 17:04:39.896148 21387 net.cpp:148] Top shape: 1 512 88 66 (2973696)
I0415 17:04:39.896152 21387 net.cpp:156] Memory required for data: 791655744
I0415 17:04:39.896164 21387 layer_factory.hpp:77] Creating layer relu4_2
I0415 17:04:39.896170 21387 net.cpp:91] Creating Layer relu4_2
I0415 17:04:39.896173 21387 net.cpp:425] relu4_2 <- conv4_2
I0415 17:04:39.896178 21387 net.cpp:386] relu4_2 -> conv4_2 (in-place)
I0415 17:04:39.896319 21387 net.cpp:141] Setting up relu4_2
I0415 17:04:39.896329 21387 net.cpp:148] Top shape: 1 512 88 66 (2973696)
I0415 17:04:39.896332 21387 net.cpp:156] Memory required for data: 803550528
I0415 17:04:39.896334 21387 layer_factory.hpp:77] Creating layer conv4_3
I0415 17:04:39.896343 21387 net.cpp:91] Creating Layer conv4_3
I0415 17:04:39.896347 21387 net.cpp:425] conv4_3 <- conv4_2
I0415 17:04:39.896352 21387 net.cpp:399] conv4_3 -> conv4_3
I0415 17:04:39.900154 21387 net.cpp:141] Setting up conv4_3
I0415 17:04:39.900172 21387 net.cpp:148] Top shape: 1 512 88 66 (2973696)
I0415 17:04:39.900176 21387 net.cpp:156] Memory required for data: 815445312
I0415 17:04:39.900182 21387 layer_factory.hpp:77] Creating layer relu4_3
I0415 17:04:39.900187 21387 net.cpp:91] Creating Layer relu4_3
I0415 17:04:39.900192 21387 net.cpp:425] relu4_3 <- conv4_3
I0415 17:04:39.900195 21387 net.cpp:386] relu4_3 -> conv4_3 (in-place)
I0415 17:04:39.900460 21387 net.cpp:141] Setting up relu4_3
I0415 17:04:39.900472 21387 net.cpp:148] Top shape: 1 512 88 66 (2973696)
I0415 17:04:39.900475 21387 net.cpp:156] Memory required for data: 827340096
I0415 17:04:39.900478 21387 layer_factory.hpp:77] Creating layer pool4
I0415 17:04:39.900485 21387 net.cpp:91] Creating Layer pool4
I0415 17:04:39.900487 21387 net.cpp:425] pool4 <- conv4_3
I0415 17:04:39.900492 21387 net.cpp:399] pool4 -> pool4
I0415 17:04:39.900532 21387 net.cpp:141] Setting up pool4
I0415 17:04:39.900542 21387 net.cpp:148] Top shape: 1 512 44 33 (743424)
I0415 17:04:39.900544 21387 net.cpp:156] Memory required for data: 830313792
I0415 17:04:39.900547 21387 layer_factory.hpp:77] Creating layer conv5_1
I0415 17:04:39.900554 21387 net.cpp:91] Creating Layer conv5_1
I0415 17:04:39.900558 21387 net.cpp:425] conv5_1 <- pool4
I0415 17:04:39.900563 21387 net.cpp:399] conv5_1 -> conv5_1
I0415 17:04:39.904194 21387 net.cpp:141] Setting up conv5_1
I0415 17:04:39.904211 21387 net.cpp:148] Top shape: 1 512 44 33 (743424)
I0415 17:04:39.904213 21387 net.cpp:156] Memory required for data: 833287488
I0415 17:04:39.904219 21387 layer_factory.hpp:77] Creating layer relu5_1
I0415 17:04:39.904225 21387 net.cpp:91] Creating Layer relu5_1
I0415 17:04:39.904229 21387 net.cpp:425] relu5_1 <- conv5_1
I0415 17:04:39.904233 21387 net.cpp:386] relu5_1 -> conv5_1 (in-place)
I0415 17:04:39.904500 21387 net.cpp:141] Setting up relu5_1
I0415 17:04:39.904512 21387 net.cpp:148] Top shape: 1 512 44 33 (743424)
I0415 17:04:39.904515 21387 net.cpp:156] Memory required for data: 836261184
I0415 17:04:39.904518 21387 layer_factory.hpp:77] Creating layer conv5_2
I0415 17:04:39.904527 21387 net.cpp:91] Creating Layer conv5_2
I0415 17:04:39.904531 21387 net.cpp:425] conv5_2 <- conv5_1
I0415 17:04:39.904536 21387 net.cpp:399] conv5_2 -> conv5_2
I0415 17:04:39.908233 21387 net.cpp:141] Setting up conv5_2
I0415 17:04:39.908248 21387 net.cpp:148] Top shape: 1 512 44 33 (743424)
I0415 17:04:39.908252 21387 net.cpp:156] Memory required for data: 839234880
I0415 17:04:39.908257 21387 layer_factory.hpp:77] Creating layer relu5_2
I0415 17:04:39.908264 21387 net.cpp:91] Creating Layer relu5_2
I0415 17:04:39.908268 21387 net.cpp:425] relu5_2 <- conv5_2
I0415 17:04:39.908272 21387 net.cpp:386] relu5_2 -> conv5_2 (in-place)
I0415 17:04:39.908417 21387 net.cpp:141] Setting up relu5_2
I0415 17:04:39.908427 21387 net.cpp:148] Top shape: 1 512 44 33 (743424)
I0415 17:04:39.908429 21387 net.cpp:156] Memory required for data: 842208576
I0415 17:04:39.908432 21387 layer_factory.hpp:77] Creating layer conv5_3
I0415 17:04:39.908439 21387 net.cpp:91] Creating Layer conv5_3
I0415 17:04:39.908443 21387 net.cpp:425] conv5_3 <- conv5_2
I0415 17:04:39.908447 21387 net.cpp:399] conv5_3 -> conv5_3
I0415 17:04:39.912215 21387 net.cpp:141] Setting up conv5_3
I0415 17:04:39.912230 21387 net.cpp:148] Top shape: 1 512 44 33 (743424)
I0415 17:04:39.912233 21387 net.cpp:156] Memory required for data: 845182272
I0415 17:04:39.912240 21387 layer_factory.hpp:77] Creating layer relu5_3
I0415 17:04:39.912245 21387 net.cpp:91] Creating Layer relu5_3
I0415 17:04:39.912250 21387 net.cpp:425] relu5_3 <- conv5_3
I0415 17:04:39.912255 21387 net.cpp:386] relu5_3 -> conv5_3 (in-place)
I0415 17:04:39.912516 21387 net.cpp:141] Setting up relu5_3
I0415 17:04:39.912528 21387 net.cpp:148] Top shape: 1 512 44 33 (743424)
I0415 17:04:39.912531 21387 net.cpp:156] Memory required for data: 848155968
I0415 17:04:39.912534 21387 layer_factory.hpp:77] Creating layer pool5
I0415 17:04:39.912544 21387 net.cpp:91] Creating Layer pool5
I0415 17:04:39.912549 21387 net.cpp:425] pool5 <- conv5_3
I0415 17:04:39.912552 21387 net.cpp:399] pool5 -> pool5
I0415 17:04:39.912592 21387 net.cpp:141] Setting up pool5
I0415 17:04:39.912600 21387 net.cpp:148] Top shape: 1 512 22 17 (191488)
I0415 17:04:39.912602 21387 net.cpp:156] Memory required for data: 848921920
I0415 17:04:39.912606 21387 layer_factory.hpp:77] Creating layer fc6-v2
I0415 17:04:39.912613 21387 net.cpp:91] Creating Layer fc6-v2
I0415 17:04:39.912616 21387 net.cpp:425] fc6-v2 <- pool5
I0415 17:04:39.912621 21387 net.cpp:399] fc6-v2 -> fc6
I0415 17:04:42.237514 21387 net.cpp:141] Setting up fc6-v2
I0415 17:04:42.237553 21387 net.cpp:148] Top shape: 1 4096 16 11 (720896)
I0415 17:04:42.237557 21387 net.cpp:156] Memory required for data: 851805504
I0415 17:04:42.237566 21387 layer_factory.hpp:77] Creating layer relu6
I0415 17:04:42.237576 21387 net.cpp:91] Creating Layer relu6
I0415 17:04:42.237579 21387 net.cpp:425] relu6 <- fc6
I0415 17:04:42.237586 21387 net.cpp:386] relu6 -> fc6 (in-place)
I0415 17:04:42.237855 21387 net.cpp:141] Setting up relu6
I0415 17:04:42.237867 21387 net.cpp:148] Top shape: 1 4096 16 11 (720896)
I0415 17:04:42.237870 21387 net.cpp:156] Memory required for data: 854689088
I0415 17:04:42.237874 21387 layer_factory.hpp:77] Creating layer drop6
I0415 17:04:42.237880 21387 net.cpp:91] Creating Layer drop6
I0415 17:04:42.237884 21387 net.cpp:425] drop6 <- fc6
I0415 17:04:42.237889 21387 net.cpp:386] drop6 -> fc6 (in-place)
I0415 17:04:42.237915 21387 net.cpp:141] Setting up drop6
I0415 17:04:42.237920 21387 net.cpp:148] Top shape: 1 4096 16 11 (720896)
I0415 17:04:42.237921 21387 net.cpp:156] Memory required for data: 857572672
I0415 17:04:42.237925 21387 layer_factory.hpp:77] Creating layer fc7-v2
I0415 17:04:42.237934 21387 net.cpp:91] Creating Layer fc7-v2
I0415 17:04:42.237937 21387 net.cpp:425] fc7-v2 <- fc6
I0415 17:04:42.237943 21387 net.cpp:399] fc7-v2 -> fc7
I0415 17:04:42.618845 21387 net.cpp:141] Setting up fc7-v2
I0415 17:04:42.618885 21387 net.cpp:148] Top shape: 1 4096 16 11 (720896)
I0415 17:04:42.618890 21387 net.cpp:156] Memory required for data: 860456256
I0415 17:04:42.618897 21387 layer_factory.hpp:77] Creating layer relu7
I0415 17:04:42.618906 21387 net.cpp:91] Creating Layer relu7
I0415 17:04:42.618912 21387 net.cpp:425] relu7 <- fc7
I0415 17:04:42.618917 21387 net.cpp:386] relu7 -> fc7 (in-place)
I0415 17:04:42.619067 21387 net.cpp:141] Setting up relu7
I0415 17:04:42.619077 21387 net.cpp:148] Top shape: 1 4096 16 11 (720896)
I0415 17:04:42.619081 21387 net.cpp:156] Memory required for data: 863339840
I0415 17:04:42.619083 21387 layer_factory.hpp:77] Creating layer drop7
I0415 17:04:42.619089 21387 net.cpp:91] Creating Layer drop7
I0415 17:04:42.619092 21387 net.cpp:425] drop7 <- fc7
I0415 17:04:42.619096 21387 net.cpp:386] drop7 -> fc7 (in-place)
I0415 17:04:42.619122 21387 net.cpp:141] Setting up drop7
I0415 17:04:42.619127 21387 net.cpp:148] Top shape: 1 4096 16 11 (720896)
I0415 17:04:42.619130 21387 net.cpp:156] Memory required for data: 866223424
I0415 17:04:42.619132 21387 layer_factory.hpp:77] Creating layer score_fr
I0415 17:04:42.619143 21387 net.cpp:91] Creating Layer score_fr
I0415 17:04:42.619145 21387 net.cpp:425] score_fr <- fc7
I0415 17:04:42.619150 21387 net.cpp:399] score_fr -> score_fr
I0415 17:04:42.622198 21387 net.cpp:141] Setting up score_fr
I0415 17:04:42.622210 21387 net.cpp:148] Top shape: 1 21 16 11 (3696)
I0415 17:04:42.622225 21387 net.cpp:156] Memory required for data: 866238208
I0415 17:04:42.622231 21387 layer_factory.hpp:77] Creating layer upscore
I0415 17:04:42.622239 21387 net.cpp:91] Creating Layer upscore
I0415 17:04:42.622242 21387 net.cpp:425] upscore <- score_fr
I0415 17:04:42.622247 21387 net.cpp:399] upscore -> upscore
I0415 17:04:42.624544 21387 net.cpp:141] Setting up upscore
I0415 17:04:42.624557 21387 net.cpp:148] Top shape: 1 21 544 384 (4386816)
I0415 17:04:42.624572 21387 net.cpp:156] Memory required for data: 883785472
I0415 17:04:42.624584 21387 layer_factory.hpp:77] Creating layer score
I0415 17:04:42.624595 21387 net.cpp:91] Creating Layer score
I0415 17:04:42.624599 21387 net.cpp:425] score <- upscore
I0415 17:04:42.624603 21387 net.cpp:425] score <- data_data_0_split_1
I0415 17:04:42.624606 21387 net.cpp:399] score -> score
I0415 17:04:42.624632 21387 net.cpp:141] Setting up score
I0415 17:04:42.624637 21387 net.cpp:148] Top shape: 1 21 500 330 (3465000)
I0415 17:04:42.624640 21387 net.cpp:156] Memory required for data: 897645472
I0415 17:04:42.624642 21387 layer_factory.hpp:77] Creating layer loss
I0415 17:04:42.624650 21387 net.cpp:91] Creating Layer loss
I0415 17:04:42.624652 21387 net.cpp:425] loss <- score
I0415 17:04:42.624655 21387 net.cpp:425] loss <- label
I0415 17:04:42.624660 21387 net.cpp:399] loss -> loss
I0415 17:04:42.624665 21387 layer_factory.hpp:77] Creating layer loss
…
I0415 17:04:42.629338 21387 net.cpp:274] Network initialization done.
I0415 17:04:42.629963 21387 solver.cpp:181] Creating test net (#0) specified by test_net file: val.prototxt
I0415 17:04:42.630169 21387 net.cpp:49] Initializing net from parameters: 
state {
  phase: TEST
}
layer {
  name: "data"
  type: "Python"
  top: "data"
  top: "label"
  python_param {
    module: "layers"
    layer: "VOCSegDataLayer"
    param_str: "{\'voc_dir\': \'/home/shared/datasets/VOCdevkit/VOC2012\', \'seed\': 1337, \'split\': \'seg11valid\', \'mean\': (104.00699, 116.66877, 122.67892)}"
  }
}
layer {
  name: "conv1_1"
  type: "Convolution"
  bottom: "data"
  top: "conv1_1"
  param {
    lr_mult: 1
    decay_mult: 1
  }
  param {
    lr_mult: 2
    decay_mult: 0
  }
  convolution_param {
    num_output: 64
    pad: 100
    kernel_size: 3
    stride: 1
  }
}
layer {
  name: "relu1_1"
  type: "ReLU"
  bottom: "conv1_1"
  top: "conv1_1"
}
layer {
  name: "conv1_2"
  type: "Convolution"
  bottom: "conv1_1"
  top: "conv1_2"
  param {
    lr_mult: 1
    decay_mult: 1
  }
  param {
    lr_mult: 2
    decay_mult: 0
  }
  convolution_param {
    num_output: 64
    pad: 1
    kernel_size: 3
    stride: 1
  }
}
layer {
  name: "relu1_2"
  type: "ReLU"
  bottom: "conv1_2"
  top: "conv1_2"
}
layer {
  name: "pool1"
  type: "Pooling"
  bottom: "conv1_2"
  top: "pool1"
  pooling_param {
    pool: MAX
    kernel_size: 2
    stride: 2
  }
}
layer {
  name: "conv2_1"
  type: "Convolution"
  bottom: "pool1"
  top: "conv2_1"
  param {
    lr_mult: 1
    decay_mult: 1
  }
  param {
    lr_mult: 2
    decay_mult: 0
  }
  convolution_param {
    num_output: 128
    pad: 1
    kernel_size: 3
    stride: 1
  }
}
layer {
  name: "relu2_1"
  type: "ReLU"
  bottom: "conv2_1"
  top: "conv2_1"
}
layer {
  name: "conv2_2"
  type: "Convolution"
  bottom: "conv2_1"
  top: "conv2_2"
  param {
    lr_mult: 1
    decay_mult: 1
  }
  param {
    lr_mult: 2
    decay_mult: 0
  }
  convolution_param {
    num_output: 128
    pad: 1
    kernel_size: 3
    stride: 1
  }
}
layer {
  name: "relu2_2"
  type: "ReLU"
  bottom: "conv2_2"
  top: "conv2_2"
}
layer {
  name: "pool2"
  type: "Pooling"
  bottom: "conv2_2"
  top: "pool2"
  pooling_param {
    pool: MAX
    kernel_size: 2
    stride: 2
  }
}
layer {
  name: "conv3_1"
  type: "Convolution"
  bottom: "pool2"
  top: "conv3_1"
  param {
    lr_mult: 1
    decay_mult: 1
  }
  param {
    lr_mult: 2
    decay_mult: 0
  }
  convolution_param {
    num_output: 256
    pad: 1
    kernel_size: 3
    stride: 1
  }
}
layer {
  name: "relu3_1"
  type: "ReLU"
  bottom: "conv3_1"
  top: "conv3_1"
}
layer {
  name: "conv3_2"
  type: "Convolution"
  bottom: "conv3_1"
  top: "conv3_2"
  param {
    lr_mult: 1
    decay_mult: 1
  }
  param {
    lr_mult: 2
    decay_mult: 0
  }
  convolution_param {
    num_output: 256
    pad: 1
    kernel_size: 3
    stride: 1
  }
}
layer {
  name: "relu3_2"
  type: "ReLU"
  bottom: "conv3_2"
  top: "conv3_2"
}
layer {
  name: "conv3_3"
  type: "Convolution"
  bottom: "conv3_2"
  top: "conv3_3"
  param {
    lr_mult: 1
    decay_mult: 1
  }
  param {
    lr_mult: 2
    decay_mult: 0
  }
  convolution_param {
    num_output: 256
    pad: 1
    kernel_size: 3
    stride: 1
  }
}
layer {
  name: "relu3_3"
  type: "ReLU"
  bottom: "conv3_3"
  top: "conv3_3"
}
layer {
  name: "pool3"
  type: "Pooling"
  bottom: "conv3_3"
  top: "pool3"
  pooling_param {
    pool: MAX
    kernel_size: 2
    stride: 2
  }
}
layer {
  name: "conv4_1"
  type: "Convolution"
  bottom: "pool3"
  top: "conv4_1"
  param {
    lr_mult: 1
    decay_mult: 1
  }
  param {
    lr_mult: 2
    decay_mult: 0
  }
  convolution_param {
    num_output: 512
    pad: 1
    kernel_size: 3
    stride: 1
  }
}
layer {
  name: "relu4_1"
  type: "ReLU"
  bottom: "conv4_1"
  top: "conv4_1"
}
layer {
  name: "conv4_2"
  type: "Convolution"
  bottom: "conv4_1"
  top: "conv4_2"
  param {
    lr_mult: 1
    decay_mult: 1
  }
  param {
    lr_mult: 2
    decay_mult: 0
  }
  convolution_param {
    num_output: 512
    pad: 1
    kernel_size: 3
    stride: 1
  }
}
layer {
  name: "relu4_2"
  type: "ReLU"
  bottom: "conv4_2"
  top: "conv4_2"
}
layer {
  name: "conv4_3"
  type: "Convolution"
  bottom: "conv4_2"
  top: "conv4_3"
  param {
    lr_mult: 1
    decay_mult: 1
  }
  param {
    lr_mult: 2
    decay_mult: 0
  }
  convolution_param {
    num_output: 512
    pad: 1
    kernel_size: 3
    stride: 1
  }
}
layer {
  name: "relu4_3"
  type: "ReLU"
  bottom: "conv4_3"
  top: "conv4_3"
}
layer {
  name: "pool4"
  type: "Pooling"
  bottom: "conv4_3"
  top: "pool4"
  pooling_param {
    pool: MAX
    kernel_size: 2
    stride: 2
  }
}
layer {
  name: "conv5_1"
  type: "Convolution"
  bottom: "pool4"
  top: "conv5_1"
  param {
    lr_mult: 1
    decay_mult: 1
  }
  param {
    lr_mult: 2
    decay_mult: 0
  }
  convolution_param {
    num_output: 512
    pad: 1
    kernel_size: 3
    stride: 1
  }
}
layer {
  name: "relu5_1"
  type: "ReLU"
  bottom: "conv5_1"
  top: "conv5_1"
}
layer {
  name: "conv5_2"
  type: "Convolution"
  bottom: "conv5_1"
  top: "conv5_2"
  param {
    lr_mult: 1
    decay_mult: 1
  }
  param {
    lr_mult: 2
    decay_mult: 0
  }
  convolution_param {
    num_output: 512
    pad: 1
    kernel_size: 3
    stride: 1
  }
}
layer {
  name: "relu5_2"
  type: "ReLU"
  bottom: "conv5_2"
  top: "conv5_2"
}
layer {
  name: "conv5_3"
  type: "Convolution"
  bottom: "conv5_2"
  top: "conv5_3"
  param {
    lr_mult: 1
    decay_mult: 1
  }
  param {
    lr_mult: 2
    decay_mult: 0
  }
  convolution_param {
    num_output: 512
    pad: 1
    kernel_size: 3
    stride: 1
  }
}
layer {
  name: "relu5_3"
  type: "ReLU"
  bottom: "conv5_3"
  top: "conv5_3"
}
layer {
  name: "pool5"
  type: "Pooling"
  bottom: "conv5_3"
  top: "pool5"
  pooling_param {
    pool: MAX
    kernel_size: 2
    stride: 2
  }
}
layer {
  name: "fc6"
  type: "Convolution"
  bottom: "pool5"
  top: "fc6"
  param {
    lr_mult: 1
    decay_mult: 1
  }
  param {
    lr_mult: 2
    decay_mult: 0
  }
  convolution_param {
    num_output: 4096
    pad: 0
    kernel_size: 7
    stride: 1
  }
}
layer {
  name: "relu6"
  type: "ReLU"
  bottom: "fc6"
  top: "fc6"
}
layer {
  name: "drop6"
  type: "Dropout"
  bottom: "fc6"
  top: "fc6"
  dropout_param {
    dropout_ratio: 0.5
  }
}
layer {
  name: "fc7"
  type: "Convolution"
  bottom: "fc6"
  top: "fc7"
  param {
    lr_mult: 1
    decay_mult: 1
  }
  param {
    lr_mult: 2
    decay_mult: 0
  }
  convolution_param {
    num_output: 4096
    pad: 0
    kernel_size: 1
    stride: 1
  }
}
layer {
  name: "relu7"
  type: "ReLU"
  bottom: "fc7"
  top: "fc7"
}
layer {
  name: "drop7"
  type: "Dropout"
  bottom: "fc7"
  top: "fc7"
  dropout_param {
    dropout_ratio: 0.5
  }
}
layer {
  name: "score_fr"
  type: "Convolution"
  bottom: "fc7"
  top: "score_fr"
  param {
    lr_mult: 1
    decay_mult: 1
  }
  param {
    lr_mult: 2
    decay_mult: 0
  }
  convolution_param {
    num_output: 21
    pad: 0
    kernel_size: 1
  }
}
layer {
  name: "upscore"
  type: "Deconvolution"
  bottom: "score_fr"
  top: "upscore"
  param {
    lr_mult: 0
  }
  convolution_param {
    num_output: 21
    bias_term: false
    kernel_size: 64
    stride: 32
  }
}
layer {
  name: "score"
  type: "Crop"
  bottom: "upscore"
  bottom: "data"
  top: "score"
  crop_param {
    axis: 2
    offset: 19
  }
}
layer {
  name: "loss"
  type: "SoftmaxWithLoss"
  bottom: "score"
  bottom: "label"
  top: "loss"
  loss_param {
    ignore_label: 255
    normalize: false
  }
}
I0415 17:04:42.630282 21387 layer_factory.hpp:77] Creating layer data
I0415 17:04:42.630327 21387 net.cpp:91] Creating Layer data
I0415 17:04:42.630332 21387 net.cpp:399] data -> data
I0415 17:04:42.630338 21387 net.cpp:399] data -> label
I0415 17:04:42.636800 21387 net.cpp:141] Setting up data
I0415 17:04:42.636814 21387 net.cpp:148] Top shape: 1 3 366 500 (549000)
I0415 17:04:42.636819 21387 net.cpp:148] Top shape: 1 1 366 500 (183000)
I0415 17:04:42.636822 21387 net.cpp:156] Memory required for data: 2928000
I0415 17:04:42.636826 21387 layer_factory.hpp:77] Creating layer data_data_0_split
I0415 17:04:42.636832 21387 net.cpp:91] Creating Layer data_data_0_split
I0415 17:04:42.636836 21387 net.cpp:425] data_data_0_split <- data
I0415 17:04:42.636839 21387 net.cpp:399] data_data_0_split -> data_data_0_split_0
I0415 17:04:42.636845 21387 net.cpp:399] data_data_0_split -> data_data_0_split_1
I0415 17:04:42.636878 21387 net.cpp:141] Setting up data_data_0_split
I0415 17:04:42.636883 21387 net.cpp:148] Top shape: 1 3 366 500 (549000)
I0415 17:04:42.636888 21387 net.cpp:148] Top shape: 1 3 366 500 (549000)
I0415 17:04:42.636889 21387 net.cpp:156] Memory required for data: 7320000
I0415 17:04:42.636893 21387 layer_factory.hpp:77] Creating layer conv1_1
I0415 17:04:42.636899 21387 net.cpp:91] Creating Layer conv1_1
I0415 17:04:42.636903 21387 net.cpp:425] conv1_1 <- data_data_0_split_0
I0415 17:04:42.636906 21387 net.cpp:399] conv1_1 -> conv1_1
I0415 17:04:42.638422 21387 net.cpp:141] Setting up conv1_1
I0415 17:04:42.638442 21387 net.cpp:148] Top shape: 1 64 564 698 (25195008)
I0415 17:04:42.638447 21387 net.cpp:156] Memory required for data: 108100032
I0415 17:04:42.638455 21387 layer_factory.hpp:77] Creating layer relu1_1
I0415 17:04:42.638461 21387 net.cpp:91] Creating Layer relu1_1
I0415 17:04:42.638464 21387 net.cpp:425] relu1_1 <- conv1_1
I0415 17:04:42.638468 21387 net.cpp:386] relu1_1 -> conv1_1 (in-place)
I0415 17:04:42.638734 21387 net.cpp:141] Setting up relu1_1
I0415 17:04:42.638746 21387 net.cpp:148] Top shape: 1 64 564 698 (25195008)
I0415 17:04:42.638751 21387 net.cpp:156] Memory required for data: 208880064
I0415 17:04:42.638753 21387 layer_factory.hpp:77] Creating layer conv1_2
I0415 17:04:42.638761 21387 net.cpp:91] Creating Layer conv1_2
I0415 17:04:42.638764 21387 net.cpp:425] conv1_2 <- conv1_1
I0415 17:04:42.638768 21387 net.cpp:399] conv1_2 -> conv1_2
I0415 17:04:42.640293 21387 net.cpp:141] Setting up conv1_2
I0415 17:04:42.640307 21387 net.cpp:148] Top shape: 1 64 564 698 (25195008)
I0415 17:04:42.640321 21387 net.cpp:156] Memory required for data: 309660096
I0415 17:04:42.640329 21387 layer_factory.hpp:77] Creating layer relu1_2
I0415 17:04:42.640334 21387 net.cpp:91] Creating Layer relu1_2
I0415 17:04:42.640337 21387 net.cpp:425] relu1_2 <- conv1_2
I0415 17:04:42.640341 21387 net.cpp:386] relu1_2 -> conv1_2 (in-place)
I0415 17:04:42.640488 21387 net.cpp:141] Setting up relu1_2
I0415 17:04:42.640498 21387 net.cpp:148] Top shape: 1 64 564 698 (25195008)
I0415 17:04:42.640501 21387 net.cpp:156] Memory required for data: 410440128
I0415 17:04:42.640504 21387 layer_factory.hpp:77] Creating layer pool1
I0415 17:04:42.640509 21387 net.cpp:91] Creating Layer pool1
I0415 17:04:42.640512 21387 net.cpp:425] pool1 <- conv1_2
I0415 17:04:42.640516 21387 net.cpp:399] pool1 -> pool1
I0415 17:04:42.640557 21387 net.cpp:141] Setting up pool1
I0415 17:04:42.640563 21387 net.cpp:148] Top shape: 1 64 282 349 (6298752)
I0415 17:04:42.640565 21387 net.cpp:156] Memory required for data: 435635136
I0415 17:04:42.640568 21387 layer_factory.hpp:77] Creating layer conv2_1
I0415 17:04:42.640573 21387 net.cpp:91] Creating Layer conv2_1
I0415 17:04:42.640576 21387 net.cpp:425] conv2_1 <- pool1
I0415 17:04:42.640580 21387 net.cpp:399] conv2_1 -> conv2_1
I0415 17:04:42.641904 21387 net.cpp:141] Setting up conv2_1
I0415 17:04:42.641917 21387 net.cpp:148] Top shape: 1 128 282 349 (12597504)
I0415 17:04:42.641932 21387 net.cpp:156] Memory required for data: 486025152
I0415 17:04:42.641940 21387 layer_factory.hpp:77] Creating layer relu2_1
I0415 17:04:42.641947 21387 net.cpp:91] Creating Layer relu2_1
I0415 17:04:42.641949 21387 net.cpp:425] relu2_1 <- conv2_1
I0415 17:04:42.641953 21387 net.cpp:386] relu2_1 -> conv2_1 (in-place)
I0415 17:04:42.642215 21387 net.cpp:141] Setting up relu2_1
I0415 17:04:42.642227 21387 net.cpp:148] Top shape: 1 128 282 349 (12597504)
I0415 17:04:42.642231 21387 net.cpp:156] Memory required for data: 536415168
I0415 17:04:42.642235 21387 layer_factory.hpp:77] Creating layer conv2_2
I0415 17:04:42.642241 21387 net.cpp:91] Creating Layer conv2_2
I0415 17:04:42.642243 21387 net.cpp:425] conv2_2 <- conv2_1
I0415 17:04:42.642248 21387 net.cpp:399] conv2_2 -> conv2_2
I0415 17:04:42.643493 21387 net.cpp:141] Setting up conv2_2
I0415 17:04:42.643518 21387 net.cpp:148] Top shape: 1 128 282 349 (12597504)
I0415 17:04:42.643522 21387 net.cpp:156] Memory required for data: 586805184
I0415 17:04:42.643528 21387 layer_factory.hpp:77] Creating layer relu2_2
I0415 17:04:42.643532 21387 net.cpp:91] Creating Layer relu2_2
I0415 17:04:42.643537 21387 net.cpp:425] relu2_2 <- conv2_2
I0415 17:04:42.643540 21387 net.cpp:386] relu2_2 -> conv2_2 (in-place)
I0415 17:04:42.643800 21387 net.cpp:141] Setting up relu2_2
I0415 17:04:42.643813 21387 net.cpp:148] Top shape: 1 128 282 349 (12597504)
I0415 17:04:42.643816 21387 net.cpp:156] Memory required for data: 637195200
I0415 17:04:42.643820 21387 layer_factory.hpp:77] Creating layer pool2
I0415 17:04:42.643824 21387 net.cpp:91] Creating Layer pool2
I0415 17:04:42.643827 21387 net.cpp:425] pool2 <- conv2_2
I0415 17:04:42.643831 21387 net.cpp:399] pool2 -> pool2
I0415 17:04:42.643872 21387 net.cpp:141] Setting up pool2
I0415 17:04:42.643883 21387 net.cpp:148] Top shape: 1 128 141 175 (3158400)
I0415 17:04:42.643885 21387 net.cpp:156] Memory required for data: 649828800
I0415 17:04:42.643888 21387 layer_factory.hpp:77] Creating layer conv3_1
I0415 17:04:42.643893 21387 net.cpp:91] Creating Layer conv3_1
I0415 17:04:42.643898 21387 net.cpp:425] conv3_1 <- pool2
I0415 17:04:42.643900 21387 net.cpp:399] conv3_1 -> conv3_1
I0415 17:04:42.645222 21387 net.cpp:141] Setting up conv3_1
I0415 17:04:42.645236 21387 net.cpp:148] Top shape: 1 256 141 175 (6316800)
I0415 17:04:42.645239 21387 net.cpp:156] Memory required for data: 675096000
I0415 17:04:42.645247 21387 layer_factory.hpp:77] Creating layer relu3_1
I0415 17:04:42.645253 21387 net.cpp:91] Creating Layer relu3_1
I0415 17:04:42.645256 21387 net.cpp:425] relu3_1 <- conv3_1
I0415 17:04:42.645261 21387 net.cpp:386] relu3_1 -> conv3_1 (in-place)
I0415 17:04:42.645395 21387 net.cpp:141] Setting up relu3_1
I0415 17:04:42.645406 21387 net.cpp:148] Top shape: 1 256 141 175 (6316800)
I0415 17:04:42.645408 21387 net.cpp:156] Memory required for data: 700363200
I0415 17:04:42.645411 21387 layer_factory.hpp:77] Creating layer conv3_2
I0415 17:04:42.645416 21387 net.cpp:91] Creating Layer conv3_2
I0415 17:04:42.645419 21387 net.cpp:425] conv3_2 <- conv3_1
I0415 17:04:42.645424 21387 net.cpp:399] conv3_2 -> conv3_2
I0415 17:04:42.647222 21387 net.cpp:141] Setting up conv3_2
I0415 17:04:42.647245 21387 net.cpp:148] Top shape: 1 256 141 175 (6316800)
I0415 17:04:42.647249 21387 net.cpp:156] Memory required for data: 725630400
I0415 17:04:42.647255 21387 layer_factory.hpp:77] Creating layer relu3_2
I0415 17:04:42.647260 21387 net.cpp:91] Creating Layer relu3_2
I0415 17:04:42.647264 21387 net.cpp:425] relu3_2 <- conv3_2
I0415 17:04:42.647269 21387 net.cpp:386] relu3_2 -> conv3_2 (in-place)
I0415 17:04:42.647537 21387 net.cpp:141] Setting up relu3_2
I0415 17:04:42.647549 21387 net.cpp:148] Top shape: 1 256 141 175 (6316800)
I0415 17:04:42.647552 21387 net.cpp:156] Memory required for data: 750897600
I0415 17:04:42.647555 21387 layer_factory.hpp:77] Creating layer conv3_3
I0415 17:04:42.647563 21387 net.cpp:91] Creating Layer conv3_3
I0415 17:04:42.647567 21387 net.cpp:425] conv3_3 <- conv3_2
I0415 17:04:42.647572 21387 net.cpp:399] conv3_3 -> conv3_3
I0415 17:04:42.649140 21387 net.cpp:141] Setting up conv3_3
I0415 17:04:42.649154 21387 net.cpp:148] Top shape: 1 256 141 175 (6316800)
I0415 17:04:42.649158 21387 net.cpp:156] Memory required for data: 776164800
I0415 17:04:42.649163 21387 layer_factory.hpp:77] Creating layer relu3_3
I0415 17:04:42.649168 21387 net.cpp:91] Creating Layer relu3_3
I0415 17:04:42.649173 21387 net.cpp:425] relu3_3 <- conv3_3
I0415 17:04:42.649176 21387 net.cpp:386] relu3_3 -> conv3_3 (in-place)
I0415 17:04:42.649432 21387 net.cpp:141] Setting up relu3_3
I0415 17:04:42.649444 21387 net.cpp:148] Top shape: 1 256 141 175 (6316800)
I0415 17:04:42.649447 21387 net.cpp:156] Memory required for data: 801432000
I0415 17:04:42.649451 21387 layer_factory.hpp:77] Creating layer pool3
I0415 17:04:42.649456 21387 net.cpp:91] Creating Layer pool3
I0415 17:04:42.649459 21387 net.cpp:425] pool3 <- conv3_3
I0415 17:04:42.649463 21387 net.cpp:399] pool3 -> pool3
I0415 17:04:42.649503 21387 net.cpp:141] Setting up pool3
I0415 17:04:42.649510 21387 net.cpp:148] Top shape: 1 256 71 88 (1599488)
I0415 17:04:42.649513 21387 net.cpp:156] Memory required for data: 807829952
I0415 17:04:42.649515 21387 layer_factory.hpp:77] Creating layer conv4_1
I0415 17:04:42.649521 21387 net.cpp:91] Creating Layer conv4_1
I0415 17:04:42.649524 21387 net.cpp:425] conv4_1 <- pool3
I0415 17:04:42.649528 21387 net.cpp:399] conv4_1 -> conv4_1
I0415 17:04:42.651944 21387 net.cpp:141] Setting up conv4_1
I0415 17:04:42.651957 21387 net.cpp:148] Top shape: 1 512 71 88 (3198976)
I0415 17:04:42.651973 21387 net.cpp:156] Memory required for data: 820625856
I0415 17:04:42.651978 21387 layer_factory.hpp:77] Creating layer relu4_1
I0415 17:04:42.651983 21387 net.cpp:91] Creating Layer relu4_1
I0415 17:04:42.651986 21387 net.cpp:425] relu4_1 <- conv4_1
I0415 17:04:42.651991 21387 net.cpp:386] relu4_1 -> conv4_1 (in-place)
I0415 17:04:42.652127 21387 net.cpp:141] Setting up relu4_1
I0415 17:04:42.652135 21387 net.cpp:148] Top shape: 1 512 71 88 (3198976)
I0415 17:04:42.652138 21387 net.cpp:156] Memory required for data: 833421760
I0415 17:04:42.652142 21387 layer_factory.hpp:77] Creating layer conv4_2
I0415 17:04:42.652148 21387 net.cpp:91] Creating Layer conv4_2
I0415 17:04:42.652150 21387 net.cpp:425] conv4_2 <- conv4_1
I0415 17:04:42.652155 21387 net.cpp:399] conv4_2 -> conv4_2
I0415 17:04:42.655808 21387 net.cpp:141] Setting up conv4_2
I0415 17:04:42.655833 21387 net.cpp:148] Top shape: 1 512 71 88 (3198976)
I0415 17:04:42.655838 21387 net.cpp:156] Memory required for data: 846217664
I0415 17:04:42.655846 21387 layer_factory.hpp:77] Creating layer relu4_2
I0415 17:04:42.655853 21387 net.cpp:91] Creating Layer relu4_2
I0415 17:04:42.655856 21387 net.cpp:425] relu4_2 <- conv4_2
I0415 17:04:42.655860 21387 net.cpp:386] relu4_2 -> conv4_2 (in-place)
I0415 17:04:42.656131 21387 net.cpp:141] Setting up relu4_2
I0415 17:04:42.656142 21387 net.cpp:148] Top shape: 1 512 71 88 (3198976)
I0415 17:04:42.656147 21387 net.cpp:156] Memory required for data: 859013568
I0415 17:04:42.656149 21387 layer_factory.hpp:77] Creating layer conv4_3
I0415 17:04:42.656157 21387 net.cpp:91] Creating Layer conv4_3
I0415 17:04:42.656162 21387 net.cpp:425] conv4_3 <- conv4_2
I0415 17:04:42.656165 21387 net.cpp:399] conv4_3 -> conv4_3
I0415 17:04:42.659777 21387 net.cpp:141] Setting up conv4_3
I0415 17:04:42.659795 21387 net.cpp:148] Top shape: 1 512 71 88 (3198976)
I0415 17:04:42.659800 21387 net.cpp:156] Memory required for data: 871809472
I0415 17:04:42.659806 21387 layer_factory.hpp:77] Creating layer relu4_3
I0415 17:04:42.659812 21387 net.cpp:91] Creating Layer relu4_3
I0415 17:04:42.659816 21387 net.cpp:425] relu4_3 <- conv4_3
I0415 17:04:42.659821 21387 net.cpp:386] relu4_3 -> conv4_3 (in-place)
I0415 17:04:42.660096 21387 net.cpp:141] Setting up relu4_3
I0415 17:04:42.660109 21387 net.cpp:148] Top shape: 1 512 71 88 (3198976)
I0415 17:04:42.660112 21387 net.cpp:156] Memory required for data: 884605376
I0415 17:04:42.660115 21387 layer_factory.hpp:77] Creating layer pool4
I0415 17:04:42.660122 21387 net.cpp:91] Creating Layer pool4
I0415 17:04:42.660125 21387 net.cpp:425] pool4 <- conv4_3
I0415 17:04:42.660130 21387 net.cpp:399] pool4 -> pool4
I0415 17:04:42.660176 21387 net.cpp:141] Setting up pool4
I0415 17:04:42.660183 21387 net.cpp:148] Top shape: 1 512 36 44 (811008)
I0415 17:04:42.660187 21387 net.cpp:156] Memory required for data: 887849408
I0415 17:04:42.660188 21387 layer_factory.hpp:77] Creating layer conv5_1
I0415 17:04:42.660197 21387 net.cpp:91] Creating Layer conv5_1
I0415 17:04:42.660199 21387 net.cpp:425] conv5_1 <- pool4
I0415 17:04:42.660204 21387 net.cpp:399] conv5_1 -> conv5_1
I0415 17:04:42.663945 21387 net.cpp:141] Setting up conv5_1
I0415 17:04:42.663961 21387 net.cpp:148] Top shape: 1 512 36 44 (811008)
I0415 17:04:42.663964 21387 net.cpp:156] Memory required for data: 891093440
I0415 17:04:42.663970 21387 layer_factory.hpp:77] Creating layer relu5_1
I0415 17:04:42.663976 21387 net.cpp:91] Creating Layer relu5_1
I0415 17:04:42.663980 21387 net.cpp:425] relu5_1 <- conv5_1
I0415 17:04:42.663985 21387 net.cpp:386] relu5_1 -> conv5_1 (in-place)
I0415 17:04:42.664134 21387 net.cpp:141] Setting up relu5_1
I0415 17:04:42.664144 21387 net.cpp:148] Top shape: 1 512 36 44 (811008)
I0415 17:04:42.664146 21387 net.cpp:156] Memory required for data: 894337472
I0415 17:04:42.664149 21387 layer_factory.hpp:77] Creating layer conv5_2
I0415 17:04:42.664158 21387 net.cpp:91] Creating Layer conv5_2
I0415 17:04:42.664161 21387 net.cpp:425] conv5_2 <- conv5_1
I0415 17:04:42.664165 21387 net.cpp:399] conv5_2 -> conv5_2
I0415 17:04:42.667810 21387 net.cpp:141] Setting up conv5_2
I0415 17:04:42.667837 21387 net.cpp:148] Top shape: 1 512 36 44 (811008)
I0415 17:04:42.667840 21387 net.cpp:156] Memory required for data: 897581504
I0415 17:04:42.667846 21387 layer_factory.hpp:77] Creating layer relu5_2
I0415 17:04:42.667852 21387 net.cpp:91] Creating Layer relu5_2
I0415 17:04:42.667856 21387 net.cpp:425] relu5_2 <- conv5_2
I0415 17:04:42.667861 21387 net.cpp:386] relu5_2 -> conv5_2 (in-place)
I0415 17:04:42.668135 21387 net.cpp:141] Setting up relu5_2
I0415 17:04:42.668148 21387 net.cpp:148] Top shape: 1 512 36 44 (811008)
I0415 17:04:42.668150 21387 net.cpp:156] Memory required for data: 900825536
I0415 17:04:42.668154 21387 layer_factory.hpp:77] Creating layer conv5_3
I0415 17:04:42.668162 21387 net.cpp:91] Creating Layer conv5_3
I0415 17:04:42.668165 21387 net.cpp:425] conv5_3 <- conv5_2
I0415 17:04:42.668170 21387 net.cpp:399] conv5_3 -> conv5_3
I0415 17:04:42.671771 21387 net.cpp:141] Setting up conv5_3
I0415 17:04:42.671785 21387 net.cpp:148] Top shape: 1 512 36 44 (811008)
I0415 17:04:42.671789 21387 net.cpp:156] Memory required for data: 904069568
I0415 17:04:42.671795 21387 layer_factory.hpp:77] Creating layer relu5_3
I0415 17:04:42.671800 21387 net.cpp:91] Creating Layer relu5_3
I0415 17:04:42.671803 21387 net.cpp:425] relu5_3 <- conv5_3
I0415 17:04:42.671808 21387 net.cpp:386] relu5_3 -> conv5_3 (in-place)
I0415 17:04:42.672087 21387 net.cpp:141] Setting up relu5_3
I0415 17:04:42.672099 21387 net.cpp:148] Top shape: 1 512 36 44 (811008)
I0415 17:04:42.672102 21387 net.cpp:156] Memory required for data: 907313600
I0415 17:04:42.672106 21387 layer_factory.hpp:77] Creating layer pool5
I0415 17:04:42.672116 21387 net.cpp:91] Creating Layer pool5
I0415 17:04:42.672118 21387 net.cpp:425] pool5 <- conv5_3
I0415 17:04:42.672123 21387 net.cpp:399] pool5 -> pool5
I0415 17:04:42.672170 21387 net.cpp:141] Setting up pool5
I0415 17:04:42.672178 21387 net.cpp:148] Top shape: 1 512 18 22 (202752)
I0415 17:04:42.672180 21387 net.cpp:156] Memory required for data: 908124608
I0415 17:04:42.672183 21387 layer_factory.hpp:77] Creating layer fc6
I0415 17:04:42.672189 21387 net.cpp:91] Creating Layer fc6
I0415 17:04:42.672194 21387 net.cpp:425] fc6 <- pool5
I0415 17:04:42.672196 21387 net.cpp:399] fc6 -> fc6
I0415 17:04:42.829361 21387 net.cpp:141] Setting up fc6
I0415 17:04:42.829406 21387 net.cpp:148] Top shape: 1 4096 12 16 (786432)
I0415 17:04:42.829409 21387 net.cpp:156] Memory required for data: 911270336
I0415 17:04:42.829418 21387 layer_factory.hpp:77] Creating layer relu6
I0415 17:04:42.829428 21387 net.cpp:91] Creating Layer relu6
I0415 17:04:42.829433 21387 net.cpp:425] relu6 <- fc6
I0415 17:04:42.829438 21387 net.cpp:386] relu6 -> fc6 (in-place)
I0415 17:04:42.829591 21387 net.cpp:141] Setting up relu6
I0415 17:04:42.829601 21387 net.cpp:148] Top shape: 1 4096 12 16 (786432)
I0415 17:04:42.829604 21387 net.cpp:156] Memory required for data: 914416064
I0415 17:04:42.829607 21387 layer_factory.hpp:77] Creating layer drop6
I0415 17:04:42.829613 21387 net.cpp:91] Creating Layer drop6
I0415 17:04:42.829617 21387 net.cpp:425] drop6 <- fc6
I0415 17:04:42.829619 21387 net.cpp:386] drop6 -> fc6 (in-place)
I0415 17:04:42.829650 21387 net.cpp:141] Setting up drop6
I0415 17:04:42.829655 21387 net.cpp:148] Top shape: 1 4096 12 16 (786432)
I0415 17:04:42.829658 21387 net.cpp:156] Memory required for data: 917561792
I0415 17:04:42.829660 21387 layer_factory.hpp:77] Creating layer fc7
I0415 17:04:42.829668 21387 net.cpp:91] Creating Layer fc7
I0415 17:04:42.829671 21387 net.cpp:425] fc7 <- fc6
I0415 17:04:42.829676 21387 net.cpp:399] fc7 -> fc7
I0415 17:04:42.856689 21387 net.cpp:141] Setting up fc7
I0415 17:04:42.856721 21387 net.cpp:148] Top shape: 1 4096 12 16 (786432)
I0415 17:04:42.856725 21387 net.cpp:156] Memory required for data: 920707520
I0415 17:04:42.856734 21387 layer_factory.hpp:77] Creating layer relu7
I0415 17:04:42.856745 21387 net.cpp:91] Creating Layer relu7
I0415 17:04:42.856750 21387 net.cpp:425] relu7 <- fc7
I0415 17:04:42.856755 21387 net.cpp:386] relu7 -> fc7 (in-place)
I0415 17:04:42.857044 21387 net.cpp:141] Setting up relu7
I0415 17:04:42.857056 21387 net.cpp:148] Top shape: 1 4096 12 16 (786432)
I0415 17:04:42.857060 21387 net.cpp:156] Memory required for data: 923853248
I0415 17:04:42.857064 21387 layer_factory.hpp:77] Creating layer drop7
I0415 17:04:42.857069 21387 net.cpp:91] Creating Layer drop7
I0415 17:04:42.857072 21387 net.cpp:425] drop7 <- fc7
I0415 17:04:42.857076 21387 net.cpp:386] drop7 -> fc7 (in-place)
I0415 17:04:42.857110 21387 net.cpp:141] Setting up drop7
I0415 17:04:42.857115 21387 net.cpp:148] Top shape: 1 4096 12 16 (786432)
I0415 17:04:42.857117 21387 net.cpp:156] Memory required for data: 926998976
I0415 17:04:42.857120 21387 layer_factory.hpp:77] Creating layer score_fr
I0415 17:04:42.857128 21387 net.cpp:91] Creating Layer score_fr
I0415 17:04:42.857131 21387 net.cpp:425] score_fr <- fc7
I0415 17:04:42.857136 21387 net.cpp:399] score_fr -> score_fr
I0415 17:04:42.858026 21387 net.cpp:141] Setting up score_fr
I0415 17:04:42.858038 21387 net.cpp:148] Top shape: 1 21 12 16 (4032)
I0415 17:04:42.858042 21387 net.cpp:156] Memory required for data: 927015104
I0415 17:04:42.858047 21387 layer_factory.hpp:77] Creating layer upscore
I0415 17:04:42.858054 21387 net.cpp:91] Creating Layer upscore
I0415 17:04:42.858057 21387 net.cpp:425] upscore <- score_fr
I0415 17:04:42.858062 21387 net.cpp:399] upscore -> upscore
I0415 17:04:42.860426 21387 net.cpp:141] Setting up upscore
I0415 17:04:42.860440 21387 net.cpp:148] Top shape: 1 21 416 544 (4752384)
I0415 17:04:42.860442 21387 net.cpp:156] Memory required for data: 946024640
I0415 17:04:42.860451 21387 layer_factory.hpp:77] Creating layer score
I0415 17:04:42.860457 21387 net.cpp:91] Creating Layer score
I0415 17:04:42.860461 21387 net.cpp:425] score <- upscore
I0415 17:04:42.860465 21387 net.cpp:425] score <- data_data_0_split_1
I0415 17:04:42.860469 21387 net.cpp:399] score -> score
I0415 17:04:42.860496 21387 net.cpp:141] Setting up score
I0415 17:04:42.860502 21387 net.cpp:148] Top shape: 1 21 366 500 (3843000)
I0415 17:04:42.860504 21387 net.cpp:156] Memory required for data: 961396640
I0415 17:04:42.860507 21387 layer_factory.hpp:77] Creating layer loss
I0415 17:04:42.860512 21387 net.cpp:91] Creating Layer loss
I0415 17:04:42.860515 21387 net.cpp:425] loss <- score
I0415 17:04:42.860518 21387 net.cpp:425] loss <- label
I0415 17:04:42.860522 21387 net.cpp:399] loss -> loss
I0415 17:04:42.860527 21387 layer_factory.hpp:77] Creating layer loss
…
