…
state {
  phase: TRAIN
}
layer {
  name: "data"
  type: "Data"
  top: "data"
  include {
    phase: TRAIN
  }
  transform_param {
    mean_value: 104.00699
    mean_value: 116.66877
    mean_value: 122.67892
  }
  data_param {
    source: "/home/shared/datasets/VOCdevkit/VOC2012/LMDB/train_lmdb"
    batch_size: 1
    backend: LMDB
  }
}
layer {
  name: "label"
  type: "Data"
  top: "label"
  include {
    phase: TRAIN
  }
  data_param {
    source: "/home/shared/datasets/VOCdevkit/VOC2012/LMDB/train_gt_lmdb"
    batch_size: 1
    backend: LMDB
  }
}
layer {
  name: "conv1_1"
  type: "Convolution"
  bottom: "data"
  top: "conv1_1"
  param {
    lr_mult: 1
    decay_mult: 1
  }
  param {
    lr_mult: 2
    decay_mult: 0
  }
  convolution_param {
    num_output: 64
    pad: 1
    kernel_size: 3
    weight_filler {
      type: "msra"
    }
    bias_filler {
      type: "constant"
    }
  }
}
layer {
  name: "conv1_1_bn"
  type: "BN"
  bottom: "conv1_1"
  top: "conv1_1"
  param {
    lr_mult: 1
    decay_mult: 1
  }
  param {
    lr_mult: 1
    decay_mult: 0
  }
  bn_param {
    scale_filler {
      type: "constant"
      value: 1
    }
    shift_filler {
      type: "constant"
      value: 0.001
    }
  }
}
layer {
  name: "relu1_1"
  type: "ReLU"
  bottom: "conv1_1"
  top: "conv1_1"
}
layer {
  name: "conv1_2"
  type: "Convolution"
  bottom: "conv1_1"
  top: "conv1_2"
  param {
    lr_mult: 1
    decay_mult: 1
  }
  param {
    lr_mult: 2
    decay_mult: 0
  }
  convolution_param {
    num_output: 64
    pad: 1
    kernel_size: 3
    weight_filler {
      type: "msra"
    }
    bias_filler {
      type: "constant"
    }
  }
}
layer {
  name: "conv1_2_bn"
  type: "BN"
  bottom: "conv1_2"
  top: "conv1_2"
  param {
    lr_mult: 1
    decay_mult: 1
  }
  param {
    lr_mult: 1
    decay_mult: 0
  }
  bn_param {
    scale_filler {
      type: "constant"
      value: 1
    }
    shift_filler {
      type: "constant"
      value: 0.001
    }
  }
}
layer {
  name: "relu1_2"
  type: "ReLU"
  bottom: "conv1_2"
  top: "conv1_2"
}
layer {
  name: "pool1"
  type: "Pooling"
  bottom: "conv1_2"
  top: "pool1"
  top: "pool1_mask"
  pooling_param {
    pool: MAX
    kernel_size: 2
    stride: 2
  }
}
layer {
  name: "conv2_1"
  type: "Convolution"
  bottom: "pool1"
  top: "conv2_1"
  param {
    lr_mult: 1
    decay_mult: 1
  }
  param {
    lr_mult: 2
    decay_mult: 0
  }
  convolution_param {
    num_output: 128
    pad: 1
    kernel_size: 3
    weight_filler {
      type: "msra"
    }
    bias_filler {
      type: "constant"
    }
  }
}
layer {
  name: "conv2_1_bn"
  type: "BN"
  bottom: "conv2_1"
  top: "conv2_1"
  param {
    lr_mult: 1
    decay_mult: 1
  }
  param {
    lr_mult: 1
    decay_mult: 0
  }
  bn_param {
    scale_filler {
      type: "constant"
      value: 1
    }
    shift_filler {
      type: "constant"
      value: 0.001
    }
  }
}
layer {
  name: "relu2_1"
  type: "ReLU"
  bottom: "conv2_1"
  top: "conv2_1"
}
layer {
  name: "conv2_2"
  type: "Convolution"
  bottom: "conv2_1"
  top: "conv2_2"
  param {
    lr_mult: 1
    decay_mult: 1
  }
  param {
    lr_mult: 2
    decay_mult: 0
  }
  convolution_param {
    num_output: 128
    pad: 1
    kernel_size: 3
    weight_filler {
      type: "msra"
    }
    bias_filler {
      type: "constant"
    }
  }
}
layer {
  name: "conv2_2_bn"
  type: "BN"
  bottom: "conv2_2"
  top: "conv2_2"
  param {
    lr_mult: 1
    decay_mult: 1
  }
  param {
    lr_mult: 1
    decay_mult: 0
  }
  bn_param {
    scale_filler {
      type: "constant"
      value: 1
    }
    shift_filler {
      type: "constant"
      value: 0.001
    }
  }
}
layer {
  name: "relu2_2"
  type: "ReLU"
  bottom: "conv2_2"
  top: "conv2_2"
}
layer {
  name: "pool2"
  type: "Pooling"
  bottom: "conv2_2"
  top: "pool2"
  top: "pool2_mask"
  pooling_param {
    pool: MAX
    kernel_size: 2
    stride: 2
  }
}
layer {
  name: "conv3_1"
  type: "Convolution"
  bottom: "pool2"
  top: "conv3_1"
  param {
    lr_mult: 1
    decay_mult: 1
  }
  param {
    lr_mult: 2
    decay_mult: 0
  }
  convolution_param {
    num_output: 256
    pad: 1
    kernel_size: 3
    weight_filler {
      type: "msra"
    }
    bias_filler {
      type: "constant"
    }
  }
}
layer {
  name: "conv3_1_bn"
  type: "BN"
  bottom: "conv3_1"
  top: "conv3_1"
  param {
    lr_mult: 1
    decay_mult: 1
  }
  param {
    lr_mult: 1
    decay_mult: 0
  }
  bn_param {
    scale_filler {
      type: "constant"
      value: 1
    }
    shift_filler {
      type: "constant"
      value: 0.001
    }
  }
}
layer {
  name: "relu3_1"
  type: "ReLU"
  bottom: "conv3_1"
  top: "conv3_1"
}
layer {
  name: "conv3_2"
  type: "Convolution"
  bottom: "conv3_1"
  top: "conv3_2"
  param {
    lr_mult: 1
    decay_mult: 1
  }
  param {
    lr_mult: 2
    decay_mult: 0
  }
  convolution_param {
    num_output: 256
    pad: 1
    kernel_size: 3
    weight_filler {
      type: "msra"
    }
    bias_filler {
      type: "constant"
    }
  }
}
layer {
  name: "conv3_2_bn"
  type: "BN"
  bottom: "conv3_2"
  top: "conv3_2"
  param {
    lr_mult: 1
    decay_mult: 1
  }
  param {
    lr_mult: 1
    decay_mult: 0
  }
  bn_param {
    scale_filler {
      type: "constant"
      value: 1
    }
    shift_filler {
      type: "constant"
      value: 0.001
    }
  }
}
layer {
  name: "relu3_2"
  type: "ReLU"
  bottom: "conv3_2"
  top: "conv3_2"
}
layer {
  name: "conv3_3"
  type: "Convolution"
  bottom: "conv3_2"
  top: "conv3_3"
  param {
    lr_mult: 1
    decay_mult: 1
  }
  param {
    lr_mult: 2
    decay_mult: 0
  }
  convolution_param {
    num_output: 256
    pad: 1
    kernel_size: 3
    weight_filler {
      type: "msra"
    }
    bias_filler {
      type: "constant"
    }
  }
}
layer {
  name: "conv3_3_bn"
  type: "BN"
  bottom: "conv3_3"
  top: "conv3_3"
  param {
    lr_mult: 1
    decay_mult: 1
  }
  param {
    lr_mult: 1
    decay_mult: 0
  }
  bn_param {
    scale_filler {
      type: "constant"
      value: 1
    }
    shift_filler {
      type: "constant"
      value: 0.001
    }
  }
}
layer {
  name: "relu3_3"
  type: "ReLU"
  bottom: "conv3_3"
  top: "conv3_3"
}
layer {
  name: "pool3"
  type: "Pooling"
  bottom: "conv3_3"
  top: "pool3"
  top: "pool3_mask"
  pooling_param {
    pool: MAX
    kernel_size: 2
    stride: 2
  }
}
layer {
  name: "conv4_1"
  type: "Convolution"
  bottom: "pool3"
  top: "conv4_1"
  param {
    lr_mult: 1
    decay_mult: 1
  }
  param {
    lr_mult: 2
    decay_mult: 0
  }
  convolution_param {
    num_output: 512
    pad: 1
    kernel_size: 3
    weight_filler {
      type: "msra"
    }
    bias_filler {
      type: "constant"
    }
  }
}
layer {
  name: "conv4_1_bn"
  type: "BN"
  bottom: "conv4_1"
  top: "conv4_1"
  param {
    lr_mult: 1
    decay_mult: 1
  }
  param {
    lr_mult: 1
    decay_mult: 0
  }
  bn_param {
    scale_filler {
      type: "constant"
      value: 1
    }
    shift_filler {
      type: "constant"
      value: 0.001
    }
  }
}
layer {
  name: "relu4_1"
  type: "ReLU"
  bottom: "conv4_1"
  top: "conv4_1"
}
layer {
  name: "conv4_2"
  type: "Convolution"
  bottom: "conv4_1"
  top: "conv4_2"
  param {
    lr_mult: 1
    decay_mult: 1
  }
  param {
    lr_mult: 2
    decay_mult: 0
  }
  convolution_param {
    num_output: 512
    pad: 1
    kernel_size: 3
    weight_filler {
      type: "msra"
    }
    bias_filler {
      type: "constant"
    }
  }
}
layer {
  name: "conv4_2_bn"
  type: "BN"
  bottom: "conv4_2"
  top: "conv4_2"
  param {
    lr_mult: 1
    decay_mult: 1
  }
  param {
    lr_mult: 1
    decay_mult: 0
  }
  bn_param {
    scale_filler {
      type: "constant"
      value: 1
    }
    shift_filler {
      type: "constant"
      value: 0.001
    }
  }
}
layer {
  name: "relu4_2"
  type: "ReLU"
  bottom: "conv4_2"
  top: "conv4_2"
}
layer {
  name: "conv4_3"
  type: "Convolution"
  bottom: "conv4_2"
  top: "conv4_3"
  param {
    lr_mult: 1
    decay_mult: 1
  }
  param {
    lr_mult: 2
    decay_mult: 0
  }
  convolution_param {
    num_output: 512
    pad: 1
    kernel_size: 3
    weight_filler {
      type: "msra"
    }
    bias_filler {
      type: "constant"
    }
  }
}
layer {
  name: "conv4_3_bn"
  type: "BN"
  bottom: "conv4_3"
  top: "conv4_3"
  param {
    lr_mult: 1
    decay_mult: 1
  }
  param {
    lr_mult: 1
    decay_mult: 0
  }
  bn_param {
    scale_filler {
      type: "constant"
      value: 1
    }
    shift_filler {
      type: "constant"
      value: 0.001
    }
  }
}
layer {
  name: "relu4_3"
  type: "ReLU"
  bottom: "conv4_3"
  top: "conv4_3"
}
layer {
  name: "pool4"
  type: "Pooling"
  bottom: "conv4_3"
  top: "pool4"
  top: "pool4_mask"
  pooling_param {
    pool: MAX
    kernel_size: 2
    stride: 2
  }
}
layer {
  name: "conv5_1"
  type: "Convolution"
  bottom: "pool4"
  top: "conv5_1"
  param {
    lr_mult: 1
    decay_mult: 1
  }
  param {
    lr_mult: 2
    decay_mult: 0
  }
  convolution_param {
    num_output: 512
    pad: 1
    kernel_size: 3
    weight_filler {
      type: "msra"
    }
    bias_filler {
      type: "constant"
    }
  }
}
layer {
  name: "conv5_1_bn"
  type: "BN"
  bottom: "conv5_1"
  top: "conv5_1"
  param {
    lr_mult: 1
    decay_mult: 1
  }
  param {
    lr_mult: 1
    decay_mult: 0
  }
  bn_param {
    scale_filler {
      type: "constant"
      value: 1
    }
    shift_filler {
      type: "constant"
      value: 0.001
    }
  }
}
layer {
  name: "relu5_1"
  type: "ReLU"
  bottom: "conv5_1"
  top: "conv5_1"
}
layer {
  name: "conv5_2"
  type: "Convolution"
  bottom: "conv5_1"
  top: "conv5_2"
  param {
    lr_mult: 1
    decay_mult: 1
  }
  param {
    lr_mult: 2
    decay_mult: 0
  }
  convolution_param {
    num_output: 512
    pad: 1
    kernel_size: 3
    weight_filler {
      type: "msra"
    }
    bias_filler {
      type: "constant"
    }
  }
}
layer {
  name: "conv5_2_bn"
  type: "BN"
  bottom: "conv5_2"
  top: "conv5_2"
  param {
    lr_mult: 1
    decay_mult: 1
  }
  param {
    lr_mult: 1
    decay_mult: 0
  }
  bn_param {
    scale_filler {
      type: "constant"
      value: 1
    }
    shift_filler {
      type: "constant"
      value: 0.001
    }
  }
}
layer {
  name: "relu5_2"
  type: "ReLU"
  bottom: "conv5_2"
  top: "conv5_2"
}
layer {
  name: "conv5_3"
  type: "Convolution"
  bottom: "conv5_2"
  top: "conv5_3"
  param {
    lr_mult: 1
    decay_mult: 1
  }
  param {
    lr_mult: 2
    decay_mult: 0
  }
  convolution_param {
    num_output: 512
    pad: 1
    kernel_size: 3
    weight_filler {
      type: "msra"
    }
    bias_filler {
      type: "constant"
    }
  }
}
layer {
  name: "conv5_3_bn"
  type: "BN"
  bottom: "conv5_3"
  top: "conv5_3"
  param {
    lr_mult: 1
    decay_mult: 1
  }
  param {
    lr_mult: 1
    decay_mult: 0
  }
  bn_param {
    scale_filler {
      type: "constant"
      value: 1
    }
    shift_filler {
      type: "constant"
      value: 0.001
    }
  }
}
layer {
  name: "relu5_3"
  type: "ReLU"
  bottom: "conv5_3"
  top: "conv5_3"
}
layer {
  name: "pool5"
  type: "Pooling"
  bottom: "conv5_3"
  top: "pool5"
  top: "pool5_mask"
  pooling_param {
    pool: MAX
    kernel_size: 2
    stride: 2
  }
}
layer {
  name: "upsample5"
  type: "Upsample"
  bottom: "pool5"
  bottom: "pool5_mask"
  top: "pool5_D"
  upsample_param {
    scale: 2
    upsample_h: 32
    upsample_w: 32
  }
}
layer {
  name: "conv5_3_D"
  type: "Convolution"
  bottom: "pool5_D"
  top: "conv5_3_D"
  param {
    lr_mult: 1
    decay_mult: 1
  }
  param {
    lr_mult: 2
    decay_mult: 0
  }
  convolution_param {
    num_output: 512
    pad: 1
    kernel_size: 3
    weight_filler {
      type: "msra"
    }
    bias_filler {
      type: "constant"
    }
  }
}
layer {
  name: "conv5_3_D_bn"
  type: "BN"
  bottom: "conv5_3_D"
  top: "conv5_3_D"
  param {
    lr_mult: 1
    decay_mult: 1
  }
  param {
    lr_mult: 1
    decay_mult: 0
  }
  bn_param {
    scale_filler {
      type: "constant"
      value: 1
    }
    shift_filler {
      type: "constant"
      value: 0.001
    }
  }
}
layer {
  name: "relu5_3_D"
  type: "ReLU"
  bottom: "conv5_3_D"
  top: "conv5_3_D"
}
layer {
  name: "conv5_2_D"
  type: "Convolution"
  bottom: "conv5_3_D"
  top: "conv5_2_D"
  param {
    lr_mult: 1
    decay_mult: 1
  }
  param {
    lr_mult: 2
    decay_mult: 0
  }
  convolution_param {
    num_output: 512
    pad: 1
    kernel_size: 3
    weight_filler {
      type: "msra"
    }
    bias_filler {
      type: "constant"
    }
  }
}
layer {
  name: "conv5_2_D_bn"
  type: "BN"
  bottom: "conv5_2_D"
  top: "conv5_2_D"
  param {
    lr_mult: 1
    decay_mult: 1
  }
  param {
    lr_mult: 1
    decay_mult: 0
  }
  bn_param {
    scale_filler {
      type: "constant"
      value: 1
    }
    shift_filler {
      type: "constant"
      value: 0.001
    }
  }
}
layer {
  name: "relu5_2_D"
  type: "ReLU"
  bottom: "conv5_2_D"
  top: "conv5_2_D"
}
layer {
  name: "conv5_1_D"
  type: "Convolution"
  bottom: "conv5_2_D"
  top: "conv5_1_D"
  param {
    lr_mult: 1
    decay_mult: 1
  }
  param {
    lr_mult: 2
    decay_mult: 0
  }
  convolution_param {
    num_output: 512
    pad: 1
    kernel_size: 3
    weight_filler {
      type: "msra"
    }
    bias_filler {
      type: "constant"
    }
  }
}
layer {
  name: "conv5_1_D_bn"
  type: "BN"
  bottom: "conv5_1_D"
  top: "conv5_1_D"
  param {
    lr_mult: 1
    decay_mult: 1
  }
  param {
    lr_mult: 1
    decay_mult: 0
  }
  bn_param {
    scale_filler {
      type: "constant"
      value: 1
    }
    shift_filler {
      type: "constant"
      value: 0.001
    }
  }
}
layer {
  name: "relu5_1_D"
  type: "ReLU"
  bottom: "conv5_1_D"
  top: "conv5_1_D"
}
layer {
  name: "upsample4"
  type: "Upsample"
  bottom: "conv5_1_D"
  bottom: "pool4_mask"
  top: "pool4_D"
  upsample_param {
    scale: 2
    upsample_h: 63
    upsample_w: 63
  }
}
layer {
  name: "conv4_3_D"
  type: "Convolution"
  bottom: "pool4_D"
  top: "conv4_3_D"
  param {
    lr_mult: 1
    decay_mult: 1
  }
  param {
    lr_mult: 2
    decay_mult: 0
  }
  convolution_param {
    num_output: 512
    pad: 1
    kernel_size: 3
    weight_filler {
      type: "msra"
    }
    bias_filler {
      type: "constant"
    }
  }
}
layer {
  name: "conv4_3_D_bn"
  type: "BN"
  bottom: "conv4_3_D"
  top: "conv4_3_D"
  param {
    lr_mult: 1
    decay_mult: 1
  }
  param {
    lr_mult: 1
    decay_mult: 0
  }
  bn_param {
    scale_filler {
      type: "constant"
      value: 1
    }
    shift_filler {
      type: "constant"
      value: 0.001
    }
  }
}
layer {
  name: "relu4_3_D"
  type: "ReLU"
  bottom: "conv4_3_D"
  top: "conv4_3_D"
}
layer {
  name: "conv4_2_D"
  type: "Convolution"
  bottom: "conv4_3_D"
  top: "conv4_2_D"
  param {
    lr_mult: 1
    decay_mult: 1
  }
  param {
    lr_mult: 2
    decay_mult: 0
  }
  convolution_param {
    num_output: 512
    pad: 1
    kernel_size: 3
    weight_filler {
      type: "msra"
    }
    bias_filler {
      type: "constant"
    }
  }
}
layer {
  name: "conv4_2_D_bn"
  type: "BN"
  bottom: "conv4_2_D"
  top: "conv4_2_D"
  param {
    lr_mult: 1
    decay_mult: 1
  }
  param {
    lr_mult: 1
    decay_mult: 0
  }
  bn_param {
    scale_filler {
      type: "constant"
      value: 1
    }
    shift_filler {
      type: "constant"
      value: 0.001
    }
  }
}
layer {
  name: "relu4_2_D"
  type: "ReLU"
  bottom: "conv4_2_D"
  top: "conv4_2_D"
}
layer {
  name: "conv4_1_D"
  type: "Convolution"
  bottom: "conv4_2_D"
  top: "conv4_1_D"
  param {
    lr_mult: 1
    decay_mult: 1
  }
  param {
    lr_mult: 2
    decay_mult: 0
  }
  convolution_param {
    num_output: 256
    pad: 1
    kernel_size: 3
    weight_filler {
      type: "msra"
    }
    bias_filler {
      type: "constant"
    }
  }
}
layer {
  name: "conv4_1_D_bn"
  type: "BN"
  bottom: "conv4_1_D"
  top: "conv4_1_D"
  param {
    lr_mult: 1
    decay_mult: 1
  }
  param {
    lr_mult: 1
    decay_mult: 0
  }
  bn_param {
    scale_filler {
      type: "constant"
      value: 1
    }
    shift_filler {
      type: "constant"
      value: 0.001
    }
  }
}
layer {
  name: "relu4_1_D"
  type: "ReLU"
  bottom: "conv4_1_D"
  top: "conv4_1_D"
}
layer {
  name: "upsample3"
  type: "Upsample"
  bottom: "conv4_1_D"
  bottom: "pool3_mask"
  top: "pool3_D"
  upsample_param {
    scale: 2
    upsample_h: 125
    upsample_w: 125
  }
}
layer {
  name: "conv3_3_D"
  type: "Convolution"
  bottom: "pool3_D"
  top: "conv3_3_D"
  param {
    lr_mult: 1
    decay_mult: 1
  }
  param {
    lr_mult: 2
    decay_mult: 0
  }
  convolution_param {
    num_output: 256
    pad: 1
    kernel_size: 3
    weight_filler {
      type: "msra"
    }
    bias_filler {
      type: "constant"
    }
  }
}
layer {
  name: "conv3_3_D_bn"
  type: "BN"
  bottom: "conv3_3_D"
  top: "conv3_3_D"
  param {
    lr_mult: 1
    decay_mult: 1
  }
  param {
    lr_mult: 1
    decay_mult: 0
  }
  bn_param {
    scale_filler {
      type: "constant"
      value: 1
    }
    shift_filler {
      type: "constant"
      value: 0.001
    }
  }
}
layer {
  name: "relu3_3_D"
  type: "ReLU"
  bottom: "conv3_3_D"
  top: "conv3_3_D"
}
layer {
  name: "conv3_2_D"
  type: "Convolution"
  bottom: "conv3_3_D"
  top: "conv3_2_D"
  param {
    lr_mult: 1
    decay_mult: 1
  }
  param {
    lr_mult: 2
    decay_mult: 0
  }
  convolution_param {
    num_output: 256
    pad: 1
    kernel_size: 3
    weight_filler {
      type: "msra"
    }
    bias_filler {
      type: "constant"
    }
  }
}
layer {
  name: "conv3_2_D_bn"
  type: "BN"
  bottom: "conv3_2_D"
  top: "conv3_2_D"
  param {
    lr_mult: 1
    decay_mult: 1
  }
  param {
    lr_mult: 1
    decay_mult: 0
  }
  bn_param {
    scale_filler {
      type: "constant"
      value: 1
    }
    shift_filler {
      type: "constant"
      value: 0.001
    }
  }
}
layer {
  name: "relu3_2_D"
  type: "ReLU"
  bottom: "conv3_2_D"
  top: "conv3_2_D"
}
layer {
  name: "conv3_1_D"
  type: "Convolution"
  bottom: "conv3_2_D"
  top: "conv3_1_D"
  param {
    lr_mult: 1
    decay_mult: 1
  }
  param {
    lr_mult: 2
    decay_mult: 0
  }
  convolution_param {
    num_output: 128
    pad: 1
    kernel_size: 3
    weight_filler {
      type: "msra"
    }
    bias_filler {
      type: "constant"
    }
  }
}
layer {
  name: "conv3_1_D_bn"
  type: "BN"
  bottom: "conv3_1_D"
  top: "conv3_1_D"
  param {
    lr_mult: 1
    decay_mult: 1
  }
  param {
    lr_mult: 1
    decay_mult: 0
  }
  bn_param {
    scale_filler {
      type: "constant"
      value: 1
    }
    shift_filler {
      type: "constant"
      value: 0.001
    }
  }
}
layer {
  name: "relu3_1_D"
  type: "ReLU"
  bottom: "conv3_1_D"
  top: "conv3_1_D"
}
layer {
  name: "upsample2"
  type: "Upsample"
  bottom: "conv3_1_D"
  bottom: "pool2_mask"
  top: "pool2_D"
  upsample_param {
    scale: 2
  }
}
layer {
  name: "conv2_2_D"
  type: "Convolution"
  bottom: "pool2_D"
  top: "conv2_2_D"
  param {
    lr_mult: 1
    decay_mult: 1
  }
  param {
    lr_mult: 2
    decay_mult: 0
  }
  convolution_param {
    num_output: 128
    pad: 1
    kernel_size: 3
    weight_filler {
      type: "msra"
    }
    bias_filler {
      type: "constant"
    }
  }
}
layer {
  name: "conv2_2_D_bn"
  type: "BN"
  bottom: "conv2_2_D"
  top: "conv2_2_D"
  param {
    lr_mult: 1
    decay_mult: 1
  }
  param {
    lr_mult: 1
    decay_mult: 0
  }
  bn_param {
    scale_filler {
      type: "constant"
      value: 1
    }
    shift_filler {
      type: "constant"
      value: 0.001
    }
  }
}
layer {
  name: "relu2_2_D"
  type: "ReLU"
  bottom: "conv2_2_D"
  top: "conv2_2_D"
}
layer {
  name: "conv2_1_D"
  type: "Convolution"
  bottom: "conv2_2_D"
  top: "conv2_1_D"
  param {
    lr_mult: 1
    decay_mult: 1
  }
  param {
    lr_mult: 2
    decay_mult: 0
  }
  convolution_param {
    num_output: 64
    pad: 1
    kernel_size: 3
    weight_filler {
      type: "msra"
    }
    bias_filler {
      type: "constant"
    }
  }
}
layer {
  name: "conv2_1_D_bn"
  type: "BN"
  bottom: "conv2_1_D"
  top: "conv2_1_D"
  param {
    lr_mult: 1
    decay_mult: 1
  }
  param {
    lr_mult: 1
    decay_mult: 0
  }
  bn_param {
    scale_filler {
      type: "constant"
      value: 1
    }
    shift_filler {
      type: "constant"
      value: 0.001
    }
  }
}
layer {
  name: "relu2_1_D"
  type: "ReLU"
  bottom: "conv2_1_D"
  top: "conv2_1_D"
}
layer {
  name: "upsample1"
  type: "Upsample"
  bottom: "conv2_1_D"
  bottom: "pool1_mask"
  top: "pool1_D"
  upsample_param {
    scale: 2
  }
}
layer {
  name: "conv1_2_D"
  type: "Convolution"
  bottom: "pool1_D"
  top: "conv1_2_D"
  param {
    lr_mult: 1
    decay_mult: 1
  }
  param {
    lr_mult: 2
    decay_mult: 0
  }
  convolution_param {
    num_output: 64
    pad: 1
    kernel_size: 3
    weight_filler {
      type: "msra"
    }
    bias_filler {
      type: "constant"
    }
  }
}
layer {
  name: "conv1_2_D_bn"
  type: "BN"
  bottom: "conv1_2_D"
  top: "conv1_2_D"
  param {
    lr_mult: 1
    decay_mult: 1
  }
  param {
    lr_mult: 1
    decay_mult: 0
  }
  bn_param {
    scale_filler {
      type: "constant"
      value: 1
    }
    shift_filler {
      type: "constant"
      value: 0.001
    }
  }
}
layer {
  name: "relu1_2_D"
  type: "ReLU"
  bottom: "conv1_2_D"
  top: "conv1_2_D"
}
layer {
  name: "conv1_1_D-v2"
  type: "Convolution"
  bottom: "conv1_2_D"
  top: "conv1_1_D"
  param {
    lr_mult: 1
    decay_mult: 1
  }
  param {
    lr_mult: 2
    decay_mult: 0
  }
  convolution_param {
    num_output: 21
    pad: 1
    kernel_size: 3
    weight_filler {
      type: "msra"
    }
    bias_filler {
      type: "constant"
    }
  }
}
layer {
  name: "loss-v2"
  type: "SoftmaxWithLoss"
  bottom: "conv1_1_D"
  bottom: "label"
  top: "loss"
  loss_param {
    ignore_label: 21
  }
  softmax_param {
    engine: CAFFE
  }
}
I0418 16:42:07.684420  8760 layer_factory.hpp:74] Creating layer data
I0418 16:42:07.684456  8760 net.cpp:90] Creating Layer data
I0418 16:42:07.684469  8760 net.cpp:368] data -> data
I0418 16:42:07.684499  8760 net.cpp:120] Setting up data
I0418 16:42:07.684634  8760 db.cpp:34] Opened lmdb /home/shared/datasets/VOCdevkit/VOC2012/LMDB/train_lmdb
I0418 16:42:07.685573  8760 data_layer.cpp:52] output data size: 1,3,500,500
I0418 16:42:07.686969  8760 net.cpp:127] Top shape: 1 3 500 500 (750000)
I0418 16:42:07.686996  8760 layer_factory.hpp:74] Creating layer label
I0418 16:42:07.687021  8760 net.cpp:90] Creating Layer label
I0418 16:42:07.687033  8760 net.cpp:368] label -> label
I0418 16:42:07.687052  8760 net.cpp:120] Setting up label
I0418 16:42:07.687162  8760 db.cpp:34] Opened lmdb /home/shared/datasets/VOCdevkit/VOC2012/LMDB/train_gt_lmdb
I0418 16:42:07.687332  8760 data_layer.cpp:52] output data size: 1,1,500,500
I0418 16:42:07.687465  8760 net.cpp:127] Top shape: 1 1 500 500 (250000)
I0418 16:42:07.687479  8760 layer_factory.hpp:74] Creating layer conv1_1
I0418 16:42:07.687500  8760 net.cpp:90] Creating Layer conv1_1
I0418 16:42:07.687510  8760 net.cpp:410] conv1_1 <- data
I0418 16:42:07.687530  8760 net.cpp:368] conv1_1 -> conv1_1
I0418 16:42:07.687547  8760 net.cpp:120] Setting up conv1_1
I0418 16:42:08.634831  8760 net.cpp:127] Top shape: 1 64 500 500 (16000000)
I0418 16:42:08.634907  8760 layer_factory.hpp:74] Creating layer conv1_1_bn
I0418 16:42:08.634965  8760 net.cpp:90] Creating Layer conv1_1_bn
I0418 16:42:08.634982  8760 net.cpp:410] conv1_1_bn <- conv1_1
I0418 16:42:08.635002  8760 net.cpp:357] conv1_1_bn -> conv1_1 (in-place)
I0418 16:42:08.635028  8760 net.cpp:120] Setting up conv1_1_bn
I0418 16:42:08.635962  8760 net.cpp:127] Top shape: 1 64 500 500 (16000000)
I0418 16:42:08.635987  8760 layer_factory.hpp:74] Creating layer relu1_1
I0418 16:42:08.636016  8760 net.cpp:90] Creating Layer relu1_1
I0418 16:42:08.636032  8760 net.cpp:410] relu1_1 <- conv1_1
I0418 16:42:08.636046  8760 net.cpp:357] relu1_1 -> conv1_1 (in-place)
I0418 16:42:08.636059  8760 net.cpp:120] Setting up relu1_1
I0418 16:42:08.637686  8760 net.cpp:127] Top shape: 1 64 500 500 (16000000)
I0418 16:42:08.637701  8760 layer_factory.hpp:74] Creating layer conv1_2
I0418 16:42:08.637720  8760 net.cpp:90] Creating Layer conv1_2
I0418 16:42:08.637734  8760 net.cpp:410] conv1_2 <- conv1_1
I0418 16:42:08.637748  8760 net.cpp:368] conv1_2 -> conv1_2
I0418 16:42:08.637770  8760 net.cpp:120] Setting up conv1_2
I0418 16:42:08.645176  8760 net.cpp:127] Top shape: 1 64 500 500 (16000000)
I0418 16:42:08.645201  8760 layer_factory.hpp:74] Creating layer conv1_2_bn
I0418 16:42:08.645217  8760 net.cpp:90] Creating Layer conv1_2_bn
I0418 16:42:08.645231  8760 net.cpp:410] conv1_2_bn <- conv1_2
I0418 16:42:08.645246  8760 net.cpp:357] conv1_2_bn -> conv1_2 (in-place)
I0418 16:42:08.645268  8760 net.cpp:120] Setting up conv1_2_bn
I0418 16:42:08.646150  8760 net.cpp:127] Top shape: 1 64 500 500 (16000000)
I0418 16:42:08.646172  8760 layer_factory.hpp:74] Creating layer relu1_2
I0418 16:42:08.646188  8760 net.cpp:90] Creating Layer relu1_2
I0418 16:42:08.646203  8760 net.cpp:410] relu1_2 <- conv1_2
I0418 16:42:08.646215  8760 net.cpp:357] relu1_2 -> conv1_2 (in-place)
I0418 16:42:08.646229  8760 net.cpp:120] Setting up relu1_2
I0418 16:42:08.647002  8760 net.cpp:127] Top shape: 1 64 500 500 (16000000)
I0418 16:42:08.647017  8760 layer_factory.hpp:74] Creating layer pool1
I0418 16:42:08.647033  8760 layer_factory.cpp:55] CUDNN does not support padding or multiple tops. Using Caffe's own pooling layer.
I0418 16:42:08.647053  8760 net.cpp:90] Creating Layer pool1
I0418 16:42:08.647064  8760 net.cpp:410] pool1 <- conv1_2
I0418 16:42:08.647078  8760 net.cpp:368] pool1 -> pool1
I0418 16:42:08.647099  8760 net.cpp:368] pool1 -> pool1_mask
I0418 16:42:08.647115  8760 net.cpp:120] Setting up pool1
I0418 16:42:08.647171  8760 net.cpp:127] Top shape: 1 64 250 250 (4000000)
I0418 16:42:08.647186  8760 net.cpp:127] Top shape: 1 64 250 250 (4000000)
I0418 16:42:08.647197  8760 layer_factory.hpp:74] Creating layer conv2_1
I0418 16:42:08.647212  8760 net.cpp:90] Creating Layer conv2_1
I0418 16:42:08.647222  8760 net.cpp:410] conv2_1 <- pool1
I0418 16:42:08.647235  8760 net.cpp:368] conv2_1 -> conv2_1
I0418 16:42:08.647250  8760 net.cpp:120] Setting up conv2_1
I0418 16:42:08.656070  8760 net.cpp:127] Top shape: 1 128 250 250 (8000000)
I0418 16:42:08.656095  8760 layer_factory.hpp:74] Creating layer conv2_1_bn
I0418 16:42:08.656111  8760 net.cpp:90] Creating Layer conv2_1_bn
I0418 16:42:08.656121  8760 net.cpp:410] conv2_1_bn <- conv2_1
I0418 16:42:08.656134  8760 net.cpp:357] conv2_1_bn -> conv2_1 (in-place)
I0418 16:42:08.656155  8760 net.cpp:120] Setting up conv2_1_bn
I0418 16:42:08.656407  8760 net.cpp:127] Top shape: 1 128 250 250 (8000000)
I0418 16:42:08.656432  8760 layer_factory.hpp:74] Creating layer relu2_1
I0418 16:42:08.656445  8760 net.cpp:90] Creating Layer relu2_1
I0418 16:42:08.656458  8760 net.cpp:410] relu2_1 <- conv2_1
I0418 16:42:08.656471  8760 net.cpp:357] relu2_1 -> conv2_1 (in-place)
I0418 16:42:08.656484  8760 net.cpp:120] Setting up relu2_1
I0418 16:42:08.658326  8760 net.cpp:127] Top shape: 1 128 250 250 (8000000)
I0418 16:42:08.658340  8760 layer_factory.hpp:74] Creating layer conv2_2
I0418 16:42:08.658357  8760 net.cpp:90] Creating Layer conv2_2
I0418 16:42:08.658371  8760 net.cpp:410] conv2_2 <- conv2_1
I0418 16:42:08.658386  8760 net.cpp:368] conv2_2 -> conv2_2
I0418 16:42:08.658407  8760 net.cpp:120] Setting up conv2_2
I0418 16:42:08.667968  8760 net.cpp:127] Top shape: 1 128 250 250 (8000000)
I0418 16:42:08.667989  8760 layer_factory.hpp:74] Creating layer conv2_2_bn
I0418 16:42:08.668006  8760 net.cpp:90] Creating Layer conv2_2_bn
I0418 16:42:08.668048  8760 net.cpp:410] conv2_2_bn <- conv2_2
I0418 16:42:08.668063  8760 net.cpp:357] conv2_2_bn -> conv2_2 (in-place)
I0418 16:42:08.668082  8760 net.cpp:120] Setting up conv2_2_bn
I0418 16:42:08.668334  8760 net.cpp:127] Top shape: 1 128 250 250 (8000000)
I0418 16:42:08.668352  8760 layer_factory.hpp:74] Creating layer relu2_2
I0418 16:42:08.668365  8760 net.cpp:90] Creating Layer relu2_2
I0418 16:42:08.668378  8760 net.cpp:410] relu2_2 <- conv2_2
I0418 16:42:08.668393  8760 net.cpp:357] relu2_2 -> conv2_2 (in-place)
I0418 16:42:08.668406  8760 net.cpp:120] Setting up relu2_2
I0418 16:42:08.670894  8760 net.cpp:127] Top shape: 1 128 250 250 (8000000)
I0418 16:42:08.670910  8760 layer_factory.hpp:74] Creating layer pool2
I0418 16:42:08.670922  8760 layer_factory.cpp:55] CUDNN does not support padding or multiple tops. Using Caffe's own pooling layer.
I0418 16:42:08.670938  8760 net.cpp:90] Creating Layer pool2
I0418 16:42:08.670948  8760 net.cpp:410] pool2 <- conv2_2
I0418 16:42:08.670963  8760 net.cpp:368] pool2 -> pool2
I0418 16:42:08.670979  8760 net.cpp:368] pool2 -> pool2_mask
I0418 16:42:08.670997  8760 net.cpp:120] Setting up pool2
I0418 16:42:08.671018  8760 net.cpp:127] Top shape: 1 128 125 125 (2000000)
I0418 16:42:08.671033  8760 net.cpp:127] Top shape: 1 128 125 125 (2000000)
I0418 16:42:08.671042  8760 layer_factory.hpp:74] Creating layer conv3_1
I0418 16:42:08.671062  8760 net.cpp:90] Creating Layer conv3_1
I0418 16:42:08.671077  8760 net.cpp:410] conv3_1 <- pool2
I0418 16:42:08.671094  8760 net.cpp:368] conv3_1 -> conv3_1
I0418 16:42:08.671109  8760 net.cpp:120] Setting up conv3_1
I0418 16:42:08.686137  8760 net.cpp:127] Top shape: 1 256 125 125 (4000000)
I0418 16:42:08.686162  8760 layer_factory.hpp:74] Creating layer conv3_1_bn
I0418 16:42:08.686182  8760 net.cpp:90] Creating Layer conv3_1_bn
I0418 16:42:08.686203  8760 net.cpp:410] conv3_1_bn <- conv3_1
I0418 16:42:08.686220  8760 net.cpp:357] conv3_1_bn -> conv3_1 (in-place)
I0418 16:42:08.686238  8760 net.cpp:120] Setting up conv3_1_bn
I0418 16:42:08.686326  8760 net.cpp:127] Top shape: 1 256 125 125 (4000000)
I0418 16:42:08.686347  8760 layer_factory.hpp:74] Creating layer relu3_1
I0418 16:42:08.686367  8760 net.cpp:90] Creating Layer relu3_1
I0418 16:42:08.686383  8760 net.cpp:410] relu3_1 <- conv3_1
I0418 16:42:08.686399  8760 net.cpp:357] relu3_1 -> conv3_1 (in-place)
I0418 16:42:08.686411  8760 net.cpp:120] Setting up relu3_1
I0418 16:42:08.688490  8760 net.cpp:127] Top shape: 1 256 125 125 (4000000)
I0418 16:42:08.688505  8760 layer_factory.hpp:74] Creating layer conv3_2
I0418 16:42:08.688524  8760 net.cpp:90] Creating Layer conv3_2
I0418 16:42:08.688537  8760 net.cpp:410] conv3_2 <- conv3_1
I0418 16:42:08.688555  8760 net.cpp:368] conv3_2 -> conv3_2
I0418 16:42:08.688570  8760 net.cpp:120] Setting up conv3_2
I0418 16:42:08.711694  8760 net.cpp:127] Top shape: 1 256 125 125 (4000000)
I0418 16:42:08.711715  8760 layer_factory.hpp:74] Creating layer conv3_2_bn
I0418 16:42:08.711736  8760 net.cpp:90] Creating Layer conv3_2_bn
I0418 16:42:08.711750  8760 net.cpp:410] conv3_2_bn <- conv3_2
I0418 16:42:08.711765  8760 net.cpp:357] conv3_2_bn -> conv3_2 (in-place)
I0418 16:42:08.711787  8760 net.cpp:120] Setting up conv3_2_bn
I0418 16:42:08.711875  8760 net.cpp:127] Top shape: 1 256 125 125 (4000000)
I0418 16:42:08.711894  8760 layer_factory.hpp:74] Creating layer relu3_2
I0418 16:42:08.711911  8760 net.cpp:90] Creating Layer relu3_2
I0418 16:42:08.711920  8760 net.cpp:410] relu3_2 <- conv3_2
I0418 16:42:08.711935  8760 net.cpp:357] relu3_2 -> conv3_2 (in-place)
I0418 16:42:08.711951  8760 net.cpp:120] Setting up relu3_2
I0418 16:42:08.714105  8760 net.cpp:127] Top shape: 1 256 125 125 (4000000)
I0418 16:42:08.714119  8760 layer_factory.hpp:74] Creating layer conv3_3
I0418 16:42:08.714136  8760 net.cpp:90] Creating Layer conv3_3
I0418 16:42:08.714150  8760 net.cpp:410] conv3_3 <- conv3_2
I0418 16:42:08.714167  8760 net.cpp:368] conv3_3 -> conv3_3
I0418 16:42:08.714187  8760 net.cpp:120] Setting up conv3_3
I0418 16:42:08.738874  8760 net.cpp:127] Top shape: 1 256 125 125 (4000000)
I0418 16:42:08.738924  8760 layer_factory.hpp:74] Creating layer conv3_3_bn
I0418 16:42:08.738965  8760 net.cpp:90] Creating Layer conv3_3_bn
I0418 16:42:08.738981  8760 net.cpp:410] conv3_3_bn <- conv3_3
I0418 16:42:08.738998  8760 net.cpp:357] conv3_3_bn -> conv3_3 (in-place)
I0418 16:42:08.739018  8760 net.cpp:120] Setting up conv3_3_bn
I0418 16:42:08.739106  8760 net.cpp:127] Top shape: 1 256 125 125 (4000000)
I0418 16:42:08.739130  8760 layer_factory.hpp:74] Creating layer relu3_3
I0418 16:42:08.739148  8760 net.cpp:90] Creating Layer relu3_3
I0418 16:42:08.739158  8760 net.cpp:410] relu3_3 <- conv3_3
I0418 16:42:08.739171  8760 net.cpp:357] relu3_3 -> conv3_3 (in-place)
I0418 16:42:08.739182  8760 net.cpp:120] Setting up relu3_3
I0418 16:42:08.741125  8760 net.cpp:127] Top shape: 1 256 125 125 (4000000)
I0418 16:42:08.741142  8760 layer_factory.hpp:74] Creating layer pool3
I0418 16:42:08.741153  8760 layer_factory.cpp:55] CUDNN does not support padding or multiple tops. Using Caffe's own pooling layer.
I0418 16:42:08.741170  8760 net.cpp:90] Creating Layer pool3
I0418 16:42:08.741181  8760 net.cpp:410] pool3 <- conv3_3
I0418 16:42:08.741194  8760 net.cpp:368] pool3 -> pool3
I0418 16:42:08.741214  8760 net.cpp:368] pool3 -> pool3_mask
I0418 16:42:08.741230  8760 net.cpp:120] Setting up pool3
I0418 16:42:08.741246  8760 net.cpp:127] Top shape: 1 256 63 63 (1016064)
I0418 16:42:08.741261  8760 net.cpp:127] Top shape: 1 256 63 63 (1016064)
I0418 16:42:08.741271  8760 layer_factory.hpp:74] Creating layer conv4_1
I0418 16:42:08.741286  8760 net.cpp:90] Creating Layer conv4_1
I0418 16:42:08.741298  8760 net.cpp:410] conv4_1 <- pool3
I0418 16:42:08.741314  8760 net.cpp:368] conv4_1 -> conv4_1
I0418 16:42:08.741333  8760 net.cpp:120] Setting up conv4_1
I0418 16:42:08.785812  8760 net.cpp:127] Top shape: 1 512 63 63 (2032128)
I0418 16:42:08.785841  8760 layer_factory.hpp:74] Creating layer conv4_1_bn
I0418 16:42:08.785864  8760 net.cpp:90] Creating Layer conv4_1_bn
I0418 16:42:08.785876  8760 net.cpp:410] conv4_1_bn <- conv4_1
I0418 16:42:08.785892  8760 net.cpp:357] conv4_1_bn -> conv4_1 (in-place)
I0418 16:42:08.785908  8760 net.cpp:120] Setting up conv4_1_bn
I0418 16:42:08.785958  8760 net.cpp:127] Top shape: 1 512 63 63 (2032128)
I0418 16:42:08.785974  8760 layer_factory.hpp:74] Creating layer relu4_1
I0418 16:42:08.785991  8760 net.cpp:90] Creating Layer relu4_1
I0418 16:42:08.786005  8760 net.cpp:410] relu4_1 <- conv4_1
I0418 16:42:08.786017  8760 net.cpp:357] relu4_1 -> conv4_1 (in-place)
I0418 16:42:08.786029  8760 net.cpp:120] Setting up relu4_1
I0418 16:42:08.788215  8760 net.cpp:127] Top shape: 1 512 63 63 (2032128)
I0418 16:42:08.788230  8760 layer_factory.hpp:74] Creating layer conv4_2
I0418 16:42:08.788251  8760 net.cpp:90] Creating Layer conv4_2
I0418 16:42:08.788266  8760 net.cpp:410] conv4_2 <- conv4_1
I0418 16:42:08.788280  8760 net.cpp:368] conv4_2 -> conv4_2
I0418 16:42:08.788310  8760 net.cpp:120] Setting up conv4_2
I0418 16:42:08.908948  8760 net.cpp:127] Top shape: 1 512 63 63 (2032128)
I0418 16:42:08.909005  8760 layer_factory.hpp:74] Creating layer conv4_2_bn
I0418 16:42:08.909026  8760 net.cpp:90] Creating Layer conv4_2_bn
I0418 16:42:08.909037  8760 net.cpp:410] conv4_2_bn <- conv4_2
I0418 16:42:08.909055  8760 net.cpp:357] conv4_2_bn -> conv4_2 (in-place)
I0418 16:42:08.909076  8760 net.cpp:120] Setting up conv4_2_bn
I0418 16:42:08.909126  8760 net.cpp:127] Top shape: 1 512 63 63 (2032128)
I0418 16:42:08.909150  8760 layer_factory.hpp:74] Creating layer relu4_2
I0418 16:42:08.909171  8760 net.cpp:90] Creating Layer relu4_2
I0418 16:42:08.909184  8760 net.cpp:410] relu4_2 <- conv4_2
I0418 16:42:08.909196  8760 net.cpp:357] relu4_2 -> conv4_2 (in-place)
I0418 16:42:08.909209  8760 net.cpp:120] Setting up relu4_2
I0418 16:42:08.911206  8760 net.cpp:127] Top shape: 1 512 63 63 (2032128)
I0418 16:42:08.911219  8760 layer_factory.hpp:74] Creating layer conv4_3
I0418 16:42:08.911249  8760 net.cpp:90] Creating Layer conv4_3
I0418 16:42:08.911263  8760 net.cpp:410] conv4_3 <- conv4_2
I0418 16:42:08.911305  8760 net.cpp:368] conv4_3 -> conv4_3
I0418 16:42:08.911325  8760 net.cpp:120] Setting up conv4_3
I0418 16:42:08.994065  8760 net.cpp:127] Top shape: 1 512 63 63 (2032128)
I0418 16:42:08.994102  8760 layer_factory.hpp:74] Creating layer conv4_3_bn
I0418 16:42:08.994128  8760 net.cpp:90] Creating Layer conv4_3_bn
I0418 16:42:08.994139  8760 net.cpp:410] conv4_3_bn <- conv4_3
I0418 16:42:08.994153  8760 net.cpp:357] conv4_3_bn -> conv4_3 (in-place)
I0418 16:42:08.994170  8760 net.cpp:120] Setting up conv4_3_bn
I0418 16:42:08.994216  8760 net.cpp:127] Top shape: 1 512 63 63 (2032128)
I0418 16:42:08.994232  8760 layer_factory.hpp:74] Creating layer relu4_3
I0418 16:42:08.994246  8760 net.cpp:90] Creating Layer relu4_3
I0418 16:42:08.994262  8760 net.cpp:410] relu4_3 <- conv4_3
I0418 16:42:08.994282  8760 net.cpp:357] relu4_3 -> conv4_3 (in-place)
I0418 16:42:08.994297  8760 net.cpp:120] Setting up relu4_3
I0418 16:42:08.994976  8760 net.cpp:127] Top shape: 1 512 63 63 (2032128)
I0418 16:42:08.994992  8760 layer_factory.hpp:74] Creating layer pool4
I0418 16:42:08.995007  8760 layer_factory.cpp:55] CUDNN does not support padding or multiple tops. Using Caffe's own pooling layer.
I0418 16:42:08.995018  8760 net.cpp:90] Creating Layer pool4
I0418 16:42:08.995028  8760 net.cpp:410] pool4 <- conv4_3
I0418 16:42:08.995043  8760 net.cpp:368] pool4 -> pool4
I0418 16:42:08.995059  8760 net.cpp:368] pool4 -> pool4_mask
I0418 16:42:08.995075  8760 net.cpp:120] Setting up pool4
I0418 16:42:08.995095  8760 net.cpp:127] Top shape: 1 512 32 32 (524288)
I0418 16:42:08.995113  8760 net.cpp:127] Top shape: 1 512 32 32 (524288)
I0418 16:42:08.995124  8760 layer_factory.hpp:74] Creating layer conv5_1
I0418 16:42:08.995142  8760 net.cpp:90] Creating Layer conv5_1
I0418 16:42:08.995156  8760 net.cpp:410] conv5_1 <- pool4
I0418 16:42:08.995168  8760 net.cpp:368] conv5_1 -> conv5_1
I0418 16:42:08.995183  8760 net.cpp:120] Setting up conv5_1
I0418 16:42:09.085183  8760 net.cpp:127] Top shape: 1 512 32 32 (524288)
I0418 16:42:09.085223  8760 layer_factory.hpp:74] Creating layer conv5_1_bn
I0418 16:42:09.085239  8760 net.cpp:90] Creating Layer conv5_1_bn
I0418 16:42:09.085247  8760 net.cpp:410] conv5_1_bn <- conv5_1
I0418 16:42:09.085258  8760 net.cpp:357] conv5_1_bn -> conv5_1 (in-place)
I0418 16:42:09.085269  8760 net.cpp:120] Setting up conv5_1_bn
I0418 16:42:09.085294  8760 net.cpp:127] Top shape: 1 512 32 32 (524288)
I0418 16:42:09.085304  8760 layer_factory.hpp:74] Creating layer relu5_1
I0418 16:42:09.085312  8760 net.cpp:90] Creating Layer relu5_1
I0418 16:42:09.085317  8760 net.cpp:410] relu5_1 <- conv5_1
I0418 16:42:09.085324  8760 net.cpp:357] relu5_1 -> conv5_1 (in-place)
I0418 16:42:09.085330  8760 net.cpp:120] Setting up relu5_1
I0418 16:42:09.085662  8760 net.cpp:127] Top shape: 1 512 32 32 (524288)
I0418 16:42:09.085678  8760 layer_factory.hpp:74] Creating layer conv5_2
I0418 16:42:09.085690  8760 net.cpp:90] Creating Layer conv5_2
I0418 16:42:09.085695  8760 net.cpp:410] conv5_2 <- conv5_1
I0418 16:42:09.085708  8760 net.cpp:368] conv5_2 -> conv5_2
I0418 16:42:09.085718  8760 net.cpp:120] Setting up conv5_2
I0418 16:42:09.166267  8760 net.cpp:127] Top shape: 1 512 32 32 (524288)
I0418 16:42:09.166312  8760 layer_factory.hpp:74] Creating layer conv5_2_bn
I0418 16:42:09.166327  8760 net.cpp:90] Creating Layer conv5_2_bn
I0418 16:42:09.166334  8760 net.cpp:410] conv5_2_bn <- conv5_2
I0418 16:42:09.166347  8760 net.cpp:357] conv5_2_bn -> conv5_2 (in-place)
I0418 16:42:09.166358  8760 net.cpp:120] Setting up conv5_2_bn
I0418 16:42:09.166389  8760 net.cpp:127] Top shape: 1 512 32 32 (524288)
I0418 16:42:09.166409  8760 layer_factory.hpp:74] Creating layer relu5_2
I0418 16:42:09.166422  8760 net.cpp:90] Creating Layer relu5_2
I0418 16:42:09.166435  8760 net.cpp:410] relu5_2 <- conv5_2
I0418 16:42:09.166447  8760 net.cpp:357] relu5_2 -> conv5_2 (in-place)
I0418 16:42:09.166455  8760 net.cpp:120] Setting up relu5_2
I0418 16:42:09.166653  8760 net.cpp:127] Top shape: 1 512 32 32 (524288)
I0418 16:42:09.166685  8760 layer_factory.hpp:74] Creating layer conv5_3
I0418 16:42:09.166699  8760 net.cpp:90] Creating Layer conv5_3
I0418 16:42:09.166704  8760 net.cpp:410] conv5_3 <- conv5_2
I0418 16:42:09.166712  8760 net.cpp:368] conv5_3 -> conv5_3
I0418 16:42:09.166720  8760 net.cpp:120] Setting up conv5_3
I0418 16:42:09.280150  8760 net.cpp:127] Top shape: 1 512 32 32 (524288)
I0418 16:42:09.280200  8760 layer_factory.hpp:74] Creating layer conv5_3_bn
I0418 16:42:09.280220  8760 net.cpp:90] Creating Layer conv5_3_bn
I0418 16:42:09.280230  8760 net.cpp:410] conv5_3_bn <- conv5_3
I0418 16:42:09.280242  8760 net.cpp:357] conv5_3_bn -> conv5_3 (in-place)
I0418 16:42:09.280254  8760 net.cpp:120] Setting up conv5_3_bn
I0418 16:42:09.280278  8760 net.cpp:127] Top shape: 1 512 32 32 (524288)
I0418 16:42:09.280288  8760 layer_factory.hpp:74] Creating layer relu5_3
I0418 16:42:09.280297  8760 net.cpp:90] Creating Layer relu5_3
I0418 16:42:09.280304  8760 net.cpp:410] relu5_3 <- conv5_3
I0418 16:42:09.280310  8760 net.cpp:357] relu5_3 -> conv5_3 (in-place)
I0418 16:42:09.280321  8760 net.cpp:120] Setting up relu5_3
I0418 16:42:09.282392  8760 net.cpp:127] Top shape: 1 512 32 32 (524288)
I0418 16:42:09.282408  8760 layer_factory.hpp:74] Creating layer pool5
I0418 16:42:09.282421  8760 layer_factory.cpp:55] CUDNN does not support padding or multiple tops. Using Caffe's own pooling layer.
I0418 16:42:09.282435  8760 net.cpp:90] Creating Layer pool5
I0418 16:42:09.282447  8760 net.cpp:410] pool5 <- conv5_3
I0418 16:42:09.282460  8760 net.cpp:368] pool5 -> pool5
I0418 16:42:09.282470  8760 net.cpp:368] pool5 -> pool5_mask
I0418 16:42:09.282477  8760 net.cpp:120] Setting up pool5
I0418 16:42:09.282487  8760 net.cpp:127] Top shape: 1 512 16 16 (131072)
I0418 16:42:09.282493  8760 net.cpp:127] Top shape: 1 512 16 16 (131072)
I0418 16:42:09.282502  8760 layer_factory.hpp:74] Creating layer upsample5
I0418 16:42:09.282516  8760 net.cpp:90] Creating Layer upsample5
I0418 16:42:09.282528  8760 net.cpp:410] upsample5 <- pool5
I0418 16:42:09.282539  8760 net.cpp:410] upsample5 <- pool5_mask
I0418 16:42:09.282551  8760 net.cpp:368] upsample5 -> pool5_D
I0418 16:42:09.282593  8760 net.cpp:120] Setting up upsample5
I0418 16:42:09.282608  8760 net.cpp:127] Top shape: 1 512 32 32 (524288)
I0418 16:42:09.282618  8760 layer_factory.hpp:74] Creating layer conv5_3_D
I0418 16:42:09.282632  8760 net.cpp:90] Creating Layer conv5_3_D
I0418 16:42:09.282645  8760 net.cpp:410] conv5_3_D <- pool5_D
I0418 16:42:09.282660  8760 net.cpp:368] conv5_3_D -> conv5_3_D
I0418 16:42:09.282671  8760 net.cpp:120] Setting up conv5_3_D
I0418 16:42:09.368813  8760 net.cpp:127] Top shape: 1 512 32 32 (524288)
I0418 16:42:09.368854  8760 layer_factory.hpp:74] Creating layer conv5_3_D_bn
I0418 16:42:09.368872  8760 net.cpp:90] Creating Layer conv5_3_D_bn
I0418 16:42:09.368880  8760 net.cpp:410] conv5_3_D_bn <- conv5_3_D
I0418 16:42:09.368888  8760 net.cpp:357] conv5_3_D_bn -> conv5_3_D (in-place)
I0418 16:42:09.368899  8760 net.cpp:120] Setting up conv5_3_D_bn
I0418 16:42:09.368923  8760 net.cpp:127] Top shape: 1 512 32 32 (524288)
I0418 16:42:09.368932  8760 layer_factory.hpp:74] Creating layer relu5_3_D
I0418 16:42:09.368940  8760 net.cpp:90] Creating Layer relu5_3_D
I0418 16:42:09.368945  8760 net.cpp:410] relu5_3_D <- conv5_3_D
I0418 16:42:09.368955  8760 net.cpp:357] relu5_3_D -> conv5_3_D (in-place)
I0418 16:42:09.368962  8760 net.cpp:120] Setting up relu5_3_D
I0418 16:42:09.371357  8760 net.cpp:127] Top shape: 1 512 32 32 (524288)
I0418 16:42:09.371371  8760 layer_factory.hpp:74] Creating layer conv5_2_D
I0418 16:42:09.371381  8760 net.cpp:90] Creating Layer conv5_2_D
I0418 16:42:09.371387  8760 net.cpp:410] conv5_2_D <- conv5_3_D
I0418 16:42:09.371394  8760 net.cpp:368] conv5_2_D -> conv5_2_D
I0418 16:42:09.371403  8760 net.cpp:120] Setting up conv5_2_D
I0418 16:42:09.455283  8760 net.cpp:127] Top shape: 1 512 32 32 (524288)
I0418 16:42:09.455324  8760 layer_factory.hpp:74] Creating layer conv5_2_D_bn
I0418 16:42:09.455343  8760 net.cpp:90] Creating Layer conv5_2_D_bn
I0418 16:42:09.455385  8760 net.cpp:410] conv5_2_D_bn <- conv5_2_D
I0418 16:42:09.455397  8760 net.cpp:357] conv5_2_D_bn -> conv5_2_D (in-place)
I0418 16:42:09.455409  8760 net.cpp:120] Setting up conv5_2_D_bn
I0418 16:42:09.455438  8760 net.cpp:127] Top shape: 1 512 32 32 (524288)
I0418 16:42:09.455451  8760 layer_factory.hpp:74] Creating layer relu5_2_D
I0418 16:42:09.455459  8760 net.cpp:90] Creating Layer relu5_2_D
I0418 16:42:09.455464  8760 net.cpp:410] relu5_2_D <- conv5_2_D
I0418 16:42:09.455471  8760 net.cpp:357] relu5_2_D -> conv5_2_D (in-place)
I0418 16:42:09.455477  8760 net.cpp:120] Setting up relu5_2_D
I0418 16:42:09.457487  8760 net.cpp:127] Top shape: 1 512 32 32 (524288)
I0418 16:42:09.457500  8760 layer_factory.hpp:74] Creating layer conv5_1_D
I0418 16:42:09.457512  8760 net.cpp:90] Creating Layer conv5_1_D
I0418 16:42:09.457517  8760 net.cpp:410] conv5_1_D <- conv5_2_D
I0418 16:42:09.457525  8760 net.cpp:368] conv5_1_D -> conv5_1_D
I0418 16:42:09.457535  8760 net.cpp:120] Setting up conv5_1_D
I0418 16:42:09.562283  8760 net.cpp:127] Top shape: 1 512 32 32 (524288)
I0418 16:42:09.562324  8760 layer_factory.hpp:74] Creating layer conv5_1_D_bn
I0418 16:42:09.562343  8760 net.cpp:90] Creating Layer conv5_1_D_bn
I0418 16:42:09.562350  8760 net.cpp:410] conv5_1_D_bn <- conv5_1_D
I0418 16:42:09.562361  8760 net.cpp:357] conv5_1_D_bn -> conv5_1_D (in-place)
I0418 16:42:09.562371  8760 net.cpp:120] Setting up conv5_1_D_bn
I0418 16:42:09.562402  8760 net.cpp:127] Top shape: 1 512 32 32 (524288)
I0418 16:42:09.562412  8760 layer_factory.hpp:74] Creating layer relu5_1_D
I0418 16:42:09.562423  8760 net.cpp:90] Creating Layer relu5_1_D
I0418 16:42:09.562428  8760 net.cpp:410] relu5_1_D <- conv5_1_D
I0418 16:42:09.562436  8760 net.cpp:357] relu5_1_D -> conv5_1_D (in-place)
I0418 16:42:09.562444  8760 net.cpp:120] Setting up relu5_1_D
I0418 16:42:09.564689  8760 net.cpp:127] Top shape: 1 512 32 32 (524288)
I0418 16:42:09.564702  8760 layer_factory.hpp:74] Creating layer upsample4
I0418 16:42:09.564713  8760 net.cpp:90] Creating Layer upsample4
I0418 16:42:09.564721  8760 net.cpp:410] upsample4 <- conv5_1_D
I0418 16:42:09.564728  8760 net.cpp:410] upsample4 <- pool4_mask
I0418 16:42:09.564738  8760 net.cpp:368] upsample4 -> pool4_D
I0418 16:42:09.564748  8760 net.cpp:120] Setting up upsample4
I0418 16:42:09.564757  8760 net.cpp:127] Top shape: 1 512 63 63 (2032128)
I0418 16:42:09.564762  8760 layer_factory.hpp:74] Creating layer conv4_3_D
I0418 16:42:09.564772  8760 net.cpp:90] Creating Layer conv4_3_D
I0418 16:42:09.564779  8760 net.cpp:410] conv4_3_D <- pool4_D
I0418 16:42:09.564788  8760 net.cpp:368] conv4_3_D -> conv4_3_D
I0418 16:42:09.564800  8760 net.cpp:120] Setting up conv4_3_D
I0418 16:42:09.646416  8760 net.cpp:127] Top shape: 1 512 63 63 (2032128)
I0418 16:42:09.646491  8760 layer_factory.hpp:74] Creating layer conv4_3_D_bn
I0418 16:42:09.646507  8760 net.cpp:90] Creating Layer conv4_3_D_bn
I0418 16:42:09.646515  8760 net.cpp:410] conv4_3_D_bn <- conv4_3_D
I0418 16:42:09.646524  8760 net.cpp:357] conv4_3_D_bn -> conv4_3_D (in-place)
I0418 16:42:09.646536  8760 net.cpp:120] Setting up conv4_3_D_bn
I0418 16:42:09.646572  8760 net.cpp:127] Top shape: 1 512 63 63 (2032128)
I0418 16:42:09.646584  8760 layer_factory.hpp:74] Creating layer relu4_3_D
I0418 16:42:09.646594  8760 net.cpp:90] Creating Layer relu4_3_D
I0418 16:42:09.646598  8760 net.cpp:410] relu4_3_D <- conv4_3_D
I0418 16:42:09.646605  8760 net.cpp:357] relu4_3_D -> conv4_3_D (in-place)
I0418 16:42:09.646611  8760 net.cpp:120] Setting up relu4_3_D
I0418 16:42:09.648496  8760 net.cpp:127] Top shape: 1 512 63 63 (2032128)
I0418 16:42:09.648510  8760 layer_factory.hpp:74] Creating layer conv4_2_D
I0418 16:42:09.648526  8760 net.cpp:90] Creating Layer conv4_2_D
I0418 16:42:09.648532  8760 net.cpp:410] conv4_2_D <- conv4_3_D
I0418 16:42:09.648542  8760 net.cpp:368] conv4_2_D -> conv4_2_D
I0418 16:42:09.648551  8760 net.cpp:120] Setting up conv4_2_D
I0418 16:42:09.732055  8760 net.cpp:127] Top shape: 1 512 63 63 (2032128)
I0418 16:42:09.732089  8760 layer_factory.hpp:74] Creating layer conv4_2_D_bn
I0418 16:42:09.732138  8760 net.cpp:90] Creating Layer conv4_2_D_bn
I0418 16:42:09.732146  8760 net.cpp:410] conv4_2_D_bn <- conv4_2_D
I0418 16:42:09.732156  8760 net.cpp:357] conv4_2_D_bn -> conv4_2_D (in-place)
I0418 16:42:09.732167  8760 net.cpp:120] Setting up conv4_2_D_bn
I0418 16:42:09.732208  8760 net.cpp:127] Top shape: 1 512 63 63 (2032128)
I0418 16:42:09.732218  8760 layer_factory.hpp:74] Creating layer relu4_2_D
I0418 16:42:09.732229  8760 net.cpp:90] Creating Layer relu4_2_D
I0418 16:42:09.732234  8760 net.cpp:410] relu4_2_D <- conv4_2_D
I0418 16:42:09.732242  8760 net.cpp:357] relu4_2_D -> conv4_2_D (in-place)
I0418 16:42:09.732251  8760 net.cpp:120] Setting up relu4_2_D
I0418 16:42:09.733604  8760 net.cpp:127] Top shape: 1 512 63 63 (2032128)
I0418 16:42:09.733615  8760 layer_factory.hpp:74] Creating layer conv4_1_D
I0418 16:42:09.733626  8760 net.cpp:90] Creating Layer conv4_1_D
I0418 16:42:09.733631  8760 net.cpp:410] conv4_1_D <- conv4_2_D
I0418 16:42:09.733640  8760 net.cpp:368] conv4_1_D -> conv4_1_D
I0418 16:42:09.733659  8760 net.cpp:120] Setting up conv4_1_D
I0418 16:42:09.775599  8760 net.cpp:127] Top shape: 1 256 63 63 (1016064)
I0418 16:42:09.775624  8760 layer_factory.hpp:74] Creating layer conv4_1_D_bn
I0418 16:42:09.775656  8760 net.cpp:90] Creating Layer conv4_1_D_bn
I0418 16:42:09.775663  8760 net.cpp:410] conv4_1_D_bn <- conv4_1_D
I0418 16:42:09.775673  8760 net.cpp:357] conv4_1_D_bn -> conv4_1_D (in-place)
I0418 16:42:09.775683  8760 net.cpp:120] Setting up conv4_1_D_bn
I0418 16:42:09.775712  8760 net.cpp:127] Top shape: 1 256 63 63 (1016064)
I0418 16:42:09.775722  8760 layer_factory.hpp:74] Creating layer relu4_1_D
I0418 16:42:09.775729  8760 net.cpp:90] Creating Layer relu4_1_D
I0418 16:42:09.775734  8760 net.cpp:410] relu4_1_D <- conv4_1_D
I0418 16:42:09.775743  8760 net.cpp:357] relu4_1_D -> conv4_1_D (in-place)
I0418 16:42:09.775753  8760 net.cpp:120] Setting up relu4_1_D
I0418 16:42:09.778311  8760 net.cpp:127] Top shape: 1 256 63 63 (1016064)
I0418 16:42:09.778326  8760 layer_factory.hpp:74] Creating layer upsample3
I0418 16:42:09.778340  8760 net.cpp:90] Creating Layer upsample3
I0418 16:42:09.778357  8760 net.cpp:410] upsample3 <- conv4_1_D
I0418 16:42:09.778368  8760 net.cpp:410] upsample3 <- pool3_mask
I0418 16:42:09.778376  8760 net.cpp:368] upsample3 -> pool3_D
I0418 16:42:09.778385  8760 net.cpp:120] Setting up upsample3
I0418 16:42:09.778394  8760 net.cpp:127] Top shape: 1 256 125 125 (4000000)
I0418 16:42:09.778399  8760 layer_factory.hpp:74] Creating layer conv3_3_D
I0418 16:42:09.778409  8760 net.cpp:90] Creating Layer conv3_3_D
I0418 16:42:09.778414  8760 net.cpp:410] conv3_3_D <- pool3_D
I0418 16:42:09.778431  8760 net.cpp:368] conv3_3_D -> conv3_3_D
I0418 16:42:09.778451  8760 net.cpp:120] Setting up conv3_3_D
I0418 16:42:09.799571  8760 net.cpp:127] Top shape: 1 256 125 125 (4000000)
I0418 16:42:09.799590  8760 layer_factory.hpp:74] Creating layer conv3_3_D_bn
I0418 16:42:09.799607  8760 net.cpp:90] Creating Layer conv3_3_D_bn
I0418 16:42:09.799612  8760 net.cpp:410] conv3_3_D_bn <- conv3_3_D
I0418 16:42:09.799620  8760 net.cpp:357] conv3_3_D_bn -> conv3_3_D (in-place)
I0418 16:42:09.799628  8760 net.cpp:120] Setting up conv3_3_D_bn
I0418 16:42:09.799701  8760 net.cpp:127] Top shape: 1 256 125 125 (4000000)
I0418 16:42:09.799717  8760 layer_factory.hpp:74] Creating layer relu3_3_D
I0418 16:42:09.799727  8760 net.cpp:90] Creating Layer relu3_3_D
I0418 16:42:09.799732  8760 net.cpp:410] relu3_3_D <- conv3_3_D
I0418 16:42:09.799738  8760 net.cpp:357] relu3_3_D -> conv3_3_D (in-place)
I0418 16:42:09.799746  8760 net.cpp:120] Setting up relu3_3_D
I0418 16:42:09.800081  8760 net.cpp:127] Top shape: 1 256 125 125 (4000000)
I0418 16:42:09.800093  8760 layer_factory.hpp:74] Creating layer conv3_2_D
I0418 16:42:09.800104  8760 net.cpp:90] Creating Layer conv3_2_D
I0418 16:42:09.800109  8760 net.cpp:410] conv3_2_D <- conv3_3_D
I0418 16:42:09.800118  8760 net.cpp:368] conv3_2_D -> conv3_2_D
I0418 16:42:09.800127  8760 net.cpp:120] Setting up conv3_2_D
I0418 16:42:09.822396  8760 net.cpp:127] Top shape: 1 256 125 125 (4000000)
I0418 16:42:09.822420  8760 layer_factory.hpp:74] Creating layer conv3_2_D_bn
I0418 16:42:09.822438  8760 net.cpp:90] Creating Layer conv3_2_D_bn
I0418 16:42:09.822444  8760 net.cpp:410] conv3_2_D_bn <- conv3_2_D
I0418 16:42:09.822454  8760 net.cpp:357] conv3_2_D_bn -> conv3_2_D (in-place)
I0418 16:42:09.822463  8760 net.cpp:120] Setting up conv3_2_D_bn
I0418 16:42:09.822536  8760 net.cpp:127] Top shape: 1 256 125 125 (4000000)
I0418 16:42:09.822548  8760 layer_factory.hpp:74] Creating layer relu3_2_D
I0418 16:42:09.822556  8760 net.cpp:90] Creating Layer relu3_2_D
I0418 16:42:09.822561  8760 net.cpp:410] relu3_2_D <- conv3_2_D
I0418 16:42:09.822567  8760 net.cpp:357] relu3_2_D -> conv3_2_D (in-place)
I0418 16:42:09.822574  8760 net.cpp:120] Setting up relu3_2_D
I0418 16:42:09.823932  8760 net.cpp:127] Top shape: 1 256 125 125 (4000000)
I0418 16:42:09.823947  8760 layer_factory.hpp:74] Creating layer conv3_1_D
I0418 16:42:09.823964  8760 net.cpp:90] Creating Layer conv3_1_D
I0418 16:42:09.823971  8760 net.cpp:410] conv3_1_D <- conv3_2_D
I0418 16:42:09.823977  8760 net.cpp:368] conv3_1_D -> conv3_1_D
I0418 16:42:09.823985  8760 net.cpp:120] Setting up conv3_1_D
I0418 16:42:09.835227  8760 net.cpp:127] Top shape: 1 128 125 125 (2000000)
I0418 16:42:09.835249  8760 layer_factory.hpp:74] Creating layer conv3_1_D_bn
I0418 16:42:09.835261  8760 net.cpp:90] Creating Layer conv3_1_D_bn
I0418 16:42:09.835268  8760 net.cpp:410] conv3_1_D_bn <- conv3_1_D
I0418 16:42:09.835276  8760 net.cpp:357] conv3_1_D_bn -> conv3_1_D (in-place)
I0418 16:42:09.835285  8760 net.cpp:120] Setting up conv3_1_D_bn
I0418 16:42:09.835357  8760 net.cpp:127] Top shape: 1 128 125 125 (2000000)
I0418 16:42:09.835371  8760 layer_factory.hpp:74] Creating layer relu3_1_D
I0418 16:42:09.835381  8760 net.cpp:90] Creating Layer relu3_1_D
I0418 16:42:09.835386  8760 net.cpp:410] relu3_1_D <- conv3_1_D
I0418 16:42:09.835393  8760 net.cpp:357] relu3_1_D -> conv3_1_D (in-place)
I0418 16:42:09.835400  8760 net.cpp:120] Setting up relu3_1_D
I0418 16:42:09.835733  8760 net.cpp:127] Top shape: 1 128 125 125 (2000000)
I0418 16:42:09.835747  8760 layer_factory.hpp:74] Creating layer upsample2
I0418 16:42:09.835755  8760 net.cpp:90] Creating Layer upsample2
I0418 16:42:09.835759  8760 net.cpp:410] upsample2 <- conv3_1_D
I0418 16:42:09.835768  8760 net.cpp:410] upsample2 <- pool2_mask
I0418 16:42:09.835775  8760 net.cpp:368] upsample2 -> pool2_D
I0418 16:42:09.835783  8760 net.cpp:120] Setting up upsample2
I0418 16:42:09.835788  8760 upsample_layer.cpp:31] Params 'pad_out_{}_' are deprecated. Please declare upsample height and width useing the upsample_h, upsample_w parameters.
I0418 16:42:09.835798  8760 net.cpp:127] Top shape: 1 128 250 250 (8000000)
I0418 16:42:09.835803  8760 layer_factory.hpp:74] Creating layer conv2_2_D
I0418 16:42:09.835810  8760 net.cpp:90] Creating Layer conv2_2_D
I0418 16:42:09.835814  8760 net.cpp:410] conv2_2_D <- pool2_D
I0418 16:42:09.835822  8760 net.cpp:368] conv2_2_D -> conv2_2_D
I0418 16:42:09.835830  8760 net.cpp:120] Setting up conv2_2_D
I0418 16:42:09.842028  8760 net.cpp:127] Top shape: 1 128 250 250 (8000000)
I0418 16:42:09.842046  8760 layer_factory.hpp:74] Creating layer conv2_2_D_bn
I0418 16:42:09.842062  8760 net.cpp:90] Creating Layer conv2_2_D_bn
I0418 16:42:09.842068  8760 net.cpp:410] conv2_2_D_bn <- conv2_2_D
I0418 16:42:09.842077  8760 net.cpp:357] conv2_2_D_bn -> conv2_2_D (in-place)
I0418 16:42:09.842085  8760 net.cpp:120] Setting up conv2_2_D_bn
I0418 16:42:09.842320  8760 net.cpp:127] Top shape: 1 128 250 250 (8000000)
I0418 16:42:09.842335  8760 layer_factory.hpp:74] Creating layer relu2_2_D
I0418 16:42:09.842344  8760 net.cpp:90] Creating Layer relu2_2_D
I0418 16:42:09.842350  8760 net.cpp:410] relu2_2_D <- conv2_2_D
I0418 16:42:09.842356  8760 net.cpp:357] relu2_2_D -> conv2_2_D (in-place)
I0418 16:42:09.842362  8760 net.cpp:120] Setting up relu2_2_D
I0418 16:42:09.843011  8760 net.cpp:127] Top shape: 1 128 250 250 (8000000)
I0418 16:42:09.843044  8760 layer_factory.hpp:74] Creating layer conv2_1_D
I0418 16:42:09.843060  8760 net.cpp:90] Creating Layer conv2_1_D
I0418 16:42:09.843065  8760 net.cpp:410] conv2_1_D <- conv2_2_D
I0418 16:42:09.843072  8760 net.cpp:368] conv2_1_D -> conv2_1_D
I0418 16:42:09.843080  8760 net.cpp:120] Setting up conv2_1_D
I0418 16:42:09.846583  8760 net.cpp:127] Top shape: 1 64 250 250 (4000000)
I0418 16:42:09.846599  8760 layer_factory.hpp:74] Creating layer conv2_1_D_bn
I0418 16:42:09.846616  8760 net.cpp:90] Creating Layer conv2_1_D_bn
I0418 16:42:09.846621  8760 net.cpp:410] conv2_1_D_bn <- conv2_1_D
I0418 16:42:09.846631  8760 net.cpp:357] conv2_1_D_bn -> conv2_1_D (in-place)
I0418 16:42:09.846638  8760 net.cpp:120] Setting up conv2_1_D_bn
I0418 16:42:09.846868  8760 net.cpp:127] Top shape: 1 64 250 250 (4000000)
I0418 16:42:09.846882  8760 layer_factory.hpp:74] Creating layer relu2_1_D
I0418 16:42:09.846891  8760 net.cpp:90] Creating Layer relu2_1_D
I0418 16:42:09.846896  8760 net.cpp:410] relu2_1_D <- conv2_1_D
I0418 16:42:09.846904  8760 net.cpp:357] relu2_1_D -> conv2_1_D (in-place)
I0418 16:42:09.846911  8760 net.cpp:120] Setting up relu2_1_D
I0418 16:42:09.847285  8760 net.cpp:127] Top shape: 1 64 250 250 (4000000)
I0418 16:42:09.847297  8760 layer_factory.hpp:74] Creating layer upsample1
I0418 16:42:09.847306  8760 net.cpp:90] Creating Layer upsample1
I0418 16:42:09.847316  8760 net.cpp:410] upsample1 <- conv2_1_D
I0418 16:42:09.847321  8760 net.cpp:410] upsample1 <- pool1_mask
I0418 16:42:09.847327  8760 net.cpp:368] upsample1 -> pool1_D
I0418 16:42:09.847335  8760 net.cpp:120] Setting up upsample1
I0418 16:42:09.847340  8760 upsample_layer.cpp:31] Params 'pad_out_{}_' are deprecated. Please declare upsample height and width useing the upsample_h, upsample_w parameters.
I0418 16:42:09.847348  8760 net.cpp:127] Top shape: 1 64 500 500 (16000000)
I0418 16:42:09.847352  8760 layer_factory.hpp:74] Creating layer conv1_2_D
I0418 16:42:09.847363  8760 net.cpp:90] Creating Layer conv1_2_D
I0418 16:42:09.847368  8760 net.cpp:410] conv1_2_D <- pool1_D
I0418 16:42:09.847375  8760 net.cpp:368] conv1_2_D -> conv1_2_D
I0418 16:42:09.847383  8760 net.cpp:120] Setting up conv1_2_D
I0418 16:42:09.849979  8760 net.cpp:127] Top shape: 1 64 500 500 (16000000)
I0418 16:42:09.849995  8760 layer_factory.hpp:74] Creating layer conv1_2_D_bn
I0418 16:42:09.850009  8760 net.cpp:90] Creating Layer conv1_2_D_bn
I0418 16:42:09.850015  8760 net.cpp:410] conv1_2_D_bn <- conv1_2_D
I0418 16:42:09.850024  8760 net.cpp:357] conv1_2_D_bn -> conv1_2_D (in-place)
I0418 16:42:09.850033  8760 net.cpp:120] Setting up conv1_2_D_bn
I0418 16:42:09.850893  8760 net.cpp:127] Top shape: 1 64 500 500 (16000000)
I0418 16:42:09.850908  8760 layer_factory.hpp:74] Creating layer relu1_2_D
I0418 16:42:09.850915  8760 net.cpp:90] Creating Layer relu1_2_D
I0418 16:42:09.850924  8760 net.cpp:410] relu1_2_D <- conv1_2_D
I0418 16:42:09.850932  8760 net.cpp:357] relu1_2_D -> conv1_2_D (in-place)
I0418 16:42:09.850939  8760 net.cpp:120] Setting up relu1_2_D
I0418 16:42:09.851303  8760 net.cpp:127] Top shape: 1 64 500 500 (16000000)
I0418 16:42:09.851316  8760 layer_factory.hpp:74] Creating layer conv1_1_D-v2
I0418 16:42:09.851331  8760 net.cpp:90] Creating Layer conv1_1_D-v2
I0418 16:42:09.851337  8760 net.cpp:410] conv1_1_D-v2 <- conv1_2_D
I0418 16:42:09.851346  8760 net.cpp:368] conv1_1_D-v2 -> conv1_1_D
I0418 16:42:09.851356  8760 net.cpp:120] Setting up conv1_1_D-v2
I0418 16:42:09.852974  8760 net.cpp:127] Top shape: 1 21 500 500 (5250000)
I0418 16:42:09.852991  8760 layer_factory.hpp:74] Creating layer loss-v2
I0418 16:42:09.853004  8760 net.cpp:90] Creating Layer loss-v2
I0418 16:42:09.853010  8760 net.cpp:410] loss-v2 <- conv1_1_D
I0418 16:42:09.853016  8760 net.cpp:410] loss-v2 <- label
I0418 16:42:09.853034  8760 net.cpp:368] loss-v2 -> loss
I0418 16:42:09.853045  8760 net.cpp:120] Setting up loss-v2
I0418 16:42:09.853061  8760 layer_factory.hpp:74] Creating layer loss-v2
…
